weights/adversarial_CT/CRR_adversarial_for_CT.pt (torch, 57875 bytes, 4 tensors)

scaling f4 [1, 64, 1, 1]
00000000: 1590 6140 870c 9040 75f6 8d40 5a48 9840
00000010: 3f85 9740 6436 aa40 4fd1 8a40 74f7 9f40
00000020: da1e 8c40 bacf 8740 3f0c 8540 8259 8a40
00000030: 1e30 8540 21bc 8740 cf29 8740 7734 8f40
00000040: e9e1 6740 9817 a540 8026 9f40 659e a240
00000050: 6ac9 8440 592b 8840 0326 9240 2df4 8b40
00000060: 382d 8840 75e5 9440 f1b3 a640 2524 9840
00000070: 7f6b 9540 66ce 9840 2df1 8940 3c3a 9540
00000080: 35d2 ad40 83f6 8f40 c798 8440 1330 8040
00000090: 5a88 a240 7b34 8f40 ac5e 8640 bcb2 9d40
000000a0: a3a6 9c40 82da 9440 8996 8b40 67f5 8b40
000000b0: 96be a040 14fa 8b40 776c 9340 b0e1 9a40
000000c0: 6968 8d40 e1c5 8640 9f52 9f40 7cee a540
000000d0: 293e 9640 eb99 c840 e68d 8f40 a1e6 9940
000000e0: d4fd 9040 3cfe 9640 29fd 8c40 0ce4 a740
000000f0: 8bc3 a340 cb63 8a40 6dea 9e40 4340 9140
3.524419 4.501529 4.436335 4.758832 4.7350154 5.3191395 4.3380504 4.9989567
4.378766 4.2441072 4.157745 4.3234262 4.1621237 4.241715 4.2238536 4.4751544
3.6231635 5.15913 4.9734497 5.0818353 4.1495867 4.2552915 4.56714 4.3735566
4.25552 4.65301 5.2094655 4.754412 4.669372 4.775195 4.3106904 4.6633587
5.43191 4.498842 4.1436496 4.0058684 5.0791445 4.4751563 4.1990566 4.928068
4.8953414 4.6516733 4.362126 4.3737063 5.023265 4.374277 4.6069903 4.8400497
4.4189954 4.211655 4.9788356 5.185362 4.695088 6.268789 4.4860716 4.809403
4.530985 4.7185345 4.4059033 5.2465878 5.11762 4.3246818 4.9661164 4.5390944

filters.0.parametrizations.weight.original f4 [4, 1, 5, 5]
00000000: 2357 2cbe 05a2 b1bd e277 0dbe 97db 2c3e
00000010: 6796 4c3d b17e 6bbe d345 043e 6cd8 3b3e
00000020: be9a 8b3d 9b84 0abe 431c b6be 7f84 b0be
00000030: 717e db3e d6af 133e 3f36 b83b e5d7 123d
00000040: ed03 f7be 460b fd3d 8334 64bd 73d5 22be
00000050: 260a 743e bde9 c6be 73d5 5fbe 127c d0bb
00000060: 417a 923d 6cba c03c 6477 823d f88a ed3e
00000070: a61e a03e 5714 edbe 8338 773e ee89 163e
00000080: 013b a23d dbfd 9c3e d846 613d 9571 033d
00000090: 1f77 973e ba38 2c3e b7e9 973d 77d3 cfbd
000000a0: c40f 38bd 5344 35be 22c3 40be f32e aabe
000000b0: 775b 6f3d eb9f 1c3d ab46 9e3c d132 b8bd
000000c0: 3c1e d1bd bf36 623e d38a efbd 43db dbbd
000000d0: dcfd 5b3e 63db bc3d a057 71bd 2a16 83be
000000e0: 522d 8a3d 97b8 a13f 2d37 863e 8445 21be
000000f0: eb3d 073e 464a 88bc 406d 5dc0 f16c 7f3e
00000100: 66f1 29be dd87 fcbd 7892 773d fbcb ef3e
00000110: 505b 9dbe 1a70 a3bd 5ec8 55bd c460 e4bd
00000120: 78da a63d 40f4 4dbe 4b7a b7bd 2b0b 563e
00000130: f94d a03c 286e c9bd a4e2 3f3e 8ef7 b0be
00000140: bf64 dc3d 854a e83e bcd1 91bd dc58 5f3c
00000150: 87f1 f03e 47ab 73bc eddc dc3d 3d6b a0bf
00000160: 59b8 523f 84b7 093e a3eb 03be 245a 31be
00000170: eba6 99bd 369d 923e 50aa 263b 9749 113c
00000180: 0126 07be 09a3 f4bc 1886 aa3d 109f 2e3d
-0.16830115 -0.08673481 -0.13815263 0.16880642 0.049948122 -0.22997548 0.12917261 0.18344277
0.06816624 -0.13527147 -0.35568437 -0.34476086 0.42869905 0.14422545 0.005621701 0.035850424
-0.48245183 0.12355666 -0.05571414 -0.15901737 0.23831996 -0.38850203 -0.21858768 -0.0063624466
0.07152224 0.023526393 0.06370428 0.46395087 0.31273383 -0.4630458 0.24142651 0.14701054
0.0792141 0.30662426 0.054999202 0.032090742 0.2958307 0.16818514 0.074176244 -0.101477556
-0.04493691 -0.17701845 -0.18824437 -0.33238944 0.058436837 0.038238447 0.019320806 -0.089940675
-0.10210845 0.22091196 -0.116964005 -0.1073518 0.21483558 0.09221532 -0.058921456 -0.25602847
0.067469254 1.2634457 0.2621397 -0.15749174 0.13207214 -0.016636979 -3.459793 0.24943902
-0.16595992 -0.12330601 0.060442418 0.46835312 -0.30733728 -0.07980366 -0.05219304 -0.11151269
0.08147138 -0.20112705 -0.089588724 0.20902698 0.01956843 -0.09835464 0.187388 -0.3456387
0.10761403 0.45369354 -0.07120082 0.013632026 0.4705927 -0.014872379 0.10784326 -1.2532727
0.8231254 0.13448912 -0.12882857 -0.17319542 -0.0750254 0.28635567 0.0025431104 0.008867643
-0.13198091 -0.029862897 0.083263576 0.042632163

filters.1.weight f4 [8, 4, 5, 5]
00000000: d18f 2bbe ca92 ce3d f6e5 15be a1ff 4cbd
00000010: 031f 05be fe78 583d 68a4 943e 5514 813c
00000020: b00a 083e e7cb c03e 6fe4 763e 76e6 9f39
00000030: 37c1 fabd c384 b5bb 2867 11bc 7640 353e
00000040: e043 f9bc 127a 36be e869 973e c662 29bd
00000050: fccb febd 23fe 153d 2693 3abe 7064 c33d
00000060: 5ad9 adbe c9f9 8d3e 05ff b9be 8673 32bf
00000070: d3c9 afbd 3c51 523e 5c67 74be 0dbd 73bd
00000080: d568 643f e910 7d3e 7b35 09be 2a42 ffbe
00000090: 2835 6b3e 2ea4 94bd b88e 8b3e 0228 11be
000000a0: 6130 573d 58a7 a9be 4d4e 54be 0d77 82be
000000b0: 469a bbbc b0f8 9abd 2bad ec3e f2d7 63be
000000c0: 9f0b fcbd c8c7 303e 6736 5abe c4e3 983e
000000d0: 4d6a e23e 789f debd ee3e 243d 6d8f df3d
000000e0: ee26 383f 1f0b 22c0 16bb c43e 1c41 28be
000000f0: bebf fc3e b7f6 ac3d c508 2f3f c693 fe3c
00000100: 251d a7be 3206 183e 542a 34bf 4ca9 73be
00000110: c5d6 33bf acac 0abe df64 2dbe 591b 3a3e
00000120: 69b8 643e 5780 52be 5d44 483e d5fa 03be
00000130: f87f fa3e 2351 243e f98c 9ebd d565 493e
00000140: 8978 643e af47 1b3f 3daf 80be 2544 093f
00000150: 427a 9c3c d237 1b3f a75f 86be 1328 fc3e
00000160: 6118 b73d 3b13 50be e639 ad3e ff3a cdbe
00000170: c3cc 4f3d 8467 27bf cf44 eebd 7c18 99be
00000180: cd9e 5d3e 6432 0a3e 7ec9 2cbe a489 c23e
00000190: 7cc3 ff3b 07ff 9c3e a984 ba3e c6c8 233f
000001a0: 1554 293f ae21 a6bd 7f87 a93d 2770 383e
000001b0: 6583 e13e bd8e 1e3e ac48 dabd 6fcb f0bb
000001c0: b9de e1bd 1cac 3b3e 2ca2 ae3d 3979 a93e
000001d0: 9fcd 433e 2b32 63bd 4b34 8abd d0f1 313e
000001e0: 0346 5abe baed 11bc 4581 02be ac45 e6be
000001f0: eef3 d93c 61b0 423e 83be 93bc 0e9a 5b3e
00000200: 1e18 dd3e 8c3b 993e 2808 babe 9273 3a3e
00000210: acc5 cb3e e311 e43d 12b7 03bc f594 d5bd
00000220: f395 383e 7827 093c b72f d0bd 0c4a ebbd
00000230: ec73 d0bd dae4 e93d be6c 853e e739 d4bd
00000240: b22e b7be 80d3 35be b967 003e 78b7 b33d
00000250: a9bc 4f3e 9a17 9e3e c3c7 4bbd 780b a23d
00000260: 7d6c bebe 9e77 39be d77a b6bd 0d53 aa3e
00000270: 1240 0f3e f4a4 59be 33a9 e6be 5c12 8d3d
00000280: d9eb dbbe a572 df3e 0728 813e c154 67bd
00000290: 275d 1ebe 4ae7 bb3e 3091 923e 1458 083f
000002a0: de80 dfbd 0d3b 39bf 936e 61be bcd8 9ebd
000002b0: ce26 813e 88c1 013f a57f b73e 831f d5bd
000002c0: d6a6 5ebc 9afc 1b3d 0771 063c 79e4 a5bd
000002d0: 4050 8e3c 5aa1 693e 3a49 ac3d fe5e 8c3e
000002e0: 9f8b 9dbe 113e 2ebe 2f57 613e aaa6 df3c
000002f0: 3dce 34be 3f95 593d 18fe a93e d2dd 833d
00000300: d36e 543e a7ab c3bd 2f64 763d c60f 273e
00000310: af6c 9f3d bf89 48be f302 913e 92cb f23d
00000320: e5e1 a13d 45f3 19bc 1f7f a73e 7b56 c03b
00000330: c59f 5fbd eef9 1d3e 1cb7 19be 70e8 a73d
00000340: 7a04 d13d 7778 b6bd a24d 043e 8c8f 71be
00000350: c591 a83c c990 073e e553 763e c2d7 98bd
00000360: f145 98be 3116 8e3c 05a9 023f aba7 633d
00000370: 94c5 9abd 6797 4b3e 78f3 0dbe f52d d23e
00000380: 69ca 863d 3e1f 83be 1503 d93e 446e 9cbd
00000390: c19a edbd 9cdb 9e3e 0c5a 3fbe f5c9 8ebd
000003a0: f7c6 ed3e 0e91 2fbe cbf4 88be 8ecd a33e
000003b0: 6fb2 113e 5d2b 9abd a702 21bf 1a42 1b3e
000003c0: cbfe 323d dfe9 46bd 5ff4 893d 453e 4e3d
000003d0: 9df6 2dbd 810a cbbe 706c a13e 4ddf 203e
000003e0: 60e2 36be 5c9d 913d 30b9 243e 1b5b 15be
000003f0: c9fe fd3e 1c67 24be 7f5b e0be b12e 43be
-0.1675408 0.100865915 -0.14638504 -0.050048474 -0.13000111 0.052849762 0.29031682 0.015756765
0.13285327 0.37655565 0.24110578 0.0003049855 -0.12243884 -0.005539508 -0.008874692 0.17700371
-0.030427873 -0.17820004 0.29572988 -0.041353963 -0.12441251 0.036619317 -0.18220195 0.09540641
-0.3395489 0.27729633 -0.36327377 -0.69707525 -0.08583417 0.20538801 -0.23867553 -0.059506465
0.8922246 0.24713482 -0.13399307 -0.49855167 0.22969496 -0.07257877 0.27257323 -0.14175418
0.052536372 -0.33135486 -0.20732994 -0.25481454 -0.022900712 -0.075669646 0.46225867 -0.22250345
-0.12306904 0.1726371 -0.21309815 0.2986127 0.44221726 -0.1087026 0.040099077 0.10916028
0.719344 -2.5319288 0.38423985 -0.16431087 0.49365038 0.084454946 0.68372756 0.031076323
-0.32639423 0.14846113 -0.7037709 -0.2379505 -0.7024959 -0.13542432 -0.1693301 0.18174495
0.22335972 -0.2055677 0.19557329 -0.12888654 0.48925757 0.16046576 -0.07741732 0.19667752
0.22311606 0.60656255 -0.25133696 0.53619605 0.019101266 0.6063205 -0.26244852 0.49249324
0.08940197 -0.20319836 0.33833236 -0.40084073 0.050732385 -0.6539233 -0.11634218 -0.29901493
0.21642609 0.13495785 -0.16873738 0.37995636 0.007805286 0.3066332 0.36429337 0.6397823
0.66143924 -0.08111893 0.08277797 0.18011533 0.4404556 0.15484138 -0.10658392 -0.00734847
-0.11028809 0.18327373 0.085270256 0.33100298 0.19121407 -0.055467766 -0.06748255 0.173774
-0.2131577 -0.008906776 -0.12744625 -0.4497503 0.026605573 0.19012596 -0.018035179 0.21445486
0.43182462 0.29928243 -0.36334348 0.18208149 0.3979925 0.11136224 -0.008039253 -0.10428802
0.18025951 0.0083712265 -0.10165351 -0.11488733 -0.1017836 0.11420603 0.26059526 -0.103626065
-0.35777813 -0.17756462 0.12539567 0.08775228 0.20286812 0.30877382 -0.049751054 0.07912344
-0.37192145 -0.18112037 -0.089101486 0.33266488 0.13989285 -0.21254331 -0.45050964 0.068882674
-0.42953375 0.43642154 0.2522585 -0.056477312 -0.15465222 0.36699897 0.28626394 0.53259397
-0.10913251 -0.7235573 -0.22014837 -0.077561826 0.25224918 0.5068593 0.35839573 -0.10406401
-0.0135895815 0.038082696 0.008205659 -0.08100218 0.01737225 0.22815457 0.08412404 0.27416223
-0.30770585 -0.17015864 0.22005914 0.027301151 -0.17656799 0.053120848 0.3320167 0.06438793
0.20745401 -0.095542245 0.060154136 0.16314611 0.077844016 -0.19583796 0.28322563 0.11855234
0.07904414 -0.009396379 0.32714173 0.0058696843 -0.054595727 0.15427372 -0.15011257 0.08198631
0.10205932 -0.089096956 0.1292024 -0.23589915 0.02057732 0.13238825 0.2405544 -0.074630275
-0.2974086 0.017344566 0.51039153 0.055579823 -0.07557216 0.19881974 -0.13862407 0.41050687
0.065815754 -0.25609773 0.42385164 -0.07638219 -0.116017826 0.31026924 -0.18686694 -0.06972114
0.4644086 -0.17145178 -0.26749262 0.31992763 0.14228223 -0.07527802 -0.6289467 0.15161934
0.04370002 -0.04856288 0.06736063 0.050352354 -0.042471517 -0.3965645 0.31528044 0.15710182
-0.17859793 0.07110092 0.16086268 -0.14585535 0.49608448 -0.16054958 -0.43819806 -0.1906078

filters.2.weight f4 [64, 8, 5, 5]
00000000: a7b0 a8bd a129 02be ccad 293e 7af4 2e3f
00000010: 355e 453e 96bb 753c 65f6 0e3e b0dc 163f
00000020: 3e92 413f f6fc eb3e 5cae be3d 81d8 863e
00000030: a496 fe3e e8a6 a83e e345 3fbd b74e a33b
00000040: 2b92 d3bd c32d 2bbd 61bd 5cbc b952 90be
00000050: 3f78 34be 0d40 b8be 919a 9bbe f26b c2bd
00000060: 07a4 53be 34f6 1d3f d10f 1b3f 4658 03be
00000070: ed30 3dbd 5b9c 6bbe e75a 5b3f 9082 dc3e
00000080: 2433 eb3d 807f 8d3e 8798 cbbe dc3a 213f
00000090: a2b1 b73e 7dd0 1e3f 426a 84be 370a 0dbf
000000a0: 307c 683e 1830 80bc d4b5 5fbe 24f3 28bf
000000b0: 89ba 6fbe a16d 333d 4a25 7cbe 829f 25bf
000000c0: a762 1cbf 9b7c 68bd da3a d13e fcbf e23e
000000d0: 4727 afbc f0ee 0dbe c970 a93d 21c8 a2bc
000000e0: 3698 1bbe 1404 0bbd c515 8ebe d988 43be
000000f0: 4a65 80be 57d6 9fbe 0734 923c d958 213d
00000100: fcc9 4b3e f223 47be 816c 1ebe 8265 703d
00000110: 6962 c43e d9e2 003f b2e5 633d c969 4d3e
00000120: 8c25 363e d500 293d d709 813e 82d3 d6bd
00000130: 6f89 a93e 6529 df3e 83cb 4f3d bdce 3a3d
00000140: d644 8f3e 38cd 3d3f 3531 333f 26dd 6a3e
00000150: 4681 fabc c95c 8d3e a313 943e 1224 4c3e
00000160: 31b5 243e 5948 cebe fd95 443d 5606 90be
00000170: 5998 b4be 14c5 93be 20e3 80be 0db8 afbe
00000180: 01a1 38bf eeb0 59bf b3a9 02bf 69cb babe
00000190: f424 723d 6e8f cabe 9767 0ebc b402 04be
000001a0: 42eb 573d 6325 9c3e 517a 31be 37bc 463d
000001b0: 6748 b03e 6d66 4d3e de1a d0bc 5549 d7bd
000001c0: ef18 783d a46b 093f cd59 ee3e 1a33 7e3b
000001d0: c1ee 09bf ef30 6abe e05c a23e 581b f93e
000001e0: e09b 87bd 13c8 a1be d1db dd3d 59c5 003e
000001f0: 7d4f b53e ac2e 543e 499f 6f3f b5fe 963e
00000200: 4c95 313c 5e67 f1be 0705 a03e 04f4 90be
00000210: 9d52 5fbe ab96 e5be 32f5 cdbe 830f 873e
00000220: 6387 96bd 2dec 3fbe fc51 17be 7b40 7abe
00000230: 32fd fb3d 7c0b b53e ab14 06be b106 aabd
00000240: 49db abbd 6ab8 283e cccd 1d3e ef3e 75be
00000250: 6698 94bc e3c0 9b3e a11b aebd f35d 8a3e
00000260: bb1b 273f 10d4 ef3e 9d33 9c3e acd4 ecbc
00000270: 68fe 863c fe1e 693e 24a8 173f bd85 a93e
00000280: bc52 09bf eca7 f4be aa73 27be a4f6 05be
00000290: 8d14 fd3d aae4 47bf a10f 34bf 93fb 8dbe
000002a0: c50f 3bbe 37f5 f23d d04a 19bf 8c77 d4be
000002b0: 3d58 d6be bfa1 eabe bd42 3ebe b581 933e
000002c0: 423c e83e 6900 84be ad5e 4cbf 392a 3bbd
000002d0: 7dee d53d fb7c 933e 660a 39be 064a 22be
000002e0: 0e3a efbd 1524 a13e c102 d63e 4ef1 9c3e
000002f0: 178b 04be 6541 b7be bc71 9d3e 6f56 c63e
00000300: 6fbe 133f d7f4 4cbe fd60 c5be 9d01 afbd
00000310: 96f8 d03d f537 44bd 0831 ec3c 4870 d9bd
00000320: 23a6 21be 0c41 58be 3033 d03e baf0 333d
00000330: f25f 1fbd 095f eabe 3a28 babe 223c cdbd
00000340: 3fa8 edbd d779 58bb deb2 553e b111 2abd
00000350: 4615 e13e fa98 543c 49a4 113e 698f 1f3f
00000360: 5aeb 7b3f a08f db3e b756 f83d 5a29 133f
00000370: c246 173d 48e6 103d 9b6b 603e f53e 823c
00000380: c6c9 6c3d 7df0 35bf ef8c a5be 0ea1 3e3b
00000390: e1a6 a23e 8d3c 773e 8427 42bf f0ef b6bd
000003a0: b9b6 d3bd b8e6 153e c8db 8bbd c5be 0e3e
000003b0: 23fc 603e cbbc f33e 1f60 b63e 0836 ab3e
000003c0: 0c28 29be ea08 bebe f63a a83e f801 e33d
000003d0: 0ccf dbbe b554 a1be d00d 11be 245d 8cbe
000003e0: ac2d 1ebf f95f 94be 3e68 973e 5810 623f
000003f0: da7c 16bd fdc0 fc3e 5bd4 2c3e 4461 b53e
-0.08236819 -0.12711193 0.16570204 0.6834179 0.19274218 0.014998337 0.1396118 0.5893049
0.7561377 0.4609143 0.093106 0.26337054 0.49724305 0.3293984 -0.04669751 0.004983749
-0.10330614 -0.04179169 -0.013472886 -0.28188112 -0.17623995 -0.35986367 -0.30391362 -0.09493245
-0.2066804 0.617038 0.6057101 -0.12826642 -0.046189237 -0.23008864 0.8568558 0.4306836
0.11484364 0.27636337 -0.39764807 0.6298044 0.3587771 0.6203688 -0.25862318 -0.5509371
0.22703624 -0.015647933 -0.21846706 -0.65996003 -0.23411001 0.043805722 -0.246236 -0.64696515
-0.6108803 -0.056759458 0.40865213 0.44287097 -0.021381034 -0.13860679 0.08273465 -0.01987082
-0.15194783 -0.033939436 -0.27750984 -0.19095172 -0.25077277 -0.31218216 0.017847074 0.039391372
0.1990127 -0.19447306 -0.15471078 0.058690555 0.3835633 0.5034614 0.055638976 0.20059885
0.1778776 0.04126056 0.2520282 -0.10489561 0.33112666 0.4358627 0.050731193 0.045607317
0.27982205 0.74141264 0.6999696 0.22935924 -0.03057922 0.27609852 0.28921232 0.19935635
0.16084744 -0.40289572 0.047994602 -0.28129834 -0.35272482 -0.28861296 -0.25173283 -0.34320107
-0.7212067 -0.850356 -0.5104019 -0.36483315 0.059117272 -0.39562553 -0.00869169 -0.12891656
0.052714594 0.30497274 -0.17331816 0.04851934 0.3443024 0.20058604 -0.025403436 -0.10512034
0.060570654 0.5367987 0.46552888 0.0038787783 -0.53879935 -0.22870229 0.31711483 0.48653674
-0.06621528 -0.31597957 0.10832942 0.12575282 0.35412207 0.20720929 0.93602425 0.294912
0.010838818 -0.47149175 0.31253836 -0.2831117 -0.21808858 -0.44841513 -0.40226132 0.26379022
-0.07350042 -0.18742438 -0.14777368 -0.2443866 0.123041525 0.35360324 -0.13093822 -0.083020575
-0.08391435 0.16476598 0.15410537 -0.23949789 -0.018139075 0.30420598 -0.085013635 0.27024803
0.6527669 0.46841478 0.30508128 -0.028910004 0.016478732 0.22765729 0.5924094 0.33109847
-0.5364187 -0.47784364 -0.16352716 -0.13082367 0.123574354 -0.7808329 -0.7033635 -0.27730998
-0.18267734 0.11863177 -0.5987978 -0.41497457 -0.41864195 -0.45826527 -0.18580146 0.28809896
0.45358473 -0.25781563 -0.79831964 -0.045694564 0.10445879 0.2880629 -0.18070373 -0.1584855
-0.11680995 0.3147284 0.41798976 0.3065285 -0.12943684 -0.3579208 0.30750835 0.3873782
0.57712454 -0.20015274 -0.3855056 -0.085452296 0.10203664 -0.047904927 0.028831974 -0.10617119
-0.15786032 -0.21118563 0.40664053 0.043930747 -0.03890986 -0.4577563 -0.36358815 -0.10021235
-0.11604356 -0.0033031607 0.20869014 -0.041520778 0.43961543 0.012975926 0.14222826 0.623282
0.98405993 0.42883015 0.121259145 0.5748497 0.036932714 0.035375863 0.21916048 0.01589916
0.057809614 -0.7107008 -0.32334086 0.0029087695 0.31767944 0.24144192 -0.75841546 -0.08932483
-0.10337586 0.14638793 -0.06829029 0.1393996 0.21971183 0.47604975 0.3562021 0.3343966
-0.16519183 -0.37116176 0.32857484 0.1108436 -0.42931402 -0.3150994 -0.14165425 -0.2741481
-0.6178844 -0.2897947 0.29571718 0.8830619 -0.03674016 0.49365988 0.16877882 0.3542577
