weights/adversarial_CT/WCRR_adversarial_for_CT_fitted.pt (torch, 58689 bytes, 4 tensors)

regularizer.scaling f4 [1, 64, 1, 1]
00000000: 6ae5 8640 32cb 9540 60b8 9a40 996a a440
00000010: 6660 8840 5ad6 9a40 6493 9b40 e0e6 0940
00000020: f99b 9440 25bc 78c0 d824 2740 e3ee a040
00000030: 86d9 6dc0 b4d5 73c0 9aae 84c0 b6c0 9140
00000040: 9b17 9540 fa01 4240 4c0b 4240 ca60 9f40
00000050: 742c 9340 63be a140 ae4d 5c40 582f 2140
00000060: f778 77c0 6020 9340 281c 9d40 37a3 9940
00000070: ff3b 9940 6f56 9540 86de 9d40 3d70 9440
00000080: ab0d 7340 4d8a 7a40 e1bf 9040 4938 a340
00000090: 519d a140 9699 9840 5642 3340 9746 a340
000000a0: 998a 8c40 7746 8640 e817 a240 8ba9 9840
000000b0: bd48 9240 7d5e 6f40 09db 9e40 8ee6 9640
000000c0: 0612 9e40 5027 9f40 7a13 ec40 3992 8e40
000000d0: bdff 9740 6492 a240 3de7 74c0 ac7c 6a40
000000e0: f6b0 1040 2809 9d40 56ad a940 caa0 9040
000000f0: 6f51 9d40 742f 4540 eb95 a440 025d 9f40
4.2155046 4.681054 4.8350067 5.1380124 4.2617674 4.838666 4.861742 2.1547165
4.6440396 -3.8864834 2.6116238 5.029161 -3.7164016 -3.8099184 -4.1463137 4.5547743
4.6591315 3.0313706 3.0319395 4.980565 4.5991764 5.0544906 3.4422412 2.5185146
-3.866758 4.597702 4.909687 4.8011737 4.7885737 4.666801 4.9334135 4.638701
3.7977092 3.9146912 4.5234227 5.1006207 5.0504537 4.7687483 2.8009238 5.102367
4.3919187 4.1961017 5.0654182 4.770696 4.571379 3.740142 4.9642377 4.715644
4.9397 4.973549 7.3773775 4.4553494 4.749968 5.08037 -3.8266137 3.6638594
2.2608008 4.9073677 5.302409 4.5196276 4.9161906 3.0810213 5.1433005 4.9801035

regularizer.filters.0.parametrizations.weight.original f4 [4, 1, 5, 5]
00000000: ec9b 2bbe 4591 72bf a520 f13e e7ce ef3e
00000010: e57d 69be ca1b 5dbe 336a 763e f7e7 313f
00000020: ea10 f6bd 40e5 4f3e ae72 0ebf 0996 00bf
00000030: 3c64 f73e fdcb 1b3e 65fa 803f af42 d8be
00000040: 31a9 a3bd 9eba 0c3f 5483 2f3f 1824 bdbe
00000050: 574d 1dbe 9b2b 09bf 1f0a c03d 5956 af3e
00000060: 9baa f5be a688 9b3d b731 a9bf d415 34be
00000070: e356 f1be c47c 49be d3af 9cbd eeaf c53e
00000080: a6b5 0b3f 77fb ae3e 1cba 48be 4b7d 01bf
00000090: 880c d13e 2418 a83e 44f3 24bd 452b 8e3e
000000a0: 4317 bdbf 6d50 303e 10b8 50bf 16bf 18be
000000b0: 5134 143e f91e 1c3f df33 433e 673c 85be
000000c0: d1d9 ae3e 207a f03e 8a0b 3bbe 3f85 61bf
000000d0: 2bf4 543e bd2b cc3e 4a53 273e 15ba 8abe
000000e0: 341a dfbd 62ff 39bd a026 013f f184 063f
000000f0: fa69 c43e ce92 483e ff80 0abf 3bc4 dd3e
00000100: 50cd e7be 3978 5b3e 7826 a7bd f810 9f3d
00000110: 2a84 fe3d dfab 2e3e 55e1 f33e c1be 2e3f
00000120: 9381 25bf 3bea 8ebe 2551 f5be 80f2 a03e
00000130: cd5a 473f 7dee 503b 233d a43f d622 163f
00000140: 5f5b 803e 8f01 4d3e f557 dfbe 1c2a 85bd
00000150: aab7 b33d 7194 a9be 18a7 9bbe ba6a 72be
00000160: 65b6 f03e de93 4abf 4462 afbf 9a87 e4be
00000170: 75a2 35bf 09db 4e3e 147e 73be da4d 5bbe
00000180: 9e78 77be 2055 ee3e 65a6 aabd 56b2 2fbe
-0.16758698 -0.94752914 0.47095218 0.4683754 -0.22801931 -0.21592632 0.2406395 0.69494575
-0.12014945 0.20302296 -0.5564374 -0.50228935 0.4831866 0.15214534 1.0076414 -0.42238376
-0.07991255 0.54972255 0.68559766 -0.369416 -0.15361534 -0.5358216 0.093769304 0.34245566
-0.47981724 0.07594423 -1.3218297 -0.17586452 -0.47136602 -0.196765 -0.07650723 0.38610786
0.5457405 0.34176227 -0.19602245 -0.50581807 0.40829873 0.32830918 -0.04027106 0.27767387
-1.4772724 0.1721818 -0.8153086 -0.14916644 0.14473082 0.6098476 0.19062756 -0.26022646
0.34150556 0.46968174 -0.1826612 -0.8809394 0.20796268 0.3987712 0.16340366 -0.27095094
-0.1089367 -0.045409568 0.5044956 0.525466 0.38362104 0.19587252 -0.5410308 0.43313774
-0.45273829 0.2143258 -0.08161634 0.077669084 0.12427552 0.17057751 0.47632852 0.6825982
-0.6465084 -0.2791308 -0.4791347 0.31435013 0.77872926 0.0031880431 1.2831157 0.58646905
0.2506971 0.20020126 -0.43621793 -0.06502172 0.087752655 -0.33121064 -0.3040092 -0.23673525
0.47014156 -0.7913188 -1.3701863 -0.44634706 -0.70951015 0.20200743 -0.23778564 -0.21416417
-0.24167106 0.4654932 -0.083325185 -0.17157874

regularizer.filters.1.weight f4 [8, 4, 5, 5]
00000000: 2f95 09bc 0e22 d5bd 841a 2b3e 9191 4e3d
00000010: 00db 853e ab4b e2be 190e 7fbf 678f a6bd
00000020: 46da 53be 182e 58be 192d dcbe acc8 42bd
00000030: 6ef2 cdbd e56b 1bbe 01ac 493d de24 bb3b
00000040: 4b55 66bf 577e 7ebe 4165 83bf 774e 99be
00000050: c4c4 1dbc 8a9c 86be ce5e d9be ed2f 9fbe
00000060: 90da b3be 909e a2be 0fa6 c53e ff72 3bbb
00000070: 694e 6dbd 7696 113e 2413 ae3e 85c9 babe
00000080: c62b cbbe c2af 98be b2f5 4cbf c898 423e
00000090: 4b4e 56bf 4915 98bd 5474 363f d95d 003f
000000a0: 1fc5 03bf c21c 013f 7237 123f bf2b f9be
000000b0: 68ac 0cbf 1042 953e f7c4 0e3d 9d12 e7be
000000c0: 07f9 af3e 6910 2abe 9540 86be 987f a6be
000000d0: 7e5e 2bbe 181c 863e f084 2b3d ff63 cebe
000000e0: 1cc8 21be 25d0 6abe 296b a13e 00a2 b63e
000000f0: f64a 7c3e 2979 223e 41e2 b2bd 5ad0 9bbe
00000100: 8cf0 853e 1730 8abe cf2b 52be 13e8 933e
00000110: 9dca a33e 4d24 053e 7988 ce3e f1aa ac3c
00000120: b244 6dbe 4a8b 3b3f 0890 a2be 02d1 0d3f
00000130: 5932 e8be 6f82 cd3d 72c4 14bf 01d9 cc3d
00000140: ae5c 323f 5e8d 48be 9d19 173f 3731 6f3d
00000150: d574 123e b3b9 103f a858 5b3f 9cda 2bbe
00000160: b949 693f daf9 7dbe 07e5 e43d 6103 eb3d
00000170: 9d39 a23e 157e 8f3e 1e6f cdbe d30b 95be
00000180: 1f72 a2bd e9ee 2c3f 823f e23e b924 663f
00000190: 170f bcbd 4b52 29bd c802 1cbe 011a f3bd
000001a0: a1be 29be af2c 09bf 8b53 d6bd 483f 8c3e
000001b0: 4d62 a53f 0dfb bcbe 35af 963e ba0f 463f
000001c0: 1b7e 42be 6c7b 6a3f 4b6c b9be b3fe df3e
000001d0: 4cd8 7d3f 7dc5 ecbd ce2e e83d c02f b1be
000001e0: 65ba 693e 288a 573e 5540 173f c740 f9be
000001f0: 9a6b 57bf ac6c 44be 2ccd b8bc 464f 20bd
00000200: 87d5 aa3e 1035 bebe d4cb dabe 77d7 2bbe
00000210: 34aa ca3d ce70 d8bf d9c9 19be 9857 dcbd
00000220: 65a4 873d bc5f fc3c 2e0d 45bd e68d 283e
00000230: efce 38be 8008 4a3e 56ce 1fbc d7f7 96be
00000240: e642 7c3d a29c 8d3d d633 803e 3040 40be
00000250: cf71 183e b460 0a3e 87de f1bd b0fb be3e
00000260: 7b35 5d3e eda3 6a3e 5de4 703d edda df3d
00000270: a8ec 3cbe 8ff7 0a3b 10a9 2f3e e9d7 2eba
00000280: 2d4f 90be eccf 29be 8361 1f3f 96bb f23e
00000290: 3046 a63e 335a b23d c023 ff3e 5352 f0be
000002a0: 3740 87bc fbef 5b3d f6ec 8cbd d9d3 d23e
000002b0: 0e97 a13e c6c0 963d 5842 373f f9b0 8cbe
000002c0: caf1 773d 1c68 ea3d b866 42be fa45 883e
000002d0: cf9c edbd 91cd 06bd f104 9fbd 49a4 e73e
000002e0: b827 333f 5d93 0a3e b52e f7bd 128b febd
000002f0: 2f96 683e 6b07 923e 1562 60be 8931 2dbf
00000300: 36f3 2ebf 4972 853e 9844 193e c4bf ca3e
00000310: bfd6 10bd c18a 3dbf 4300 973e b84c d3be
00000320: e71d e83e 53e8 fabe 87d8 29be 5dae 47bf
00000330: 4027 ab3d edea efbd 759e dcbd 523f c53e
00000340: 88d7 2ebf 1f1c 0abe 0759 2abe ca85 d9be
00000350: 7c1f a73e 9c8a 533e 3a68 17be a09f 94be
00000360: 96cc d13e e880 eb3e 5e49 bcbe 8e70 123f
00000370: 3b23 29be 4d25 e9bd c685 9b3e ec49 16bf
00000380: 38ee 27be 5ed0 533e cd1e f63e 4880 303f
00000390: 9938 9bbe f080 a9bb 785e 443f 6d8f a33d
000003a0: 4ae4 1f3e f8cb 8cbe 9ce3 03be 3e49 f03c
000003b0: 1c5f 22bf 5f1f e83d fa69 923e d73c 403e
000003c0: 6223 cdbe fddb b6be e671 21be 5453 4a3d
000003d0: 2fdb 043f 07fc 0e3e b19a 073e 2f83 aebd
000003e0: d125 883e a6a1 d9be 5723 09bf c5d6 a9be
000003f0: 1a20 353f 39bf 2bbf 2765 80be 0bf8 863d
-0.008397385 -0.10406886 0.16709334 0.05043179 0.26143646 -0.44198355 -0.99630886 -0.081328206
-0.20688733 -0.21111333 -0.43003157 -0.047554657 -0.100560054 -0.15177877 0.0492363 0.005711182
-0.89973897 -0.24852882 -1.0265275 -0.29942676 -0.009629432 -0.26291305 -0.42455143 -0.31091252
-0.35127687 -0.317616 0.38603255 -0.0028602479 -0.057936106 0.14217553 0.33998978 -0.36481872
-0.39681834 -0.29821593 -0.800624 0.19003594 -0.83713216 -0.07425935 0.7127125 0.501432
-0.5147266 0.50434506 0.5711585 -0.48666188 -0.5495057 0.29151964 0.03485581 -0.45131388
0.3436968 -0.16607822 -0.26221147 -0.3251922 -0.16735265 0.2619331 0.041874826 -0.40310666
-0.15798992 -0.22930963 0.3152707 0.3567047 0.2463797 0.15866531 -0.08734561 -0.30432397
0.26160085 -0.26989815 -0.20524524 0.28887996 0.3199052 0.13002129 0.40338495 0.021077605
-0.23170736 0.73259413 -0.31750512 0.55397046 -0.45350912 0.10034644 -0.5811225 0.10002328
0.6967267 -0.19585177 0.5902346 0.058396544 0.1430238 0.56533355 0.85682154 -0.16782612
0.91128117 -0.24802342 0.11176496 0.11475254 0.3168458 0.2802588 -0.40123838 -0.29110584
-0.07931923 0.6755205 0.44189078 0.89899784 -0.09182566 -0.041338246 -0.15235436 -0.11870194
-0.16576625 -0.53583807 -0.10465153 0.2739203 1.2920624 -0.36910287 0.29430547 0.77367747
-0.18993418 0.91594577 -0.36215433 0.43749008 0.9915817 -0.115611054 0.11337052 -0.34606743
0.2282501 0.21048796 0.5908254 -0.48682234 -0.8414856 -0.1918208 -0.022558771 -0.0391381
0.33366033 -0.37149858 -0.42733634 -0.16781412 0.09895745 -1.6909425 -0.15018405 -0.10758895
0.06623153 0.030807368 -0.048108272 0.1646038 -0.18047689 0.19729805 -0.009753784 -0.29485962
0.061587237 0.06914641 0.25039548 -0.18774486 0.14887165 0.13513452 -0.11810022 0.37301397
0.21602432 0.22914095 0.058811534 0.10930429 -0.18449652 0.0021204685 0.17154336 -0.00066697464
-0.28185406 -0.16583222 0.62258166 0.47408742 0.32475424 0.087086104 0.49831963 -0.46937808
-0.016510112 0.05369566 -0.06881134 0.41177252 0.31560558 0.07360987 0.7158561 -0.2747877
0.060533322 0.114456385 -0.18984497 0.26615888 -0.116021745 -0.032910887 -0.077646144 0.45242527
0.6998248 0.13532777 -0.120694555 -0.12428869 0.2271354 0.28521284 -0.21912415 -0.6765371
-0.6833986 0.26063755 0.14967573 0.3959943 -0.035361048 -0.74039847 0.29492387 -0.4126947
0.45335314 -0.49005374 -0.16586505 -0.7800043 0.08357096 -0.117147304 -0.10772411 0.38524872
-0.68297625 -0.1348729 -0.16635524 -0.42484885 0.32641208 0.20658344 -0.14785853 -0.29028034
0.409764 0.45996785 -0.36774725 0.57202995 -0.16517346 -0.11384068 0.303755 -0.58706546
-0.16399467 0.20684955 0.48070374 0.6894574 -0.30316618 -0.0051728413 0.7670665 0.07986341
0.15614429 -0.27499366 -0.12879795 0.0293318 -0.63426375 0.113341086 0.2859648 0.18773209
-0.40066057 -0.35714713 -0.15766105 0.049395874 0.5189695 0.13963328 0.13242604 -0.08521115
0.26591352 -0.4250614 -0.5356955 -0.3317167 0.7075211 -0.6708866 -0.25077173 0.06590279

regularizer.filters.2.weight f4 [64, 8, 5, 5]
00000000: d850 60be 2854 a8be 9553 61be 8f9d 4a3e
00000010: 181f 433f 41cf 173e b48a 6a3e b48a 543e
00000020: f74b 85bd 4fc5 8fbe 9852 823d cd86 673e
00000030: 8dc4 8dbe dcaa 8ebd 43f1 423e 499e 5cbd
00000040: 1ff9 7f3e a708 4b3e 7e2c 09bf 9e08 63be
00000050: 3fdd 403e be51 83be 2bcc b93e f2f1 173d
00000060: 4ef3 f2be 6bf3 34bc 559e 603e 53fa 58be
00000070: a3f1 dbbe 7a6b dd3d a754 193e 1728 d3bd
00000080: bba2 723e 78be 1a3e e939 e3be cbd4 f1be
00000090: 3c4f 4abf 9356 be3d c9fb 473e 7a3a 64be
000000a0: 5003 6f3e 4d3d 54bd f87b 623e 977b b63d
000000b0: e511 913e a899 973d 4b1e 7a3e 52f5 5ebd
000000c0: 1d3a 2abe 5364 c13d 6a68 b73e 036f 9b3d
000000d0: 0473 0ebf 425a 94be b84e fa3e bb58 c53e
000000e0: b9ee 7d3f d1e4 63bd b41f 31bf 86c4 69be
000000f0: 7894 dcbe 1323 033e ac26 8c3e 78c4 7a3e
00000100: 9d48 17bf fcca 1ebf 5c31 adbe a4a2 0a3f
00000110: 2f3c d43e 8799 9d3d 158e 83be f194 4fbe
00000120: 588e 7ebe fdc4 13bd f433 e63e a4ea ce3d
00000130: 0d12 fabc ef20 1d3f fca8 143e 5a04 7dbd
00000140: 56dc 87be dd9a 0cbe 16ed 6fbd d92d 12be
00000150: 4dba 7ebe 31ac 0bbe c272 3b3e 6873 ddbe
00000160: eed3 ccbd 409e 033e d305 993c 9dbe 2c3d
00000170: 8be2 05be 352c fdbc 49e2 b03e edbd 31be
00000180: eb1c babe b244 76bc 25d8 57bd 27c7 2fbd
00000190: aab0 8ebd b096 ce3e 4251 b43e 5c19 553d
000001a0: 2e50 b03e 6970 a4ba 3075 aa3e f823 813e
000001b0: b0fc cebe 532b 953e 26e6 2fbe c03f 54be
000001c0: aa9c 5ebe 1220 abbe 2c20 8abe 9732 f33d
000001d0: 05e3 efbe e7cd d53e a8b9 163f eb74 dbbe
000001e0: aff4 9c3e b351 a0be dbe7 de3d 4eb0 cb3e
000001f0: 2ade f03d 99da 4fbe 812e d7bd e35b a6be
00000200: b213 78be f8f9 bdbd ae6a 2abe c9eb 893e
00000210: 386b 5f3e 9e91 3ebd ebad 69be 6034 87be
00000220: 918c c8be 6f40 7a3e 9974 c63e 0e52 b63c
00000230: f384 163e f8d4 583d 1d33 fcbe 5305 603e
00000240: 6f35 1c3f 93b2 adbe 66e8 373f 6196 a9be
00000250: b127 2fbf 81e7 91bd 802b 54be bc4d c63d
00000260: c296 d43e f3a6 5ebe d6d8 853d 62c0 11bf
00000270: 20d4 81be 986f 183b 744e 08be e10e b3bd
00000280: d217 d73e a31d 8d3e 745c a8bd 2565 0d3e
00000290: c8c4 d33d baf2 433e 6436 633d 92bd b23d
000002a0: aaef 6dbd 61a3 183e 077c 253c 9894 13bd
000002b0: e274 083e ec75 4b3d fbd5 203e 6c12 93be
000002c0: aab8 c4bd 7c7c 0d3f eacf 1a3e 1a48 e43d
000002d0: 6215 80be 2b4d 56be 9b93 3b3f 2eb3 673c
000002e0: 3bce e1bd 99e0 d63c b95d 49be a7c6 0abf
000002f0: 21c1 1cbe 23e4 6d3e f2ee 703b bf0f 1b3e
00000300: 7ef2 3abd 9c69 42be f829 843d be3e 88bd
00000310: 19a6 9d3d a71b 803e ab14 47bd b795 b1be
00000320: a470 4e3e 0553 093f e68a c43e f4f7 d03e
00000330: 3db2 42be 82b6 babd 34e7 07be 3be6 00bd
00000340: 48e6 dbbe 3676 adbe 910e 9d3e ed1e 04be
00000350: 8092 74be 2eeb f1bd 2f0b 193e 171b 11bf
00000360: 7714 bcbe 7d29 e7bd fc1e 403c 32f0 6d3d
00000370: 8daf 0dbf d153 3a3d 7aaa ee3e 9d99 623e
00000380: 5d2b 543e 5426 59bd cdc4 70be ea01 cdbe
00000390: a5a0 743e fed8 493e 7d87 8a3e 7095 463e
000003a0: 8268 103f f36c 0c3f 846c 2cbe bd6f 97be
000003b0: fca9 1dbf d9ec ccbe 3d2f cabe 1863 febe
000003c0: 3eec 3fbf 65a8 47be 66e7 cfbe 6a6c f5be
000003d0: d1ca c03c 87a2 243e 5f54 8c3e f5f2 9c3d
000003e0: f169 643e 511d 89bd 580d af3e e956 ddbd
000003f0: 3d60 bb3e 9665 253f 830f 8f3e eb05 39be
-0.2190584 -0.32876706 -0.2200454 0.19786666 0.7621932 0.14825155 0.22904474 0.20756036
-0.0650863 -0.28080222 0.0636341 0.22610016 -0.2768902 -0.069661826 0.19037347 -0.05386189
0.24997376 0.1982752 -0.53583515 -0.22171256 0.18834399 -0.25648302 0.3628858 0.03709597
-0.47451252 -0.0110443635 0.21935399 -0.21189241 -0.42957792 0.10811515 0.14973699 -0.10310381
0.23694889 0.1511172 -0.4438012 -0.4723266 -0.7902715 0.092938565 0.19529642 -0.22287932
0.23341107 -0.051816273 0.22117603 0.08910292 0.28333965 0.074023545 0.24425618 -0.054433174
-0.16623731 0.094429635 0.3582185 0.07589533 -0.5564425 -0.2897511 0.48888183 0.38544258
0.99192387 -0.05563814 -0.69189 -0.22828874 -0.43082023 0.12806349 0.27373254 0.2448901
-0.59095174 -0.6202848 -0.3382672 0.5415442 0.41452166 0.07695299 -0.25694337 -0.2027166
-0.24858987 -0.036076535 0.44961512 0.10103348 -0.030526185 0.6137838 0.14517587 -0.061771728
-0.2653529 -0.1373095 -0.058575712 -0.14275302 -0.24875756 -0.13639905 0.18305495 -0.4325211
-0.1000136 0.12853336 0.018679535 0.04217397 -0.130747 -0.030904869 0.34547642 -0.17357607
-0.36350188 -0.015031027 -0.052696366 -0.042914536 -0.0696729 0.4034934 0.35218245 0.052026138
0.34436172 -0.0012545708 0.33292532 0.25222754 -0.4042716 0.29134616 -0.17177638 -0.20727444
-0.2173945 -0.33422905 -0.2697767 0.118748836 -0.4685289 0.41758654 0.5887704 -0.4286264
0.3065543 -0.31312332 0.10884067 0.39782947 0.117611244 -0.20298232 -0.10506917 -0.3249198
-0.24226263 -0.092761934 -0.16642258 0.26937702 0.21818244 -0.04652559 -0.2282025 -0.26407146
-0.39169744 0.24438642 0.38760832 0.022255924 0.14699154 0.052937478 -0.49257746 0.21877031
0.61019033 -0.33925304 0.71838987 -0.33122543 -0.6841994 -0.07124234 -0.20719719 0.096827954
0.4152127 -0.21743374 0.06535499 -0.5693418 -0.2535715 0.0023259874 -0.13311177 -0.08743072
0.4201036 0.27561674 -0.08220759 0.13808115 0.103402674 0.19135562 0.055471793 0.08727564
-0.05808989 0.14906074 0.010100371 -0.036030382 0.13325837 0.049673006 0.15706627 -0.28724992
-0.096055344 0.55268073 0.15118375 0.11146565 -0.25016314 -0.20927875 0.73272103 0.014141841
-0.110256635 0.026230143 -0.19664659 -0.5420937 -0.15308048 0.23231559 0.0036763516 0.15142725
-0.045641415 -0.189856 0.064533174 -0.06652592 0.07697696 0.25021097 -0.048603695 -0.34684536
0.20160156 0.536423 0.3838722 0.40814173 -0.19013305 -0.09116842 -0.1327179 -0.031469565
-0.42949128 -0.3387925 0.30675176 -0.12902422 -0.2388401 -0.11812435 0.14945672 -0.5668196
-0.36734363 -0.1128721 0.011726137 0.058090396 -0.55345994 0.04549009 0.46614438 0.22128911
0.20719667 -0.05301507 -0.23512574 -0.40040523 0.23889406 0.19711682 0.27056494 0.19392943
0.56409466 0.54853743 -0.1683827 -0.29577437 -0.615875 -0.4002445 -0.39489165 -0.49684978
-0.7496985 -0.19497831 -0.4060623 -0.47934276 0.02353421 0.16077624 0.2740812 0.07663528
0.22306038 -0.06695045 0.34189868 -0.108075924 0.3659686 0.6460813 0.27941522 -0.18068664
