weights/score_parameter_fitting_for_Denoising/LAR_fitted_parameters_with_JFB_for_Denoising.pt (torch, 714536 bytes, 13 tensors)

regularizer.cnn.convnet.0.weight f4 [128, 1, 3, 3]
0	0x3e52b708	0.20577633
1	0xbe196169	-0.14978565
2	0x3e78263f	0.2423334
3	0xbe0fcb83	-0.14042477
4	0xbdf046fa	-0.11732288
5	0xbed21038	-0.41028
6	0x3e73b1ae	0.23798248
7	0xbd442f9f	-0.047896978
8	0x3e45785a	0.19284192
9	0x3e9a725f	0.30165383
10	0xbec09acd	-0.37618104
11	0xbe5b52cb	-0.21418302
12	0xbebce9e2	-0.36897188
13	0x3e8f369f	0.2797136
14	0x3e7496cf	0.23885654
15	0x3d92867b	0.07154556
16	0x3ea7de47	0.32786772
17	0xbe7189db	-0.23587744
18	0x3f098d13	0.5373089
19	0xbd7704fa	-0.06030748
20	0xbed80228	-0.42189145
21	0xbeb235e1	-0.3480673
22	0x3e043323	0.12910132
23	0x3e8bfe18	0.27342296
24	0xbe5828d2	-0.21109322
25	0x3d8055e6	0.06266384
26	0x3cd1decf	0.025618939
27	0x3d93a05a	0.07208319
28	0xbf194005	-0.5986331
29	0x3e8e4488	0.2778666
30	0xbe7ba7fc	-0.245758
31	0x3ce89b5b	0.028394392
32	0x3e25f8ae	0.16208145
33	0x3e8ea002	0.2785645
34	0x3e2b0be3	0.16703753
35	0xbdad9feb	-0.084777676
36	0x3e68945a	0.22712842
37	0xbde1a20d	-0.11017237
38	0x3ea878aa	0.3290456
39	0xbe13467b	-0.14382355
40	0x3e3dc83a	0.18533412
41	0xbea6e4a6	-0.3259632
42	0xbe9e8861	-0.30963424
43	0xbceeaef6	-0.029136162
44	0xbdba3eef	-0.09094035
45	0xbea521db	-0.32252392
46	0x3deef241	0.116673
47	0x3eb822dc	0.35964096
48	0x3e7e6192	0.24841908
49	0xbea1e2ae	-0.31618255
50	0xbe32bdc5	-0.17455204
51	0xbd96a660	-0.07355952
52	0x3ea3528f	0.31898925
53	0xbe081e45	-0.13292797
54	0xbdd122b0	-0.10211694
55	0xbb6aa63e	-0.0035804654
56	0xbe259f9f	-0.16174172
57	0xbe857bdb	-0.26071057
58	0xbe607d65	-0.21922834
59	0xbde8cdd0	-0.113673806
60	0xbe77f680	-0.24215126
61	0x3d08dc5c	0.033413276
62	0xbdf80587	-0.12110429
63	0xbca209da	-0.019780088
64	0x3eb25fd9	0.3483875
65	0xbecf7d12	-0.4052511
66	0x3e9054d2	0.28189713
67	0x3eb883f2	0.36038166
68	0x3eb0fd47	0.34568235
69	0xbd817e35	-0.063229
70	0xbede3fe5	-0.43408123
71	0xbe811270	-0.2520938
72	0x3e135042	0.14386085
73	0xbd26de8e	-0.04073959
74	0x3c9bce56	0.019019287
75	0x3e8e6908	0.27814507
76	0x3ea3f3e1	0.32022002
77	0xbeeb7a3b	-0.45991692
78	0xbe1084db	-0.1411318
79	0x3bb766f9	0.005596992
80	0xbe06347b	-0.13105957
81	0xbecb85dd	-0.39750567
82	0x3e506b64	0.20353466
83	0x3e1e9d22	0.15489629
84	0xbeb8c3db	-0.36086926
85	0x3e4e9311	0.20173289
86	0x3eb84be5	0.35995403
87	0xbde0a8f9	-0.10969729
88	0xbe8aff6e	-0.27148002
89	0x3e6a15a3	0.22859816
90	0xbea941df	-0.33058068
91	0xbe7e054c	-0.24806708
92	0x3ec05530	0.37564993
93	0xbeb99171	-0.36243775
94	0x3e3e461a	0.18581429
95	0x3d879629	0.06620438
96	0xbd71cadd	-0.059031356
97	0xbd93fb3a	-0.07225652
98	0x3e921d4c	0.28537977
99	0xbe63a672	-0.22231463
100	0xbd959ed3	-0.07305684
101	0xbe94ad0c	-0.29038274
102	0x3e7670ad	0.2406642
103	0x3ec46d68	0.3836472
104	0xbeb001d7	-0.34376404
105	0xbe54c531	-0.20778348
106	0x3eb8dd4a	0.3610633
107	0xbd4f2911	-0.050576273
108	0x3e42dc1b	0.19029276
109	0xbe6128da	-0.2198824
110	0x3e439289	0.19098867
111	0x3dc781fb	0.09741589
112	0xbe95e007	-0.29272482
113	0x3d50a8e9	0.050942335
114	0xbe095d2c	-0.13414448
115	0x3d6f6943	0.058449995
116	0x3e44b7a9	0.19210686
117	0x3e10c761	0.14138557
118	0xbdfd8c05	-0.12380222
119	0xbdd5b861	-0.10435558
120	0x3e9ba196	0.30396718
121	0x3ebb4155	0.36573282
122	0xbeb27709	-0.34856442
123	0x3dec8e6d	0.11550603
124	0xbe28c821	-0.16482593
125	0xbe3b34b0	-0.18281817
126	0x3d88eaa5	0.0668538
127	0x3ec10bc0	0.37704277
128	0x3d6a28c6	0.05716779
129	0xbeb907d9	-0.361388
130	0xbe417808	-0.18893445
131	0xbe4df9c5	-0.20114811
132	0xbe1ca206	-0.15296182
133	0x3e77999f	0.24179696
134	0x3e0d1e25	0.1378103
135	0xbe0546d2	-0.13015297
136	0x3df95170	0.12173736
137	0x3e82048e	0.253941
138	0x3ebd689e	0.3699388
139	0x3de5c70f	0.11219608
140	0xbcf25238	-0.02958022
141	0xbd811dd1	-0.06304515
142	0xbee0e9f8	-0.43928504
143	0xbe54aee1	-0.20769836
144	0xbe532268	-0.20618594
145	0xbd730622	-0.05933202
146	0x3e1c5e82	0.15270427
147	0x3e4697d9	0.19393863
148	0xbeda0755	-0.4258372
149	0x3e7b8e5c	0.24566025
150	0xbea706e9	-0.3262246
151	0x3eba0b0a	0.36336547
152	0x3e674df6	0.22588333
153	0x3e0963c0	0.13416958
154	0xbe261048	-0.16217148
155	0x3eaa2386	0.33230227
156	0xbea0bc10	-0.3139348
157	0x3d43df53	0.0478204
158	0x3de0f15c	0.10983536
159	0x3be1f8ba	0.0068961056
160	0x3e409296	0.18805918
161	0xbeb9f69c	-0.3632096
162	0x3bc71645	0.006075653
163	0xbeb343d3	-0.35012683
164	0x3e1eddb6	0.15514264
165	0xbe4ffe03	-0.20311742
166	0xbe8da19b	-0.27662358
167	0x3eff7820	0.49896336
168	0x3dd2e3a1	0.10297323
169	0x3e734224	0.237557
170	0xbd531fc0	-0.05154395
171	0x3e2d778d	0.16940136
172	0x3de6ced9	0.11269922
173	0x3e8f69a9	0.280103
174	0xbda0e2d7	-0.07855766
175	0xbe9a4956	-0.30134076
176	0x3d95c27d	0.07312486
177	0xbe35ebd6	-0.17765746
178	0xbd3c63a9	-0.04599348
179	0x3ceaba5a	0.028653312
180	0x3ccde50a	0.025133628
181	0x3ccc6132	0.02494869
182	0xbdad1927	-0.08452063
183	0x3e78b471	0.24287583
184	0xbd2b1149	-0.04176453
185	0xbdc4bfe2	-0.09606911
186	0xbe0e9ee7	-0.13927804
187	0xbd78b1c0	-0.06071639
188	0xbe41b31b	-0.1891598
189	0x3e905a52	0.2819391
190	0x3c198eaa	0.009372393
191	0x3e627c21	0.22117664
192	0x3c8c4f9f	0.01712781
193	0x3df56b26	0.119833276
194	0xbee00cc4	-0.4375974
195	0xbe0399de	-0.12851664
196	0x3d84fe91	0.06493867
197	0xbe2adcbc	-0.16685766
198	0xbeef52ee	-0.46742958
199	0xbc099ee9	-0.008399704
200	0x3e4a1e47	0.19738112
201	0xbdc1fd5d	-0.09472153
202	0x3e8a03c7	0.26956007
203	0xbeb269d9	-0.3484638
204	0xbe9193c0	-0.28433037
205	0x3ecc2a35	0.3987595
206	0x3ea6334c	0.3246101
207	0xbee9cc9c	-0.45663917
208	0x3e31c975	0.17362006
209	0x3eb5f4e2	0.35538393
210	0xbc9d181a	-0.019176532
211	0x3eb25993	0.34833965
212	0x3e43ea5a	0.19132367
213	0xbe77d060	-0.24200583
214	0xbed21f77	-0.4103963
215	0x3dfcf9a0	0.123523
216	0x3daff146	0.08590941
217	0xbea2ebf7	-0.31820652
218	0xbe91bd5e	-0.28464788
219	0xbe4d9acd	-0.20078583
220	0xbe9d5a7f	-0.30733106
221	0x3e7986a3	0.24367766
222	0x3e9f10dc	0.3106755
223	0x3e8ad498	0.2711532
224	0x3e131e1a	0.14366952
225	0xbcaaef6d	-0.02086612
226	0x3ecb168e	0.39665645
227	0x3eb3b228	0.3509686
228	0x3e6ce607	0.23134623
229	0x3e56d5c1	0.20979978
230	0xbe76d953	-0.2410634
231	0xbed303e1	-0.41213897
232	0xbeb106ea	-0.34575588
233	0xbd2f78b4	-0.04283972
234	0x3e64f372	0.22358492
235	0xbe3b0445	-0.18263347
236	0x3e3fae1a	0.18718758
237	0xbeefb0c6	-0.46814555
238	0x3d7239c6	0.05913713
239	0x3e861769	0.26189736
240	0x3e99a0a6	0.30005378
241	0x3d5a09ed	0.053232122
242	0xbece9cf0	-0.4035411
243	0xbeb83363	-0.35976705
244	0x3cba03c7	0.02270688
245	0xbee1fecf	-0.44139716
246	0x3d85ed00	0.06539345
247	0x3eb8038b	0.35940203
248	0x3e25f013	0.16204862
249	0x3e371d34	0.17882234
250	0xbea4d49e	-0.32193464
251	0x3e8e0c7f	0.2774391
252	0x3e04ba6e	0.12961742
253	0x3cd12af5	0.025533179
254	0xbe3ae3f6	-0.18251023
255	0xbcc91569	-0.024546342

regularizer.cnn.convnet.0.bias f4 [128]
0	0xbbfd258a	-0.0077254223
1	0xbbdeca1a	-0.0067989947
2	0x3ca17647	0.01970972
3	0xbd3c005c	-0.04589878
4	0x3e796772	0.24355868
5	0xbdb79caa	-0.08965428
6	0xbe108d95	-0.1411651
7	0xbe136961	-0.14395668
8	0x3b701719	0.003663486
9	0xbb5b00cb	-0.003341722
10	0x3e451c5c	0.192491
11	0x3e2bca1d	0.16776319
12	0xbdeb6f08	-0.11495787
13	0x3c1de898	0.009637974
14	0x3ceaea06	0.028676044
15	0x3bc848dd	0.0061122016
16	0xbe0c48c9	-0.1369964
17	0x3cd1c987	0.025608791
18	0xbdde82bd	-0.1086478
19	0xbd9b168f	-0.07572662
20	0x3e4efd7b	0.20213883
21	0x3c9d5426	0.019205164
22	0x3cd50f8b	0.026008388
23	0xbd689687	-0.05678418
24	0x3d4d6d5c	0.05015312
25	0xbe0785e3	-0.13234667
26	0xbca7bf25	-0.020476887
27	0x3d8eb82f	0.06968724
28	0xbd7f973f	-0.0624001
29	0xbdf1b297	-0.118016414
30	0x3b8da323	0.004322426
31	0x3c17f82d	0.009275478
32	0x3e41547a	0.18879882
33	0x3db08b1d	0.08620284
34	0x3dd2dab5	0.10295621
35	0xbda76c97	-0.08175009
36	0x3d28f304	0.041247383
37	0x3b3a20c9	0.002840089
38	0xbe06b910	-0.13156533
39	0xbe1cd1d8	-0.15314424
40	0xbe409f42	-0.18810752
41	0x3c881919	0.01661353
42	0xbb374e33	-0.0027970194
43	0x3e1c7094	0.1527732
44	0xbe70c32c	-0.23511952
45	0x3c360b75	0.01111113
46	0x3ba98015	0.0051727393
47	0xbbdb91cb	-0.0067007295
48	0x3e0067bc	0.12539572
49	0xbcfaab94	-0.030599393
50	0x3d1fee99	0.039045904
51	0xbc98b198	-0.01863937
52	0x3de5b658	0.1121642
53	0xbba91190	-0.0051595643
54	0xbd63926e	-0.055559568
55	0xbd926708	-0.07148558
56	0xbda61e3e	-0.08111237
57	0xbd2a15e9	-0.0415248
58	0xbc2ea3ac	-0.01065914
59	0x3b729069	0.0037012345
60	0x3e6ea296	0.23304209
61	0xbe564147	-0.20923339
62	0xbdc8ad99	-0.09798736
63	0x3df39b23	0.11894824
64	0xbb8af93e	-0.0042411378
65	0xbcfcaf14	-0.030845203
66	0x3c823bdc	0.015897684
67	0xbd81f68c	-0.06345853
68	0xbd414182	-0.047181614
69	0x3d518cc3	0.05115963
70	0xbda3254a	-0.07966097
71	0x3a682a5f	0.00088564114
72	0x3e267b8f	0.16258071
73	0x3d7ba8f3	0.06144042
74	0xbe29680c	-0.16543597
75	0x3e00e981	0.12589075
76	0xbd985314	-0.07437721
77	0xbb6be6d7	-0.0035995746
78	0x3ceff119	0.029289769
79	0x3c941ef9	0.018081175
80	0x3c9f81c7	0.019471062
81	0xbe25315d	-0.16132112
82	0xbd4b8e93	-0.049696516
83	0xbdb3fa97	-0.087880306
84	0xbb8ebbf9	-0.004355904
85	0x3daa236d	0.08307538
86	0x3ccb2b28	0.024800852
87	0x3c201f6c	0.009773117
88	0x3d0e9fee	0.03482049
89	0xbe05cfec	-0.13067597
90	0x3e062fab	0.13104121
91	0x3e217615	0.15767701
92	0xbb37a485	-0.0028021645
93	0x3d1cc9ab	0.038278263
94	0x3dacef40	0.08444071
95	0x3d26f45a	0.040760376
96	0xbe5eb3af	-0.21748231
97	0xbe063ad1	-0.13108374
98	0x3de6cc91	0.11269487
99	0x3d5bcd8b	0.053662818
100	0x3be1f943	0.0068961694
101	0x3d5ff413	0.054676127
102	0x3af6260f	0.0018779653
103	0x3ce58dbb	0.028021684
104	0xbd6a0555	-0.05713399
105	0xbdf6b690	-0.1204654
106	0xbc90d2f1	-0.01767871
107	0x3d93b308	0.07211882
108	0xbbaf1105	-0.005342605
109	0x3c92a4bd	0.017900819
110	0x3d1e948c	0.038715884
111	0x3d404b00	0.046946526
112	0x3c19d001	0.009387971
113	0xbdb48e5c	-0.088162154
114	0x3c3c8ca9	0.011508145
115	0x3cb7073d	0.022342319
116	0xbe12e000	-0.14343262
117	0xbe2fc645	-0.17165478
118	0x3e97205e	0.29516882
119	0x3e3e3294	0.18573982
120	0xbdcdfcae	-0.100579605
121	0xbb7bcd21	-0.0038421827
122	0xbe30282b	-0.17202823
123	0xbdccdd97	-0.100032024
124	0x3c54332c	0.012951653
125	0xbe37a8fb	-0.17935555
126	0xbcdeffb1	-0.027221533
127	0xbc614260	-0.013748735

regularizer.cnn.convnet.2.weight f4 [64, 128, 3, 3]
0	0xbd51645f	-0.051121112
1	0x3d6b284c	0.057411477
2	0x3d85e23c	0.065372914
3	0xbc168d29	-0.009188929
4	0x3d939e04	0.072078735
5	0x3d86a210	0.0657388
6	0xbd3e9090	-0.046524584
7	0xbd77180c	-0.060325667
8	0x3e0040a4	0.12524658
9	0x3dc6d916	0.097093746
10	0x3dc0e1c3	0.09418061
11	0xbdb0d70e	-0.086347684
12	0x3e23f7f8	0.16012561
13	0xbd823515	-0.06357781
14	0x3d1c7a01	0.03820229
15	0xbad87a52	-0.0016515946
16	0x3dc86b34	0.097860724
17	0x3deabf8a	0.114623144
18	0x3d9d3ed6	0.07678001
19	0xbdb8ce45	-0.09023718
20	0xbd49cb0f	-0.049265917
21	0x3dd6fe76	0.10497753
22	0xbccc4675	-0.02493594
23	0xbd36ebdf	-0.044658538
24	0xbde497ae	-0.11161743
25	0x3dc06799	0.0939476
26	0x3c4fce95	0.01268353
27	0xbce25100	-0.027626514
28	0x3c661c6a	0.01404486
29	0x3cd3bd00	0.025846958
30	0x3d32a92f	0.043618377
31	0xbde82556	-0.11335246
32	0xba27f93c	-0.0006407683
33	0xbd00625a	-0.031343795
34	0xbd32ea1c	-0.043680295
35	0x3db310d1	0.08743442
36	0x3d554d00	0.052075386
37	0x3d426cac	0.04746692
38	0x3cd6b0c4	0.026207335
39	0x3d210399	0.03931007
40	0x3d2cb0fc	0.042160973
41	0xbc2bdbbb	-0.0104894
42	0x3b51ce02	0.003201366
43	0x3cac2d12	0.021017585
44	0x3da2e925	0.07954625
45	0x3d8f4c51	0.06996978
46	0x3dd7769d	0.105206706
47	0x3d7c7dc7	0.061643388
48	0x3d89cab3	0.06728115
49	0x3d412c2a	0.04716126
50	0x3dff903a	0.12478681
51	0x3dfe1992	0.12407221
52	0xbcc82420	-0.024431288
53	0x3cd51e30	0.026015371
54	0xbbf7e18d	-0.0075647295
55	0xbc6fc55b	-0.014634456
56	0x3d00bb09	0.03142837
57	0x3c1c78c5	0.009550278
58	0x3c93acdf	0.018026767
59	0xbb217a78	-0.0024639647
60	0xbc3be7bd	-0.011468825
61	0x3b8442d3	0.0040362864
62	0x3c96b474	0.018396594
63	0x3bbed4e8	0.0058237202
64	0x3beff976	0.0073234392
65	0xbd0d84c5	-0.034550447
66	0x3cccd622	0.02500445
67	0x3c929fcc	0.017898463
68	0xbd1bde7e	-0.038053982
69	0xbbbe6b6d	-0.005811146
70	0x3d70d258	0.05879435
71	0xbd955400	-0.07291412
72	0x3dab59dc	0.08366749
73	0x3e14f4a5	0.1454645
74	0xbe1cb45f	-0.15303181
75	0xbcdd5d61	-0.027022066
76	0x3e26b33b	0.16279308
77	0xbd9d8f8c	-0.07693395
78	0xbce1994d	-0.02753892
79	0x3da95d07	0.08269697
80	0x3b9a79d5	0.0047142305
81	0xbd549d4f	-0.051907834
82	0xbe646cf0	-0.22307181
83	0xbbac0d9d	-0.0052506463
84	0x3d2ab2f6	0.041674577
85	0xbe754d1e	-0.23955199
86	0xbe33acf6	-0.17546448
87	0x3d9cccee	0.07656275
88	0xbe5f6c51	-0.21818663
89	0xbe43fcba	-0.19139376
90	0xbd03f376	-0.032214604
91	0xbddd5b03	-0.10808375
92	0xbd3a741f	-0.045520898
93	0x3b9fb35d	0.0048736767
94	0xbdef40ff	-0.11682319
95	0xbd8b825c	-0.068119735
96	0x3cef7e9e	0.02923518
97	0xbe379f0f	-0.1793177
98	0xbcbf6e5a	-0.02336805
99	0x3d7e9659	0.0621551
100	0x3e0ac8d9	0.1355318
101	0xbc8db9df	-0.017300544
102	0x3d761b85	0.06008484
103	0x3e169ccf	0.14708255
104	0x3c425746	0.011861628
105	0x3db0d25a	0.086338714
106	0x3dcbb6f2	0.099470034
107	0x3a341586	0.00068696623
108	0x3c9b2e78	0.018943056
109	0xbda5adfc	-0.080898255
110	0xbcb04818	-0.021518752
111	0xba2cbf1b	-0.0006589756
112	0xbd87f7b4	-0.066390425
113	0x3c9ead6c	0.019369803
114	0xbd7c4246	-0.06158664
115	0xbca2438d	-0.019807601
116	0xbb509ffd	-0.0031833642
117	0xbc80f986	-0.015743982
118	0x3e22f49c	0.15913624
119	0xbd36bd43	-0.044614088
120	0xbd788ead	-0.06068294
121	0x3e5100a4	0.204104
122	0xbce38ef5	-0.027778128
123	0xbdac32a4	-0.084080964
124	0x3de24ed8	0.110501945
125	0x3d812a1f	0.06306862
126	0x3c206aea	0.009791115
127	0xbd8d816b	-0.0690945
128	0xbd7c227a	-0.061556317
129	0x3d6db5c1	0.058034662
130	0x3c5c4436	0.013443997
131	0xbde2a30c	-0.11066255
132	0x3d662da5	0.056195874
133	0x3c7e4496	0.015519282
134	0xbdcff589	-0.10154254
135	0xbe3cbc60	-0.18431234
136	0xbc5f582d	-0.013631863
137	0x3d5b7a49	0.053583417
138	0xbe486003	-0.19567876
139	0xbd9913c0	-0.0747447
140	0x3caf83cf	0.021425156
141	0xbd99085b	-0.07472297
142	0xbdb2fa0c	-0.08739099
143	0x3d650675	0.05591436
144	0x3c9b5263	0.018960183
145	0xbda8238c	-0.08209905
146	0xbd9facdf	-0.077966444
147	0xbd233a87	-0.039850738
148	0xbdd7d37b	-0.105383836
149	0x3c834d8e	0.016028192
150	0xbbc7be9b	-0.00609572
151	0xbdd68dad	-0.10476241
152	0xbdaf7b8d	-0.08568487
153	0xbce9833e	-0.028504964
154	0xbc207ca7	-0.009795344
155	0xbd7e5b9c	-0.062099084
156	0x3d48d84a	0.049034394
157	0xbe29de9e	-0.16588828
158	0xbd192d42	-0.037396677
159	0xbd03208d	-0.032013465
160	0xbd772db3	-0.060346317
161	0xbc547715	-0.0129678445
162	0x3c577b0f	0.013151898
163	0xbcd8147b	-0.026376953
164	0xbc7125f3	-0.01471852
165	0x3d15e1dc	0.03659235
166	0xbdf2466c	-0.11829838
167	0x3d1cf727	0.03832164
168	0xbccfff0c	-0.02539017
169	0xbd7a0eb0	-0.061049163
170	0x3c399f90	0.011329547
171	0x3c86c5ac	0.01645168
172	0xbc17974c	-0.009252381
173	0x3cc6186c	0.024181567
174	0xbbbbc86f	-0.0057306807
175	0xbcda1a4b	-0.026623866
176	0x3d0613b3	0.03273363
177	0xbd3f133e	-0.04664921
178	0xbd15a5b7	-0.03653499
179	0x39b5f913	0.00034708585
180	0x3d1340a8	0.035950333
181	0x3c32288f	0.010873928
182	0x3d7c3286	0.06157162
183	0x39e891c1	0.00044359083
184	0x3d6230ef	0.055222448
185	0x3d77b647	0.060476568
186	0x3d277eaa	0.04089228
187	0x3c9de472	0.01927397
188	0x3d801e94	0.06255832
189	0x3ddb8076	0.10717861
190	0x3dc94df4	0.098293215
191	0xbd18af7b	-0.037276726
192	0x3c96f1d9	0.018425869
193	0x3dc35e74	0.095395
194	0xbd696789	-0.056983504
195	0xbb64ef89	-0.0034932813
196	0xbba10439	-0.0049138335
197	0x3d01bff9	0.03167722
198	0x3dc1c613	0.09461608
199	0xbd806d47	-0.06270843
200	0xbe2cb433	-0.16865616
201	0x3d2f57fe	0.042808525
202	0xbd232dbd	-0.03983854
203	0xbe420367	-0.1894661
204	0x3e31143c	0.17292875
205	0xbe6ccad7	-0.23124252
206	0xbe48a1f9	-0.19593038
207	0xbda745a2	-0.08167578
208	0xbe75c82e	-0.24002144
209	0xbdb01d70	-0.08599365
210	0xbbd7a9c5	-0.0065815174
211	0xbe338c47	-0.1753398
212	0xbe0d1977	-0.13779245
213	0x3d96f603	0.07371142
214	0xbe78a640	-0.2428217
215	0xbe071110	-0.13190103
216	0x3d145469	0.036213312
217	0x3d93e54a	0.07221468
218	0x3dfa9509	0.122354575
219	0xbc20b322	-0.009808334
220	0xbdb608a8	-0.0888837
221	0x3e2b7c2e	0.1674659
222	0xbe00eb8e	-0.12589857
223	0x3d6b6df3	0.057477903
224	0x3e1c46de	0.15261409
225	0x3c0d25b6	0.008614948
226	0x3c4e3c81	0.012587667
227	0xbd969f66	-0.073546216
228	0xbca6b72d	-0.020351017
229	0xbd4cd683	-0.05000926
230	0xbe093925	-0.13400705
231	0x3cb95357	0.022622747
232	0xbda9649a	-0.08271141
233	0xbd6892ce	-0.05678063
234	0xbd8d735e	-0.0690677
235	0x3c05f11c	0.008175161
236	0xbda99f9d	-0.08282397
237	0x3d963987	0.07335191
238	0xbe0c1016	-0.13678011
239	0xbbf02f91	-0.007329889
240	0xbd579e7c	-0.052641377
241	0xbd4c5c85	-0.04989292
242	0xbc77cb29	-0.015124121
243	0xbc64cf20	-0.013965398
244	0xbd1aea4d	-0.037821103
245	0x3dfb1866	0.12260513
246	0xba781b2d	-0.0009464499
247	0x3cc7b1ce	0.024376776
248	0xbc8e4a1e	-0.017369326
249	0x3d00081f	0.031257745
250	0x3dcbdfe3	0.099548124
251	0xbc5abbfb	-0.013350482
252	0xbcf05e71	-0.029341908
253	0x3dd350a5	0.10318116
254	0xbc1a8d04	-0.009433035
255	0x3d188173	0.037232827

regularizer.cnn.convnet.2.bias f4 [64]
0	0xbcaebf52	-0.021331463
1	0xbd47d586	-0.048787616
2	0xbc2cdd2c	-0.010550778
3	0x3b84eef2	0.004056805
4	0xbcfaed54	-0.030630745
5	0xbccd3773	-0.025050854
6	0xbd21dfdc	-0.03952013
7	0xbe709d75	-0.23497565
8	0x3c23a1b2	0.009987282
9	0x3d274ed0	0.040846646
10	0xbe363ca3	-0.17796569
11	0xbc7697c1	-0.015050829
12	0x3c569e1e	0.0130992215
13	0xbcb4ca57	-0.02206914
14	0xbe7311ba	-0.23737231
15	0xbd0ba56b	-0.0340933
16	0x3c0e20a9	0.008674779
17	0x3b52d03b	0.0032167572
18	0xbca9324c	-0.020653866
19	0xbb588f0f	-0.0033044254
20	0xbcbdc8f9	-0.02316712
21	0x3b07d43b	0.0020725864
22	0xbda56c57	-0.08077305
23	0x3b94c6f8	0.0045403205
24	0x3c320efb	0.010867829
25	0xbca6b1d0	-0.02034846
26	0xbcab01ce	-0.020874884
27	0xbd0a2be7	-0.033733275
28	0x3cc10aa4	0.023564644
29	0xbd042450	-0.032261193
30	0x3c30106b	0.010746102
31	0x3c1a18de	0.009405343
32	0xbde7746e	-0.11301504
33	0x3bc5b555	0.0060335794
34	0xbb08371e	-0.0020784806
35	0xbd80cf3b	-0.06289526
36	0xbd43ae25	-0.0477735
37	0xbcb816b1	-0.022471758
38	0x3c96e1a4	0.01841814
39	0xbcbe267d	-0.023211712
40	0xbd91705f	-0.07101511
41	0x3ab1a951	0.0013554489
42	0x3cf6ef0c	0.030143283
43	0xbcadd6f1	-0.021220656
44	0xbc8aac6f	-0.016927926
45	0xbce2f807	-0.02770616
46	0xbd36f216	-0.044664465
47	0xbd079981	-0.033105377
48	0xbc35efbf	-0.011104523
49	0xbe6c76c5	-0.23092182
50	0x3c059224	0.008152518
51	0xbb759e0b	-0.0037478234
52	0xbc9a6110	-0.018845111
53	0xbc0475aa	-0.008084694
54	0xbd55d128	-0.05220142
55	0xbcd84545	-0.026400218
56	0x3cb26b8f	0.021779804
57	0x3c5fb342	0.013653578
58	0x3ced7a11	0.02898887
59	0xba47f92f	-0.0007628379
60	0x3cd5eceb	0.026113948
61	0xbcfe14b2	-0.031015728
62	0xbbc28f92	-0.005937525
63	0xbc435d45	-0.011924093

regularizer.cnn.convnet.4.weight f4 [64, 64, 3, 3]
0	0xb834ae8b	-4.30779e-05
1	0xbd9eb15a	-0.07748671
2	0xbd25ebf9	-0.040508244
3	0xbd810293	-0.06299319
4	0xbde73e57	-0.11291187
5	0xba2b17d9	-0.0006526686
6	0xbca05c82	-0.019575361
7	0xbd84f07c	-0.06491181
8	0xbd04a6a3	-0.03238548
9	0x3d527422	0.051380284
10	0x3cd0bf29	0.025481777
11	0x3d2c4839	0.042061064
12	0x3cc1e1a9	0.023667173
13	0x3d572a3b	0.05253051
14	0x3d1f3300	0.038866997
15	0x3c262cd1	0.010142521
16	0x3c88816a	0.016663272
17	0x3d8d28ae	0.06892525
18	0x3da44f14	0.080228955
19	0xbc95ae74	-0.018271662
20	0x3e2becc8	0.16789544
21	0x3d813ec1	0.063107975
22	0x3bf1019c	0.007354928
23	0x3ca9088a	0.020633955
24	0x3d88e924	0.06685093
25	0x3df5d331	0.12003172
26	0x3cca1b39	0.024671184
27	0x3b07b9b4	0.0020710053
28	0xbde41c07	-0.11138158
29	0xbc92f2b5	-0.017937997
30	0x3d01adcb	0.031659883
31	0xbcccf20e	-0.025017764
32	0xbda814fe	-0.08207129
33	0x3c7fd5ea	0.015614966
34	0xbbdb5175	-0.00669306
35	0xbd852aab	-0.06502279
36	0x3d2ed2dd	0.042681564
37	0x3d697f7f	0.057006355
38	0x3cb0f5fe	0.021601673
39	0x3d596deb	0.05308334
40	0xbcb9f667	-0.022700502
41	0xbc0df06f	-0.008663281
42	0x3d2bb12f	0.041917022
43	0xbcc0d6ee	-0.023539986
44	0xbc773fe4	-0.015090916
45	0xbcfd8c0c	-0.030950569
46	0xbbb1c5c6	-0.0054251878
47	0x3cd69cfd	0.026197905
48	0xbdd75883	-0.10514929
49	0x3d7cdc5b	0.061733585
50	0x3cc19ec5	0.023635278
51	0x3c0e5f97	0.008689783
52	0xbd0a49d2	-0.033761807
53	0xbb4fce59	-0.0031708686
54	0x3d136a0a	0.0359898
55	0xbcbf5fad	-0.023361051
56	0xbd9f662a	-0.07783158
57	0x3d07100a	0.03297428
58	0xbc610946	-0.013735121
59	0x3d4dd6be	0.050253622
60	0x3c05e923	0.00817326
61	0xbd799bf5	-0.060939748
62	0xbd9e32dd	-0.07724545
63	0xbb50011c	-0.0031738942
64	0x3d032c25	0.03202452
65	0x3b07f09a	0.0020742775
66	0x3c84f42f	0.016229717
67	0xb9b91c10	-0.00035306858
68	0xbcd3096d	-0.02576133
69	0x3d54d3e5	0.05195989
70	0x39ddd969	0.00042314388
71	0x3d1df8a1	0.03856719
72	0x3da49e33	0.080379866
73	0x3d8bc7cc	0.068252176
74	0x3dea55e4	0.114421636
75	0x3d0dba42	0.034601457
76	0x3d59ef14	0.05320652
77	0xba7adbd6	-0.0009569501
78	0xbb4eb99f	-0.0031543744
79	0x3db640fd	0.08899114
80	0x3c8eedc1	0.017447354
81	0xbcfdf95c	-0.031002693
82	0xbd598b66	-0.053111456
83	0xbd4e0535	-0.050297935
84	0x3cca54a0	0.024698555
85	0x3c19fb22	0.009398254
86	0x3d89ff04	0.067380935
87	0xbc379bd5	-0.011206587
88	0x3c9479c2	0.018124465
89	0x3d9f7ceb	0.07787498
90	0x3cb2f602	0.021845821
91	0x3be6cae7	0.007043231
92	0x3c6280a4	0.013824616
93	0x3d04a63e	0.032385103
94	0xbcd70121	-0.026245655
95	0x3d403435	0.04692479
96	0xbcd80ff7	-0.0263748
97	0x3cb4feb8	0.022094116
98	0x3d45f37c	0.048327908
99	0xbd26246d	-0.040562082
100	0xbd3027e9	-0.04300681
101	0xbd7b8b35	-0.061412055
102	0x3c9898d2	0.018627558
103	0xbdbf4ff3	-0.09341421
104	0x3d1bedf9	0.038068745
105	0xbcd0ced0	-0.02548924
106	0xbe14bd6c	-0.14525384
107	0xbc889da7	-0.016676737
108	0x3cc757db	0.024333885
109	0x3d2bd2ca	0.04194907
110	0x3d00a641	0.031408552
111	0x3d316863	0.04331244
112	0x3b00c76d	0.0019650117
113	0x3d86ca1a	0.065815166
114	0x3dda782f	0.106674545
115	0x3d65aa04	0.056070343
116	0x3d983c65	0.07433394
117	0xbda9742f	-0.082741134
118	0x39ab0ded	0.00032626037
119	0x3d67fb72	0.05663628
120	0x3c98b4de	0.018640932
121	0xbc4cf1b5	-0.012508799
122	0x3cc7af68	0.024375632
123	0xbc69c17e	-0.014267324
124	0x3d44bffc	0.048034653
125	0x3d003c9b	0.031307798
126	0x3d70a710	0.058753073
127	0xbc749ee5	-0.0149304615
128	0x3cbfb35d	0.023400957
129	0x3d4e2a1a	0.05033312
130	0x3c1b8fe0	0.009494752
131	0x3cef699e	0.029225167
132	0x3d7d3706	0.061820053
133	0xbb760161	-0.0037537443
134	0xbce99284	-0.028512247
135	0x3c90824c	0.017640255
136	0x3d0a169a	0.03371296
137	0xba150a30	-0.0005685417
138	0x3d416891	0.047218863
139	0xbd3b57ec	-0.045738146
140	0x3c406bc7	0.011744446
141	0xbd1aad03	-0.037762653
142	0xbd159180	-0.036515713
143	0xbd1cf9f0	-0.038324296
144	0xbe809ee9	-0.2512124
145	0xbe50bda1	-0.20384838
146	0xbe52bcc4	-0.20579821
147	0xbdee634f	-0.11640035
148	0xbcaa3ed7	-0.020781917
149	0xbe16c73d	-0.14724441
150	0xbe5621fc	-0.20911402
151	0xbe5bb098	-0.21454084
152	0xbe0d9ef6	-0.1383017
153	0x3c429d65	0.011878346
154	0xbdb6ff08	-0.08935362
155	0xbdad5e42	-0.08465244
156	0x3c84ab35	0.01619492
157	0x3df32b2c	0.11873469
158	0x3cce90cf	0.025215534
159	0x3d2b1fd1	0.04177839
160	0xbd6009b2	-0.054696746
161	0x3cca32b1	0.024682375
162	0xbc5a42a1	-0.01332155
163	0x3d9a7112	0.07541098
164	0x3b99cb38	0.004693415
165	0x3c585b56	0.01320537
166	0xbb8edf3b	-0.0043601072
167	0xbc4d9c74	-0.012549508
168	0x3cfa6936	0.030567747
169	0x3c82860b	0.015933057
170	0x3b321b06	0.0027176752
171	0x3c2b1408	0.010441788
172	0xbd1f4b84	-0.038890377
173	0xbd9544f8	-0.07288545
174	0xbdd575c3	-0.10422852
175	0xbc435d90	-0.0119241625
176	0xbddb765b	-0.10715934
177	0xbde352a9	-0.110997505
178	0xbcd5e6c3	-0.026111012
179	0xbdd4c358	-0.10388821
180	0xbd4d255a	-0.05008445
181	0x3d954080	0.07287693
182	0x3cce1daa	0.02516063
183	0xbc04781c	-0.008085277
184	0x3cea74f3	0.028620219
185	0x3c09a9ac	0.008402269
186	0x3dffc99c	0.12489626
187	0x3d85e733	0.065382384
188	0xbd3ce5b0	-0.046117485
189	0x3e0fe702	0.14052966
190	0x3d720f3a	0.059096552
191	0x3d684e69	0.056715403
192	0xbccd0f6e	-0.025031772
193	0xbc451f19	-0.01203134
194	0x3cfab1ff	0.030602453
195	0x3d168ab1	0.03675336
196	0x3c0a6973	0.008447993
197	0x3c6070a1	0.013698728
198	0x3c32afd3	0.010906178
199	0xbca97c27	-0.020689083
200	0x3d361ec2	0.044462927
201	0x3d5851b0	0.05281228
202	0x3d627801	0.055290226
203	0x3d71fd3c	0.059079394
204	0x3d30610e	0.04306131
205	0x3d77f03a	0.060531832
206	0xbc1e9190	-0.0096782595
207	0xbcf65011	-0.030067476
208	0xbe00f8a5	-0.1259485
209	0xbd76d9a0	-0.060266137
210	0x3d23e58a	0.040013827
211	0x3cd01a96	0.025403302
212	0xbc1f2baf	-0.009715005
213	0xbd5a3749	-0.05327538
214	0xbcd21ac7	-0.025647534
215	0x3ce4a4a5	0.02791054
216	0x3cd249f9	0.025670039
217	0xba9f9942	-0.0012176412
218	0x3b229a25	0.0024811116
219	0xbb3410d9	-0.0027475862
220	0x3d63f70f	0.055655535
221	0xbc7c78be	-0.015409647
222	0x3deee964	0.116656095
223	0xbd017540	-0.03160596
224	0xbd1ca79b	-0.03824578
225	0x3d73ca78	0.05951926
226	0xbb73a46c	-0.003717686
227	0x3cb235dd	0.0217542
228	0x3d1cc964	0.038278
229	0x3b84e75e	0.0040559014
230	0xbd2a42aa	-0.041567482
231	0x3cfd9672	0.030955527
232	0x3d540ebd	0.051771868
233	0x3e089108	0.13336575
234	0xbc86bb89	-0.016446846
235	0x3d30ac04	0.043132797
236	0xbd0a61d1	-0.03378469
237	0xbd9071a8	-0.07052928
238	0xbd3ce350	-0.04611522
239	0xbda1d189	-0.07901294
240	0xbd0fa59f	-0.035070058
241	0xbb800170	-0.0039064214
242	0x3928e9db	0.00016108846
243	0x3d2ccb5f	0.042186137
244	0xbb8fff96	-0.004394482
245	0xbc136abf	-0.008997618
246	0x3cba6fc1	0.022758367
247	0xbdcccad9	-0.099996276
248	0xbd3dc0ea	-0.046326555
249	0xbd1d2739	-0.038367484
250	0xbddad293	-0.10684695
251	0xbcac7f12	-0.021056686
252	0xbccd8cea	-0.025091607
253	0x3a6cea32	0.00090375834
254	0xbd3b5d05	-0.045743007
255	0xbcabc40b	-0.020967504

regularizer.cnn.convnet.4.bias f4 [64]
0	0xbd1529e0	-0.03641689
1	0xbd7c556f	-0.061604913
2	0xbd011a96	-0.031519495
3	0x3d286dea	0.041120447
4	0x3c01f441	0.00793177
5	0xbcbc63b7	-0.022996766
6	0xbc499dd7	-0.012305698
7	0x3d340415	0.043949205
8	0x3c894eb7	0.016761167
9	0xbd15634f	-0.03647166
10	0x3c49c933	0.012316036
11	0xbd479781	-0.04872847
12	0xbd1182e6	-0.035525225
13	0x3ca3eb8e	0.020009782
14	0x3cc49589	0.023997085
15	0xbcc59942	-0.02412093
16	0x3c2eac52	0.010661202
17	0xbd2c56dc	-0.042075023
18	0x3cf6c041	0.03012097
19	0xbb7cce8e	-0.0038575265
20	0xbd1f7d6e	-0.03893798
21	0x3d3961e7	0.045259383
22	0x3cca74e1	0.024713935
23	0xbc4a29b8	-0.012339048
24	0xbbaff5c6	-0.0053698746
25	0x3c27aef5	0.010234584
26	0xbd272b8e	-0.04081302
27	0x3c1eb6e8	0.009687163
28	0x3ce2e958	0.027699158
29	0x3c001771	0.007818089
30	0x3d150538	0.03638193
31	0xbd6ff300	-0.058581352
32	0x3d1b5242	0.037920244
33	0x3ad9afe4	0.0016608206
34	0x3d4c53ad	0.049884487
35	0x3c936a97	0.017995162
36	0xbd82d236	-0.06387751
37	0xbd4c2d1a	-0.0498477
38	0x3c1c272f	0.0095308265
39	0xbcaf37d1	-0.02138892
40	0x3d923b97	0.07140272
41	0x3cb2bbaa	0.021818
42	0x3e091127	0.1338545
43	0x3cd391c9	0.025826352
44	0x3c1260a1	0.008934171
45	0x3dc97d10	0.09838307
46	0x3bc575a7	0.006025988
47	0x3d621b0e	0.055201583
48	0xbd73bde8	-0.05950728
49	0xbd27776c	-0.040885374
50	0x3ca4e7ac	0.020130001
51	0x3c20b80a	0.009809503
52	0xbb18c1b6	-0.002330882
53	0x3d2c935c	0.04213272
54	0x3c144bb8	0.009051256
55	0x3db4b44b	0.08823451
56	0xbd3017c1	-0.042991403
57	0xbca01bf1	-0.019544574
58	0x3b1023cb	0.002199399
59	0xbcdc08cd	-0.026859665
60	0x3dc8aed9	0.097989745
61	0xbd4fc551	-0.050725285
62	0x3c747e60	0.014922708
63	0xbcf0d6c1	-0.029399278

regularizer.cnn.convnet.6.weight f4 [64, 64, 3, 3]
0	0xbddf582b	-0.109054886
1	0xbe10287d	-0.14077945
2	0xbdfaeb99	-0.12251968
3	0xbdea49fe	-0.11439894
4	0xbdc6911e	-0.09695648
5	0xbdfede73	-0.124447726
6	0xbe2a662a	-0.16640535
7	0xbe299214	-0.1655963
8	0xbde1e15f	-0.11029314
9	0x3d90157d	0.070353486
10	0x3db39888	0.087693274
11	0x3db42b10	0.08797276
12	0xbc8fd131	-0.017555805
13	0x3d0f2e79	0.03495643
14	0x3c4c50ed	0.012470466
15	0xbd78482d	-0.060615707
16	0xbcdfc17e	-0.027313944
17	0xbc013ada	-0.007887566
18	0x3db05014	0.08609024
19	0x3d8aea5e	0.06782983
20	0x3e13e68b	0.14443414
21	0x3d5c69d6	0.05381187
22	0x3cfb4ec3	0.030677205
23	0x3dab2f71	0.08358658
24	0x3d1e66de	0.03867232
25	0x3b7ed9c9	0.0038887134
26	0x3dab606c	0.083680004
27	0xbc0397d4	-0.008031804
28	0xbd298945	-0.041390676
29	0x3bbcd286	0.005762401
30	0xbcd68e98	-0.02619104
31	0xbd310ab2	-0.04322309
32	0x3b606cd8	0.0034244563
33	0xbc884425	-0.016634056
34	0xbcad4998	-0.021153256
35	0x3d0d2df6	0.03446766
36	0x3caf436a	0.02139445
37	0xbbe5a2e2	-0.0070079425
38	0xbd8f3b2c	-0.06993708
39	0xbc79676e	-0.015222413
40	0xbd8f6551	-0.070017464
41	0x3c2eca16	0.010668298
42	0xbc1980d4	-0.009369094
43	0xbdc07464	-0.093972
44	0xbcc59c87	-0.02412249
45	0xbd1fe391	-0.039035384
46	0xbd6d3d44	-0.057919756
47	0xbd8e8f49	-0.06960923
48	0xbc646c46	-0.01394183
49	0xbcfcfe3d	-0.030882949
50	0xbc29e606	-0.010369783
51	0x3af36852	0.0018570519
52	0xbd0b3ee8	-0.03399554
53	0xbd891401	-0.066932686
54	0xbdbf274c	-0.09333667
55	0x3cf02a2a	0.02931698
56	0x3c9ae4d9	0.018907951
57	0xbdb1da5a	-0.086842254
58	0xbdd0392a	-0.10167153
59	0xbd34f935	-0.044182975
60	0xbdc9d288	-0.09854609
61	0xbca768be	-0.020435687
62	0xbc360440	-0.011109412
63	0x3d08e0b2	0.03341741
64	0xbd6c2bfb	-0.05765913
65	0x3a22ff7f	0.00062178815
66	0xbc97c8c7	-0.018528355
67	0x3b6d9f7f	0.0036258397
68	0x3c13c6ed	0.009019596
69	0x3cc5090a	0.024052162
70	0xbc23bce4	-0.0099937655
71	0xbd0698a0	-0.0328604
72	0x3e1c0527	0.1523634
73	0x3d965953	0.07341256
74	0x3e0006f5	0.12502654
75	0x3d93c809	0.07215888
76	0x3e169ef9	0.14709081
77	0x3e0c73be	0.13716027
78	0x3df64ded	0.12026582
79	0x3e363ea7	0.17797337
80	0x3e45a5ad	0.19301482
81	0x3d9b4ba3	0.07582786
82	0x3d81aad0	0.06331408
83	0x3d29e2f2	0.041476198
84	0x3d42753d	0.04747509
85	0x3d8114b2	0.063027754
86	0x3d0e1014	0.034683302
87	0x3defec75	0.117150225
88	0x3d0700c4	0.032959715
89	0x3d154c48	0.0364497
90	0x3e32aca2	0.17448667
91	0x3e04d38e	0.12971327
92	0x3d565cff	0.05233478
93	0x3df8e91f	0.12153839
94	0x3df61ea0	0.1201756
95	0x3dc4bfd9	0.096069045
96	0x3e32ecce	0.17473146
97	0x3dc7f4b0	0.09763467
98	0x3da8e847	0.082474284
99	0xb9b9ea9d	-0.0003546075
100	0x3a172352	0.0005765456
101	0xbc6bc3dd	-0.014389959
102	0x3d473be1	0.04864109
103	0xbb6d69f0	-0.0036226474
104	0x3d1eefe1	0.038802985
105	0xbc6abfe6	-0.014327979
106	0x3d1e149f	0.038593885
107	0x3d91b4f4	0.07114592
108	0xbd9530fb	-0.07284733
109	0xbc64f996	-0.013975522
110	0xbc120cf9	-0.008914226
111	0x3c6cf664	0.014463041
112	0x3cc68d10	0.024237186
113	0x3c4035c0	0.011731565
114	0xbcd04d78	-0.025427565
115	0xbca3c35c	-0.019990616
116	0xbcf84f89	-0.030311363
117	0x3dd67884	0.10472205
118	0x3da44ef4	0.080228716
119	0x3dcb043d	0.09912918
120	0x3d81396e	0.06309782
121	0x3dbccf69	0.09219248
122	0x3d1d4d35	0.03840371
123	0x3d0f0c73	0.034923982
124	0x3d2e91b2	0.042619415
125	0xbc7cac84	-0.01542199
126	0xbd01804c	-0.031616494
127	0x3cf47770	0.029842108
128	0x3cca9fef	0.024734465
129	0xbd0fdd50	-0.03512317
130	0xbd5444f0	-0.051823556
131	0x3d206ef8	0.039168328
132	0xbd789014	-0.06068428
133	0xbd4b723b	-0.049669486
134	0x3d075841	0.03304315
135	0xbd5b1e26	-0.05349555
136	0x3d8fd6f8	0.07023424
137	0x3cf831e8	0.030297235
138	0x3c337b1d	0.010954645
139	0x3d9868b7	0.07441848
140	0x3d58ee52	0.052961655
141	0xbbaffe41	-0.0053708856
142	0x3d65f716	0.056143843
143	0xba92ee4d	-0.0011209935
144	0x3da14e30	0.07876241
145	0xbc135cac	-0.008994263
146	0xbc27c846	-0.01024062
147	0x3d159bdd	0.036525596
148	0x3cf609af	0.030033914
149	0xbc8f79d9	-0.017514156
150	0x3d6a7b5e	0.05724656
151	0xbbc1a61c	-0.0059096944
152	0x3baa6721	0.005200282
153	0x3d89e2ac	0.06732687
154	0x3c53a8ff	0.01291871
155	0x3d0f0429	0.034916077
156	0x3d752b2c	0.059855625
157	0x3d72142d	0.059101272
158	0xbc9f2655	-0.019427458
159	0x3cba2fe8	0.022727922
160	0x3d20e00b	0.039276164
161	0xbc6e4c15	-0.014544507
162	0x3bb1d56a	0.0054270523
163	0x3c6ae477	0.014336697
164	0xbb13ca67	-0.002255106
165	0xbd0c2bec	-0.034221575
166	0x3c88a8b5	0.016682008
167	0x3c81e3b7	0.015855653
168	0xbd6ec602	-0.058294304
169	0x3b991bfd	0.004672526
170	0x3b97f127	0.004636902
171	0xbd867bea	-0.065666035
172	0xbcb5824f	-0.022156863
173	0xbd857b60	-0.065176725
174	0xbd70aea8	-0.058760315
175	0xbc3ce7df	-0.011529892
176	0xbd84a6b7	-0.06477111
177	0xbd97cdbf	-0.0741229
178	0xbd4b5f51	-0.049651448
179	0xbc8a5f89	-0.016891258
180	0xbdd96177	-0.10614293
181	0xbdf0b592	-0.11753382
182	0xbd8b93a0	-0.068152666
183	0xbdbd7418	-0.09250659
184	0xbdd70081	-0.10498143
185	0xbd51a247	-0.05118015
186	0xbddabf0f	-0.10680973
187	0xbd72c1f6	-0.059267007
188	0xbda74be4	-0.08168772
189	0xbd1f9c62	-0.038967498
190	0xbd4383be	-0.04773306
191	0xbc7731cd	-0.015087557
192	0xbc7d9a66	-0.015478706
193	0xbd07dd2a	-0.033169903
194	0xbd3dee42	-0.0463698
195	0x3b07f7a5	0.0020746973
196	0x3d33c181	0.04388571
197	0x3dc1d297	0.09463995
198	0xbb5e85cf	-0.0033954268
199	0xbbe03683	-0.006842436
200	0xbceb4329	-0.028718548
201	0xbc2a5b56	-0.010397753
202	0xbcf725fc	-0.03016948
203	0x3a26f51a	0.00063689204
204	0x3cf63043	0.03005231
205	0x3c06e678	0.008233659
206	0x3da0c52c	0.078501076
207	0xbd3a6eaf	-0.045515712
208	0xbaec4749	-0.0018026616
209	0x3c06b49c	0.008221772
210	0xbca53903	-0.020168787
211	0xbd811cbe	-0.0630431
212	0xbc418f60	-0.011813968
213	0xbcf54a0d	-0.029942537
214	0xbd59412a	-0.05304066
215	0xbda38280	-0.07983875
216	0xba80fce2	-0.000984099
217	0xbd400568	-0.046880156
218	0x3d5ba87d	0.05362748
219	0x3d34f252	0.044176407
220	0x3ca90fc3	0.020637399
221	0x3d59ea61	0.053202037
222	0x3d71e349	0.059054647
223	0x3cb572c3	0.02214945
224	0x3d1ac47a	0.03778503
225	0x3dc854d8	0.09781808
226	0x3e29d97a	0.16586867
227	0x3e171a61	0.14756157
228	0x3da831b2	0.08212604
229	0x3dde45f9	0.1085319
230	0x3e05ef90	0.13079667
231	0x3da3ad31	0.07992018
232	0x3e22ee86	0.15911302
233	0x3e2ef645	0.17086132
234	0x3d840596	0.06446378
235	0x3d80d3a2	0.06290366
236	0x3dbd0f3f	0.092314236
237	0x3de03a06	0.10948567
238	0x3daa7d48	0.08324677
239	0x3d53f3b2	0.051746078
240	0x3dd7fa49	0.10545785
241	0x3d83f774	0.06443682
242	0x3d948e22	0.07253672
243	0xbbeced58	-0.007230442
244	0x3d23e2a4	0.040011063
245	0x3d630730	0.055426776
246	0xbd0b8c7a	-0.034069516
247	0xbc93c071	-0.0180361
248	0x3cbbf9ed	0.022946322
249	0xbd10ce20	-0.035352826
250	0x3b80a4c4	0.0039258916
251	0xbb2881a2	-0.0025712033
252	0xbd23cb17	-0.039988603
253	0x3c90f830	0.01769647
254	0x3c43f70a	0.011960754
255	0xbd4b8d7b	-0.049695473

regularizer.cnn.convnet.6.bias f4 [64]
0	0x3ddb4829	0.10707123
1	0xbb04ab3d	-0.0020243668
2	0xbd84deec	-0.064878315
3	0xbc359b83	-0.01108444
4	0x3be6eb8a	0.0070471214
5	0x3d81de8a	0.06341274
6	0xbe034dc0	-0.12822628
7	0x3d31a9b8	0.043374747
8	0x39317b86	0.00016926051
9	0x3da42e70	0.0801667
10	0xbdc468a9	-0.09590275
11	0xbc8797cf	-0.01655188
12	0x3d99c577	0.075083666
13	0xbcb943ec	-0.022615395
14	0x3d6448f1	0.055733625
15	0xbd573085	-0.052536506
16	0x3d16198a	0.03664545
17	0x3d275e79	0.04086158
18	0x3d1a76e1	0.037711028
19	0xbbec8861	-0.007218406
20	0xbc86c9fa	-0.016453732
21	0x3d9118a7	0.0708478
22	0x3d56d9ff	0.05245399
23	0xbd7c4d88	-0.061597377
24	0xbddb0816	-0.10694902
25	0x3dcdd895	0.10051075
26	0xbbb823d2	-0.0056195045
27	0xbd37621e	-0.044771306
28	0x3e222ba5	0.15836962
29	0xbd86bd34	-0.065790564
30	0x3cc01cd0	0.023451239
31	0x3c9ce0c0	0.019150138
32	0xbcad6404	-0.021165855
33	0x3d0a5445	0.033771772
34	0x3ce85342	0.028360013
35	0x3d494462	0.04913748
36	0x3c815cd9	0.015791344
37	0xbc0e2e1f	-0.008677988
38	0x3e000c5a	0.12504712
39	0xbe445a8c	-0.19175166
40	0x3d4e0a1f	0.05030262
41	0x3cc224c0	0.023699164
42	0xbbf22e37	-0.007390763
43	0x3e027af2	0.12742212
44	0xbdc34265	-0.09534148
45	0xbe0286a9	-0.12746681
46	0xbd3e8392	-0.046512194
47	0xbdcafc31	-0.09911383
48	0x3d956f8d	0.07296667
49	0xbe0a8491	-0.13527133
50	0xbdd40f83	-0.10354521
51	0xbcfc0655	-0.030764738
52	0x3d95242e	0.07282291
53	0x3df58364	0.119879514
54	0xbddd456c	-0.10804257
55	0xbddd1972	-0.10795869
56	0x3d1ace51	0.037794415
57	0x3d742fa4	0.059615746
58	0x3db41c5f	0.08794474
59	0xbe05a19b	-0.13049929
60	0xbc9b5041	-0.018959166
61	0x3d264fa5	0.0406033
62	0x3aff81d6	0.001949365
63	0x3d4fddd9	0.05074868

regularizer.cnn.convnet.8.weight f4 [32, 64, 3, 3]
0	0x3dbed6a8	0.09318286
1	0x3da9d524	0.082926065
2	0x3d14a188	0.03628686
3	0x3d7128ee	0.058876924
4	0x3daa659a	0.0832016
5	0x3ddbbff8	0.107299745
6	0x3df6009b	0.12011834
7	0x3dcd6973	0.100298785
8	0x3dc769c3	0.09736969
9	0xbe43bd61	-0.19115211
10	0xbe47f34b	-0.19526403
11	0xbe40def3	-0.18835048
12	0xbe3edfef	-0.18640111
13	0xbe073b3f	-0.13206194
14	0xbe24935f	-0.16071843
15	0xbe565a9a	-0.20932999
16	0xbe53bdcf	-0.20677875
17	0xbde2c00e	-0.11071788
18	0x3d5e67d2	0.05429823
19	0x3e00fd09	0.12596525
20	0x3e02483a	0.12722865
21	0x3d5ebf60	0.05438173
22	0x3d7310f9	0.05934236
23	0x3d8bddfd	0.0682945
24	0x3db62ae0	0.088948965
25	0x3dee7114	0.11642662
26	0x3e0041f1	0.12525155
27	0x3d1d3db2	0.038388915
28	0x3d4f8fb5	0.05067416
29	0x3d52dccd	0.051480103
30	0x3d6fa931	0.058510963
31	0x3b8cb1ad	0.0042936415
32	0x3d07e4ce	0.03317719
33	0x3d510e24	0.051038876
34	0xbc1d6d03	-0.00960851
35	0x3d1d6a48	0.038431436
36	0x3e32e905	0.17471702
37	0x3d8babc2	0.068198696
38	0x3de90edf	0.113797896
39	0x3ddebe72	0.10876168
40	0x3cd5a766	0.026080798
41	0x3d55698e	0.052102618
42	0x3ddca9b5	0.107745565
43	0x3c66b08b	0.014080177
44	0x3cfa16b2	0.0305284
45	0x3cad9f7b	0.02119421
46	0x3d5a9564	0.053365126
47	0x3db73acf	0.08946764
48	0x3cd579e4	0.026059099
49	0x3dc04cee	0.09389673
50	0x3c9a936e	0.018869128
51	0x3d052dc9	0.032514367
52	0x3d1dc5cc	0.038518712
53	0x3d80b798	0.06285018
54	0xbe91275f	-0.2835035
55	0xbe900758	-0.28130603
56	0xbe90d330	-0.28286123
57	0xbe841fb4	-0.25805438
58	0xbe62a0e3	-0.22131686
59	0xbe64432c	-0.22291249
60	0xbe4dc02c	-0.20092839
61	0xbe897e8d	-0.26854363
62	0xbe8da9ab	-0.2766851
63	0xbe70f92f	-0.23532556
64	0xbe798573	-0.24367313
65	0xbe73286d	-0.2374589
66	0xbe694590	-0.22780442
67	0xbe711b6d	-0.23545618
68	0xbe44758f	-0.1918547
69	0xbe4d2e8d	-0.20037289
70	0xbe65b7dc	-0.22433418
71	0xbe6bbe11	-0.23021723
72	0xbeaef7f0	-0.34173536
73	0xbeba6c6d	-0.36410847
74	0xbe92816f	-0.28614375
75	0xbe87f9a4	-0.26557648
76	0xbe71a0d7	-0.23596512
77	0xbe426ca2	-0.18986753
78	0xbe907fcd	-0.28222504
79	0xbead9d2a	-0.3390897
80	0xbe9e7144	-0.3094579
81	0x3d2008ed	0.039071012
82	0x3d3e6061	0.046478633
83	0x3d909954	0.07060495
84	0x3cb826cd	0.02247944
85	0x3d58eb1e	0.0529586
86	0xbb7a2eaa	-0.0038174787
87	0x3d0e9191	0.03480679
88	0x3ca6c381	0.020356895
89	0x3bd2055b	0.00640933
90	0x3e380f19	0.1797451
91	0x3e219214	0.1577838
92	0x3e2cc55d	0.16872163
93	0x3dff4803	0.12464907
94	0x3e3794ad	0.17927809
95	0x3e2faef6	0.17156586
96	0x3e405872	0.18783739
97	0x3e086446	0.13319501
98	0x3df851e1	0.12124992
99	0xbdef0009	-0.116699286
100	0xbdf439df	-0.119251005
101	0xbe065daf	-0.13121675
102	0xbe13069e	-0.14357993
103	0xbe0f70ac	-0.14007825
104	0xbdc97080	-0.09835911
105	0xbe1f3f9a	-0.15551606
106	0xbe0c76f5	-0.13717254
107	0xbe21869a	-0.15774003
108	0xbb3a3224	-0.0028411234
109	0x3d2a04a1	0.04150832
110	0x3d10fc12	0.035396643
111	0xbc4de49c	-0.012566712
112	0x3b56ff82	0.0032806103
113	0x3d08e299	0.033419225
114	0x3d533875	0.051567513
115	0x3b6fcb47	0.0036589669
116	0x3d20d01c	0.03926097
117	0x3e045926	0.12924632
118	0x3de355c3	0.11100342
119	0x3e304740	0.1721468
120	0x3ddaa089	0.10675151
121	0x3e245026	0.16046199
122	0x3e251317	0.16120563
123	0x3e2cc1c8	0.16870797
124	0x3de23cc8	0.11046749
125	0x3df380c9	0.11889798
126	0x3bf4f0a2	0.0074749747
127	0x3d26d661	0.04073179
128	0xbc5c1b8b	-0.013434301
129	0xbc058077	-0.008148304
130	0x3d104be5	0.03522863
131	0x3c99d352	0.018777523
132	0x3d58270f	0.052771624
133	0x3a909dec	0.0011033393
134	0x3b3e7a8c	0.0029064743
135	0x3def4207	0.116825156
136	0x3e04632e	0.12928459
137	0x3daf1595	0.08549038
138	0x3e05d9c3	0.13071351
139	0x3de37a8c	0.11107358
140	0x3da75bc8	0.08171803
141	0x3d9f0a51	0.077656396
142	0x3df02c00	0.11727142
143	0x3e056651	0.13027312
144	0xbc7b2b6a	-0.015330175
145	0xbc8adb77	-0.016950352
146	0x3c6b3476	0.014355769
147	0x3c4e364e	0.012586189
148	0x3cb34e07	0.021887792
149	0xbc71850e	-0.014741195
150	0x3d7464d0	0.059666455
151	0x3b78fca1	0.0037992375
152	0xbb569614	-0.0032743262
153	0x3c3b4f39	0.011432462
154	0xbc9559cb	-0.018231293
155	0x3d7170c7	0.058945443
156	0xbb647b5a	-0.0034863562
157	0xbc033f27	-0.008010662
158	0x3c30d488	0.010792859
159	0xbcb69151	-0.02228609
160	0xbaa5f56b	-0.0012661641
161	0x3ad8126e	0.0016484985
162	0xbb98ec17	-0.004666816
163	0x3cae5711	0.02128175
164	0x3c60c7bf	0.013719498
165	0x3c944b5c	0.01810234
166	0x3d559adc	0.05214964
167	0x3d554cba	0.052075125
168	0x3cb36ab1	0.02190146
169	0x3bb77e5c	0.00559978
170	0x3d06c967	0.032906916
171	0xbe7b6a1e	-0.24552199
172	0xbe6241ac	-0.22095364
173	0xbe6ad4de	-0.22932765
174	0xbe5bce0d	-0.21465321
175	0xbe284bbc	-0.1643514
176	0xbe233c99	-0.15941085
177	0xbe3a5417	-0.1819614
178	0xbdee4f15	-0.116361775
179	0xbe2bbf18	-0.16772115
180	0x3e3d3cb9	0.18480195
181	0x3e2ed5b7	0.17073713
182	0x3df7a826	0.12092619
183	0x3dd5666e	0.104199275
184	0x3ddec264	0.10876921
185	0x3dff4554	0.12464395
186	0x3e193ae8	0.14963877
187	0x3e2844ef	0.16432546
188	0x3dfcbcbf	0.12340688
189	0xbdddb3de	-0.108253226
190	0xbe161f0b	-0.1466028
191	0xbddc6132	-0.10760726
192	0xbdd99667	-0.1062439
193	0xbdc76bbf	-0.09737348
194	0xbdbbbd3d	-0.09166954
195	0xbd762d5f	-0.060101863
196	0xbdab4b7d	-0.083640076
197	0xbd974db1	-0.07387865
198	0xbc7204a1	-0.014771611
199	0x3d36e787	0.044654395
200	0x3d1995da	0.037496425
201	0x3c046102	0.008079769
202	0xbcf886a4	-0.03033764
203	0xbd003f0e	-0.031310134
204	0x3ca453da	0.020059515
205	0x3ccf7791	0.025325568
206	0x3d4c774a	0.04991845
207	0xbe4c52f2	-0.19953516
208	0xbe461aad	-0.19346114
209	0xbe02b5ef	-0.12764715
210	0xbe0fc5fd	-0.1404037
211	0xbdcb4634	-0.099254996
212	0xbdf17963	-0.11790731
213	0xbe0483e1	-0.12940933
214	0xbe00d8a2	-0.12582639
215	0xbe0ed9db	-0.13950293
216	0xbd5aa6d8	-0.05338177
217	0xbd7abda5	-0.061216015
218	0xbdde5e27	-0.10857802
219	0xbdcb22c1	-0.09918738
220	0xbd9fb4a4	-0.07798126
221	0xbd276bab	-0.040874165
222	0xbd43f04a	-0.04783658
223	0xbd2e5030	-0.04255694
224	0xbdd0da45	-0.101978816
225	0x3d84c7bc	0.06483409
226	0x3d2ae42e	0.041721515
227	0x3d2a2cc7	0.04154661
228	0xbad8d890	-0.0016544033
229	0x3cf7aee8	0.030234769
230	0x3ccf8ba0	0.025335133
231	0x3c9db51c	0.019251399
232	0x3cf23591	0.029566558
233	0x3c805599	0.015665816
234	0x3d2a66f5	0.041602094
235	0x3d438660	0.04773557
236	0x3d088bff	0.033336636
237	0xbc20f70c	-0.009824526
238	0x3d419e75	0.047270257
239	0xbca9c2e0	-0.020722806
240	0x3c3e26f3	0.011605966
241	0x3d35a129	0.044343147
242	0x3d6a446b	0.057194155
243	0x3e1c1fbe	0.15246484
244	0x3e26202b	0.16223209
245	0x3e1480d2	0.14502266
246	0x3df93a1f	0.12169289
247	0x3dd45c56	0.10369174
248	0x3e0aa710	0.13540292
249	0x3e291eef	0.16515706
250	0x3e1d35fa	0.15352622
251	0x3e15a7a8	0.14614737
252	0x3d3c06f9	0.045905087
253	0x3d8866c6	0.066602275
254	0x3d2589de	0.040414684
255	0x3d655b82	0.05599547

regularizer.cnn.convnet.8.bias f4 [32]
0	0x3cfcbf5f	0.030852972
1	0x3d8bba22	0.068226114
2	0xbd8b10b7	-0.067902975
3	0xbda50ec0	-0.08059454
4	0x3dc17526	0.094461724
5	0xbdaf8d68	-0.08571893
6	0xbc39bb94	-0.011336226
7	0xbd152cc4	-0.036419645
8	0x3c8cdc7a	0.017194975
9	0xbd90bbb2	-0.0706705
10	0xbd3d20b6	-0.046173774
11	0x3c6a814f	0.014313056
12	0x3caa9996	0.020825189
13	0x3d71d32e	0.059039287
14	0xbd9909d0	-0.07472575
15	0x3da35e84	0.07977012
16	0xbd9040f1	-0.070436366
17	0x3db62a02	0.08894731
18	0xbcea1334	-0.02857361
19	0xbd03b72a	-0.0321571
20	0xbd9e2744	-0.07722333
21	0xbcb0151e	-0.021494444
22	0xbc35f960	-0.011106819
23	0xbd7328fc	-0.059365258
24	0xbd464660	-0.04840696
25	0xbcd4b397	-0.025964541
26	0xbc2b2362	-0.010445448
27	0x3c0e3e47	0.00868184
28	0xbc02872a	-0.007966796
29	0x3d9a6efd	0.075407006
30	0x3d87af01	0.06625176
31	0x3a8f4ff9	0.0010933868

regularizer.cnn.convnet.10.weight f4 [32, 32, 3, 3]
0	0xbd5e018f	-0.054200705
1	0xbd499168	-0.049210936
2	0xbd8814b2	-0.06644572
3	0xbd674876	-0.05646559
4	0xbd8b6a08	-0.06807333
5	0xbce9bc53	-0.028532183
6	0xbd8a995b	-0.067675315
7	0xbdccc6a1	-0.09998823
8	0x3ad74958	0.0016425056
9	0xbe9daba1	-0.30795005
10	0xbe84e302	-0.25954443
11	0xbe7ccc20	-0.24687243
12	0xbe912fcb	-0.28356776
13	0xbe7eb6fa	-0.24874488
14	0xbe8026c9	-0.2502959
15	0xbeb0a526	-0.34500998
16	0xbe8f6905	-0.2800981
17	0xbe80749f	-0.25088975
18	0x3e18fbd3	0.14939813
19	0x3d6d0a68	0.057871252
20	0x3d5b0403	0.053470623
21	0x3dd1bd52	0.10241188
22	0x3b3074f5	0.002692518
23	0x3d88c4a0	0.06678128
24	0x3db18950	0.086687684
25	0x3c095201	0.008381368
26	0x3cb6c171	0.022309037
27	0x3ddc4cfe	0.107568726
28	0x3e156edd	0.14593072
29	0x3e008208	0.12549603
30	0x3cfba249	0.030717032
31	0x3e0dd0e8	0.13849223
32	0x3db89179	0.09012122
33	0x3c1fad08	0.009745844
34	0x3bfe3f1f	0.0077589895
35	0x3da9eac7	0.08296733
36	0xbe022b38	-0.12711799
37	0xbdf60ff2	-0.1201476
38	0xbda22c8b	-0.07918652
39	0xbdffaa1c	-0.12483618
40	0xbe0d21b9	-0.13782395
41	0xbe1883f0	-0.1489408
42	0xbe386480	-0.18007088
43	0xbe3d035e	-0.18458316
44	0xbdf71aa9	-0.12065632
45	0x3d610c57	0.05494341
46	0x3dc9932b	0.09842523
47	0x3e0b61b5	0.13611491
48	0x3d9cf2e9	0.07663519
49	0x3ddfab4b	0.109213434
50	0x3d84618d	0.06463919
51	0x3df58aa3	0.119893335
52	0x3e11a070	0.14221358
53	0x3dd99b44	0.10625318
54	0xbe24be46	-0.16088209
55	0xbda21397	-0.07913893
56	0xbbdea2d1	-0.0067943116
57	0xbe034231	-0.12818219
58	0xbdb520d1	-0.0884415
59	0xbd5ff965	-0.0546812
60	0xbe39a16d	-0.18127985
61	0xbde08d91	-0.10964502
62	0xbd8028a1	-0.06257749
63	0x3e63bd7b	0.2224025
64	0x3de1ab13	0.11018958
65	0x3e29cee6	0.16582832
66	0x3e0f1775	0.13973792
67	0x3e167a3d	0.14695068
68	0x3e138539	0.14406289
69	0x3e166528	0.14687026
70	0x3ddd7386	0.1081305
71	0x3df23fce	0.11828576
72	0xbdc896b1	-0.09794367
73	0xbe04647a	-0.12928954
74	0xbdd10aa6	-0.10207109
75	0xbe50cc47	-0.20390426
76	0xbdee2042	-0.116272464
77	0xbdd13b46	-0.10216384
78	0xbd57212b	-0.052521866
79	0xbda025b3	-0.078196906
80	0xbd1990f2	-0.037491746
81	0x3e00a5ac	0.12563199
82	0x3dfa80a9	0.12231571
83	0x3df005ac	0.11719832
84	0x3dcb7692	0.09934725
85	0x3db00b6a	0.08595927
86	0x3dec264a	0.115307406
87	0x3db2ff93	0.08740153
88	0x3daaebc2	0.083457485
89	0x3e12bdf5	0.14330275
90	0x3d870cfb	0.06594273
91	0x3dfa04c2	0.12207939
92	0x3e193393	0.1496108
93	0x3df00177	0.117190294
94	0x3d9a046e	0.07520376
95	0x3e02ca11	0.12772395
96	0x3d19be6f	0.037535127
97	0x3ce912ed	0.028451407
98	0x3dd4b48f	0.10386001
99	0x3cb868f5	0.022510985
100	0x3d193959	0.037408207
101	0x3df2cec3	0.11855843
102	0x3c927fe6	0.017883252
103	0xbc93cb69	-0.01804133
104	0xbbcab447	-0.0061860415
105	0xbb82bdd8	-0.0039899163
106	0x3d02bb73	0.031917047
107	0x3d7d6f2a	0.061873592
108	0xbd285a1b	-0.041101556
109	0xbc72906a	-0.014804939
110	0xbd882109	-0.06646926
111	0x3d439346	0.047747873
112	0x3da401eb	0.08008178
113	0x3b555d8c	0.003255698
114	0xbd214fbb	-0.039382678
115	0x3cdb6476	0.026781302
116	0xbd189386	-0.037250064
117	0x3daefdc1	0.085444935
118	0x3bb1ed7b	0.005429921
119	0xbd9413a9	-0.072303124
120	0x3d1ee681	0.038794044
121	0xbdbba817	-0.0916292
122	0x3c95575a	0.018230129
123	0x3cdabd22	0.026701514
124	0xbc9da661	-0.019244375
125	0xbcb357bd	-0.021892423
126	0xbaec7837	-0.0018041198
127	0x3d196ab6	0.037455283
128	0x3d588b54	0.05286725
129	0xbc89cc54	-0.016821064
130	0x3d9d8f80	0.07693386
131	0x3d648993	0.055795263
132	0x3d7803b0	0.06055039
133	0x3d8303e3	0.06397226
134	0x3d86354e	0.06553136
135	0xbdcbbbe9	-0.099479504
136	0xbda55e02	-0.08074571
137	0xbe60e749	-0.21963228
138	0xbcd5c82e	-0.02609643
139	0xbd9acddb	-0.07558795
140	0xbe1ddcaf	-0.15416215
141	0xbe00ee28	-0.1259085
142	0xbd8cbc9e	-0.068719134
143	0xbe20f669	-0.15718998
144	0x3e25cda5	0.16191728
145	0x3e67ba6f	0.22629713
146	0x3e3a7fd7	0.1821283
147	0x3daa25e5	0.08308009
148	0x3ddca2e4	0.107732564
149	0x3df1d81a	0.11808796
150	0x3dbcad65	0.0921276
151	0x3e2b396c	0.16721123
152	0x3e159298	0.14606702
153	0xbdb65e6e	-0.0890473
154	0xbd85cb3e	-0.06532906
155	0xbd93d2c4	-0.07217935
156	0xbccc547f	-0.024942635
157	0xbdb13501	-0.08652688
158	0xbd12e384	-0.035861507
159	0xbe011b0f	-0.12607978
160	0xbe1ff52a	-0.15620866
161	0xbd82eacb	-0.063924395
162	0x3d373d5a	0.044736244
163	0x3dd974b3	0.10617962
164	0x3ca11e3a	0.019667733
165	0x3c9d667a	0.019213904
166	0x3d440e22	0.04786504
167	0xbda0686d	-0.07832418
168	0xbd964786	-0.07337861
169	0xbb2c0ed3	-0.0026253953
170	0xbe167dd2	-0.14696434
171	0x3da064ff	0.078317635
172	0x3daae8e7	0.08345204
173	0x3d9d43e6	0.07678966
174	0x3db8873d	0.0901017
175	0x3d34e3c6	0.044162534
176	0x3cf5b2a8	0.029992417
177	0x3da14542	0.07874538
178	0x3d44a3d2	0.048007794
179	0x3d016b10	0.031596243
180	0x3e164b87	0.14677249
181	0x3e16571a	0.14681664
182	0x3e28ff14	0.16503555
183	0x3e0a124c	0.13483542
184	0x3d0881a1	0.03332675
185	0x3da926db	0.08259364
186	0x3cc0ec2a	0.023550112
187	0x3d2a873b	0.041632872
188	0x3e11587b	0.14193909
189	0x3bac95ae	0.0052668666
190	0x3ba74bb0	0.005105458
191	0x3da3da4e	0.08000623
192	0xbd555aa9	-0.052088413
193	0x3d02e37d	0.03195523
194	0x3d7c41a6	0.061586045
195	0x3cd2759a	0.025690842
196	0x3be45219	0.0069677946
197	0xb8aeb777	-8.3311395e-05
198	0xbe452d25	-0.19255503
199	0xbe6e828a	-0.23291984
200	0xbe735c0d	-0.23765583
201	0xbe4d88b3	-0.20071678
202	0xbe955d4f	-0.2917275
203	0xbe5c1f8d	-0.2149641
204	0xbe8adbea	-0.27120906
205	0xbe55dfcd	-0.20886154
206	0xbe240927	-0.16019116
207	0x3d348b5e	0.044078223
208	0x3dd69671	0.10477913
209	0x3d2d8ead	0.042372394
210	0x3daf854c	0.08570346
211	0x3ce51435	0.027963737
212	0x3dedb0e1	0.116060026
213	0x3da103bb	0.0786204
214	0x3d9f284e	0.077713594
215	0x3da5de01	0.080989845
216	0x3e1e4cb7	0.15458952
217	0x3ddb655d	0.10712693
218	0x3e4aecd2	0.19816902
219	0x3dc5ec76	0.09664242
220	0x3d8123c9	0.063056536
221	0x3e31622a	0.17322603
222	0x3db4d194	0.08829036
223	0x3d82d9cb	0.06389197
224	0x3de10c8c	0.10988721
225	0x3e03686d	0.12832804
226	0x3e0b0f44	0.13580042
227	0x3d8300dd	0.06396649
228	0x3d7d560a	0.06184963
229	0x3d98eb90	0.07466805
230	0x3dbffc1f	0.0937426
231	0x3daf6803	0.085647605
232	0x3dd7fcac	0.1054624
233	0x3d02c1a7	0.031922963
234	0xbd71fbc4	-0.059077993
235	0x3c1526f1	0.009103523
236	0x3d9b9c43	0.07598164
237	0xbe1b8f7a	-0.1519145
238	0xbe760c3a	-0.24028102
239	0xbdc0c3f6	-0.094123766
240	0xbe37665b	-0.1791014
241	0xbe4916b9	-0.19637574
242	0xbdab7583	-0.08372023
243	0xbe6a9453	-0.22908144
244	0xbe55380b	-0.2082216
245	0xbe1e6219	-0.15467109
246	0xbe833718	-0.2562797
247	0xbe551f67	-0.2081276
248	0xbe00effa	-0.12591544
249	0xbe31121b	-0.17292063
250	0xbe6fb792	-0.2340987
251	0xbe1bed89	-0.15227331
252	0x3d990b66	0.07472877
253	0x3d6115f6	0.054952584
254	0x3ded264b	0.115795694
255	0x3d49ac27	0.049236443
