weights/score_parameter_fitting_for_Denoising/WCRR_fitted_parameters_with_IFT_for_Denoising.pt (torch, 58854 bytes, 4 tensors)

regularizer.scaling f4 [1, 64, 1, 1]
00000000: 37ef 6740 5902 4f40 eefc 5940 ace0 6740
00000010: 0b0a 5a40 e8dc 7840 cb73 5e40 573e 1141
00000020: 48c9 6340 32c7 7640 de37 3940 76f0 6540
00000030: d9e4 6a40 dc53 6640 afc8 6440 0961 7340
00000040: 9f75 6640 28ce 6f40 a7f8 6840 b022 7a40
00000050: c954 4a40 f551 4d40 e404 6a40 174e 7840
00000060: 512f 3f40 710a 5340 9965 6d40 28b0 7d40
00000070: f81d 6740 a63f 6e40 a8c9 4440 52c7 3f40
00000080: a42f 7240 fd1c 5f40 098f 6740 06a1 4f40
00000090: 569a 6d40 4af8 6e40 ef61 6640 24d0 8240
000000a0: bdbb 6a40 ea8e 6740 121b 7a40 e443 6f40
000000b0: dbd2 6a40 bc2a 8040 4ffc 7140 d704 6b40
000000c0: 0ecc 5d40 8aee 7240 b9bb 7140 aaaa 6040
000000d0: b3d5 7740 ffd9 7640 ab0b 6140 48fc 5840
000000e0: 32b7 5540 d9d7 7640 89ff 7140 d877 6e40
000000f0: 2ec4 7940 d3fa 5f40 ae49 5140 34e9 6540
3.6239755 3.2345183 3.4060626 3.623088 3.406863 3.888483 3.4758174 9.07772
3.5591602 3.855908 2.8940349 3.5928016 3.6702178 3.5988684 3.5747488 3.8027976
3.600929 3.7469578 3.6401765 3.9083672 3.1614249 3.2081273 3.6565485 3.8797662
2.987263 3.2975123 3.709326 3.9638767 3.6112041 3.7226348 3.0748081 2.9965405
3.7841578 3.4861443 3.6181052 3.244203 3.712545 3.7339044 3.5997274 4.087908
3.6677086 3.6180978 3.9079022 3.7385187 3.6691196 4.0052166 3.7810247 3.6721704
3.4655795 3.7958093 3.7770827 3.5104165 3.8724182 3.8570554 3.5163372 3.390398
3.3393064 3.8569243 3.7812216 3.7260647 3.9025989 3.499684 3.270122 3.5923586

regularizer.filters.0.parametrizations.weight.original f4 [4, 1, 5, 5]
00000000: 2424 c1bd b7cd 05be 4e15 ffbe 4baf 0cbe
00000010: dee6 cc3e f278 ef3d 9e31 a5be 8af8 813e
00000020: 82b7 5cbf e614 253e 6df5 c73e 47ee 2f3f
00000030: d1c2 73bf 2208 523f 375e 55bc d407 f8be
00000040: 4d3e 9b3e 6627 b6bd 8dc4 3a3e 2865 ba3d
00000050: 4ab2 2c3e c0e7 e53d 5d59 8bbf 80ee 903f
00000060: 8714 91be da47 60be 1afe 013e 92a1 22bf
00000070: e901 583f 34bf 5abe b49b b93b c569 3abd
00000080: 7de3 d2be 4b97 913d 8bce c93e 6e15 e5bd
00000090: a324 c63f ffc8 aa3f a1e5 9bbf 17f2 d2bd
000000a0: 42da f5be 421c 0b3e d964 0cbf cffa 54bf
000000b0: 10ae 943d ff91 babd ee2c da3d fa1e 1fbf
000000c0: 981e 84bd 5990 ccbe f99b 6bbb cf13 06be
000000d0: e053 173f 6cca d53d 5e7e c9be 58e9 5bbe
000000e0: d9b7 1d3d febf aabe 6015 2ebf a6ad 2e3e
000000f0: eaf3 1ebf 88d2 6f3f 277e da3e c6eb 713f
00000100: fa6c d93e 38b0 34bf 10f5 89bf e4af 143e
00000110: bfc3 c2be 1fdd d2be 2e0a 44be 7cbc 0fbf
00000120: 8c73 2abe 9e3e a6be 3a03 dc3d ae7e 78be
00000130: d12e 683e f429 cbbe 08c6 66bd dab3 febd
00000140: 9b9e d8bd a844 babd 0304 d0bd 8d83 13bf
00000150: 9d2c 84be 19f1 4fbe 39b5 683e cb30 153f
00000160: c6d9 a03f f170 a3be 949f 133e 644a dc3e
00000170: fa5d 16bf ec49 d13d 4a79 b03d e3ec 11be
00000180: b147 d5be d933 253f db88 5fbe 0988 0bbe
-0.094307214 -0.13066755 -0.49820942 -0.13738744 0.40019888 0.1169299 -0.32264417 0.25384933
-0.8621751 0.16121253 0.39054433 0.6872296 -0.9521914 0.8204366 -0.013022951 -0.48443472
0.3032097 -0.088942334 0.1823904 0.09101325 0.16864887 0.112258434 -1.0886647 1.1322784
-0.28335974 -0.21902409 0.12694588 -0.63527787 0.84377915 -0.21362 0.005664313 -0.045511026
-0.41189185 0.07108935 0.39415392 -0.11185728 1.5479931 1.3342589 -1.2179452 -0.10300081
-0.4801808 0.13584998 -0.5484138 -0.83195204 0.07259762 -0.09109878 0.10653101 -0.6215664
-0.06451148 -0.3995388 -0.0035951121 -0.13093494 0.5911236 0.104389995 -0.39354223 -0.21475732
0.03850541 -0.33349603 -0.68001366 0.17058429 -0.62090933 0.9368062 0.42674372 0.94500387
0.42465955 -0.7058139 -1.0777912 0.14520222 -0.38039967 -0.41184327 -0.19144508 -0.5614698
-0.1664564 -0.32469648 0.10742803 -0.24267074 0.22674109 -0.39680445 -0.0563412 -0.12436648
-0.105771266 -0.090951264 -0.10157015 -0.57622606 -0.25815287 -0.20306815 0.22725381 0.5827758
1.2566459 -0.31922105 0.14416343 0.43025506 -0.58737147 0.102191776 0.08616884 -0.14250521
-0.4165626 0.6453224 -0.2182955 -0.13626112

regularizer.filters.1.weight f4 [8, 4, 5, 5]
00000000: 60d6 abbd 71b9 3bbe 4104 253f 737d 4a3e
00000010: d2a5 913e 1c29 4a3f 1c04 c3be 9801 45bf
00000020: 7a0a ff3d 3645 4fbd 1eca a7be b32a ea3e
00000030: deb2 d43e 61dc 76bf 709d 72be 8ee5 5cbe
00000040: cff7 563f 7e74 d63d 8989 383f 5c5e 763e
00000050: dda8 e93e b080 42be d7c1 b6be 7da5 af3e
00000060: e661 cc3d 4d60 c6be 7313 adbd e763 313f
00000070: d7d9 b13e 5ea8 f73e 55b6 60be a422 903f
00000080: 15bf 273f f269 15be 0bf0 163e bf7b 6ebe
00000090: f9ec 3c3f f6fa c5bf c9ca a5bf d329 a0bd
000000a0: 0380 313f e365 0fbf 83f0 d03e 7692 083f
000000b0: f2f6 3abe ec84 a13c 84a2 193e f6e7 213e
000000c0: 5587 103f 4fad 19bf ab33 c83e ac6a 2c3e
000000d0: f4f0 b33d 4155 353f ace3 37bf 5d92 2a3d
000000e0: 4232 173e d7ba c63c 8078 183f 3550 6c3e
000000f0: cb68 8fbe a6ef 0dbf 998b 8bbe 3661 32bf
00000100: 4539 533f c0c1 e8bd 9a51 083f 52fe 123f
00000110: 396c 28bf bd47 073e 3cdf e1be 589b 4f3e
00000120: 1425 c2be 45b4 8abe 5deb bdbe caed 943e
00000130: 0b66 c8be 1b2d 6dbe 1142 253f 78b5 a5bd
00000140: 641c 4b3f ca55 f0be c4c0 ca3e 1068 edbe
00000150: 5e55 ef3e 2ca0 d6be 010b 1f3e da99 5dbf
00000160: 0720 16be b822 2ebe 62e3 fc3e 5803 853e
00000170: 2985 6c3f 4785 5f3f e7be 403e 54ca 843d
00000180: 91a7 f33e ea67 b93e 2830 4b3e 3411 febe
00000190: 0c01 4dbf cefc 823f 2a81 81bf e634 553f
000001a0: 8aed 43be ed78 2e3e 6872 84bf 1981 5b3f
000001b0: 9b60 09bf b87e 9b3e 2ed7 023e 7bb9 073f
000001c0: 93b6 38bf 428f 3b3f 0e6b cbbe cd46 ddbe
000001d0: 123b 5cbd 593e e4bd 527f f43d 82ac 9a3e
000001e0: df2f 0f3f ccc1 173e 4ae3 b13e 69ea fb3e
000001f0: 35fc e83d a8c4 803b 59bb 24bf c5de 70be
00000200: e519 953f 0481 85be 9a2d ffbe 3dea 1cbf
00000210: 9eb2 98bf 9b5a a7bd b9cd 6bbf 1206 e2be
00000220: 6ccc 97be 4496 183e a4c5 3d3f c9c7 bd3e
00000230: e750 683f 2b99 2b3f a098 9abe 22fd 663e
00000240: ae53 b7be e569 aebe 0b54 58bf d695 38bc
00000250: 639e fa3d 7179 9b3d c23b 153e eba2 da3d
00000260: e9b6 bebe 3d8c 2abe e9f3 e7be fecb 01bd
00000270: 3461 33bf fefb 7fbf 2e83 65bf 5222 71bf
00000280: cff1 a1bd b70e 9b3e a0ec 9c3e 42bb 8cbd
00000290: 2d7f 0bbf d5f1 463e 03e3 50be e259 84bc
000002a0: 221a 40bf 6cd6 34bf 1112 703e 0dc5 0b3d
000002b0: 7752 223f ad0e cfbe d3a0 f6bd d7b4 39bf
000002c0: 4770 493d 57e7 1cbe daac 04bf 9645 993d
000002d0: 8cb9 b63e bcba b3be eef9 edbe 1059 763c
000002e0: f283 fabe fabd f1be fc46 723f 8b3f 2abf
000002f0: 4c6e 4b3f 996e 59bf ac9c 9fbd 59e1 0fbf
00000300: c3c9 433d 8817 08bf 914d 823e 8065 873e
00000310: 1c57 933e 7c67 d23d 279c 0a3c 811a fabe
00000320: 1212 44bf 57a1 45bf a8e3 9d3e 3bed c33e
00000330: 5af3 063e b3bc 453f dbec c2be 14c0 fb3c
00000340: 2c62 47bb 833d 283e e8b6 163f 746d b4bf
00000350: aeed 4d3f 1b75 643f a448 4f3f 8c57 203e
00000360: cb39 e23d 1583 2dbe a34d c83c bdfa 0cbe
00000370: c8ac fcbe 8ce7 0fbf 7b20 9c3e 18ce eb3e
00000380: 31f1 44be ef49 bd3e a214 4fbc 0127 083f
00000390: 6323 663f d109 753e 55e5 b53e fb1c 87bc
000003a0: 7286 3f3f 8bfa 953f e9ef 683c bc17 0a3e
000003b0: c80f be3f 5417 453f bc94 c03f e64d 07bf
000003c0: 4c7a 6a3e 99af 183f 074d 2abf b273 863f
000003d0: dbc0 873e 46c2 903d 4938 a43e 8160 303f
000003e0: b1c2 073f c0f6 50be e6cc 06be 5067 b43d
000003f0: 766a ad3e bb91 3f3e b754 d9be 3426 0ebe
-0.08390498 -0.18332459 0.64459616 0.19774418 0.28446823 0.7896898 -0.38089073 -0.76955557
0.1245317 -0.050603114 -0.3277139 0.45735702 0.41542715 -0.9643002 -0.2369287 -0.21571943
0.83971876 0.10471438 0.7208486 0.24059433 0.45636645 -0.18994403 -0.35694763 0.34305945
0.0997961 -0.38745347 -0.08450975 0.69293064 0.3473651 0.4837064 -0.21944554 1.1260571
0.65525943 -0.14591196 0.14740007 -0.23289393 0.7379909 -1.5467212 -1.295251 -0.07820477
0.69335955 -0.5601484 0.40808496 0.5334848 -0.18258265 0.019716702 0.15003401 0.15811142
0.564565 -0.6003007 0.3910192 0.16837567 0.087861925 0.7083321 -0.71831775 0.04164349
0.14765266 0.024259014 0.5955887 0.23077472 -0.28009638 -0.554438 -0.27254942 -0.6967958
0.8250926 -0.1136508 0.53249514 0.5741931 -0.65790135 0.1321096 -0.44115627 0.20274103
-0.37918913 -0.2709066 -0.3709363 0.2908767 -0.39140353 -0.23161738 0.64553934 -0.08091253
0.79340196 -0.46940452 0.39600194 -0.46368456 0.46744817 -0.41919076 0.15531541 -0.86562884
-0.14660655 -0.17005432 0.4939223 0.25979114 0.92390686 0.8731274 0.18822823 0.064839035
0.4758878 0.36212093 0.19842589 -0.496225 -0.8007972 1.02334 -1.0117543 0.8328384
-0.19133583 0.17038317 -1.0347414 0.8574386 -0.53663033 0.30370116 0.12777397 0.53017396
-0.72153586 0.7326547 -0.39730114 -0.4321808 -0.05376727 -0.11144704 0.11938347 0.30209738
0.5593242 0.14820021 0.3474372 0.49202278 0.1137623 0.0039296933 -0.6434837 -0.2352248
1.1648527 -0.26074994 -0.4983948 -0.6129492 -1.192951 -0.081715785 -0.9211078 -0.44145256
-0.2964815 0.14901072 0.741297 0.37066486 0.9074845 0.6703059 -0.3019457 0.225575
-0.3580603 -0.34065166 -0.8450324 -0.011266192 0.12237241 0.075915225 0.14573577 0.106756054
-0.37248924 -0.16655059 -0.45303276 -0.031688683 -0.70070195 -0.99993885 -0.8965329 -0.94192994
-0.079074495 0.30284664 0.3064928 -0.06871654 -0.5449093 0.19428189 -0.20399098 -0.01615614
-0.75039876 -0.7063968 0.23444392 0.03412347 0.6340708 -0.40440884 -0.120423935 -0.72541565
0.04917934 -0.15322624 -0.5182625 0.074839756 0.35688436 -0.35103405 -0.46479744 0.015035883
-0.4892879 -0.47215253 0.94639564 -0.6650321 0.79465175 -0.84934384 -0.07793555 -0.5620323
0.047799837 -0.53160906 0.25449803 0.26444626 0.28777397 0.10273644 0.008460081 -0.48848346
-0.76590073 -0.7719931 0.3083775 0.3826693 0.13178769 0.7724106 -0.3807133 0.030731238
-0.0030423505 0.16429715 0.5887284 -1.4095902 0.80440795 0.8924119 0.80970216 0.15658396
0.110461794 -0.16944535 0.024451083 -0.13767524 -0.49350572 -0.5621269 0.3049353 0.46055675
-0.19232632 0.3697047 -0.012639197 0.53184515 0.89897746 0.23929526 0.3552653 -0.016493311
0.7481452 1.1717085 0.014217355 0.13485616 1.4848566 0.7698872 1.504539 -0.5285324
0.22898215 0.5964294 -0.66523784 1.0504057 0.26514325 0.07068305 0.32074192 0.68897253
0.5303145 -0.20406628 -0.131641 0.08808768 0.33870286 0.18707936 -0.42447445 -0.13881761

regularizer.filters.2.weight f4 [64, 8, 5, 5]
00000000: 8582 d0bd 1dfa 253f 28aa cfbe 24ea bfbd
00000010: 1f00 21bd 3ba5 8dbe 2b74 4f3f c888 09bf
00000020: 3c97 833e c990 873e 41bf 833f cecd 35bf
00000030: 060c 5f3f 2eab 25bf 6e9c 8d3d 2164 8f3f
00000040: 45f7 77bf 9801 323e 46d3 bebd 21fb 333f
00000050: 1c78 06be 1a2c 273f e6c3 7f3f 735b c7bf
00000060: 9132 61bd 38df 093f f75f 07bf df58 9f3e
00000070: 71d6 23bf 4a06 5a3f ada9 823f e03b 8bbf
00000080: 6671 5e3e de75 d7bd 6383 12bf 150a d33e
00000090: 1307 54be cfc9 523e 1997 4bbf b82e f23e
000000a0: c1af a33e 8baa 66bf c17d 1b3f 567c b5be
000000b0: 7023 613e 6183 153f ab4a 0cc0 cc3b f83f
000000c0: 185a 63bf f774 b33e 3cde 303f d267 1fbf
000000d0: 1622 e13e 4407 b2be 359e c9bd 9fb4 b13f
000000e0: eaf9 a4bf e548 373d a242 b43d 0020 3bbf
000000f0: e1c0 723f 5f35 a5bf a421 6c3f f033 1dbf
00000100: c6ff 203c 60bf 863f 969f 2ac0 dd42 d63f
00000110: 3c6f 8c3f d81d 89bf cff8 953e 58e3 55bf
00000120: 6624 ef3d 4754 3d3f 3de7 903e 23bd 5b3f
00000130: 41b1 0bc0 5b77 cf3f f2fc bbbf d832 063f
00000140: 1812 7abc 8a9c 80bf 2ad3 2b3f 4afc b93f
00000150: 39c9 51be 1450 cbbe 0bb2 89bd 9612 773f
00000160: a784 933e 8ca0 1bbf 3955 e23e fed3 b9bf
00000170: 6253 59be 5a40 793f 8071 34be cca8 79be
00000180: f523 ac3f 27b0 12c0 749d 0640 15e4 b4bf
00000190: cf5e 8fbe b30b 883f 94f2 bbbf 3616 c93d
000001a0: 2e1d a43e 66f4 053f 2411 c9bf e9fe 54bc
000001b0: d6eb 8a3e c2c7 0dbf 62d1 153f f421 a03e
000001c0: 4bf9 8fbf cc47 e73e 842c fd3e 1705 e0be
000001d0: 9734 c4bf ee10 0e3f e186 8cbe b006 293f
000001e0: d301 a23e 617f b93f 1ec1 1ac0 64b8 a73f
000001f0: 12e6 dc3c e85d f0bc 1996 a63c e37a 663f
00000200: 2951 d7bf c586 713f 514d 1a3f a5ea 803e
00000210: d504 073f 1117 f5bf 9bf6 883f b88f 40bf
00000220: 3649 893f 185f 1b3f 6f28 e0bf 5ad4 d03e
00000230: 2d4e 88bd 9600 81be d44d 1ebe 1ae6 2b3f
00000240: 0d4a 2ebf d1ad 81be 6e24 183f 7445 e03c
00000250: 087a 8dbf d7ca 973e c0b2 7abf f5ca 8b3f
00000260: ba0a d53e 6074 02bf 87da 0fbf b1a5 a83e
00000270: 78f6 b23f 7ba0 bfbe 98bf ebbe 34a5 afbd
00000280: bcc1 853e d1a0 353e ac87 a4be 1c36 fd3f
00000290: 9290 eabf f90b 00bf 8a8c 683f 68c4 85be
000002a0: 099a 5d3f 1122 74bf 5302 04bd b5e8 a23d
000002b0: 4529 00bf 4832 2b3f 7a36 98be 7f98 c33e
000002c0: 8510 29bf 0324 64bf 963f 223f 0878 7d39
000002d0: 9df3 ad3e f60a 643f 2511 e1bf 6954 b3be
000002e0: 08a7 a93f 6c4b 563f 12fb 4abf eeaa ea3e
000002f0: f884 abbf 9a06 a93d 2978 cb3e d411 24bd
00000300: 748d 293f b589 c0bf 8339 363d 613d 6c3e
00000310: 7c65 edbe c210 cd3f bf64 25bf 6be5 c6bc
00000320: 852c 85be da30 7cbe 9d09 063e d1af f03e
00000330: d792 03bf 1e1e 4c3f d49d dd3e b210 51bf
00000340: dbe4 14bf 2bfb 2bbd f0c0 c7bf f039 90bf
00000350: 080e eb3f e32a 983f 6d0e 4b3e fd44 5a3e
00000360: 095a 803e 80f6 89bf 246c 3ebf c771 1ebe
00000370: fdc0 efbe a1d8 03be 99a8 e23e bb66 a33e
00000380: 11ab 66be 3455 8d3e 0270 c53d 03cc f7be
00000390: 96d4 6c3e 3b56 d0bd 1378 d0be 091f 913e
000003a0: 85fa 423f f341 99bc 4f15 c2be 634a 9a3f
000003b0: 90a0 353e 1a99 74bf 1840 03bf f09a bc3d
000003c0: 1a02 8cbf b8cd c6bf bca5 5d3f 37c5 813f
000003d0: 5923 733e f5a3 8b3c c132 8d3f ad35 cdbe
000003e0: 634b 1dbf 2952 453e 0e79 38be d90f 103e
000003f0: d731 f43e f411 10be bfec c93c 6d5a a7be
-0.101811446 0.6483477 -0.40559506 -0.09370831 -0.039306756 -0.27665123 0.81036633 -0.53724337
0.2570132 0.2647765 1.0292741 -0.7101716 0.8712772 -0.64714324 0.06914602 1.1202432
-0.9686168 0.1738342 -0.09317641 0.7030507 -0.13131756 0.6530167 0.9990829 -1.5574783
-0.054979865 0.5385623 -0.52880806 0.3112249 -0.63999087 0.85165846 1.0208031 -1.0877647
0.21722946 -0.10520528 -0.5723173 0.4121863 -0.20705824 0.20584796 -0.7952743 0.4730127
0.31970027 -0.9010398 0.6073876 -0.35446423 0.21986175 0.58403593 -2.1920574 1.9393249
-0.8880935 0.35050175 0.690891 -0.6226779 0.43971318 -0.34771168 -0.09844629 1.3883246
-1.2888768 0.044747252 0.08801772 -0.73095703 0.9482556 -1.2906913 0.9223883 -0.61407375
0.009826606 1.0527153 -2.6659904 1.6739155 1.0971446 -1.0712233 0.29291388 -0.83550024
0.11676864 0.7395672 0.2830142 0.85835475 -2.1826937 1.6208299 -1.4686568 0.5242133
-0.015263103 -1.0047772 0.67119086 1.4530118 -0.20486917 -0.39709532 -0.06723412 0.96512735
0.28812143 -0.6079185 0.44205645 -1.451782 -0.21223214 0.9736382 -0.17621422 -0.24380797
1.3448473 -2.2920015 2.1033602 -1.4132105 -0.2800202 1.062857 -1.4683404 0.098186895
0.32053512 0.5232605 -1.5708356 -0.013000228 0.27133054 -0.5538293 0.5852262 0.31275904
-1.1247953 0.45171964 0.49448025 -0.43753883 -1.5328549 0.5549458 -0.27446654 0.6602583
0.31642017 1.4491998 -2.418037 1.3103147 0.026965175 -0.029341653 0.020335244 0.9003126
-1.6821643 0.94346267 0.60274225 0.2517902 0.5274175 -1.9147664 1.0700258 -0.752193
1.0725467 0.60691977 -1.7512339 0.4078701 -0.06655536 -0.2519576 -0.15459377 0.6714798
-0.6808174 -0.25327924 0.5943059 0.027376868 -1.1052866 0.29646942 -0.97929 1.0921313
0.41609746 -0.50958824 -0.5619282 0.32938913 1.3981466 -0.37427124 -0.46044612 -0.08576432
0.2612437 0.17737128 -0.3213476 1.9782138 -1.8325369 -0.5001827 0.90839446 -0.2612641
0.86563164 -0.9536448 -0.03222878 0.079545416 -0.5006297 0.668736 -0.29729062 0.38202283
-0.6604083 -0.8911745 0.63378274 0.00024172675 0.33974925 0.89079225 -1.7583357 -0.35025337
1.3254099 0.83708835 -0.7928935 0.45833534 -1.3399954 0.08253212 0.39740112 -0.040056065
0.66231465 -1.5042025 0.04448844 0.23070289 -0.4636649 1.6020739 -0.6460685 -0.024279317
-0.26010528 -0.2462801 0.13089605 0.47009137 -0.51395935 0.79733455 0.43284476 -0.816661
-0.58161706 -0.04198758 -1.5605755 -1.1267681 1.8363657 1.1888088 0.19829722 0.2131538
0.2506869 -1.0778351 -0.7438376 -0.1547309 -0.46826926 -0.12875606 0.44269255 0.31914315
-0.22526194 0.27604067 0.096405044 -0.48397836 0.2312797 -0.10172697 -0.4071661 0.2834399
0.7616351 -0.018708205 -0.37906882 1.2053951 0.17737031 -0.95546114 -0.51269674 0.092092395
-1.0938141 -1.553153 0.86581016 1.013831 0.23743953 0.017045954 1.1031114 -0.40080014
-0.61443156 0.19269623 -0.18014929 0.14068545 0.47694275 -0.14069349 0.024649022 -0.32686177
