weights/score_parameter_fitting_for_CT/ICNN_fitted_parameters_with_JFB_for_CT.pt (torch, 110004 bytes, 5 tensors)

regularizer.icnn.scaling f4 [1, 32, 1, 1]
0	0xc0dd0c55	-6.9077554
1	0xc0dd0c55	-6.9077554
2	0xc0dd0c55	-6.9077554
3	0xc0dd0c55	-6.9077554
4	0xc0dd0c55	-6.9077554
5	0xc0dd0c55	-6.9077554
6	0xc0dd0c55	-6.9077554
7	0xc0dd0c55	-6.9077554
8	0xc0dd0c55	-6.9077554
9	0xc0dd0c55	-6.9077554
10	0xc0dd0c55	-6.9077554
11	0xc0dd0c55	-6.9077554
12	0xc0dd0c55	-6.9077554
13	0xc0dd0c55	-6.9077554
14	0xc0dd0c55	-6.9077554
15	0xc0dd0c55	-6.9077554
16	0xc0dd0c55	-6.9077554
17	0xc0dd0c55	-6.9077554
18	0xc0dd0c55	-6.9077554
19	0xc0dd0c55	-6.9077554
20	0xc0dd0c55	-6.9077554
21	0xc0dd0c55	-6.9077554
22	0xc0dd0c55	-6.9077554
23	0xc0dd0c55	-6.9077554
24	0xc0dd0c55	-6.9077554
25	0xc0dd0c55	-6.9077554
26	0xc0dd0c55	-6.9077554
27	0xc0dd0c55	-6.9077554
28	0xc0dd0c55	-6.9077554
29	0xc0dd0c55	-6.9077554
30	0xc0dd0c55	-6.9077554
31	0xc0dd0c55	-6.9077554

regularizer.icnn.wx.bias f4 [32]
0	0x3e41f1f8	0.1893996
1	0xbe067c6a	-0.13133398
2	0xbddbf2f7	-0.10739701
3	0xbd3d3b47	-0.04619911
4	0x3dd03ab7	0.10167449
5	0xbda7ee77	-0.081997804
6	0x3da9bef7	0.08288377
7	0xbe2a6cfd	-0.16643138
8	0xbdbfe390	-0.09369576
9	0x3cf994cd	0.030466462
10	0xbde11383	-0.1099005
11	0xbdce1477	-0.10062497
12	0xbc39881a	-0.011323953
13	0xbdd7fdfa	-0.10546489
14	0x3c028067	0.007965184
15	0xbd371360	-0.04469621
16	0x3e372e9f	0.17888878
17	0x3e1656ea	0.14681593
18	0x3e09108d	0.1338522
19	0xbdff41cd	-0.124637224
20	0x3e1c30d8	0.15253007
21	0xbe1611cf	-0.14655231
22	0xbe25e2a8	-0.16199744
23	0x3aa51b33	0.0012596607
24	0xbc081e4d	-0.0083080055
25	0x3e423c0b	0.18968217
26	0xbe1776c0	-0.14791393
27	0xbdd34a87	-0.10316949
28	0x3d79d55a	0.060994484
29	0x3d8707fa	0.06593318
30	0x3d914aed	0.07094369
31	0x3e17a0bf	0.14807414

regularizer.icnn.wx.parametrizations.weight.original f4 [32, 1, 5, 5]
0	0xbe254e18	-0.16143072
1	0x3d9fd57d	0.078043915
2	0x3d7c9887	0.0616689
3	0x3d82f44d	0.06394253
4	0x3ce11573	0.027476048
5	0x3e040487	0.12892352
6	0xbda36d37	-0.079798155
7	0x3e35d28d	0.177561
8	0x3dd16ddd	0.10226033
9	0x3da3e363	0.08002355
10	0x3c15f533	0.009152698
11	0xbd8cdb7d	-0.068778016
12	0x3b75c19a	0.0037499429
13	0x3dc568da	0.096391395
14	0x3df8cc1d	0.121483065
15	0x3e19ed27	0.15031873
16	0x3e1d93d2	0.1538842
17	0x3c40dd4d	0.011771512
18	0x3dca1650	0.09867537
19	0x3e14c6c8	0.14528954
20	0x3db87623	0.09006908
21	0x3e151203	0.14557652
22	0xbe248257	-0.16065346
23	0x3e16670a	0.14687744
24	0x3dac74a0	0.08420682
25	0xbe42111b	-0.18951838
26	0xbe1a4f9d	-0.15069433
27	0xbe41b74b	-0.18917577
28	0xbdd9a507	-0.106271796
29	0x3d18ac8d	0.037273932
30	0x3db884dd	0.09009717
31	0xbe14d52b	-0.14534442
32	0xbcc0b780	-0.023525
33	0xbe1bcc5b	-0.15214674
34	0xbe2de8d2	-0.16983345
35	0xbc59f700	-0.013303518
36	0xbe4432a8	-0.19159949
37	0x3db0cbbd	0.0863261
38	0xbddec5f7	-0.108776025
39	0x3e009292	0.12555912
40	0xbd54ae33	-0.05192394
41	0x3dd18657	0.102307014
42	0x3e240fa2	0.16021588
43	0x3ced2073	0.028946137
44	0x3e49a942	0.19693473
45	0xbc9ae19a	-0.018906403
46	0xbdadfb7d	-0.08495233
47	0x3d3f7653	0.046743702
48	0xbdaa6b0d	-0.083211996
49	0x3e2b345d	0.16719194
50	0x3e2d4c40	0.16923618
51	0x3e4a3430	0.1974647
52	0x3d9d4bda	0.07680483
53	0xbd91eaed	-0.07124887
54	0x3dde72ed	0.10861764
55	0x3e46507f	0.19366644
56	0x3cc2d9a7	0.023785425
57	0xbe467b12	-0.19382885
58	0xbd4d9213	-0.050188135
59	0xbe481da5	-0.19542558
60	0x3e4b4ca3	0.19853453
61	0x3dd69507	0.104776435
62	0xbe248d52	-0.16069534
63	0xbd1df13a	-0.03856013
64	0x3e339b78	0.17539775
65	0x3dee93e7	0.11649304
66	0x3de2f213	0.11081328
67	0x3c847db3	0.01617322
68	0xbcd08b5a	-0.025457073
69	0x3e0b3ce3	0.13597445
70	0x3e217f75	0.15771277
71	0xbd2964e7	-0.041355994
72	0xbe1b3382	-0.15156367
73	0x3da6017d	0.081057526
74	0x3df3b3ca	0.118995264
75	0x3e1a5c8a	0.15074363
76	0x3e33c2e7	0.17554818
77	0xbdba941a	-0.091102794
78	0x3e2f9c0b	0.1714937
79	0xbd17e187	-0.037080314
80	0x3dccebe3	0.10005929
81	0xbe18c3bb	-0.14918415
82	0x3e429dab	0.19005458
83	0x3e0336cb	0.1281387
84	0xbde36190	-0.11102593
85	0x3da976ed	0.082746364
86	0xbd70ede7	-0.05882063
87	0xbe0afbcb	-0.13572614
88	0x3e4a93f3	0.19783
89	0xbe448a92	-0.19193485
90	0xbe3bc433	-0.18336563
91	0xbe180cb5	-0.14848597
92	0xbc71b49a	-0.014752531
93	0xbe0f3462	-0.13984826
94	0xbe0b0750	-0.13577008
95	0x3e2adc55	0.16685612
96	0x3d474967	0.048653986
97	0xbdc05d13	-0.093927525
98	0xbc474000	-0.012161255
99	0x3e20135b	0.15632384
100	0xbe0f78fb	-0.14010994
101	0xbcc759c0	-0.024334788
102	0x3d070ee0	0.03297317
103	0xbe1fc232	-0.15601423
104	0x3e3294ef	0.17439626
105	0xbdeb529d	-0.114903666
106	0xbe287690	-0.16451478
107	0xbe29784a	-0.16549793
108	0xbe2dab9d	-0.16959997
109	0xbd0b33a0	-0.03398478
110	0x3e099ceb	0.13438766
111	0x3e36bf8d	0.17846508
112	0xbdd78d8d	-0.105250455
113	0x3dce2af7	0.10066789
114	0xbde0f3ad	-0.109839775
115	0xbbaa899a	-0.0052043917
116	0x3e1d252a	0.15346208
117	0x3dd129f0	0.10213077
118	0x3d365b6d	0.044520784
119	0xbcd9d5da	-0.02659123
120	0xbdf84b3d	-0.121237256
121	0x3d2745e0	0.040838122
122	0xbe241095	-0.1602195
123	0xbe218305	-0.15772636
124	0x3d2f1867	0.04274788
125	0x3de0e220	0.1098063
126	0xbe24fecf	-0.16112827
127	0x3dc03b1d	0.09386275
128	0xbe470163	-0.19434123
129	0x3e074da5	0.13213213
130	0x3ae87d9a	0.0017737627
131	0x3de48a7d	0.11159227
132	0x3d04eca0	0.032452226
133	0x3e38ffff	0.18066405
134	0xbe04436b	-0.12916343
135	0x3e48a618	0.1959461
136	0x3da6b650	0.08140242
137	0x3e36b647	0.17842971
138	0xbe11dba5	-0.14243944
139	0xbe0a443d	-0.13502593
140	0x3be6aa9a	0.0070393803
141	0xbcf96e67	-0.030448152
142	0x3de21c50	0.110405564
143	0xbd788b60	-0.060679793
144	0x3daeaf47	0.08529525
145	0x3c152600	0.009103298
146	0x3e125010	0.14288354
147	0x3ce50ea7	0.027961088
148	0x3e06a8a3	0.13150267
149	0xbe27c617	-0.16384159
150	0x3e45b945	0.19308956
151	0xbe33c3b2	-0.1755512
152	0xbdb37ef7	-0.08764451
153	0xbca22ea7	-0.019797636
154	0x3d32cc73	0.04365201
155	0x3d95e007	0.073181204
156	0xbe265800	-0.16244507
157	0xbe49c825	-0.19705255
158	0xbde85aed	-0.11345468
159	0x3e4068bf	0.18789957
160	0x3cbc1bc0	0.022962451
161	0x3db27d10	0.0871526
162	0xbe1d7fc2	-0.15380767
163	0x3e244a62	0.16044
164	0x3e3c69c0	0.18399715
165	0xbe42b547	-0.19014464
166	0x3e2a0823	0.16604666
167	0x3e46658a	0.19374672
168	0x3e2df64f	0.1698849
169	0xbe451285	-0.19245346
170	0x3cf0188d	0.029308582
171	0xbc491067	-0.012271977
172	0x3e44a07d	0.19201846
173	0x3dfe56e7	0.12418919
174	0xbdef4067	-0.11682206
175	0xbda474e0	-0.08030105
176	0xbe2ef358	-0.17085016
177	0x3d98dca3	0.07463958
178	0x3e326ed7	0.17425095
179	0x3e329f63	0.17443614
180	0x3e1dea1a	0.15421334
181	0xbc359867	-0.011083699
182	0xbd85a33d	-0.06525276
183	0x3e2c2d9a	0.1681427
184	0xbe0b8ced	-0.13627978
185	0x3d3f48ad	0.04670017
186	0x3e0848f3	0.13309078
187	0x3e493238	0.19648063
188	0x3d0a31d3	0.033738922
189	0x3b89449a	0.004189086
190	0xbdfd19c0	-0.12358427
191	0x3cd9d327	0.026589943
192	0x3d5cef00	0.053938866
193	0x3d602fe0	0.054733157
194	0xbd8e94f7	-0.069620065
195	0xbdd2bc8d	-0.102898695
196	0x3d2cec27	0.0422174
197	0xbd078b5a	-0.03309188
198	0xbc29c7e7	-0.010362602
199	0x3dcc681a	0.09980793
200	0x3c973200	0.018456459
201	0xbe06a795	-0.13149865
202	0x3e08b813	0.13351469
203	0x3e0d8622	0.13820699
204	0x3def5aaa	0.11687215
205	0x3df1d6ba	0.11808534
206	0x3cc7489a	0.024326611
207	0xbe025ab8	-0.12729919
208	0x3d9ea8f0	0.07747066
209	0x3d9e97a7	0.07743769
210	0x3d1864a7	0.037205365
211	0x3e269d5f	0.1627097
212	0x3e2ea2ab	0.1705424
213	0x3e33659b	0.17519228
214	0xbde2d00d	-0.11074839
215	0x3e152b13	0.14567213
216	0x3d0b2247	0.033968236
217	0x3db4bdba	0.0882525
218	0xbdefae4a	-0.11703165
219	0xbd5dc8b3	-0.05414648
220	0xbcfce41a	-0.030870486
221	0x3e11bc03	0.14231877
222	0x3e22e5d5	0.15907986
223	0x3ca6ba40	0.020352483
224	0x3e4a0327	0.19727765
225	0x3d3ff6a7	0.046866085
226	0x3d771f13	0.06033237
227	0x3d9bd88a	0.07609661
228	0x3d929460	0.071572065
229	0x3e1b421b	0.15161936
230	0xbe1a5fe0	-0.15075636
231	0x3e1d79bd	0.1537847
232	0x3e159207	0.14606486
233	0x3c2ad8b3	0.010427642
234	0xbda3cc3a	-0.079979375
235	0xbd445c80	-0.047939777
236	0x3e05ef08	0.13079464
237	0xbdabe4ad	-0.08393226
238	0xbd088c7a	-0.033337094
239	0xbc54701a	-0.01296618
240	0xbd23f733	-0.04003067
241	0x3da0728d	0.07834349
242	0xbc690367	-0.014222003
243	0x3d5cfca7	0.053951886
244	0x3e24635a	0.16053525
245	0xbd32f0c0	-0.04368663
246	0x3e38d310	0.18049264
247	0x3e30af3a	0.17254344
248	0xbdbba9da	-0.09163256
249	0xbd863fea	-0.065551594
250	0xbdb32ddd	-0.08748982
251	0x3ce70a1a	0.028203059
252	0xbe23bf7f	-0.15991019
253	0xbe05a487	-0.13051043
254	0xbe1ef708	-0.15523922
255	0x3e2b7a37	0.1674584

regularizer.icnn.wz.weight f4 [32, 32, 5, 5]
0	0x3865cbd5	5.4787688e-05
1	0x38396823	4.4204422e-05
2	0x38591c3b	5.1763123e-05
3	0x3836e458	4.3604843e-05
4	0x3836c7b0	4.3578155e-05
5	0x384f5d88	4.9439754e-05
6	0x385c43b1	5.251513e-05
7	0x38282788	4.0091138e-05
8	0x384211f8	4.626994e-05
9	0x38638115	5.4241234e-05
10	0x38370e12	4.3643704e-05
11	0x382251ef	3.8700116e-05
12	0x3830677b	4.2058044e-05
13	0x383aef05	4.456846e-05
14	0x383db6a5	4.5231212e-05
15	0x3847e747	4.766069e-05
16	0x3832c353	4.2620417e-05
17	0x383ecc16	4.54896e-05
18	0x3850fd52	4.9826987e-05
19	0x3832b1d4	4.2604122e-05
20	0x38271c68	3.9842358e-05
21	0x38265cd6	3.9663944e-05
22	0x384a5add	4.8245176e-05
23	0x383a00a8	4.4346467e-05
24	0x381efc9c	3.7905396e-05
25	0x38369349	4.352935e-05
26	0x383b5af1	4.466897e-05
27	0x383357de	4.275876e-05
28	0x38419259	4.6151083e-05
29	0x3838fab9	4.4102522e-05
30	0x383f2719	4.557436e-05
31	0x3830ec53	4.2181764e-05
32	0x3834735f	4.3022792e-05
33	0x38575bd2	5.134551e-05
34	0x38496207	4.801343e-05
35	0x3865ac24	5.4758173e-05
36	0x38401724	4.579792e-05
37	0x38508461	4.9714352e-05
38	0x38444210	4.6791567e-05
39	0x3846bffc	4.7385678e-05
40	0x382a0f1b	4.0545227e-05
41	0x38353aab	4.32084e-05
42	0x3828cdf4	4.024613e-05
43	0x38339c17	4.2822296e-05
44	0x3835745a	4.3262124e-05
45	0x3821011d	3.8386428e-05
46	0x3842c110	4.6433008e-05
47	0x38694bcf	5.562213e-05
48	0x382a027d	4.0533476e-05
49	0x384b8a19	4.8527585e-05
50	0x383de94c	4.5278386e-05
51	0x38490edb	4.793597e-05
52	0x383b4b9e	4.46547e-05
53	0x38282f7f	4.0098555e-05
54	0x382f3a5f	4.1777614e-05
55	0x385973a7	5.184454e-05
56	0x386c0af4	5.6276986e-05
57	0x384dc347	4.9057675e-05
58	0x38271a15	3.9840193e-05
59	0x383ae720	4.4561108e-05
60	0x384e7b28	4.9228925e-05
61	0x3833ad33	4.283823e-05
62	0x3827414d	3.987672e-05
63	0x381ca43a	3.7346246e-05
64	0x3832aaac	4.2597458e-05
65	0x384dfa50	4.910893e-05
66	0x383b9f8e	4.473287e-05
67	0x383d2b33	4.5101344e-05
68	0x382d90fb	4.1381438e-05
69	0x38471ee4	4.7474066e-05
70	0x38466bf7	4.730743e-05
71	0x3839f294	4.4333356e-05
72	0x384521b2	4.699984e-05
73	0x38351c96	4.3180386e-05
74	0x383816e5	4.389034e-05
75	0x383c751f	4.493177e-05
76	0x38533725	5.0357678e-05
77	0x384c17dc	4.865961e-05
78	0x38445b39	4.6815e-05
79	0x382c9377	4.1145333e-05
80	0x384fadfc	4.951468e-05
81	0x383afc7c	4.4581e-05
82	0x384c8a97	4.8766462e-05
83	0x3835cc82	4.3344226e-05
84	0x383005d2	4.196709e-05
85	0x38506262	4.968269e-05
86	0x3866bc8e	5.501188e-05
87	0x3828c464	4.0237224e-05
88	0x385d64c7	5.2784362e-05
89	0x382c59e7	4.1091724e-05
90	0x38484bd0	4.775432e-05
91	0x3848634a	4.7776186e-05
92	0x385779bf	5.137338e-05
93	0x3846af33	4.7370046e-05
94	0x3856e4ea	5.123477e-05
95	0x38290595	4.029794e-05
96	0x3833d986	4.287951e-05
97	0x383f894a	4.566581e-05
98	0x383c98bf	4.496495e-05
99	0x3811bab9	3.4744593e-05
100	0x38454b89	4.7038808e-05
101	0x38354c97	4.3225093e-05
102	0x382a8863	4.065818e-05
103	0x382ad726	4.073153e-05
104	0x383b7e09	4.4701654e-05
105	0x383bb6b1	4.475442e-05
106	0x3845276c	4.7005175e-05
107	0x38264cb7	3.964893e-05
108	0x383f17fa	4.556028e-05
109	0x381cc68c	3.737821e-05
110	0x3857c4eb	5.144339e-05
111	0x383fc94e	4.572543e-05
112	0x38276135	3.9906434e-05
113	0x384119a8	4.603868e-05
114	0x38595af9	5.1821557e-05
115	0x3842ae56	4.6415567e-05
116	0x385cd558	5.265078e-05
117	0x3844348d	4.6778983e-05
118	0x38450e8b	4.6982004e-05
119	0x382f8ba4	4.18533e-05
120	0x38435427	4.6569996e-05
121	0x38350d4b	4.3166143e-05
122	0x38325e5b	4.2526382e-05
123	0x384516c6	4.698967e-05
124	0x384dc083	4.90551e-05
125	0x384e36f2	4.91654e-05
126	0x384c8526	4.8761394e-05
127	0x384e4496	4.9178103e-05
128	0x383f882b	4.5664765e-05
129	0x3840c5f4	4.5960725e-05
130	0x3820ad97	3.830864e-05
131	0x38336d10	4.2778498e-05
132	0x3837321a	4.367726e-05
133	0x38600281	5.3408094e-05
134	0x38469b77	4.7351667e-05
135	0x382496c1	3.9241047e-05
136	0x384bf1db	4.8624217e-05
137	0x3827303d	3.9860828e-05
138	0x383d16fa	4.508251e-05
139	0x384e81e8	4.9235212e-05
140	0x38474798	4.7511974e-05
141	0x3858c51b	5.1681982e-05
142	0x382df4f9	4.1474563e-05
143	0x3830d995	4.216431e-05
144	0x3870de91	5.742774e-05
145	0x3827a28f	3.9967297e-05
146	0x383f3f8f	4.5597142e-05
147	0x384f3aa8	4.9407274e-05
148	0x384f9d0e	4.9498914e-05
149	0x383cc8fa	4.5009867e-05
150	0x383e03a4	4.530292e-05
151	0x382e30ba	4.1530213e-05
152	0x3859d697	5.1936684e-05
153	0x38523384	5.011588e-05
154	0x383f41e5	4.5599318e-05
155	0x3852badd	5.024193e-05
156	0x385135d5	4.9879618e-05
157	0x38567985	5.113475e-05
158	0x38480527	4.7688514e-05
159	0x382dbd54	4.142274e-05
160	0x382dc584	4.1430365e-05
161	0x3823851e	3.8986203e-05
162	0x383c4d9d	4.4894976e-05
163	0x3850b5bc	4.9760318e-05
164	0x383362af	4.2768832e-05
165	0x381a4190	3.677752e-05
166	0x38386d4f	4.397082e-05
167	0x38392306	4.4140055e-05
168	0x38312e1d	4.2243035e-05
169	0x3847b4a4	4.7613532e-05
170	0x38513ff2	4.9889037e-05
171	0x381ea587	3.7824295e-05
172	0x384883b1	4.7806363e-05
173	0x3851219c	4.9860784e-05
174	0x38337fc5	4.279592e-05
175	0x383b6eb4	4.4687375e-05
176	0x3847e314	4.765678e-05
177	0x382b61e1	4.0860734e-05
178	0x382f9442	4.1861327e-05
179	0x38223d2c	3.868078e-05
180	0x3849550d	4.8001344e-05
181	0x384664cc	4.7300753e-05
182	0x384187b7	4.614118e-05
183	0x3846d612	4.7406247e-05
184	0x382a8a43	4.0659925e-05
185	0x3856fcf3	5.1257153e-05
186	0x38490b85	4.7932863e-05
187	0x386d3885	5.655784e-05
188	0x383bdfba	4.4792636e-05
189	0x3846380f	4.7259087e-05
190	0x383c14d3	4.4842087e-05
191	0x38709ff8	5.736944e-05
192	0x382f47b9	4.179005e-05
193	0x382a2509	4.056565e-05
194	0x3835e242	4.3364482e-05
195	0x384fb39d	4.9519924e-05
196	0x38477e43	4.7562888e-05
197	0x382133a7	3.8433496e-05
198	0x3849206f	4.795234e-05
199	0x384ed52a	4.931275e-05
200	0x381cb540	3.73621e-05
201	0x38415cca	4.6101202e-05
202	0x383f7584	4.5647394e-05
203	0x38487ea6	4.7801666e-05
204	0x383cc23f	4.50036e-05
205	0x38647be7	5.447483e-05
206	0x385a3690	5.2026066e-05
207	0x3845b12d	4.7133468e-05
208	0x382e368d	4.1535637e-05
209	0x383ffe92	4.5775036e-05
210	0x3831222d	4.2231917e-05
211	0x382215c8	3.8644095e-05
212	0x3826d783	3.9778195e-05
213	0x383f02b5	4.554047e-05
214	0x385e8e22	5.3061296e-05
215	0x382acaf8	4.0720188e-05
216	0x3836fe29	4.3628886e-05
217	0x3847b1ab	4.7610763e-05
218	0x3855341e	5.0831695e-05
219	0x381abe61	3.6893765e-05
220	0x384e6834	4.9211274e-05
221	0x384b176f	4.8420796e-05
222	0x3836c87e	4.3578904e-05
223	0x385c3927	5.2505315e-05
224	0x384217a7	4.6275232e-05
225	0x3837edd6	4.3852102e-05
226	0x38258f40	3.9472478e-05
227	0x385cdae6	5.2655952e-05
228	0x38381de9	4.3896875e-05
229	0x383be626	4.4798617e-05
230	0x38413775	4.6066434e-05
231	0x3842a933	4.6410783e-05
232	0x38458a62	4.709734e-05
233	0x383f8d80	4.566973e-05
234	0x3839ea2f	4.4325538e-05
235	0x3843d900	4.669372e-05
236	0x385905f8	5.174239e-05
237	0x3861786e	5.375634e-05
238	0x38520f59	5.0082195e-05
239	0x383bf7a1	4.4814897e-05
240	0x382dbd5f	4.142278e-05
241	0x3845c378	4.7150505e-05
242	0x382c7020	4.111242e-05
243	0x384bd89e	4.8600712e-05
244	0x383d390f	4.511425e-05
245	0x383aaccc	4.4506785e-05
246	0x382fd95e	4.192569e-05
247	0x382a6c00	4.063174e-05
248	0x384d27c7	4.8912854e-05
249	0x3831d857	4.240157e-05
250	0x3841cc83	4.6205252e-05
251	0x383992cc	4.4244152e-05
252	0x3824d5ee	3.9299885e-05
253	0x382fba56	4.189679e-05
254	0x38388f18	4.4002285e-05
255	0x384f5437	4.9431077e-05

regularizer.icnn.wz.bias f4 [32]
0	0xba146605	-0.0005660954
1	0x3c3571eb	0.011074523
2	0x3c58760d	0.013211739
3	0xbcba326f	-0.022729127
4	0xbc6aa4f0	-0.014321551
5	0xbc833132	-0.01601467
6	0xbc082b57	-0.008311114
7	0x3d015626	0.0315763
8	0xba238ced	-0.0006238956
9	0x3cd27fc1	0.025695683
10	0xbcd25023	-0.025672978
11	0x3c1406e1	0.009034843
12	0xbae4ff1d	-0.0017471049
13	0x3c3cc6ea	0.011522034
14	0xbc706aea	-0.014673928
15	0xbcf94be2	-0.030431692
16	0xbd023e11	-0.031797472
17	0xbcc56606	-0.0240965
18	0x3c9caf87	0.019126667
19	0x3d086c88	0.03330663
20	0x3c8186e4	0.015811391
21	0x3b276976	0.0025545037
22	0xbcb53466	-0.022119712
23	0xbc9f67ec	-0.019458733
24	0x3c71c8c6	0.014757341
25	0x3cade36f	0.021226613
26	0xbc395cfc	-0.011313673
27	0x3c1669db	0.009180511
28	0xbcefe4bd	-0.029283876
29	0xbd09c8b1	-0.03363866
30	0xbb1b7f49	-0.002372699
31	0x3d028914	0.03186901
