weights/score_parameter_fitting_for_CT/IDCNN_fitted_parameters_with_JFB_for_CT.pt (torch, 218220 bytes, 10 tensors)

regularizer.icnn1.scaling f4 [1, 32, 1, 1]
00000000: ca79 ddc0 550c ddc0 c279 ddc0 b879 ddc0
00000010: f173 ddc0 b079 ddc0 cd79 ddc0 bd79 ddc0
00000020: 550c ddc0 bf79 ddc0 0f75 ddc0 c279 ddc0
00000030: c879 ddc0 be79 ddc0 8b73 ddc0 550c ddc0
00000040: ae79 ddc0 550c ddc0 3973 ddc0 d479 ddc0
00000050: c079 ddc0 c979 ddc0 550c ddc0 d879 ddc0
00000060: 550c ddc0 c179 ddc0 550c ddc0 c779 ddc0
00000070: 550c ddc0 550c ddc0 550c ddc0 ad79 ddc0
-6.921117 -6.9077554 -6.921113 -6.9211082 -6.920403 -6.9211044 -6.9211183 -6.9211106
-6.9077554 -6.9211116 -6.9205394 -6.921113 -6.921116 -6.921111 -6.9203544 -6.9077554
-6.9211035 -6.9077554 -6.9203153 -6.9211216 -6.921112 -6.9211164 -6.9077554 -6.9211235
-6.9077554 -6.9211125 -6.9077554 -6.9211154 -6.9077554 -6.9077554 -6.9077554 -6.921103

regularizer.icnn1.wx.bias f4 [32]
00000000: 9ae5 fa3d d62e 1c3c 1e7b 103c 5e2e 42be
00000010: 79d6 ed3e 8187 b93e e52b 12be 7e13 153c
00000020: 5063 123c fe90 173c 360f 8c3e bc5a ae3e
00000030: fe5b 19be 56d6 cc3d 9950 fabd 609b 72be
00000040: 4617 c03e 3f62 093e b52e e5bd 2f52 123d
00000050: 1e2f 99bd 64ef 21bd c18a 1c3e 4a55 f2bd
00000060: fc1a 163c cf21 c63e 275b cfbd 884c 313e
00000070: dbe6 8c3e 168a 593d 6a51 a53e ca3e 1fbe
0.12250824 0.009532651 0.008818416 -0.18963 0.46452692 0.36236194 -0.14274557 0.009098886
0.008934811 0.009250877 0.27355355 0.340536 -0.14976498 0.10001819 -0.12222404 -0.23692083
0.37517756 0.13416384 -0.11190549 0.035722908 -0.0747969 -0.03953494 0.15287305 -0.11832674
0.009161707 0.3869767 -0.10124808 0.1731435 0.2751988 0.053110205 0.32288677 -0.15551296

regularizer.icnn1.wx.parametrizations.weight.original f4 [32, 1, 5, 5]
00000000: 1e65 37bd 5e92 02bd 73a2 d7bc 2d50 cebc
00000010: 3618 49bd 4578 89bc bfcd a4bd 2265 da3d
00000020: 5fbc 423d 3653 f83c 9f26 3cbe 8326 d73e
00000030: 202a b6be c85c 48be 5ff5 08bc 7a3d bc3d
00000040: 9364 3dbc 113d 133e 4177 b63d 96c3 f43d
00000050: b70f 57bc 892a 8a3c 5785 a4ba 2771 f03c
00000060: ea8d 81bb 2a0c 483c 254f 56bd a727 0cbe
00000070: 49d9 23bd 584e 0f3c e719 fb3c 0224 023e
00000080: 55e4 963e 8426 253e 761a 103d 9725 dabc
00000090: 308d b0bc eb61 e6bd ce1f b4bd 60de bbbc
000000a0: c4a6 9d3d 0f2d 43bc a836 a2bd b902 98bc
000000b0: 6435 943d 7b4b e9bc d2eb 6f3c 3bf7 b73d
000000c0: f520 4c3d 5749 03bd eb83 a2bd d48c af3d
000000d0: 1803 253e fbde 46be ff6c 203d d685 d4bd
000000e0: f037 5d3d 2c40 153e cf73 abbd 54a4 5fbb
000000f0: f8a6 cf3d 4362 f6bd 62ed 10be d9c3 2c3e
00000100: 24b1 633c fd44 e93d c3c9 d9bc 6c0f 3bbe
00000110: cb37 013e c9dc 87bc 892e 85bc 7327 803c
00000120: f587 f53c 973a e63b 9045 c4bc 83d0 33bd
00000130: 24dc ff3c f16b cbbd d0c3 c7bd 416e c8bb
00000140: 0154 f1bb b762 0a3d b1c1 0b3c cf4a e33d
00000150: b388 efbd 409e 23be 6a77 b3bd 8561 c0bd
00000160: 5e21 9e3d aab6 283c 9777 473d a6ed 223e
00000170: 8c34 2fbe 5b29 9fbd 26ab 6ebd 7684 efbd
00000180: 3616 6c3d 47b3 f8bc 195d cdbd 0def 02b9
00000190: 714c 0b3d e411 fd3d 4015 0f3e d64b 9bbd
000001a0: fcf5 b33d 6f54 10be 4793 e53c 205f 4cbe
000001b0: 53b2 d2bd 191d 493c dbcf a83b 7df1 503d
000001c0: dad9 343d 815e 52bd 43a0 ad3d 89ef b7bd
000001d0: c65a 21be 44c8 51bd e787 d2bc 0f43 29bd
000001e0: 94eb 1c3e d42e 12bc 17b2 2fbe d9a6 2c3e
000001f0: ca0c 08be ae05 163e 2cad ad3d 3dc5 bb3c
00000200: dff1 933c 0f27 043e 8023 a03d 1558 633d
00000210: b72e 0d3c f6a2 93bd 135a edbd 282a 1fbe
00000220: 6a7f 3d3d a470 a6bc 7281 d93d 9d96 0a3e
00000230: 1dfe 843c b0d8 bd3d 15a3 763d cc06 253b
00000240: 4a42 ed3d eb1b 17be bb66 1f3e e3a7 ef3c
00000250: f230 ee3d df16 11be 63fe 36be 2cf5 863d
00000260: 429d 23be 7228 4c3d 8fff 413d 008c 20bc
00000270: 0735 3d3e 9fd4 ccbc 2026 bb3d 51bd 91bd
00000280: c757 a13d 1e75 2f3e 5449 543c 1861 e43d
00000290: ea77 dbbd df22 0e3d 675f 293e a667 8abd
000002a0: 4678 49be 88f2 d8bd cedf 133e c469 51be
000002b0: a669 1dbe 939a 303e 2fb3 f63d 9992 993c
000002c0: e6fe 043d ced8 723c 768d fb3b 01e2 acbc
000002d0: 7635 a4bd ea50 9a3c 9c64 d23d 5a2b 8ebd
000002e0: de39 af3d d669 0e3e c1b1 c6bd 4b7b 2b3e
000002f0: 4b84 5abe 185f 853d 4c09 7dbc 1f7c fcbd
00000300: 6e99 383e 6b51 1ebd 887c 603d 06e5 85bc
00000310: 9660 8d3d 604a aa3d 7ac7 ffbd 9a5e 303d
00000320: 5688 813b eb53 6dbc 3c57 81bd dd5a a33d
00000330: e4f1 f2bc 6d02 223e ca51 df3c 81af 1fbe
00000340: 8873 43bd e993 c63a a997 b03e d210 893d
00000350: bd9e a7be d4dc 09be eeee c23c ac3a 7b3e
00000360: 3673 1cbc 19b7 75be 41bc 6abd c758 233d
00000370: 616e 2b3d 5151 c7bb 887d debd f3cb 813d
00000380: af59 a3bc df4d 1b3d 630d 8c3d 2de1 223d
00000390: d14f e53c ff09 7d3d 27a2 cf3d 1862 11bd
000003a0: c8a7 7dbe 3cd0 8fbe 21c4 dcbd 487e a53d
000003b0: f3e5 8cbc 0432 15be e1da 1bbe 64cb b2bd
000003c0: 73df 123d d08d f93d 1de7 873e ee6f 8e3e
000003d0: d61e 373e 258b aabc b55e dd3d fdb0 a63e
000003e0: bfed b93e 8467 483e fe34 b03d 9ef8 24bd
000003f0: 8701 dd3d 108b 403d 7255 02be 8128 4cbd
-0.044774167 -0.031877868 -0.026322579 -0.025184715 -0.049095355 -0.016780982 -0.080470555 0.10663821
0.047542926 0.030313116 -0.18374108 0.4202157 -0.35579014 -0.19566643 -0.008359282 0.09191413
-0.011559623 0.14378764 0.08909465 0.119513676 -0.013126305 0.016865985 -0.0012551945 0.02935083
-0.003953685 0.012209931 -0.05232157 -0.13687001 -0.04000214 0.008746706 0.030652 0.12709048
0.2947108 0.16127974 0.035181485 -0.026629252 -0.021551698 -0.11249145 -0.08795129 -0.022933185
0.07697824 -0.011912598 -0.07920581 -0.018555986 0.07236746 -0.028478375 0.014643626 0.08982702
0.049836118 -0.032052364 -0.079353176 0.08571783 0.16114461 -0.19420998 0.039166447 -0.1037709
0.054008424 0.14575261 -0.08371698 -0.0034125047 0.10139269 -0.12030461 -0.14153054 0.16871585
0.013897214 0.113901116 -0.026585465 -0.18267602 0.1261894 -0.01658477 -0.016257541 0.01564381
0.029972056 0.0070260274 -0.023958951 -0.043900024 0.0312329 -0.099326976 -0.09754145 -0.006116659
-0.0073647504 0.033785548 0.008530066 0.11098253 -0.11695995 -0.15978336 -0.08763011 -0.093936004
0.07721208 0.010297457 0.048698034 0.15910968 -0.17109889 -0.0777156 -0.05826869 -0.11695187
0.05763837 -0.030358924 -0.100275226 -0.0001248682 0.034008447 0.12356928 0.1397295 -0.07582824
0.08787152 -0.14094709 0.028024329 -0.19958162 -0.10287919 0.012275004 0.0051517314 0.05101155
0.044153072 -0.051359657 0.08477833 -0.089812346 -0.15757284 -0.05121638 -0.025699569 -0.041323718
0.15324241 -0.0089222975 -0.1715778 0.16860522 -0.13286129 0.14650604 0.084802955 0.022921199
0.018059669 0.12905525 0.07819271 0.055503923 0.008617095 -0.07208817 -0.11589446 -0.15543425
0.04626409 -0.020317383 0.10620393 0.13534017 0.016234452 0.092698455 0.06021412 0.0025181053
0.11584909 -0.14756744 0.15566532 0.02925486 0.11630429 -0.14168881 -0.17870478 0.065897316
-0.15977958 0.04984326 0.04736286 -0.009799004 0.1847726 -0.02500373 0.09138131 -0.07116187
0.0787807 0.1713452 0.012956936 0.11151332 -0.10716231 0.034701224 0.165403 -0.067580506
-0.19674787 -0.10593134 0.14440843 -0.20450503 -0.15372333 0.17246465 0.12045895 0.018746661
0.032469653 0.014822198 0.0076767756 -0.02110386 -0.08018009 0.018837411 0.10273096 -0.069418624
0.08555959 0.1390756 -0.097018726 0.16746251 -0.21339528 0.06512278 -0.015444111 -0.12328362
0.18027279 -0.038651865 0.054806262 -0.016344558 0.06903188 0.08314967 -0.12489219 0.04305897
0.00395302 -0.01448534 -0.06315467 0.07976315 -0.029656358 0.15821238 0.02726068 -0.15594293
-0.0477176 0.0015150282 0.34490708 0.06692661 -0.32738295 -0.13463145 0.023795571 0.245341
-0.009548953 -0.23995627 -0.05730844 0.039879587 0.041853312 -0.0060826917 -0.10863787 0.06337728
-0.019940225 0.03791606 0.06838491 0.039765526 0.027992161 0.06177711 0.1013835 -0.03549394
-0.24771035 -0.28088558 -0.10779596 0.08080727 -0.017199492 -0.1456986 -0.15220214 -0.087302
0.03585763 0.12185252 0.26543513 0.2781977 0.17882857 -0.020818302 0.108090796 0.32556906
0.36314198 0.19570738 0.086038575 -0.040276162 0.10791307 0.04700762 -0.12727907 -0.049843315

regularizer.icnn1.wz.weight f4 [32, 32, 5, 5]
00000000: 9b45 9737 0000 0000 0000 0000 0000 0000
00000010: 0000 0000 0000 0000 0000 0000 0000 0000
00000020: 0000 0000 0000 0000 aa7e 103d 7462 7f3c
00000030: c73b 403d 81d5 2f3a 290c c53d 9632 273d
00000040: 6efb 813c 75fc d33c c081 ab3c 8e20 a43c
00000050: babf 933c 34bd d83c d369 c63c 3b96 733c
00000060: 6f16 733c 124d 073a 5465 263a dc59 713a
00000070: 7209 173a a671 ee39 c1ed 0e3a 11ed 2d3a
00000080: 295a db3c a4eb 1e3a 5d7e fe39 1024 513a
00000090: 8516 773d 195f 2f3e d7c7 753c b6ff 403a
000000a0: ea31 523a f5be 733d 2f86 2e3e 2ad4 683c
000000b0: 6708 423a 2ca3 4f3a f1df 663d 4c63 2c3e
000000c0: 7801 293c ae5c 403a 0524 b639 2e93 c639
000000d0: 5784 d739 bd77 bf39 8ef2 b939 69fe be39
000000e0: 175a e939 93be 4c3d a559 c839 88cc c239
000000f0: 42ef c839 54c1 e53d cb21 403e 4032 6d3d
00000100: f6a4 d939 d595 bf39 d22a c53b 58ee a73d
00000110: ad1e c939 4eaa c339 155b b839 bbdc c839
00000120: 61da a53c e101 c239 8481 bc39 0000 0000
00000130: 0000 0000 0000 0000 0000 0000 0000 0000
00000140: 0000 0000 0000 0000 0000 0000 0000 0000
00000150: 0000 0000 0000 0000 0000 0000 0000 0000
00000160: 0000 0000 0000 0000 0000 0000 0000 0000
00000170: 0000 0000 0000 0000 0000 0000 0000 0000
00000180: 0000 0000 0000 0000 0000 0000 0000 0000
00000190: adaf 453d 02c5 8b3a 5196 cf39 bcb8 ee39
000001a0: eead 1d3b b5c2 2f3a 77c8 043a 7b3e e639
000001b0: 3a61 d439 20e6 673a fc55 e73c 8679 693a
000001c0: 80f9 d63b 095c 923c d315 463d acac 453a
000001d0: ae43 9a3c 5773 8d3d 5379 a03b cddc 023d
000001e0: b051 de3c 1b5d 273c 6f04 c83c b2d5 ba3c
000001f0: 3e8f e23c c090 8b3a eab6 dd39 2a3f 3f38
00000200: b016 9e38 b3df a539 08b1 423b 1c85 9e3a
00000210: 2cf1 543a 3917 8b3a 38dd b23a a1b5 323d
00000220: 372b 453a 2e3e 6d3d 688b a23c 9976 a53d
00000230: f909 343b 3940 b23a 415a a73b 1a15 883a
00000240: 2630 2a3a 1097 d23a 608f 5f3a 5860 063a
00000250: 3a7c fd3a 8e6c 163d 0000 0000 0000 0000
00000260: 0000 0000 0000 0000 0000 0000 0000 0000
00000270: 0000 0000 0000 0000 0000 0000 0000 0000
00000280: 0000 0000 0000 0000 0000 0000 0000 0000
00000290: 0000 0000 0000 0000 0000 0000 0000 0000
000002a0: 0000 0000 0000 0000 0000 0000 0000 0000
000002b0: 0000 0000 0000 0000 0000 0000 1015 c139
000002c0: f460 d039 2312 d939 0af6 d139 3595 8039
000002d0: 9b93 123a b54a 1a3a f81f 1e3a 0b4d 1b3a
000002e0: 9f5e b739 387b 0a3e 1ffc 123e e5ff 113e
000002f0: 6fb1 083e c603 073b e4fb 883b 5ea7 4a3c
00000300: c8b4 463c 47ae 2f3a b2c0 df39 8546 0c3a
00000310: 7939 143a cd5a 193a 50c7 143a e1b6 aa39
00000320: f96b 273a 5ff2 2b3a ff65 333a e6be 323a
00000330: 9a1b 313a 6faf 353a 4c2d 3a3a 4c6a 413a
00000340: b3c2 403a cb18 3f3a e449 6b3a 2632 3f3b
00000350: 0dd6 c63d 9187 bb3d 7e34 9b3d 5c71 373a
00000360: 4a29 3c3a 212b 433a 2a87 423a 3dd7 403a
00000370: 78b7 2d3a a87c 323a c17a 393a 1bdb 383a
00000380: 782e 373a 0cd1 9639 6aa9 a939 9b75 c43c
00000390: 5ea0 9839 e2c1 8839 ae05 9d39 3840 b939
000003a0: f41b 663d 9898 9e39 4eb5 8e39 fe8d 9e39
000003b0: eea2 bd39 2f0b 843d 1120 a039 2038 9039
000003c0: e17a 9439 46d1 ab39 cb2e d73c 24c9 9539
000003d0: f6cb 8539 8fea 6739 c3b8 8639 2b61 9f39
000003e0: 82ea 6a39 e68d 4a39 c308 3c3b 0c88 b438
000003f0: 5b41 cd39 22da 2c3a 64dd 723a adc9 573a
1.8033015e-05 0.0 0.0 0.0 0.0 0.0 0.0 0.0
0.0 0.0 0.035277046 0.015587438 0.046932008 0.0006707535 0.0962146 0.040819727
0.015866961 0.025877217 0.020935893 0.020035055 0.018035758 0.026457407 0.024220383 0.014867361
0.014836892 0.00051613257 0.00063474965 0.00092068105 0.00057616003 0.00045479572 0.0005452298 0.0006634752
0.02677639 0.0006062335 0.00048540803 0.0007978091 0.06032421 0.1712612 0.015001259 0.00073623226
0.0008018302 0.059508283 0.17043374 0.01421074 0.0007401765 0.0007920738 0.05636591 0.16834754
0.010315292 0.0007338029 0.00034740582 0.0003787516 0.00041106596 0.0003651957 0.00035466667 0.00036429174
0.00044508345 0.049986433 0.00038213763 0.0003715495 0.00038325234 0.11218515 0.18762891 0.05790925
0.0004151237 0.00036541992 0.0060170675 0.08199757 0.00038360563 0.00037320185 0.00035163076 0.0003831143
0.020245733 0.00037003963 0.0003595465 0.0 0.0 0.0 0.0 0.0
0.0 0.0 0.0 0.0 0.0 0.0 0.0 0.0
0.0 0.0 0.0 0.0 0.0 0.0 0.0 0.0
0.0 0.0 0.0 0.0 0.04826324 0.0010663571 0.0003959411 0.00045532535
0.002405997 0.0006704734 0.0005065272 0.0004391557 0.0004050823 0.0008846242 0.028239243 0.0008906353
0.0065605044 0.017866151 0.048360657 0.0007540684 0.0188311 0.06906765 0.0048972755 0.031948853
0.027138561 0.010215069 0.024416177 0.022806976 0.027656194 0.0010647997 0.00042288686 4.5596775e-05
7.538253e-05 0.0003163792 0.002970757 0.0012094113 0.00081230956 0.0010611779 0.0013646251 0.043630246
0.0007521393 0.057920627 0.019841865 0.08079261 0.0027471764 0.0013599462 0.0051071947 0.0010382265
0.000649216 0.0016066749 0.00085281394 0.00051260507 0.001933939 0.03672462 0.0 0.0
0.0 0.0 0.0 0.0 0.0 0.0 0.0 0.0
0.0 0.0 0.0 0.0 0.0 0.0 0.0 0.0
0.0 0.0 0.0 0.0 0.0 0.0 0.0 0.0003682752
0.00039745087 0.00041402978 0.000400469 0.0002452523 0.0005591453 0.0005885766 0.00060319854 0.0005924261
0.00034974978 0.13523567 0.14353989 0.14257772 0.13348936 0.0020601614 0.0041804183 0.012369005
0.012128063 0.00067016896 0.00042677444 0.00053510844 0.0005654316 0.0005850017 0.0005675452 0.00032561182
0.00063866336 0.00065592484 0.00068435067 0.0006818607 0.0006756127 0.00069307437 0.00071020867 0.0007378205
0.0007353231 0.0007289766 0.0008975549 0.0029174178 0.09708796 0.091567166 0.075783715 0.0006997788
0.00071777834 0.00074450864 0.0007420654 0.0007356292 0.0006626765 0.00068087364 0.00070754817 0.0007051692
0.00069878204 0.00028765982 0.00032360415 0.02398186 0.00029111182 0.00026084395 0.00029949605 0.00035333796
0.056179002 0.000302498 0.00027219433 0.000302419 0.0003617028 0.064474456 0.0003054147 0.00027507637
0.00028320312 0.00032771582 0.02626743 0.00028569356 0.000255197 0.00022117257 0.0002569613 0.0003039924
0.0002240334 0.00019317082 0.0028691746 8.6084096e-05 0.0003914934 0.00065937836 0.0009264557 0.0008231651

regularizer.icnn1.wz.bias f4 [32]
00000000: 9d20 a53c ca0c cebc c87a 7a3c 2e13 063d
00000010: a067 2d3c 9b5f 473c 4a79 4a3c 0cb8 103d
00000020: ed2d 0fbc a1f5 dd3c ef09 383c 22a5 013d
00000030: eed2 fb3c 6f25 ec3c 3652 fc3b e81a abbc
00000040: dba9 193c 2a67 8fbc 8900 233c 9cdc 803c
00000050: 1da8 9a3c a86a 643c 807b e0bc 6c72 d33c
00000060: fe85 c9bc 608c e73c c074 0abd fd2f ed3c
00000070: 3368 1bbc 6775 85bc 724b 9dbc 5035 de3c
0.020157153 -0.025152583 0.015288062 0.032733135 0.010583788 0.01216879 0.012358019 0.03533177
-0.008738977 0.027094664 0.011232837 0.031651624 0.030740228 0.028826443 0.00770023 -0.020886853
0.009378876 -0.017505247 0.009948858 0.015730195 0.01887899 0.013941444 -0.02740264 0.025811397
-0.024600025 0.028265178 -0.033802748 0.028953547 -0.009485292 -0.016291333 -0.019201014 0.02712503

regularizer.icnn2.scaling f4 [1, 32, 1, 1]
00000000: 550c ddc0 550c ddc0 550c ddc0 550c ddc0
00000010: 550c ddc0 550c ddc0 550c ddc0 550c ddc0
00000020: 550c ddc0 550c ddc0 550c ddc0 550c ddc0
00000030: 550c ddc0 550c ddc0 550c ddc0 550c ddc0
00000040: 550c ddc0 550c ddc0 550c ddc0 550c ddc0
00000050: 550c ddc0 550c ddc0 550c ddc0 550c ddc0
00000060: 550c ddc0 550c ddc0 550c ddc0 550c ddc0
00000070: 550c ddc0 550c ddc0 550c ddc0 550c ddc0
-6.9077554 -6.9077554 -6.9077554 -6.9077554 -6.9077554 -6.9077554 -6.9077554 -6.9077554
-6.9077554 -6.9077554 -6.9077554 -6.9077554 -6.9077554 -6.9077554 -6.9077554 -6.9077554
-6.9077554 -6.9077554 -6.9077554 -6.9077554 -6.9077554 -6.9077554 -6.9077554 -6.9077554
-6.9077554 -6.9077554 -6.9077554 -6.9077554 -6.9077554 -6.9077554 -6.9077554 -6.9077554

regularizer.icnn2.wx.bias f4 [32]
00000000: 8a69 153e 7707 c63d 00a5 623c ef3c 483e
00000010: fab5 813d 90b5 b43d dac1 85bd b3bc 6f3c
00000020: c3c1 f3bd d343 ee3d 3373 a1bd 174a 9ebd
00000030: ca23 98bd d326 d93d 67bc 7f3b 4a94 033e
00000040: dda6 c53d 0a53 c9bd ea7d bbbd 0361 e13d
00000050: cd3c ddbb d32d 3abd e86a 07be 205f 143d
00000060: 5d6a 283e b8f9 0fbe ba3e 21be 3a5f fcbd
00000070: 30c4 383e e0ea 40be 0071 e23c eaba ee3d
0.14591041 0.096693926 0.013833284 0.19554494 0.063335374 0.08823693 -0.06531115 0.014632392
-0.119021915 0.1163403 -0.07883301 -0.07728975 -0.07428701 0.10603108 0.0039022209 0.12849537
0.09650967 -0.098302916 -0.091548756 0.11004832 -0.006751633 -0.045453858 -0.13224375 0.03622353
0.16446824 -0.14060104 -0.15746585 -0.123228505 0.1804359 -0.18839598 0.027641773 0.11656745

regularizer.icnn2.wx.parametrizations.weight.original f4 [32, 1, 5, 5]
00000000: cd35 543c 5dab 9cbd e3af 11be 0738 e4bd
00000010: e71d 173d 7753 41be 8d15 38bd 5d38 adbd
00000020: e768 993d b3b6 b43d 3390 7bbc 9a36 b1bc
00000030: 6ad8 143e 23e1 a2bd 38b3 31be a7c4 433d
00000040: 783b 4b3e fdc6 c63d cd74 9f3c 63a4 433e
00000050: cd56 7fbc 5bd4 43be cd7e 1a3c 1031 ccbd
00000060: 00b4 183c a713 863d 0308 b13d 133f 88bd
00000070: 3db2 18be 7259 07be 3351 94bc 379e 00be
00000080: 0f28 063e faf9 87bd f3a9 833c 67b8 16bb
00000090: 55d8 0bbe edf2 f2bd 9d56 80bd e034 1bbe
000000a0: 2341 1f3e e2fe 0e3e 1dfd 18be 387c 273e
000000b0: 60b3 a13d cbee 033e 87d6 dcbd 6b0b 0dbe
000000c0: ad33 3e3d 67cb 5fbc a78f 143e cd26 f8bc
000000d0: b324 7cbd cd6d 76bd e02f b93d a54d 4bbe
000000e0: f2ea 09be bafd 33bd 67a6 f438 0dc3 8a3c
000000f0: 80ec 84bd f390 d33d c569 0bbe 4a3b 2e3e
00000100: 3397 783b 9a77 913d 179a 933d 8217 02be
00000110: e707 49be 3bd0 3dbe cabb 253e 008e 5cbc
00000120: 333f ab3b 3a80 9b3d 0d33 3ebe 4343 9bbd
00000130: 670b 15bd 206b 1c3e d00b 3e3e cd1d 563c
00000140: da00 3b3e 984e 333e e0eb d03d 339d a8bb
00000150: 9f1f 1a3e f3b4 a7bd 1834 403e 8a51 963d
00000160: 3de0 fbbd ddd5 293e 2dfc 04be 6712 413b
00000170: d2c0 34be 6b7f 10be 8d73 ed3d 3322 8b3c
00000180: 6d00 cdbd d340 02bd 8d0c 483d cda1 223c
00000190: 90ce e0bd 7539 04be 9220 36be c769 19bd
000001a0: 938d 7b3d 3a25 e83d 3384 373c 0300 afbd
000001b0: fd20 e53d 0068 cbbd 8381 0abe 40d1 723d
000001c0: 9a06 58bd 0dad af3c a72a 923c 7794 2f3e
000001d0: 009c cf3d 075e 48bd 6035 1e3e 7a79 b5bd
000001e0: dd1f 4a3e 076e a53d 8f20 08be 7a5f 023d
000001f0: ba48 6ebd e3aa c3bd 8d77 3ebe fbfd 0fbe
00000200: 7ab4 22be 87a4 3fbd 55a3 2abe 8000 61bc
00000210: f3ce 3a3d 67ee 623d 7f53 14be 2d34 703d
00000220: ca11 bc3d 4a40 97bd 4756 3fbe 3d34 b83d
00000230: a775 d83c 9a7a 5bbd 02e7 053e 4bfa 1e3e
00000240: 905e edbd 451b 2cbe d0de 04be e089 2b3d
00000250: 0000 aab9 d809 0d3e 605a 323d bd0a febd
00000260: 0090 6f3a 2d8e 1f3d 9dcf 86bd 7539 493e
00000270: 95da 2ebe a7d7 81bd a021 05be 903d 2e3e
00000280: 3d66 c2bd 98fa 303e 70b5 ec3d 9a2a e23b
00000290: cdab 1d3d 5350 14bd 1d81 cfbd 03bc dbbd
000002a0: d092 ca3d 7380 d4bc bd0f e03d 3368 d1bc
000002b0: e366 8a3d 8a65 9c3d 67f3 9c3d 2a01 d53d
000002c0: 0003 ea3c 373a dc3d e750 78bc d76a 39be
000002d0: c7a8 18be 7aaa fa3d 9a0e 8ebc 1f6c 23be
000002e0: da0d 123d 42d4 1abe a783 e03c 2d04 fabd
000002f0: cd79 153c 70e2 99bd 9aa4 c1bc 9349 1d3d
00000300: 4d55 20bd c077 fe3d 2d37 4fbd da4e c33d
00000310: 400d 263d b3be 12be 3aba 2ebe 2da6 1abd
00000320: 5228 1f3e cdd3 7bbc 1386 21bd 5a36 2b3d
00000330: 4507 26be e318 19be 8000 fdbc 6344 b33d
00000340: 0bc2 47be bdbb 96bd 3708 b33d 43b2 9a3d
00000350: da6c 50bd 132f 0bbe 33dc 02be 5328 2fbd
00000360: 902d 453e 3a2a 4a3d 73da ca3c 5876 41be
00000370: 9a6e 933c 5d6b 4cbe c0d5 ecbd a036 263e
00000380: 6726 efbb 1adc 263e f006 2bbe cda4 e8bb
00000390: c8c0 07be 5d51 28be 7a95 8abd 0d45 4ebd
000003a0: 8011 1ebd aab4 e43d 1ab9 6b3d 33e7 14bc
000003b0: 1ab1 483c 83a7 28be 4093 903c cde4 a3ba
000003c0: 3ab7 313e 8042 dabd 3346 2abc 53aa f63d
000003d0: 8dad 94bd cd67 bbbc d08d 9bbd 83a0 1a3e
000003e0: bd84 ad3d 03cb 3cbe 27be 59bd ede8 8c3d
000003f0: cd8f bd3c 9f4f 24be d7f6 f2bd f89f 1e3e
0.01295228 -0.076498725 -0.14227252 -0.11143499 0.03689375 -0.18879496 -0.044942427 -0.08458016
0.07490712 0.088239096 -0.015354204 -0.021632481 0.1453568 -0.07953098 -0.17353523 0.047794964
0.19846904 0.09705923 0.019464875 0.19105677 -0.01558466 -0.19123976 0.009429646 -0.099702954
0.009320259 0.06546717 0.08644106 -0.066526555 -0.14911743 -0.13217714 -0.018105125 -0.12560354
0.13101219 -0.06639476 0.016072249 -0.0022998096 -0.13656743 -0.11862741 -0.0626652 -0.15156889
0.15552191 0.13964418 -0.14940305 0.1635598 0.07895541 0.12884061 -0.10783105 -0.13773887
0.046436 -0.013659335 0.14507924 -0.03029194 -0.061558437 -0.060163308 0.090423346 -0.19853838
-0.13468531 -0.043943144 0.000116658215 0.01693871 -0.06490421 0.10330381 -0.13614567 0.17014804
0.0037931919 0.0710289 0.07207125 -0.1270428 -0.19631921 -0.18536465 0.16184917 -0.01346159
0.00522604 0.07592817 -0.18574162 -0.075811885 -0.036387827 0.1527524 0.18559194 0.0130686285
0.18262044 0.1751045 0.102012396 -0.0051456927 0.15051125 -0.0818881 0.18769872 0.07339771
-0.122986294 0.16585489 -0.12986822 0.0029460432 -0.1765168 -0.14111106 0.11594305 0.01698408
-0.10009847 -0.031800102 0.048840094 0.009926272 -0.10976899 -0.12912543 -0.17785862 -0.037454393
0.061414313 0.113352254 0.011200952 -0.08544924 0.11187933 -0.09931946 -0.13525967 0.059281588
-0.05274067 0.021444822 0.017842604 0.17146479 0.101371765 -0.048917796 0.15450048 -0.088610604
0.19738717 0.08077627 -0.1329367 0.031829335 -0.058174826 -0.095540784 -0.18600293 -0.1406173
-0.15889159 -0.046787765 -0.16663869 -0.013733029 0.04560752 0.05540314 -0.14484976 0.05864351
0.091830805 -0.07385309 -0.18685256 0.08994339 0.026423289 -0.05358372 0.13076404 0.15525167
-0.11590302 -0.16807278 -0.12975621 0.041879535 -0.00032424927 0.13773286 0.04354322 -0.12404392
0.0009138584 0.03895395 -0.06582568 0.19650824 -0.1707557 -0.063399605 -0.13001108 0.17015672
-0.09492157 0.17283094 0.11558044 0.006902051 0.03849392 -0.036209416 -0.10132048 -0.1072922
0.098912835 -0.025940156 0.10940502 -0.025562381 0.06757905 0.076365545 0.07663613 0.10400613
0.028565884 0.10753291 -0.015156007 -0.18107162 -0.14908133 0.12239547 -0.017340947 -0.15959214
0.03565774 -0.15120032 0.027406527 -0.12207828 0.009123278 -0.07513893 -0.023638058 0.038400244
-0.03914385 0.12425184 -0.05058973 0.09536524 0.04053998 -0.14330558 -0.17063227 -0.037756134
0.15542725 -0.015370321 -0.039434504 0.04179988 -0.1621371 -0.149509 -0.030884027 0.08753278
-0.19507615 -0.07360027 0.08741801 0.07553532 -0.05088506 -0.13592176 -0.12779312 -0.042763066
0.19255662 0.049356677 0.024762368 -0.18892801 0.017997075 -0.19962831 -0.11564207 0.16231775
-0.007298279 0.162949 -0.16701865 -0.007099724 -0.13257134 -0.16437288 -0.06766792 -0.05035882
-0.038590908 0.111672714 0.057549573 -0.009088325 0.012249256 -0.1647015 0.01764834 -0.0012504101
0.17355052 -0.10657215 -0.010392713 0.120442055 -0.07259665 -0.022876645 -0.07595408 0.15100293
0.084725834 -0.18436818 -0.05315986 0.068803646 0.023139859 -0.16045998 -0.11863487 0.1549071

regularizer.icnn2.wz.weight f4 [32, 32, 5, 5]
00000000: 0000 0000 0000 0000 0000 0000 0000 0000
00000010: 0000 0000 0000 0000 0000 0000 0000 0000
00000020: 0000 0000 0000 0000 0000 0000 0000 0000
00000030: 0000 0000 0000 0000 0000 0000 0000 0000
00000040: 0000 0000 0000 0000 0000 0000 0000 0000
00000050: 0000 0000 0000 0000 0000 0000 0000 0000
00000060: 0000 0000 0000 0000 0000 0000 0000 0000
00000070: 0000 0000 0000 0000 0000 0000 0000 0000
00000080: 0000 0000 0000 0000 0000 0000 0000 0000
00000090: 0000 0000 0000 0000 0000 0000 0000 0000
000000a0: 0000 0000 0000 0000 0000 0000 0000 0000
000000b0: 0000 0000 0000 0000 0000 0000 0000 0000
000000c0: 0000 0000 0000 0000 0000 0000 0000 0000
000000d0: 0000 0000 0000 0000 0000 0000 0000 0000
000000e0: 0000 0000 0000 0000 0000 0000 0000 0000
000000f0: 0000 0000 0000 0000 0000 0000 0000 0000
00000100: 0000 0000 0000 0000 0000 0000 0000 0000
00000110: 0000 0000 0000 0000 0000 0000 0000 0000
00000120: 0000 0000 0000 0000 0000 0000 0000 0000
00000130: 0000 0000 0000 0000 0000 0000 0000 0000
00000140: 0000 0000 0000 0000 0000 0000 0000 0000
00000150: 0000 0000 0000 0000 0000 0000 0000 0000
00000160: 0000 0000 0000 0000 0000 0000 0000 0000
00000170: 0000 0000 0000 0000 0000 0000 0000 0000
00000180: 0000 0000 0000 0000 0000 0000 0000 0000
00000190: 0000 0000 0000 0000 0000 0000 0000 0000
000001a0: 0000 0000 0000 0000 0000 0000 0000 0000
000001b0: 0000 0000 0000 0000 0000 0000 0000 0000
000001c0: 0000 0000 0000 0000 0000 0000 0000 0000
000001d0: 0000 0000 0000 0000 0000 0000 0000 0000
000001e0: 0000 0000 0000 0000 0000 0000 0000 0000
000001f0: 0000 0000 0000 0000 0000 0000 0000 0000
00000200: 0000 0000 0000 0000 0000 0000 0000 0000
00000210: 0000 0000 0000 0000 0000 0000 0000 0000
00000220: 0000 0000 0000 0000 0000 0000 0000 0000
00000230: 0000 0000 0000 0000 0000 0000 0000 0000
00000240: 0000 0000 0000 0000 0000 0000 0000 0000
00000250: 0000 0000 0000 0000 0000 0000 0000 0000
00000260: 0000 0000 0000 0000 0000 0000 0000 0000
00000270: 0000 0000 0000 0000 0000 0000 0000 0000
00000280: 0000 0000 0000 0000 0000 0000 0000 0000
00000290: 0000 0000 0000 0000 0000 0000 0000 0000
000002a0: 0000 0000 0000 0000 0000 0000 0000 0000
000002b0: 0000 0000 0000 0000 0000 0000 0000 0000
000002c0: 0000 0000 0000 0000 0000 0000 0000 0000
000002d0: 0000 0000 0000 0000 0000 0000 0000 0000
000002e0: 0000 0000 0000 0000 0000 0000 0000 0000
000002f0: 0000 0000 0000 0000 0000 0000 0000 0000
00000300: 0000 0000 0000 0000 0000 0000 0000 0000
00000310: 0000 0000 0000 0000 0000 0000 0000 0000
00000320: 0000 0000 0000 0000 0000 0000 0000 0000
00000330: 0000 0000 0000 0000 0000 0000 0000 0000
00000340: 0000 0000 0000 0000 0000 0000 0000 0000
00000350: 0000 0000 0000 0000 0000 0000 0000 0000
00000360: 0000 0000 0000 0000 0000 0000 0000 0000
00000370: 0000 0000 0000 0000 0000 0000 0000 0000
00000380: 0000 0000 0000 0000 0000 0000 0000 0000
00000390: 0000 0000 0000 0000 0000 0000 0000 0000
000003a0: 0000 0000 0000 0000 0000 0000 0000 0000
000003b0: 0000 0000 0000 0000 0000 0000 0000 0000
000003c0: 0000 0000 0000 0000 0000 0000 0000 0000
000003d0: 0000 0000 0000 0000 0000 0000 0000 0000
000003e0: 0000 0000 0000 0000 0000 0000 0000 0000
000003f0: 0000 0000 0000 0000 0000 0000 0000 0000
0.0 0.0 0.0 0.0 0.0 0.0 0.0 0.0
0.0 0.0 0.0 0.0 0.0 0.0 0.0 0.0
0.0 0.0 0.0 0.0 0.0 0.0 0.0 0.0
0.0 0.0 0.0 0.0 0.0 0.0 0.0 0.0
0.0 0.0 0.0 0.0 0.0 0.0 0.0 0.0
0.0 0.0 0.0 0.0 0.0 0.0 0.0 0.0
0.0 0.0 0.0 0.0 0.0 0.0 0.0 0.0
0.0 0.0 0.0 0.0 0.0 0.0 0.0 0.0
0.0 0.0 0.0 0.0 0.0 0.0 0.0 0.0
0.0 0.0 0.0 0.0 0.0 0.0 0.0 0.0
0.0 0.0 0.0 0.0 0.0 0.0 0.0 0.0
0.0 0.0 0.0 0.0 0.0 0.0 0.0 0.0
0.0 0.0 0.0 0.0 0.0 0.0 0.0 0.0
0.0 0.0 0.0 0.0 0.0 0.0 0.0 0.0
0.0 0.0 0.0 0.0 0.0 0.0 0.0 0.0
0.0 0.0 0.0 0.0 0.0 0.0 0.0 0.0
0.0 0.0 0.0 0.0 0.0 0.0 0.0 0.0
0.0 0.0 0.0 0.0 0.0 0.0 0.0 0.0
0.0 0.0 0.0 0.0 0.0 0.0 0.0 0.0
0.0 0.0 0.0 0.0 0.0 0.0 0.0 0.0
0.0 0.0 0.0 0.0 0.0 0.0 0.0 0.0
0.0 0.0 0.0 0.0 0.0 0.0 0.0 0.0
0.0 0.0 0.0 0.0 0.0 0.0 0.0 0.0
0.0 0.0 0.0 0.0 0.0 0.0 0.0 0.0
0.0 0.0 0.0 0.0 0.0 0.0 0.0 0.0
0.0 0.0 0.0 0.0 0.0 0.0 0.0 0.0
0.0 0.0 0.0 0.0 0.0 0.0 0.0 0.0
0.0 0.0 0.0 0.0 0.0 0.0 0.0 0.0
0.0 0.0 0.0 0.0 0.0 0.0 0.0 0.0
0.0 0.0 0.0 0.0 0.0 0.0 0.0 0.0
0.0 0.0 0.0 0.0 0.0 0.0 0.0 0.0
0.0 0.0 0.0 0.0 0.0 0.0 0.0 0.0

regularizer.icnn2.wz.bias f4 [32]
00000000: af05 2d3c 4352 383c d12b 74bc 9ec5 0b3d
00000010: 24cb fe3b 9845 a8bc eafa e63c 0efd f8bc
00000020: 3299 793c cc0e 2cbc 2760 403c 2f27 01bd
00000030: a844 b43c c2c9 a13c c4fb e3bc 02b6 ad3c
00000040: 32d5 28bc b14d c3bc 2e3a c13c 1da1 dc3c
00000050: a854 a73c cee6 fd3c a53c d93b f3e6 713c
00000060: ac48 0fbc cd63 ac3c 2415 5c39 020e 91bc
00000070: 2ee5 52bc f75a 11bc 4217 00bd c3f5 a4bb
0.010560437 0.0112500815 -0.014903025 0.03412401 0.007775681 -0.020540997 0.028195817 -0.030394103
0.0152342785 -0.010501575 0.0117416745 -0.03153151 0.022005394 0.019749526 -0.027830012 0.021204952
-0.010304736 -0.023840757 0.023587313 0.026932294 0.02042611 0.030993845 0.006629544 0.014764535
-0.008745354 0.021043682 0.0002098871 -0.017706875 -0.0128720235 -0.008871785 -0.03127218 -0.00503418
