weights/score_for_Denoising/CRR_score_training_for_Denoising.pt (torch, 58711 bytes, 4 tensors)

regularizer.scaling f4 [1, 64, 1, 1]
00000000: 2d49 3a40 9326 6a40 04da 2040 aa6d 5140
00000010: f8c9 ab40 a7af 8340 38e5 4d40 a842 7d40
00000020: 58b4 5c40 806f 6740 4f06 4c40 a646 4e40
00000030: 38bf 6340 6963 7840 bcc1 b140 65a8 6440
00000040: 1359 6040 d9c0 5440 d855 6d40 116a 7140
00000050: 0ee0 6040 12b5 3b40 2fc7 4f40 5ece 5840
00000060: ea9e 5f40 e07a 4c40 86c3 6340 3e62 6f40
00000070: b002 5740 74ad 5340 6ece 7640 bdb9 3a40
00000080: 6229 5c40 37b0 6940 4ff4 6240 cf29 6f40
00000090: 4ffe 7540 2569 6040 74e4 6c40 4f79 7640
000000a0: e3f8 5c40 61b5 6040 1546 5540 548b 5440
000000b0: ed9a 6140 f800 6440 941d 8240 e050 5540
000000c0: 800a 7040 f29e e23f edbe 7040 7b5e 4740
000000d0: 63f0 5d40 c2e8 8140 fb47 7140 2615 6640
000000e0: 3686 4040 5407 6440 b480 4740 77e0 4d40
000000f0: ed52 7940 ffcb 5040 3672 4940 de39 5640
2.9107163 3.6586044 2.5133066 3.2723184 5.3684044 4.115192 3.2171154 3.9571934
3.4485073 3.6161804 3.187885 3.223062 3.558546 3.8810675 5.554899 3.572778
3.5054367 3.3242705 3.7083645 3.7720988 3.5136752 2.9329267 3.2465322 3.3875957
3.4940743 3.1949997 3.5588088 3.7403712 3.359539 3.3074617 3.8563495 2.9175866
3.4400258 3.6513803 3.5461614 3.7369268 3.8436468 3.5064175 3.7014437 3.851154
3.4526908 3.5110705 3.3324025 3.321004 3.525081 3.5625591 4.0661106 3.3330612
3.7506409 1.7704756 3.7616532 3.1151416 3.467797 4.059663 3.7700183 3.5950408
3.0081916 3.5629473 3.1172304 3.2168252 3.8956864 3.262451 3.147596 3.347282

regularizer.filters.0.parametrizations.weight.original f4 [4, 1, 5, 5]
00000000: b4fb 9b3e 7662 f93c 1ae1 cfbe c593 4f3e
00000010: 843f 853d 3bac 583e a9b7 983f 3890 dfbf
00000020: 3db3 b9b9 454d 9f3e 47a8 84be aed9 0dbd
00000030: 16f3 4f3e c966 603e 0a8e ac3e 572d 0dbe
00000040: 4c5c a1bd 0679 0b3f 88cb 033e 4e5b 7cbe
00000050: 83b2 033e 7c17 67be af7c debd ebdc 943e
00000060: abe6 cb3e e463 663e 948f e2be 73bb 9b3e
00000070: e92a 123f ca40 223e 2a69 28be ad4d 5e3e
00000080: fa6c 6f3e 89ef 3e3e 64ec 713f 4ab2 bb3d
00000090: b97d 853d e143 3e3e 172a 35c0 6ba3 853e
000000a0: 8ea4 1fbd 8321 7cbd f4c4 acbc 96c4 0d3f
000000b0: 81e7 d3bd 3939 063e 5bf5 dd3c acfd 15be
000000c0: bac5 08bd adf9 873e a6d8 c1be 2dea 0c3e
000000d0: 6c17 323e b3cd 263e e4e2 0a3d c308 5bbe
000000e0: a4ef 45bf 6810 e2be 3b29 263d 0818 023e
000000f0: 25eb 0bbf bd25 0a3f ca76 283f cbd7 c33e
00000100: 5ceb ea3d a43f 993c 3e9a 29be e6a4 98bd
00000110: ed3b 063e 93e9 74bd 650e a93d d2b9 79be
00000120: e7f7 403e 88f5 e9be a5fb 753c b5eb c6bc
00000130: c1e1 103f 91a6 12bf 7e16 763e 8929 853e
00000140: fb50 9e3e 1bc2 203e 7e05 3a3e c36b e33e
00000150: 4c6e 893e 28e5 3dbe d7cd 953e 5fd7 8bbe
00000160: b887 f6be 1173 a73e 3ab9 053e db81 9f3e
00000170: 6432 a2be 1944 a6bd 054a 1c3d 7167 acbc
00000180: c1f8 a43d 2dfe 74bd 7cb9 e1bd df2d 48be
0.30465472 0.030442458 -0.40601426 0.20271213 0.06506255 0.2115945 1.1931049 -1.7465887
-0.00035419493 0.3111364 -0.25909635 -0.034631424 0.20307574 0.2191421 0.33702117 -0.13786827
-0.07878932 0.5448154 0.1287061 -0.24644205 0.12861066 -0.22567552 -0.10863625 0.29074797
0.39824423 0.22499043 -0.44250166 0.3041645 0.57096726 0.15845028 -0.16446367 0.21709318
0.23381415 0.18646063 0.9450133 0.09164865 0.0651812 0.18580581 -2.830694 0.2610124
-0.03897529 -0.061555397 -0.021090008 0.5537809 -0.1034689 0.13107766 0.027094534 -0.1464755
-0.03339169 0.26557675 -0.37860602 0.13761206 0.17391747 0.16289406 0.033907786 -0.21390061
-0.7731879 -0.44153142 0.040566664 0.1270448 -0.5465568 0.53963834 0.6580626 0.38250574
0.114706725 0.018707104 -0.16562745 -0.07453327 0.13108797 -0.059793066 0.08254699 -0.24387291
0.18844567 -0.45695138 0.01501361 -0.024282316 0.56594473 -0.5728541 0.24032018 0.2600825
0.30921158 0.15699045 0.18166158 0.44418153 0.26841962 -0.18544447 0.29258606 -0.27312753
-0.4815042 0.32704976 0.1305894 0.3115376 -0.3167907 -0.08118457 0.038156528 -0.021045418
0.080552585 -0.059812713 -0.110217065 -0.19548748

regularizer.filters.1.weight f4 [8, 4, 5, 5]
00000000: 3cb5 d8be 64cf fd3e 99f5 adbb 67f1 43bf
00000010: e3e1 8ebe f71c 883d 947f d13d e724 a43d
00000020: 6891 3d3e eff9 afbe 1813 a6be de35 703f
00000030: de07 753f c07f 68bf cd59 47be 9978 7a3e
00000040: 418a 8d3e 1076 44be c391 863e db3b 0b3e
00000050: 7dbf 2dbd b42f 02bf 1ee6 7d3e 8bc8 56be
00000060: e47c d13d f036 c6be cb89 2e3e 903b 5e3d
00000070: 70f8 f53d 9ff0 09be c14a 023e 5697 87bd
00000080: 973f f0be 9e47 933e 5c19 023b 8dbe 5e3e
00000090: 11cf f5be 0483 6a3f 8085 cc3e a657 f93e
000000a0: e144 4c3e 921c aabe 62d3 aabe eefc 783e
000000b0: 1bc1 01bf 7253 9c3e ef19 fcbe 9872 173f
000000c0: 5354 f1be 29dd 163e 9174 07bf b85f 913e
000000d0: 66cd 3cbe b2f0 803e 5da7 2f3e c79c c13e
000000e0: 9808 333f b090 ffbb b0c4 e5be e254 b83d
000000f0: f570 12be d523 52bf 92ac 4a3f cd8a ca3e
00000100: 6ff7 e1be 528a b63e 3e4c 46bd 5e61 093f
00000110: 0abc 0abf 8a3b e2bd 291f bb3a f5cf afbd
00000120: 032b fc3e 01d7 f1be af04 3d3e bf87 ee3d
00000130: 8a1a 783e 6cad bf3e 4028 4abe 66da 5bbc
00000140: ad8e b43d 15b0 c03e c6f9 60be f15c 71bc
00000150: 2b48 2b3f 568f ae3e 28c4 7fbe 7250 40bd
00000160: 51bd 0c3f 3be3 08bf fb8f 123e 7aac f63c
00000170: 46d5 013f 1544 4cbe 0ced 3fbe 78c8 9cbe
00000180: aa98 9dbe 28b5 213e cc02 8cbd 4295 0e3e
00000190: c375 3c3e 566e a03d 7831 963e 7640 4b3e
000001a0: 80cd 14bc 0c44 933e 2366 023f 4686 86be
000001b0: e0b3 743e cbf4 f83c 0754 c33e ba39 603f
000001c0: 74b0 f83d 753a 843e 0579 843e 7770 0f3d
000001d0: 8f29 59bf e8dc 1f3f 454d a2bf d2aa 40be
000001e0: 6279 81be 03af 46bf 990d 923f a84b 203d
000001f0: 7743 90be 6395 783d 7e00 ee3d 865f 0c3e
00000200: c2e5 19be 75a4 3ebe 0148 9dbe 1e67 803f
00000210: e9ee dfbe 4760 fabd 01e9 183c c995 913f
00000220: 1f10 e7bf 31d7 8b3e ff97 d63d 7160 e5be
00000230: 5a47 d23f 4747 89bf 7a70 8dbe 838a 2bbe
00000240: 4fba 1a3f b740 143c b043 31bd ae12 3fbd
00000250: a53b 2a3f 0bf6 81be 0569 84bd 6907 3fbf
00000260: a32d 013e 6bbf b03e 8e00 cbbe 8321 fe3d
00000270: 03ca e3be 7049 19bf 119d 2e3f 12d2 f8be
00000280: cbca 12bf 2f86 45bd 1e54 2e3f 92d5 a1bf
00000290: 7b16 f23e 137a 333f 33d6 99bd f5c9 b53e
000002a0: d1ba 683f 07f9 7d3e fb6d ba3e c037 30bf
000002b0: 53ef 3abe a8a7 a8bd fe2a 223f a439 55bf
000002c0: 9cdd afbe 708d 0cbe 0d77 e13e 757a 0a3d
000002d0: 164c e2be 7151 56be e7a8 10bc 4148 25be
000002e0: 1af1 7fbd f9db 463f 7a05 c7be 0258 263f
000002f0: 82a4 333e 48c9 083f 2a72 07bf 61cb 553d
00000300: 33f1 23bf 294b 43be 18e0 b6be 9145 4c3e
00000310: 74df 09bf de75 4c3f 4e3b 72bf d896 243f
00000320: 3e53 893e 0a47 81bd 6f20 1a3f bfd9 953e
00000330: 979c 3fbe e2ef ecbd b11a 5fbe 6ef5 b53c
00000340: 9df9 003e 7163 7a39 c028 07bf 7714 99bb
00000350: 3c81 90bf 05b0 213f b294 c63b 33ac 1c3e
00000360: 0a89 15bf c2e4 7b3e b096 44bd e052 ef3e
00000370: 271f 3a3e 530f 81be 2e4c 0dbf 11fd 123d
00000380: fe11 e13e 2406 1ebd 62f9 9b3e c36c 70be
00000390: a3de 203e aab5 4e3e e36c a43e 1bc0 08bf
000003a0: 0cb4 813f 490e 5b3e c276 36be a0c1 9bbe
000003b0: 52eb 123f d195 203f 4c31 41bf 1915 643c
000003c0: befb 82be 90e0 d93e 816e 2bbf 1bbe 69bb
000003d0: 0617 08bf 3fed fcbd 582c d1bd 8d55 d43d
000003e0: 32aa 0abf 0297 873d b3f0 4dbe b54f dfbc
000003f0: 899c 913e f741 763d a58a 4b3e 5166 8c3d
-0.4232577 0.4957229 -0.0053088185 -0.76540226 -0.27906713 0.066461496 0.10229412 0.08014851
0.185125 -0.34370372 -0.32436442 0.93832195 0.9571513 -0.9081993 -0.1946785 0.24460067
0.27644542 -0.19185662 0.26283082 0.13597052 -0.042418946 -0.5085404 0.24794814 -0.20974939
0.10228899 -0.3871379 0.17044751 0.054256022 0.12010276 -0.13470696 0.12723829 -0.06620662
-0.46923515 0.28765577 0.001985154 0.21752377 -0.48009542 0.91606164 0.39945602 0.48699683
0.1994815 -0.33224922 -0.33364397 0.24315235 -0.5068528 0.30532414 -0.49238536 0.5915923
-0.47134647 0.14732803 -0.5291224 0.2839334 -0.18437728 0.25183636 0.17153688 0.37814924
0.6993499 -0.0077992305 -0.44876623 0.09000565 -0.14300902 -0.82085925 0.7916957 0.39559022
-0.4413409 0.35652405 -0.048412554 0.53664196 -0.54193175 -0.110465124 0.0014276254 -0.085845865
0.49251565 -0.47234347 0.18458818 0.11646985 0.24228874 0.37436998 -0.19741917 -0.013418769
0.08816276 0.3763434 -0.21970281 -0.014731632 0.66906995 0.34093732 -0.24977171 -0.04695172
0.54976374 -0.53471726 0.14312737 0.03011154 0.50716054 -0.19947846 -0.1874277 -0.30621696
-0.30780536 0.15791762 -0.06836471 0.13924125 0.18404298 0.07833545 0.29334617 0.19848809
-0.009082198 0.28762853 0.509371 -0.26274318 0.23896742 0.030390164 0.38150045 0.87588084
0.12143031 0.2582585 0.2587358 0.035019364 -0.8482904 0.6244645 -1.2679831 -0.18815163
-0.2528792 -0.77610797 1.14104 0.03913465 -0.28176472 0.06068934 0.116211876 0.13708314
-0.15029052 -0.18617423 -0.30718997 1.0031469 -0.4373696 -0.12225395 0.009332896 1.1373836
-1.8051795 0.27312616 0.1047821 -0.4480014 1.6428025 -1.0724877 -0.27624875 -0.16752057
0.60440534 0.009048632 -0.043277442 -0.046648674 0.6649726 -0.25383028 -0.064653434 -0.7462068
0.12615065 0.3452104 -0.3964886 0.124087356 -0.4449006 -0.5987768 0.68208414 -0.4859777
-0.5734069 -0.04822367 0.680971 -1.2643301 0.47282776 0.70108145 -0.075115584 0.35505643
0.9091006 0.24802028 0.36412033 -0.6883507 -0.18255357 -0.08235103 0.6334685 -0.8329108
-0.34348762 -0.13725829 0.4403614 0.03380819 -0.44198674 -0.20929505 -0.008829332 -0.16140844
-0.06248579 0.776794 -0.38871366 0.6497804 0.17543224 0.5343213 -0.52908576 0.05219591
-0.64039916 -0.1907164 -0.35717845 0.19948412 -0.5385659 0.7986735 -0.9462174 0.6429267
0.2682132 -0.06312378 0.6020574 0.2926769 -0.18712078 -0.115691915 -0.21787526 0.022211757
0.1259522 0.00023878903 -0.52796555 -0.004671629 -1.1289439 0.6315921 0.0060602063 0.15300064
-0.5841223 0.24598983 -0.04799527 0.46742916 0.18175946 -0.25207004 -0.55194366 0.035885874
0.4395904 -0.038580075 0.304637 -0.2347899 0.15709929 0.20186487 0.32114324 -0.5341813
1.0133071 0.21392168 -0.1781874 -0.30421162 0.5739032 0.627286 -0.75465846 0.013921046
-0.2558269 0.4255414 -0.6696549 -0.003566629 -0.5316013 -0.123499386 -0.10213536 0.1036788
-0.5416595 0.06620599 -0.2011135 -0.027259687 0.2843974 0.060121503 0.19877107 0.06855453

regularizer.filters.2.weight f4 [64, 8, 5, 5]
00000000: 275c 303e 8b48 c6bd 7b4c a13e 69a2 b0be
00000010: b94c d43e b325 02be 12aa a8be 09e3 b73e
00000020: e63d 9c3e e968 6abe fc9d a1bd 1f5d ff3e
00000030: e520 b0be bc98 843f 5a45 0abf 76c8 163f
00000040: c742 18bf ca59 b4be 94d2 8d3f e057 eebe
00000050: 7c3b ffbd 55a2 3f3e 5b9f f2be ff4f b8bd
00000060: 9107 573e 66d8 d53e 9661 1dbf e4f6 eb3e
00000070: 0384 bfbd 8ff2 a9be 5691 a5be 6aa8 71bf
00000080: 3abe 3440 3d5a c83a 09b0 4cbe 7c38 3dbd
00000090: 4897 b63e a11e 2cc0 32cc 1940 007b 38bf
000000a0: e4d6 43bd 7169 c73d fccd 2fbf 2dde 2c3f
000000b0: 468d ddbd 371f f7bd 0131 14bd bcd3 d03e
000000c0: fe68 3fbf eda5 4c3f 3061 ba3e f948 c1be
000000d0: f8a4 c4bd 2ce2 7abe b2f5 4d3c 818d 37bf
000000e0: 085f c73e 03fb d8bc 1ac8 b5bd e91b 623e
000000f0: 222a 893f 8b03 8abf cfd3 e43e d9b0 d4be
00000100: b1c5 77be e87a c4bc 1c51 1a3f 1a4a c3be
00000110: 98b3 623e fe22 14bd f1c3 4a3d 9622 b7bd
00000120: e3b6 503f 6a7b 84bf 0585 303f 1ee5 7b3d
00000130: 9ca3 063f 350a 97bf 1411 003e 72d0 ca3e
00000140: f2b7 13bf f70c 523e 2676 28bf aa8a 8c3e
00000150: 31ec 913e d0db d13e e396 0fbf 1271 9d3e
00000160: 73f3 afbe e8fb c5bc 1086 15bf 74cc 263f
00000170: 9ce5 43bf fa82 453f 01df 58bf ea52 853e
00000180: 27c3 e0be e269 88bd 6d1d 3e3f 4604 c6be
00000190: 744b 86be 70c6 a4bd 7cc8 dd3d 1ad8 db3d
000001a0: 5bec 813b fa95 5e3e cdb1 bdbe d0b9 12bb
000001b0: e2f0 b7be 217d 523e 8fa3 95bd 0486 09be
000001c0: 9a63 a83e 337d f8bd 36b6 11be 6ab8 a9be
000001d0: cee6 3f3f d583 c3be 3feb 323e f759 9dbe
000001e0: bc78 64be d03b 303e 5e97 0ebd 2bac b0bd
000001f0: 272e 333e 4340 053e 404c 84bc 8923 283f
00000200: 55fe debe 2199 753e e175 36bf 314a ef3e
00000210: c817 513f 28d0 97bf 13fc 00be c1fd a33e
00000220: 5de6 91bf 454b 153f 3fd5 d73e d835 2cbe
00000230: 370c bf3a d494 313e a6a3 7abf 609a 6d3f
00000240: 8764 3dbf 5126 413e be98 fd3d 30b2 f2be
00000250: 8c19 003f 635b 413b 91e0 233e 20f8 943e
00000260: 2c04 82bf 6f33 843f a704 28bf de93 f73d
00000270: 2f8c 70bf 2f74 f5bc 06a5 cf3e 981a a4bb
00000280: c652 333f 6b13 ea3d e6d0 5dbf c600 3c3e
00000290: 4319 b93e dd9c 34bd 05e2 cdbe 5505 fd3d
000002a0: d47e ffbd 4041 073f ab4a 53be d49c 4a3f
000002b0: 5ae2 6ebf 37b1 783e d30b 1abb b54a f5be
000002c0: 4318 1a3e a498 c43d 39bc ac3e 4620 62be
000002d0: f5c6 0a3f ffb1 12bf 757d 433e a008 17bf
000002e0: eb5e 803e 69cf 093f b9a3 76be b6d6 5dbd
000002f0: f95c ddbc 9e26 45be 5daf 2bbe 5f2e 9f3e
00000300: 61b3 8f3d ad0d 283e 366c 75be b2e5 26be
00000310: 7fd0 dd3e 154c 94bc eab1 a8be bdbf a53e
00000320: 59f7 843e 475c 323c ad03 64be aec9 06bf
00000330: 6608 0e3e 0b92 21bf 106c 513e bf6e 993f
00000340: 28b9 043f 74d1 8a3e accf 5d3e e94d e2bd
00000350: 91c3 9bbf 0dc5 0dbf 24fc babd e986 c1be
00000360: ce23 c63e 377d af3f ff83 da3e c555 313e
00000370: a94e babd 06fb d2bd 67f3 b4be 6f20 99be
00000380: 1c54 9cbe f347 0dbf 0512 78bf 4322 5a3f
00000390: d5c1 f5bd 097f c63d c98d 943f 07dc a43f
000003a0: f3eb c3bf 697f 49bf 9c64 65be 4a47 d3bf
000003b0: cf0a 82bf 88fc 803e 0647 c23f 304c 833f
000003c0: 59ee 9f3f 26fa 3f3f 606a 803f 1df5 dcbf
000003d0: 9b7d 04bf 107c 83be c17f b4be 639f 32bf
000003e0: 4a0b 203f 44cd aebe eac9 943c 32cc 67be
000003f0: a963 88bd 9bdc 7cbe 1b69 b33d 78a2 f53e
0.17222653 -0.09681805 0.31503662 -0.3449891 0.41464785 -0.12709694 -0.32942253 0.35915402
0.30515975 -0.22891583 -0.07891461 0.49875733 -0.34400097 1.0359111 -0.5401207 0.5889963
-0.59476894 -0.35224754 1.1079888 -0.46551418 -0.124625176 0.18714269 -0.47387204 -0.08999633
0.2099898 0.4176666 -0.6147703 0.460868 -0.09351351 -0.3319287 -0.32337445 -0.94397604
2.8241105 0.0015285682 -0.19989027 -0.046196446 0.35662293 -2.6893694 2.403088 -0.72062683
-0.047812358 0.09736908 -0.6867368 0.67526513 -0.108179614 -0.12066501 -0.036179546 0.4078654
-0.7476958 0.7994068 0.36402273 -0.37750986 -0.09601778 -0.2450034 0.012570785 -0.7170029
0.3893969 -0.02648688 -0.08876057 0.2208096 1.0715983 -1.0782331 0.44692847 -0.41541174
-0.24196507 -0.023984388 0.60280013 -0.38142473 0.22138822 -0.036166184 0.04950327 -0.089421436
0.81529063 -1.0350163 0.6895297 0.0614978 0.525934 -1.179999 0.12506515 0.39612156
-0.57702553 0.20512758 -0.6580528 0.27449542 0.28500512 0.40988016 -0.5608961 0.30750328
-0.34365425 -0.02416797 -0.5840769 0.6515572 -0.7652223 0.7715298 -0.84715277 0.2603982
-0.4389889 -0.066608205 0.7426365 -0.38675135 -0.2622944 -0.080456614 0.10829255 0.107345775
0.0039649433 0.21736899 -0.37049714 -0.0022388585 -0.35925967 0.20555545 -0.07306587 -0.13430029
0.3288849 -0.12133255 -0.14229664 -0.3314851 0.74961555 -0.38186517 0.17472552 -0.307327
-0.22311682 0.17210317 -0.034812324 -0.086265884 0.17498074 0.13012795 -0.01614964 0.6567922
-0.43553415 0.23984195 -0.7127362 0.4673629 0.8167691 -1.1860399 -0.12596159 0.32029536
-1.1398426 0.5831798 0.4215488 -0.16817415 0.0014575784 0.1734193 -0.9790596 0.9281368
-0.7398152 0.18862273 0.12382649 -0.4740157 0.5003898 0.0029503934 0.16003634 0.29095554
-1.0157523 1.0328196 -0.656321 0.1208875 -0.93963903 -0.029962627 0.4055559 -0.005008053
0.7004818 0.11429485 -0.8664688 0.1835967 0.36152086 -0.04409491 -0.40211502 0.12354533
-0.124753624 0.5283394 -0.20633952 0.7914555 -0.93314135 0.24286352 -0.0023505583 -0.4790856
0.15048318 0.095994264 0.33737352 -0.22082624 0.54209834 -0.5730285 0.19090827 -0.58997536
0.25072417 0.5383211 -0.24085893 -0.054159842 -0.027021872 -0.19253013 -0.16766115 0.31090066
0.07016636 0.16411467 -0.2396706 -0.1629856 0.43323132 -0.018102685 -0.32948238 0.32372847
0.2596996 0.010886258 -0.22267027 -0.5265149 0.13870391 -0.6311347 0.20451379 1.1986922
0.51845026 0.27112925 0.21661252 -0.110500164 -1.2169057 -0.553788 -0.09130123 -0.3779824
0.38699192 1.3710088 0.4267883 0.17317875 -0.090970345 -0.10301785 -0.3534195 -0.29907557
-0.3053292 -0.5518791 -0.96902496 0.8520853 -0.11999861 0.09692199 1.1605769 1.2879647
-1.5306381 -0.7871004 -0.2240166 -1.6506131 -1.0159549 0.25192666 1.5177925 1.0257626
1.2494613 0.7499107 1.0032463 -1.7262303 -0.5175416 -0.2568059 -0.35253718 -0.69774455
0.62517226 -0.3414098 0.018162686 -0.22636488 -0.06659634 -0.2469353 0.08760282 0.47975516
