weights/bilevel_Denoising/CRR_bilevel_IFT_for_Denoising.pt (torch, 58678 bytes, 4 tensors)

regularizer.scaling f4 [1, 64, 1, 1]
3.7847838 3.8894694 3.7689662 3.7068172 3.339379 3.2436285 3.0893207 2.7602086
2.2594006 3.1313872 3.3062205 4.0274014 3.4025054 3.4008884 4.2478266 3.3256464
3.1183653 3.5631893 3.220871 3.9693208 3.7516341 3.6228044 3.721383 4.3740416
3.8328683 3.7418303 3.1569757 3.2141373 3.3632708 3.1032367 3.958391 3.2052877
3.2571757 3.833738 2.8103364 2.4539938 2.8148954 3.6177585 3.7099109 5.8549614
3.2128246 3.0337982 3.442859 4.0794 3.4741383 3.3825927 4.1424856 3.8008418
3.7527974 3.0639248 3.545292 3.2450066 3.2697363 7.1951838 3.629835 3.5784914
3.1485527 3.5207038 3.518019 3.610573 3.0061567 3.5703487 2.8990018 3.2241511
00000000: e639 7240 11ed 7840 be36 7140 7e3c 6d40
00000010: 63b8 5540 9c97 4f40 6eb7 4540 42a7 3040
00000020: 059a 1040 a668 4840 1e99 5340 79e0 8040
00000030: a6c2 5940 28a8 5940 32ee 8740 64d7 5440
00000040: 4c93 4740 4b0b 6440 c022 4e40 5a09 7e40
00000050: c61a 7040 07dc 6740 242b 6e40 26f8 8b40
00000060: b74d 7540 267a 6f40 e40b 4a40 6db4 4d40
00000070: d43f 5740 6e9b 4640 4756 7d40 6f23 4d40
00000080: 9175 5040 f75b 7540 8ddc 3340 3c0e 1d40
00000090: 3f27 3440 5b89 6740 2e6f 6d40 d85b bb40
000000a0: eb9e 4d40 c029 4240 cd57 5c40 728a 8240
000000b0: 4858 5e40 667c 5840 3e8f 8440 fe40 7340
000000c0: d52d 7040 5817 4440 10e6 6240 30ae 4f40
000000d0: 5c43 5140 f23e e640 374f 6840 0106 6540
000000e0: e381 4940 3653 6140 3927 6140 a113 6740
000000f0: df64 4040 9880 6440 3f89 3940 7e58 4e40

regularizer.filters.0.parametrizations.weight.original f4 [4, 1, 5, 5]
0.24091753 0.047024433 0.17590375 -0.09911866 0.30874032 0.03895062 0.5337283 0.2880394
-0.07944023 0.24816109 0.5361069 0.5659096 -1.3484403 0.11855325 0.1734195 -0.1264171
0.15663365 0.7109114 -0.19832247 -0.19630617 0.45840523 0.5665625 0.20268404 0.10719828
-0.040812273 -0.13184483 0.076148264 -0.40009502 -0.31216595 -0.03128511 0.046167508 -0.24817786
-0.17747177 0.23340566 0.61243445 0.2684385 0.20319985 0.7219826 -0.6830097 -0.45083597
-0.3232281 -0.45846415 -0.3746977 -0.22711842 0.24241534 -0.22261758 0.13263696 0.042957924
-0.22388798 -0.2232028 -0.14257267 0.09164272 0.017481789 -0.10806162 -0.044044778 0.31207058
-0.09169121 0.7535673 0.40250313 -0.2962977 -0.107589334 0.8663497 -0.67562765 0.64494705
0.07708733 0.12578572 0.2006508 -0.9175743 0.033664584 -1.0244199 -0.08237813 -0.41087854
-0.576514 -0.3641307 0.2252584 -0.2753652 -0.109087154 -0.34129617 -0.4706907 -0.08360786
0.22175491 -0.047689274 0.44465262 0.4043413 0.43344638 -0.35917297 -0.026417838 -3.380799
0.07314916 -0.16668871 0.31721947 0.44857532 0.032046083 0.11340479 0.35689723 -0.34693533
-0.23015665 -0.014613035 -0.11568343 -0.11553783
00000000: 16b3 763e b19c 403d 1d20 343e b9fe cabd
00000010: 3613 9e3e af8a 1f3d 6ba2 083f e679 933e
00000020: 8fb1 a2bd f11d 7e3e 4d3e 093f 74df 103f
00000030: b199 acbf 0ccc f23d e294 313e 7c73 01be
00000040: 9264 203e 4afe 353f 0c15 4bbe 7c04 49be
00000050: 17b4 ea3e 3d0a 113f 688c 4f3e c68a db3d
00000060: c52a 27bd 5502 07be 9ff3 9b3d 41d9 ccbe
00000070: 37d4 9fbe d124 00bd 241a 3d3d 5622 7ebe
00000080: 29bb 35be e501 6f3e 81c8 1c3f c570 893e
00000090: 9f13 503e dad3 383f b9d9 2ebf f9d3 e6be
000000a0: 277e a5be d0bb eabe 60d8 bfbe bb91 68be
000000b0: ba3b 783e ddf5 63be fcd1 073e a6f4 2f3d
000000c0: e442 65be 468f 64be 92fe 11be 2eaf bb3d
000000d0: f835 8f3c 694f ddbd 4c68 34bd b7c7 9f3e
000000e0: 9ac8 bbbd c9e9 403f e414 ce3e 55b4 97be
000000f0: cc57 dcbd 18c9 5d3f eff5 2cbf 401b 253f
00000100: f6df 9d3d f9cd 003e 6777 4d3e 26e6 6abf
00000110: e0e3 093d 3120 83bf ddb5 a8bd ac5e d2be
00000120: 6c96 13bf 576f babe 23aa 663e abfc 8cbe
00000130: 1669 dfbd 5fbe aebe 5ffe f0be 993a abbd
00000140: b813 633e d455 43bd 82a9 e33e d305 cf3e
00000150: afec dd3e 85e5 b7be 396a d8bc 035f 58c0
00000160: 3acf 953d 72b0 2abe 976a a23e aaab e53e
00000170: c142 033d c540 e83d 3cbb b63e 82a1 b1be
00000180: 2fae 6bbe 836b 6fbc 6feb ecbd 199f ecbd

regularizer.filters.1.weight f4 [8, 4, 5, 5]
-0.29485032 -0.10796043 -0.7996875 -0.24360874 -0.009651367 -0.15130845 0.55343306 -0.48106965
-0.108030654 0.15099753 -0.006988785 -0.058137856 1.2838297 0.9792104 0.71281797 0.56508076
0.06256584 0.28046912 0.7850587 -0.17499296 -0.21040934 0.34442237 0.43824187 -0.47578818
0.337045 -0.14279337 0.3276208 -0.10906055 0.22821401 -0.02777423 -0.48464364 -0.26961845
0.34628126 0.5330488 0.06531517 0.14674234 0.7496902 -0.21127531 -0.43470016 -0.4299892
0.37020254 0.8056002 -0.25478125 -0.17178017 0.5512487 0.022560606 0.1454355 0.26754853
0.5909593 -0.0109560015 -0.046942744 -0.2968454 0.32373437 0.23115653 0.23732474 0.08594186
0.6279004 0.61228913 0.4866512 0.0060443026 0.5734366 -0.31163752 0.1222987 -0.36704302
-0.13231084 0.5768324 -0.06565621 0.3777854 0.013332758 0.028126534 -0.44563058 0.15949051
-0.5632849 -0.054702062 0.45495304 -0.1125019 -0.3723915 -0.15351912 -0.1801354 -0.26870757
0.033666685 -0.12856486 -0.28009623 -0.5214906 -0.016734857 -0.53308976 -0.9741063 1.1388078
0.72919273 0.117883235 0.29987246 -0.3616557 0.2363622 0.15618649 0.07260284 -0.3093862
-0.4208346 0.43204328 -0.022446504 0.4722052 0.023436375 0.05703314 0.0216882 -0.6615939
-0.3199584 0.0039393357 0.4707365 -1.4404703 -0.29503238 0.42217213 0.108845755 -0.8073207
0.43765822 -0.39972007 0.01769313 -0.27264124 -0.25511757 -0.39075443 -0.8382473 0.31125712
0.07725791 -0.026918247 -0.09722734 -0.26221058 -0.6802825 0.18294561 -0.35791495 0.1487568
0.22985972 0.047043618 0.6383063 0.021816948 1.0836196 0.59599566 0.0419792 -0.14522049
0.8316415 -0.73571926 -0.63922215 -0.1309808 0.4343886 0.009006764 0.08147372 0.0585733
0.2261123 -0.29221553 -0.04734913 -0.44388464 -0.59135777 -0.29511613 0.064510465 0.25058305
-0.15999664 -0.023790304 -0.056594856 -0.053310685 0.94321495 0.41387895 0.4318646 0.3668841
-0.2821735 -0.27325386 1.1594418 -0.73757625 0.57858014 -0.28580678 0.14310083 -0.31979838
0.19069566 0.14622454 0.49598104 0.0059622563 0.4855237 -0.06178776 -0.6262545 -0.21034981
-0.045531027 -0.41662237 -0.0067806668 -0.05442965 0.03367629 0.24183504 -1.2309028 -0.03323553
-0.032049857 0.14825663 -0.25112724 1.3970642 -0.66850203 0.4085885 0.28318053 -0.5587654
0.19608682 -0.066826224 0.36204177 -0.0036792161 -0.4222719 0.08009907 -0.19537315 -0.48631805
-0.39172179 0.30506945 -1.1027113 0.00053296995 0.16810627 0.29603225 0.4316185 -0.56101906
1.2009064 -0.12297937 0.45400378 -0.94039685 0.83994037 0.7441697 -0.78334993 0.37119237
-0.4169749 -0.72165924 0.8057851 0.26202935 -0.12298677 0.20059392 -0.12572315 0.21943757
0.42100245 -0.22152762 0.013389433 0.09499562 -0.2228709 -0.019435363 0.76683813 0.27114338
0.5648145 -0.23738337 -0.06468725 -0.30390882 -0.3478904 -0.8064352 -0.090432175 0.043969836
0.23393025 0.22426754 0.258511 -0.1561779 -0.80306375 0.13214047 -0.15157796 -0.006508072
0.8121241 0.07846921 -0.0397748 0.56895 -0.10879655 0.3740605 0.17967811 -0.56673294
00000000: 9ff6 96be 5c1a ddbd 52b8 4cbf 9274 79be
00000010: c420 1ebc 9af0 1abe caad 0d3f c34e f6be
00000020: 2d3f ddbd 199f 1a3e 2e02 e5bb f621 6ebd
00000030: 8854 a43f 88ad 7a3f 3d7b 363f 22a9 103f
00000040: 8522 803d a699 8f3e 9bf9 483f 5b31 33be
00000050: 8c75 57be 2158 b03e 3d61 e03e 829a f3be
00000060: 2a91 ac3e 6d38 12be eabd a73e 235b dfbd
00000070: efb0 693e c886 e3bc 3623 f8be 6e0b 8abe
00000080: c74b b13e e375 083f f6c3 853d a043 163e
00000090: b2eb 3f3f 8e58 58be 0591 debe 8b27 dcbe
000000a0: 308b bd3e d13b 4e3f b072 82be 24e7 2fbe
000000b0: a31e 0d3f 05d1 b83c 0bed 143e 1ffc 883e
000000c0: 1c49 173f cd80 33bc 0947 40bd 1ffc 97be
000000d0: 83c0 a53e 4cb4 6c3e 4205 733e 4902 b03d
000000e0: 15be 203f fbbe 1c3f 592a f93e 490f c63b
000000f0: becc 123f f48e 9fbe be77 fa3d 10ed bbbe
00000100: 7e7c 07be 4aab 133f c376 86bd 176d c13e
00000110: a471 5a3c 9e69 e63c b129 e4be 7b51 233e
00000120: 7033 10bf 450f 60bd 9bef e83e 6567 e6bd
00000130: 19aa bebe 1e34 1dbe 6a75 38be 0a94 89be
00000140: 14e6 093d 82a6 03be c668 8fbe 6880 05bf
00000150: 8a17 89bc 9278 08bf 085f 79bf 74c4 913f
00000160: 60ac 3a3f c46c f13d e288 993e f02a b9be
00000170: ef08 723e 5aef 1f3e ccb0 943d de67 9ebe
00000180: a277 d7be c734 dd3e bbe1 b7bc e1c4 f13e
00000190: a4fd bf3c 959b 693d 74ab b13c 385e 29bf
000001a0: 96d1 a3be 8b15 813b 6004 f13e 5561 b8bf
000001b0: 7c0e 97be f226 d83e 86ea de3d 92ac 4ebf
000001c0: bd14 e03e 1ca8 ccbe 2ff1 903c a297 8bbe
000001d0: c59e 82be f710 c8be 6097 56bf 185d 9f3e
000001e0: 6539 9e3d a883 dcbc 211f c7bd 7740 86be
000001f0: fe26 2ebf 1856 3b3e a140 b7be b453 183e
00000200: 5960 6b3e cfb0 403d 0b68 233f 75b9 b23c
00000210: 0cb4 8a3f 2c93 183f 62f2 2b3d aeb4 14be
00000220: 75e6 543f 1958 3cbf 10a4 23bf d51f 06be
00000230: 2f68 de3e 1b91 133c b2db a63d 8eea 6f3d
00000240: fc89 673e 469d 95be 29f1 41bd d944 e3be
00000250: 3963 17bf 7619 97be 101e 843d 6c4c 803e
00000260: 29d6 23be e2e3 c2bc 02d0 67bd 4e5c 5abd
00000270: 8976 713f f1e7 d33e 5b1d dd3e 3cd8 bb3e
00000280: 0c79 90be eee7 8bbe 9768 943f ccd1 3cbf
00000290: d41d 143f 4455 92be 0689 123e 9dbc a3be
000002a0: b945 433e e3bb 153e 3af1 fd3e 085f c33b
000002b0: 9096 f83e 2a15 7dbd 3752 20bf f165 57be
000002c0: be7e 3abd 874f d5be 5b30 debb a0f1 5ebd
000002d0: 26f0 093d 9ba3 773e 398e 9dbf fb21 08bd
000002e0: b646 03bd 96d0 173e c093 80be 00d3 b23f
000002f0: f322 2bbf 8332 d13e 0afd 903e 400b 0fbf
00000300: fcca 483e 30dc 88bd 8a5d b93e 011f 71bb
00000310: 0634 d8be fb0a a43d e60f 48be aefe f8be
00000320: c28f c8be 1032 9c3e a525 8dbf 02b7 0b3a
00000330: 0d24 2c3e 8a91 973e 1afd dc3e f29e 0fbf
00000340: 4db7 993f 9cdc fbbd 2f73 e83e d9bd 70bf
00000350: 5506 573f e881 3e3f 9f89 48bf ed0c be3e
00000360: bc7d d5be a9be 38bf ef47 4e3f b628 863e
00000370: 7de0 fbbd 7e68 4d3e 92bd 00be 3eb4 603e
00000380: a28d d73e 23d8 62be 5a5f 5b3c 108d c23d
00000390: 4538 64be e936 9fbc 814f 443f 4ed3 8a3e
000003a0: af97 103f a014 73be c07a 84bd f099 9bbe
000003b0: b11e b2be 8a72 4ebf 8134 b9bd b719 343d
000003c0: 698b 6f3e 64a6 653e 8e5b 843e 19ed 1fbe
000003d0: 9695 4dbf d54f 073e 4137 1bbe aa41 d5bb
000003e0: 5de7 4f3f 77b4 a03d e7ea 22bd b5a6 113f
000003f0: bad0 debd dc84 bf3e 8afd 373e 6915 11bf

regularizer.filters.2.weight f4 [64, 8, 5, 5]
0.3037644 0.961709 0.21799037 -0.57778096 -0.33183944 0.4578948 0.28741935 0.102124184
-0.6216902 -0.33283207 0.80726093 0.29367512 -0.5148721 -1.1558857 0.22607882 0.8233587
0.12198167 -0.90734255 -0.91732454 0.40328458 -0.15311277 -0.59635806 -0.3609329 -0.21402557
0.5202165 -0.7413332 0.039811604 0.39715075 -0.29468057 -0.39402047 0.12600096 1.1070061
-0.059596337 -0.941195 0.114339866 0.146307 1.1548924 -0.71448475 -0.3910897 0.48917672
0.15962984 0.5790443 -0.9628246 0.21180072 0.3221326 0.40166357 0.49970305 -0.2813953
0.49077064 0.06899434 0.5723781 0.388597 -0.47875842 -0.35088852 -0.8642853 0.90243125
-0.14892337 -0.3831955 -0.13923015 0.34953687 0.6384705 0.67482734 -0.60315305 -0.56282544
0.80516374 0.1620694 0.27392596 -0.61525196 -0.48841423 0.33418605 -0.09558844 0.45599532
-0.51900655 -0.030449033 -0.058790408 0.28749883 0.79745746 0.21344349 -0.7793505 -0.2174541
0.32431588 0.60332626 0.4990624 -0.33921632 0.6385305 0.87549174 1.2393752 -0.031410016
-0.88590944 -0.49921426 0.48458853 1.0448713 -0.6041022 -1.0414553 0.31743872 0.103216104
-0.016665962 -0.6706014 -0.56492877 0.6880038 0.0051746457 -0.48990864 -0.00937603 -0.07648635
0.66408676 -0.84225947 -0.43596935 0.4942486 -0.98080844 0.8005525 -0.8229202 0.07446133
1.23302 -0.3611981 0.28328237 0.22483374 0.72291857 0.10750531 -0.6554029 0.12570575
0.8006046 1.1975167 0.15228179 -1.3338302 -0.21102636 -0.12973209 -0.07700089 -1.0344362
-1.1005348 -0.6360731 0.3224492 0.37767896 -1.2444438 -0.38217092 -0.27180257 0.29191414
-0.5830829 -1.160912 -0.027986288 0.7016837 -0.07590756 -0.45320565 -0.6503718 0.5314098
0.82113737 -0.59311795 -0.11766199 0.30986917 0.9953772 0.723668 -0.16284344 0.43208593
0.092463925 -1.6611085 0.12220911 -0.13313669 -0.68581194 -0.76998293 -0.62105834 0.7118925
-0.9999591 -0.251993 0.06525543 0.40546575 0.58747506 -0.6442098 -0.67158556 -0.058730822
-0.6755618 0.6631369 -1.4133774 -0.42576072 -0.34266508 -0.06095735 1.1332445 0.47957155
-0.07833636 -0.67441094 -0.3012379 0.1765631 -0.28207666 0.3511917 -0.3364359 -0.37669885
-0.2680462 -0.43682128 0.5593363 0.000757516 0.15184218 -0.33836824 0.5320454 0.5163371
-0.03481153 0.27284166 -0.05968943 -0.2029796 -0.0128851505 0.48380637 0.3972523 0.05140399
0.6727439 1.3415872 1.6251833 1.0669878 0.22693174 0.39397347 0.14545746 0.86408323
0.23755658 -0.30862546 -0.9616939 0.036807153 -1.0250465 -0.85017025 -1.2544444 -0.014984993
-0.76445097 -1.2859421 -1.4299245 -0.7645377 -0.0836699 -1.3129176 -0.6023983 -0.29939118
0.44184583 -0.024445182 0.31071103 -0.002025614 -0.92735434 -0.68187165 0.34241715 0.17998144
-0.65629524 -1.7103074 -1.192935 0.892233 0.032919325 -1.1276131 -0.94755167 -1.0095898
1.6459918 0.32057992 -0.5503545 -0.23464507 -0.3953161 -0.114843376 -1.1182209 -0.21271703
-0.03181271 0.41096297 -0.0043852036 0.3445822 0.31239858 0.5788068 -0.09288745 -0.3861548
00000000: 0287 9b3e 9032 763f de38 5f3e 74e9 13bf
00000010: dce6 a9be 3071 ea3e a128 933e 7c26 d13d
00000020: 1727 1fbf f768 aabe a7a8 4e3f 965c 963e
00000030: a8ce 03bf 10f4 93bf 3581 673e a3c7 523f
00000040: 87d1 f93d 9a47 68bf c8d5 6abf 517b ce3e
00000050: 98c9 1cbe ecaa 18bf 32cc b8be 8529 5bbe
00000060: e92c 053f 03c8 3dbf 7e11 233d 5857 cb3e
00000070: 5fe0 96be 0dbd c9be 6506 013e 60b2 8d3f
00000080: 4a1b 74bd 28f2 70bf 052b ea3d 81d1 153e
00000090: 84d3 933f 79e8 36bf e93c c8be 5f75 fa3e
000000a0: 0176 233e 3f3c 143f ac7b 76bf 4ae2 583e
000000b0: 90ee a43e d9a6 cd3e 14d9 ff3e 0b13 90be
000000c0: 4a46 fb3e e84c 8d3d 5f87 123f 30f6 c63e
000000d0: d31f f5be a9a7 b3be cd41 5dbf bc05 673f
000000e0: 5e7f 18be 3332 c4be 5992 0ebe 7ff6 b23e
000000f0: cd72 233f 7cc1 2c3f 3d68 1abf 5415 10bf
00000100: 361f 4e3f 85f5 253e 0640 8c3e 2781 1dbf
00000110: 6e11 fabe 6f1a ab3e dfc3 c3bd 3878 e93e
00000120: 9ddd 04bf 4070 f9bc 36ce 70bd 0c33 933e
00000130: 2c26 4c3f ee90 5a3e 8483 47bf 4aac 5ebe
00000140: bb0c a63e 9773 1a3f 1b85 ff3e c3ad adbe
00000150: bc76 233f 3a20 603f d9a3 9e3f caa7 00bd
00000160: f6ca 62bf 0399 ffbe fd1b f83e 58be 853f
00000170: 71a6 1abf 684e 85bf 5487 a23e f762 d33d
00000180: 0e87 88bc 89ac 2bbf 2c9f 10bf 0421 303f
00000190: 1390 a93b 4ed5 fabe ec9d 19bc e0a4 9cbd
000001a0: 9701 2a3f 519e 57bf 6037 dfbe 270e fd3e
000001b0: 4316 7bbf 02f1 4c3f e6aa 52bf 2f7f 983d
000001c0: 99d3 9d3f f5ee b8be 630a 913e d13a 663e
000001d0: 3111 393f be2b dc3d 7cc8 27bf 02b9 003e
000001e0: 6cf4 4c3f 3a48 993f c2ef 1b3e f3ba aabf
000001f0: 4b17 58be 7dd8 04be a5b2 9dbd 6868 84bf
00000200: 53de 8cbf b0d5 22bf 1018 a53e 235f c13e
00000210: ef49 9fbf e8ab c3be b529 8bbe c575 953e
00000220: ec44 15bf c498 94bf 8043 e5bc 8ba1 333f
00000230: 6c75 9bbd 920a e8be c47e 26bf 790a 083f
00000240: 0f36 523f 94d6 17bf c5f8 f0bd 2ca7 9e3e
00000250: 0ad1 7e3f 4e42 393f 6ec0 26be 5e3a dd3e
00000260: ba5d bd3d 349f d4bf c548 fa3d fc54 08be
00000270: 5f91 2fbf 9a1d 45bf aefd 1ebf 963e 363f
00000280: 52fd 7fbf 3a05 81be a4a4 853d 3599 cf3e
00000290: c464 163f efea 24bf 08ed 2bbf bb8f 70bd
000002a0: 9ef1 2cbf 57c3 293f 8de9 b4bf 4ffd d9be
000002b0: cc71 afbe 6aae 79bd 280e 913f 678a f53e
000002c0: d06e a0bd 32a6 2cbf db3b 9abe f5cc 343e
000002d0: 5a6c 90be 66cf b33e 5441 acbe acde c0be
000002e0: 5a3d 89be 0aa7 dfbe aa30 0f3f 0a94 463a
000002f0: 847c 1b3e 9a3e adbe 2134 083f ab2e 043f
00000300: 8996 0ebd e7b1 8b3e e77c 74bd e2d9 4fbe
00000310: 3d1c 53bc 78b5 f73e a764 cb3e fd8c 523d
00000320: f238 2c3f 21b9 ab3f 0206 d03f 0e93 883f
00000330: cb60 683e e4b6 c93e cdf2 143e 8f34 5d3f
00000340: 0842 733e 2804 9ebe 9231 76bf 19c3 163d
00000350: b934 83bf c2a4 59bf a291 a0bf 9e83 75bc
00000360: 0fb3 43bf c099 a4bf c407 b7bf beb8 43bf
00000370: 205b abbd af0d a8bf c636 1abf cd49 99be
00000380: 9e39 e23e 4341 c8bc 8415 9f3e 2ac0 04bb
00000390: 1867 6dbf 248f 2ebf 4d51 af3e 0e4d 383e
000003a0: f702 28bf 5aeb dabf 18b2 98bf 6269 643f
000003b0: 6ad6 063d a055 90bf bf92 72bf 3d3a 81bf
000003c0: dcaf d23f 0d23 a43e 08e4 0cbf cc46 70be
000003d0: df66 cabe 0133 ebbd dd21 8fbf 7ed2 59be
000003e0: 0b4e 02bd bd69 d23e c1b1 8fbb 146d b03e
000003f0: b5f2 9f3e af2c 143f c63b bebd 15b6 c5be
