weights/bilevel_Denoising/CRR_bilevel_IFT_for_Denoising.pt (torch, 58416 bytes, 4 tensors)

regularizer.scaling f4 [1, 64, 1, 1]
00000000: 2849 3f40 5a0f 6940 b66d 3640 eb0b 5240
00000010: 49b7 ad40 4295 8140 ae59 4c40 a967 8240
00000020: 7d3e 5b40 0158 6540 2099 5040 c273 4c40
00000030: 7994 6340 8391 7940 72ed b340 f427 6340
00000040: a39f 5d40 d326 5740 2be7 7340 93f9 7640
00000050: 5e76 5f40 60bc 4340 eb52 4d40 e52b 5a40
00000060: b7c3 5e40 507b 4840 a822 5e40 9cc0 6c40
00000070: eb28 5440 9036 5340 ff43 7640 1237 4240
00000080: e491 5c40 72f2 6940 969f 5f40 8454 7040
00000090: 1272 7740 152c 6740 9955 6c40 1e92 7c40
000000a0: 3fcb 5e40 b562 5f40 1c0e 5240 8d38 5240
000000b0: dbba 5f40 e66d 6440 0bce 8440 f149 5540
000000c0: 9335 7240 31d2 2040 881a 7140 8e47 4840
000000d0: 6f51 5b40 f948 8040 dd55 7740 c8de 6c40
000000e0: da85 4a40 4269 6040 aa11 5140 02d8 4b40
000000f0: 1cea 7e40 25fb 5340 a023 4c40 069c 5940
2.98884 3.641562 2.8504462 3.2819774 5.4286237 4.04947 3.1929736 4.075154
3.425689 3.5834963 3.259346 3.1945653 3.555937 3.8995063 5.622735 3.5493135
3.4628685 3.3617446 3.8109844 3.8589828 3.4915996 3.0583725 3.208186 3.408929
3.4806955 3.1325264 3.4708652 3.699256 3.3149974 3.3002052 3.8479002 3.0346112
3.4464045 3.6554227 3.4941154 3.7551584 3.8663373 3.6120656 3.6927245 3.9464183
3.4811552 3.4903996 3.2821112 3.2847016 3.4957798 3.5692077 4.1501517 3.332638
3.78452 2.512829 3.7672443 3.1293674 3.4268453 4.008908 3.8646157 3.7010975
3.1644197 3.5064244 3.2667031 3.185059 3.983039 3.3122036 3.1896744 3.400148

regularizer.filters.0.parametrizations.weight.original f4 [4, 1, 5, 5]
00000000: df43 ab3e e1d0 823b 8e62 afbe 03ea 4f3e
00000010: 9270 113d bd3b 273e 6872 9d3f 6c0b e5bf
00000020: 3ebf 7e3d 2814 a23e 0b52 89be 67db 6abd
00000030: fe51 453e 4bd5 5f3e 6a1c ab3e d6fb c6bd
00000040: 5512 c5bd ab56 073f bee6 f23d 0e9c 75be
00000050: 598b f43d 6b4e 6bbe 750c e4bd f05e 993e
00000060: ad51 c13e a5d8 673e d112 dfbe 9d58 983e
00000070: 8884 0c3f 5fcd 0a3e 10d3 42be f393 2d3e
00000080: f657 6f3e 7f9e 673e f0bc 6d3f 2cb8 d23d
00000090: 092a 2a3d 22b8 563e d76d 34c0 811d 973e
000000a0: 9971 46bd 4ace 91bd fd8e aabc e7e5 193f
000000b0: a54f 00be d1d5 e43d fed0 933c 66e4 22be
000000c0: 5b38 1fbd 6c83 873e 3b9a d7be c29f 203e
000000d0: c20b 5a3e 7b6f 3a3e 3d29 7e3c 3fbe 48be
000000e0: a4dc 47bf 59ae e9be 9dc0 4d3d 43bd 2a3e
000000f0: 9018 12bf 700b 0d3f aaea 273f d2af b53e
00000100: 59d9 053e 323f c63d c899 37be 44ef 00be
00000110: e617 043e 3ebb 97bd f774 ab3d ad42 6cbe
00000120: 2866 533e 3caa f1be 2105 9dbc 48d3 25bd
00000130: 231a 1e3f 295f 15bf c0e1 4f3e b5fe 813e
00000140: 88fc af3e 8341 093e 56d6 4e3e 967a e53e
00000150: 7093 783e 4317 47be 91f1 9b3e 1cb4 80be
00000160: cf16 f0be bce6 b73e 0b3b ec3d 0df4 9d3e
00000170: 31a1 9fbe baa2 54bd 6feb b83b f491 053c
00000180: 1e25 bf3d 5800 99bd d512 10be 6b24 41be
0.3345022 0.0039921855 -0.3425488 0.20304112 0.035507746 0.16331382 1.2300539 -1.7894111
0.0621941 0.31656003 -0.26820406 -0.057338145 0.19269559 0.21858709 0.33420116 -0.09716003
-0.09622637 0.5286662 0.11860417 -0.23985311 0.11940641 -0.22979133 -0.111351885 0.29955244
0.37757626 0.22641237 -0.43569043 0.29755107 0.54889727 0.13554905 -0.19025826 0.1695097
0.23373398 0.22619055 0.9286642 0.10289034 0.041543994 0.20968679 -2.819204 0.29514697
-0.04844818 -0.07119425 -0.020820135 0.6011643 -0.12530382 0.11173595 0.018043991 -0.1590744
-0.038872104 0.26467454 -0.42109856 0.15685943 0.21293548 0.18206589 0.015512762 -0.19603823
-0.78071046 -0.4564083 0.05023252 0.1667376 -0.5706873 0.5509558 0.65592444 0.35485703
0.13071193 0.09680022 -0.17929757 -0.12591273 0.12899742 -0.074087605 0.08371919 -0.2307231
0.20644438 -0.4720019 -0.019167485 -0.040484697 0.6175863 -0.5834833 0.2030096 0.2538964
0.34372354 0.13403897 0.2019895 0.44820088 0.24274993 -0.19442467 0.30457738 -0.25137413
-0.46892402 0.35918224 0.11534699 0.30850258 -0.31177667 -0.051913 0.0056433002 0.008152474
0.093332514 -0.07470769 -0.14069684 -0.18861549

regularizer.filters.1.weight f4 [8, 4, 5, 5]
00000000: 787c bfbe c5aa 053f 09c6 613d dbc6 54bf
00000010: 6673 93be ea26 1d3d dc49 d73d 435d 583d
00000020: 2ce4 4d3e 8157 aabe 955a a5be a096 6e3f
00000030: 5dfb 823f e9ac 6cbf b29c 2cbe e456 7d3e
00000040: c1b0 af3e f21d 78be 591e 9b3e 38b2 073e
00000050: 35f2 c5bd fcd2 fdbe 6ff4 643e 6bee 54be
00000060: c647 f13d b2a6 e1be ca57 303e be92 1d3e
00000070: 44e9 0b3e b8cf ccbd f5f7 883d 215f 59bd
00000080: e7ea 0abf d2aa be3e ac37 0cbd ff1e 3a3e
00000090: 784e 03bf 9a5b 763f c91e c23e 3d15 ff3e
000000a0: cf5f 503e bcd0 acbe 44eb b7be 7b45 443e
000000b0: 0b5c 02bf 056f aa3e 5606 00bf 45ac 1e3f
000000c0: cba1 f9be 4072 293e a100 01bf cc9a 843e
000000d0: 638e 08be df97 803e 26d1 443e 7feb cc3e
000000e0: 236f 283f 990d 54bb e5ef f1be bdea 5a3e
000000f0: 3286 67be 74fb 5dbf 2c60 4b3f 4a52 d53e
00000100: 45d8 f2be 5a95 9c3e 4d37 14bd 1804 043f
00000110: b113 16bf fbbc 1bbe 8e97 783d 6f93 7bbd
00000120: 9bdc ee3e 3bdd edbe 0f26 5d3e 5d64 b13d
00000130: 206f 243e 19ac a03e c49c 4ebe c06d 103b
00000140: ee3a 733d e725 b93e d457 62be fec6 edbc
00000150: 0db5 293f 59f6 af3e d9c6 7fbe 9706 bbbd
00000160: d2d4 1d3f 9afc 1ebf f5e9 2a3e a27a 41ba
00000170: 357d 0f3f 64c7 84be 3772 42be 5f9e a5be
00000180: dc9e a5be e159 433e f6ba 22bc b10a 1d3e
00000190: a264 2f3e d2a2 063e 68b8 823e e2da 593e
000001a0: 8a68 ccbc 59a9 693e 3f38 093f d430 8ebe
000001b0: 5a6f 8e3e 11a1 383d 37e3 bd3e 1768 653f
000001c0: d620 f03d 887d 633e a9a8 923e 7cef eb3d
000001d0: 6548 69bf 21f0 2c3f 65d3 a6bf 0957 50be
000001e0: e1d0 92be 83c2 4fbf a146 963f faff 9b3c
000001f0: e0ae 8cbe e830 f03d d073 143e 02bf 0c3e
00000200: aa41 41be 4509 37be ef43 acbe c664 883f
00000210: 88d4 efbe d17d debd f6a2 b7bc 3e36 9b3f
00000220: 90ab eebf 45f1 a03e 67cb 993d 3d79 cfbe
00000230: e6ce d73f bb21 8dbf 8c79 8dbe 0a01 64be
00000240: 0ccc 133f 275e 2bbd 6a90 90bd 7d24 72bd
00000250: 34f6 333f 510c 66be 156c 18be 1846 3ebf
00000260: aa78 4f3e 6e13 a93e 9a89 afbe dc32 833d
00000270: dad9 d7be c183 24bf 9f16 323f 6d40 06bf
00000280: 1101 26bf 2115 b3bd 9666 383f 5f62 a3bf
00000290: 95fd eb3e fbe6 433f a053 6cbd e7ef a93e
000002a0: 9b66 6e3f b08f a03e a9bd 9e3e 027b 33bf
000002b0: 070f 12be 2855 cabc 9976 2c3f ff07 48bf
000002c0: 6ce3 bebe f978 e9bd 0ae1 ed3e f0b7 a93d
000002d0: 038b e2be e660 2ebe 09d5 1abd 3531 f6bd
000002e0: 63a3 94bd 1d99 503f 3412 e3be b36a 2b3f
000002f0: 7db9 0f3e 1509 fe3e 02fb 04bf 2adc d73d
00000300: a9a6 2ebf 4287 5fbe d2ff b1be 6216 573e
00000310: 57b3 18bf 1b0c 4a3f d9b4 82bf ce77 143f
00000320: 6353 903e adf0 a8bd 5bea 1d3f 35bc 933e
00000330: 932d 52be 6ff9 d1bd 6795 68be 830e 933d
00000340: 71da aa3d a06d a9bc b1d8 17bf a764 333d
00000350: 7253 9bbf 2789 283f cd8a 413c eb75 513e
00000360: 32f7 19bf de64 5b3e 7184 94bd f5db 083f
00000370: 59d8 333e 7ccd a2be 3e1d 13bf 5f84 013d
00000380: 47aa 123f 0b1d b3bd 6ee3 af3e db6d 82be
00000390: efd0 443e 2fc5 353e 6c13 973e a898 19bf
000003a0: 37e9 813f 8485 243e 6a05 c4bd 278a 9dbe
000003b0: 62c3 093f 504e 153f b58c 47bf b797 27bc
000003c0: d1de 72be fb03 e03e 9967 38bf 28ea 033d
000003d0: 977e 09bf 3afd d0bd 391a b9bd 43d1 143e
000003e0: f9ce 19bf da41 3a3d fbdc 81be 05cf 90bd
000003f0: cd0e 433e 5b1e fb3c a935 4a3e d452 e8bb
-0.3739965 0.522137 0.0551205 -0.8311593 -0.2879898 0.03836719 0.105121344 0.052823316
0.20106572 -0.33269885 -0.3229567 0.93198586 1.023296 -0.9245134 -0.1685665 0.24740177
0.3431454 -0.24230173 0.3029659 0.13251579 -0.09665338 -0.4957503 0.22358869 -0.20794074
0.11781268 -0.4407249 0.17220989 0.15388009 0.13663203 -0.10000557 0.06687919 -0.053069238
-0.5426468 0.372397 -0.03423278 0.18175887 -0.5129161 0.9623352 0.37914112 0.4982089
0.20349048 -0.33753002 -0.3592168 0.1916713 -0.50921696 0.33287826 -0.5000967 0.6198161
-0.4875625 0.16547489 -0.50391585 0.2589935 -0.13335566 0.25115868 0.19220409 0.4002342
0.6579458 -0.0032356738 -0.47253338 0.21378608 -0.22609785 -0.8671181 0.7944362 0.41664344
-0.47430626 0.30582696 -0.03618555 0.51568747 -0.58623797 -0.15208809 0.06069141 -0.0614199
0.46652684 -0.46457848 0.2159655 0.08661721 0.16058016 0.313813 -0.20176989 0.0022038072
0.05938237 0.3616173 -0.22103816 -0.029025551 0.66291887 0.34367636 -0.24978198 -0.09132116
0.61652863 -0.6210419 0.1669081 -0.00073806394 0.56050426 -0.25933373 -0.18988882 -0.3234739
-0.32347763 0.19077255 -0.00993227 0.1533611 0.17128232 0.13148049 0.25531316 0.21274903
-0.024952192 0.22818507 0.5360145 -0.27771628 0.2781933 0.04507548 0.37087414 0.89611953
0.11725013 0.22215855 0.28644302 0.115202874 -0.9112609 0.6755391 -1.3033262 -0.20345701
-0.28674987 -0.81156176 1.1740304 0.019042958 -0.2747717 0.11728078 0.14497304 0.13744739
-0.18872705 -0.1787463 -0.3364558 1.0655754 -0.46841836 -0.10863841 -0.022416573 1.2125928
-1.8646107 0.31434074 0.07509499 -0.40522185 1.6860015 -1.1025919 -0.27631795 -0.22266021
0.57733226 -0.041837838 -0.07058795 -0.05911683 0.7029755 -0.22465636 -0.1488498 -0.74325705
0.20260873 0.33022636 -0.3428467 0.06406185 -0.42158395 -0.6426354 0.6956577 -0.52442056
-0.6484538 -0.087442644 0.72031534 -1.2764395 0.46091905 0.76524323 -0.05769694 0.33190843
0.93125314 0.31359625 0.31004074 -0.7010957 -0.14263545 -0.024698809 0.67368466 -0.781372
-0.37282884 -0.11400027 0.46460754 0.082870364 -0.44246683 -0.17029151 -0.037800822 -0.12021104
-0.07257726 0.8148363 -0.44349825 0.66959685 0.14035602 0.49616304 -0.5194551 0.1054004
-0.68223053 -0.2182894 -0.34765488 0.21004632 -0.5964865 0.7892472 -1.021144 0.5799531
0.2818862 -0.0824903 0.61685723 0.28854528 -0.20525198 -0.10252654 -0.22713242 0.07180502
0.08342446 -0.020682156 -0.5931502 0.04379716 -1.213484 0.6583428 0.011812878 0.20455138
-0.60142815 0.21425197 -0.07251824 0.5346063 0.17562999 -0.31797397 -0.57466495 0.03162038
0.5729107 -0.08745774 0.34353203 -0.25474438 0.19220327 0.17751001 0.29507005 -0.5999856
1.0149297 0.16066557 -0.09571345 -0.30769464 0.53813756 0.5832262 -0.77949077 -0.010229043
-0.2371781 0.43753037 -0.7203308 0.03220573 -0.53708786 -0.10204549 -0.09038205 0.14532952
-0.6008144 0.045472957 -0.25363907 -0.07070736 0.19048615 0.030654123 0.19747032 -0.007089952

regularizer.filters.2.weight f4 [64, 8, 5, 5]
00000000: 382a d83d 74f0 b1bd da74 303e aadf 7cbe
00000010: 4ece c33e 3585 68be 090e efbe cb75 173f
00000020: cd78 bf3e d05f 62be 0be4 2abe 0059 0c3f
00000030: 9ad1 0fbf 2650 943f 838d 05bf 5557 fe3e
00000040: ee21 2bbf 1fed a8be e72b 8e3f c356 04bf
00000050: f339 163d 726f 3f3e fc55 d3be 1b3a 10be
00000060: 7e77 723e 5db0 993e 6f29 08bf 1408 d63e
00000070: 3555 cfbd ec21 87be bc8c dabd f95e 9dbf
00000080: 0fec 3440 c2c6 97bd c930 83be 64d4 f4bc
00000090: d098 8a3e 687f 33c0 8fd6 1c40 3c89 40bf
000000a0: e5c5 bf3d cbe5 933d 5107 3bbf 861a 413f
000000b0: 1e93 8dbd 33ba 33be 6870 443d b27e ba3e
000000c0: d52b 0bbf 5adb 2c3f 9b0d 9f3e 4746 8cbe
000000d0: 197f 2ebd 9d60 b4be 3b98 253d 66e5 4cbf
000000e0: 5997 273f ad78 18be d2f6 293e ef4e b63d
000000f0: 80be a13f 7e0f b0bf f4fd 0e3f 5efb 14bf
00000100: 83a2 2ebe 171b 763e 36c8 113f 576d e9be
00000110: c998 683e 3175 bb3d 2cc9 1cbe 2da5 723d
00000120: 14ad 4b3f 9512 a1bf 3330 313f 58f1 f63d
00000130: 43cb 063f 990a 97bf 8220 3b3e 0a51 ad3e
00000140: 20d6 26bf ff94 193e 6289 09bf af44 293e
00000150: 6cc9 093f 4b68 ff3e c7ac 3abf 2103 a63e
00000160: 4cf7 58be 6378 02be a913 3dbf 15d8 4f3f
00000170: 9328 6abf 2f52 623f 276f 57bf 6696 c43e
00000180: 9346 38bf 3c38 033e d094 493f 02ea e2be
00000190: 7123 40be 7041 29be 0b96 c13d 2609 b23d
000001a0: 31ed 37bd 5242 0a3e b601 6bbe 537e bcbd
000001b0: caa4 97be d478 073e 58a9 7ebd e6bc 55be
000001c0: 23c1 f63e 4015 3bbe 347b 15be e0ad 8bbe
000001d0: 2d19 2f3f 4177 9ebe 377d 733e 3ad0 b9be
000001e0: f7ad 79be 921f 4d3e a8be 33bd 319c dfbd
000001f0: a662 783e f27a 763e 7549 66bd dd7e 393f
00000200: 576d 12bf 0176 593e 94bc 2abf 942d 123f
00000210: fd81 4f3f c045 97bf e6e8 4e3b 94b9 b63e
00000220: 0981 9dbf 1648 1d3f aa9d f23e af31 78be
00000230: 50d5 8c3c ed52 2e3e ffd2 8abf c97b 783f
00000240: 8d4a 39bf 6666 413e 7ad2 293d b550 e1be
00000250: a329 b83e 3a1b 513d 02bf a63b 3606 d83e
00000260: d808 66bf a05b 803f fd47 14bf f87c 6e3e
00000270: 3908 93bf 16c5 80bb ce90 853e f3c6 96bd
00000280: 4ce1 0b3f c480 463e a6cc 7fbf 4033 933e
00000290: 326c a53e 5199 54be 5a03 9ebe 6450 513e
000002a0: bede 45be f1e5 303f ff95 d7bd f683 3e3f
000002b0: 52f8 81bf 283e 8c3e df35 2cbd 2c2c 23bf
000002c0: 304a 483e 2724 8d3d 2b4e b83e 9aa0 42be
000002d0: 25ee ec3e 1906 2dbf e45b a63e 22fc 13bf
000002e0: 2a08 843e e83b 1a3f e0f3 99be 42b4 f8bd
000002f0: 6408 b23d db3d 54be d333 2dbe 7d90 c03e
00000300: 880a c53c 30ba 273e 47d6 80be 34a5 d1bd
00000310: fe49 d53e 6460 c63b e01a c6be 9a77 8c3e
00000320: 82be 773e a538 163c b45a 57be 0e43 8fbe
00000330: 06d2 8e3d a118 07bf 31f0 9a3e a2c7 8b3f
00000340: 1a87 9d3e 0f40 6a3e fe32 0f3e 4da7 21be
00000350: ca62 9ebf 7d65 0fbf e8cb 10be abca 61be
00000360: fc31 e83e 0456 b43f df5d e23e 51f9 5e3e
00000370: 2f8c e6bd 4522 8abd 8073 44be 3d97 50be
00000380: 347a 7dbe a651 e6be ee57 7cbf 9cda 2d3f
00000390: 4ba8 2bbe c14d 093e 0886 883f 9389 a63f
000003a0: d55a b1bf e708 08bf c4b6 12be b788 d0bf
000003b0: d797 80bf b19c 913e f3e7 bf3f 69ba 8c3f
000003c0: 7bc9 9f3f 1a03 343f aedc 893f 1cc8 e4bf
000003d0: 63ba 11bf 2069 43be 5aae c5be 0689 37bf
000003e0: aee6 223f 1226 c6be 8f53 293c 52aa 60be
000003f0: bad1 27be cfc9 8bbe 9b99 053e 0f3d 0d3f
0.105549276 -0.08688441 0.17232075 -0.24694696 0.38243335 -0.22707064 -0.46690395 0.5916411
0.3739685 -0.22106862 -0.16688554 0.54823303 -0.561792 1.1586959 -0.52169055 0.49676004
-0.6684865 -0.3299341 1.1107148 -0.5169489 0.03667636 0.18694857 -0.41276538 -0.14084665
0.23678395 0.30017367 -0.5318822 0.41803038 -0.10123674 -0.26393068 -0.10671374 -1.2294608
2.8269079 -0.07410957 -0.25623158 -0.029886432 0.27069712 -2.8046513 2.4505956 -0.75209403
0.09363917 0.07221564 -0.7305804 0.75431097 -0.06912826 -0.17551498 0.04795876 0.36424786
-0.5436376 0.67522204 0.31065068 -0.27397367 -0.04260168 -0.3522996 0.04042838 -0.80037534
0.65465313 -0.14889784 0.1659806 0.08901774 1.2636261 -1.3754728 0.5585625 -0.58196056
-0.17054181 0.24033771 0.5694612 -0.45591232 0.22714533 0.09153212 -0.15311116 0.059239555
0.7956097 -1.2583796 0.6921417 0.120577514 0.526539 -1.1800109 0.1827412 0.3385089
-0.6517048 0.14998244 -0.53725255 0.16530107 0.5382297 0.49884257 -0.7291989 0.32424262
-0.21188086 -0.12741236 -0.73858124 0.8118909 -0.9146816 0.8840665 -0.8415398 0.38395995
-0.7198269 0.1281442 0.78742695 -0.4431916 -0.1876352 -0.16528869 0.094524466 0.08693151
-0.044903938 0.13501862 -0.22949871 -0.09203782 -0.29617912 0.13229686 -0.062173218 -0.2087284
0.48194227 -0.18269825 -0.1459778 -0.27281094 0.6839779 -0.3095036 0.23778234 -0.36291677
-0.24382769 0.20031574 -0.043882996 -0.10918463 0.24256381 0.24070337 -0.056222398 0.72459203
-0.5719809 0.21236421 -0.66694 0.57100797 0.8105772 -1.1818161 0.0031571924 0.3568846
-1.2305003 0.6143812 0.47385913 -0.24237703 0.01719156 0.17023821 -1.0845641 0.9706388
-0.7237938 0.18886718 0.04146049 -0.44006887 0.35969266 0.051051356 0.005088688 0.4219224
-0.89857244 1.0027962 -0.57922345 0.2328986 -1.1486884 -0.0039297445 0.2608704 -0.07362165
0.5464065 0.19385058 -0.99921644 0.28750038 0.3230911 -0.2076161 -0.30861932 0.20440823
-0.1932325 0.6910086 -0.10526656 0.74420106 -1.0153906 0.2739117 -0.042043563 -0.63739276
0.1955955 0.06891661 0.35997137 -0.19006577 0.4627544 -0.6758743 0.32491982 -0.578066
0.2578748 0.6024766 -0.30068874 -0.121437564 0.08693007 -0.20726721 -0.169143 0.37610236
0.024052873 0.16379619 -0.2516348 -0.10236588 0.41658014 0.006053971 -0.3869238 0.27435
0.24193767 0.009168779 -0.21030694 -0.27980846 0.069736525 -0.52771956 0.30261377 1.0920298
0.30767137 0.22875999 0.13984296 -0.15786476 -1.2373898 -0.56014234 -0.14140284 -0.22049968
0.45350635 1.408875 0.44212243 0.21774794 -0.11257207 -0.06744818 -0.19184685 -0.20370193
-0.24753648 -0.44984168 -0.9857167 0.67911696 -0.16763417 0.13408567 1.0665903 1.3010734
-1.3855845 -0.53138584 -0.14327532 -1.6291722 -1.0046338 0.2843986 1.499266 1.0994388
1.2483362 0.7031723 1.0770471 -1.7873569 -0.5692503 -0.19083071 -0.38609582 -0.71693456
0.6363324 -0.3870092 0.010334863 -0.21939972 -0.16388598 -0.27302405 0.13046877 0.55171293
