weights/bilevel_Denoising/ICNN_bilevel_JFB_for_Denoising.pt (torch, 109908 bytes, 5 tensors)

regularizer.icnn.scaling f4 [1, 32, 1, 1]
0	0xc0dd0c55	-6.9077554
1	0xc0dd0c55	-6.9077554
2	0xc0dae5e1	-6.8405614
3	0xc0dae5db	-6.8405585
4	0xc0dae5de	-6.84056
5	0xc0dae253	-6.8401275
6	0xc0dd0c55	-6.9077554
7	0xc0dae5df	-6.8405604
8	0xc0dae5df	-6.8405604
9	0xc0dd0c55	-6.9077554
10	0xc0dd0c55	-6.9077554
11	0xc0dd0c55	-6.9077554
12	0xc0dae5ed	-6.840567
13	0xc0dae658	-6.840618
14	0xc0dd0c55	-6.9077554
15	0xc0dd0c55	-6.9077554
16	0xc0dae5d8	-6.840557
17	0xc0dae5c5	-6.840548
18	0xc0dae5d8	-6.840557
19	0xc0dd0c55	-6.9077554
20	0xc0dae5d8	-6.840557
21	0xc0dd0c55	-6.9077554
22	0xc0dd0c55	-6.9077554
23	0xc0dd0c55	-6.9077554
24	0xc0dd0c55	-6.9077554
25	0xc0dd0c55	-6.9077554
26	0xc0dd0c55	-6.9077554
27	0xc0dd0c55	-6.9077554
28	0xc0dae5db	-6.8405585
29	0xc0dae308	-6.840214
30	0xc0dd0c55	-6.9077554
31	0xc0dae37c	-6.840269

regularizer.icnn.wx.bias f4 [32]
0	0x3e2181d3	0.1577218
1	0x3dad0909	0.08448989
2	0x3b2b4174	0.0026131542
3	0x3b232b7b	0.0024897743
4	0xbe29f0f2	-0.1659582
5	0xbe9350b4	-0.2877251
6	0x3b1202bf	0.0022279469
7	0xbd4b0676	-0.04956671
8	0x3b31db64	0.0027138824
9	0x3ed7ac98	0.42123866
10	0x3b0ea118	0.00217635
11	0x3b2e392f	0.0026584377
12	0x3ebbf7b9	0.36712435
13	0x3e2939e5	0.16525991
14	0xbe6cdc90	-0.23131013
15	0x3b2e3ef5	0.0026587818
16	0xbe5bd205	-0.21466835
17	0xbe888d80	-0.26670456
18	0x3f09cc42	0.538273
19	0xbe3715a3	-0.17879348
20	0xbe869e7d	-0.26292792
21	0x3b2619c0	0.0025344938
22	0xbe7ccd6a	-0.24687734
23	0x3acd25b1	0.0015651492
24	0x3b4076dd	0.0029367723
25	0x3af258cf	0.0018489602
26	0x3b0c61dd	0.0021420636
27	0x3b1d4be5	0.0024001535
28	0x3b296c79	0.0025852008
29	0xbe90531c	-0.28188407
30	0x3b21ca72	0.0024687317
31	0x3ab95f9b	0.0014142873

regularizer.icnn.wx.parametrizations.weight.original f4 [32, 1, 5, 5]
0	0xbcc3f2a4	-0.023919411
1	0x3e1e05ba	0.15431872
2	0x3df8333e	0.12119149
3	0xbdbe1271	-0.09280861
4	0xbdf19639	-0.11796231
5	0xbd56670e	-0.052344374
6	0xbdf72aa9	-0.12068684
7	0xbe8cf223	-0.27528486
8	0x3b9353ec	0.0044960883
9	0xbe524b3b	-0.2053651
10	0xbdecd541	-0.115641125
11	0x3d3aaaa4	0.04557289
12	0x3e1ef1ec	0.15521973
13	0x3e34361d	0.17598768
14	0xbe164778	-0.146757
15	0xbdd1bf63	-0.10241582
16	0xbe1c9ae0	-0.15293455
17	0xbdcbad0e	-0.09945117
18	0x3e272f74	0.16326696
19	0xbd6aabd5	-0.057292778
20	0xbd146bcb	-0.036235612
21	0xbdd3edb9	-0.103480764
22	0xbe4057d2	-0.18783501
23	0xbe275d7b	-0.16344254
24	0xbb9edd05	-0.004848125
25	0x3b620526	0.0034487932
26	0xbdf8ec61	-0.12154461
27	0xbc8ad2f6	-0.016946297
28	0xbe162b1a	-0.1466488
29	0xbe259f27	-0.16173993
30	0x3e393141	0.18085195
31	0xbdec2cb0	-0.11531961
32	0xbdf7c6a7	-0.12098437
33	0x3e399edf	0.18127011
34	0x3e037389	0.12837042
35	0xbe673498	-0.22578657
36	0xbe43b079	-0.19110288
37	0x3e2555bb	0.16145985
38	0xbe0a493a	-0.13504496
39	0x3ca2fba2	0.019895379
40	0x3c0abde6	0.008468127
41	0xbdd467c2	-0.10371353
42	0xbe4b8f8a	-0.19878975
43	0x3e43bc9b	0.19114916
44	0x3d10c160	0.035340667
45	0x3e44510d	0.19171543
46	0x3e33f7cc	0.17574996
47	0x3d61f33a	0.0551636
48	0xbca0476b	-0.019565305
49	0xbe3a2e9e	-0.18181846
50	0xbd9da657	-0.076977424
51	0x3e34f092	0.17669895
52	0xbd8a4d1c	-0.06752989
53	0xbc05ed93	-0.008174318
54	0x3d1bde22	0.03805364
55	0xbde27d85	-0.11059097
56	0xbe800dec	-0.25010622
57	0x3eab0229	0.33400086
58	0x3e31e4de	0.17372462
59	0xbdd9bccf	-0.106317155
60	0x3ea559b3	0.32294998
61	0xbe0b5a86	-0.1360875
62	0xbf0a4ab4	-0.5402024
63	0xbbf683cc	-0.0075230356
64	0x3ec82798	0.39092708
65	0xbd4a3c1e	-0.04937374
66	0x3eac6239	0.33668688
67	0x3eb4dc50	0.35324335
68	0xbecb8a7e	-0.397541
69	0xbe43b38a	-0.19111457
70	0xbcfcbd89	-0.030852096
71	0xbda268ac	-0.07930121
72	0xbd02fda1	-0.03198016
73	0x3e9644e3	0.2934943
74	0xbdab0487	-0.08350473
75	0xbcfd6800	-0.03093338
76	0x3e24a4a9	0.16078438
77	0xbdbc7540	-0.09202051
78	0xbd8086af	-0.06275689
79	0x3dee79b5	0.116443075
80	0x3d52d011	0.05146796
81	0xbeb1f700	-0.3475876
82	0x3dcdf20b	0.10055932
83	0x3ecf4686	0.40483493
84	0xbde34b27	-0.110983185
85	0xbdcb11ad	-0.09915481
86	0x3efaafe3	0.48962316
87	0x3e773866	0.24142608
88	0xbee9a439	-0.45633104
89	0xbc7a9324	-0.01529387
90	0x3e8050db	0.25061688
91	0xbe440061	-0.1914077
92	0xbeb9cde0	-0.36289883
93	0x3e8adc5d	0.2712125
94	0x3d286b0a	0.041117705
95	0xbda2b8ea	-0.07945426
96	0xbcb581d4	-0.022156633
97	0x3e5098b7	0.20370756
98	0xbd861744	-0.06547406
99	0x3d5126f7	0.05106255
100	0xbd630777	-0.05542704
101	0xbcbb1607	-0.022837652
102	0x3d978467	0.073983006
103	0x3e177433	0.1479042
104	0xbe06165a	-0.13094464
105	0x3dd772f4	0.105199724
106	0x3df3c5f0	0.11902988
107	0x3e20f777	0.157194
108	0x3bcc40f2	0.006233328
109	0xbe045bf6	-0.12925705
110	0x3e0e173f	0.13876055
111	0x3d6b2bea	0.057414927
112	0xbe09c7a2	-0.1345506
113	0x3e212419	0.15736426
114	0xbe23fda3	-0.16014723
115	0x3e1eb0e4	0.15497166
116	0xbe1db0a5	-0.15399416
117	0xbdb3cb75	-0.08779041
118	0xbc39f4f7	-0.011349908
119	0x3e2a026e	0.1660249
120	0x3c8474d9	0.016168999
121	0xbe35a393	-0.1773818
122	0xbe426a7b	-0.18985932
123	0x3cead776	0.028667193
124	0x3e3e287d	0.18570133
125	0xbd94c44e	-0.07264005
126	0x3d80e94d	0.062944986
127	0x3c1a1ce3	0.009406301
128	0xbd8940bb	-0.067017995
129	0xbd2d7d5e	-0.042355888
130	0xbe122d2d	-0.14275046
131	0x3e7430b6	0.23846707
132	0xbdf6f211	-0.12057889
133	0x3d22ff08	0.039793998
134	0x3d8430dd	0.064546324
135	0xbdcd3cfc	-0.100213975
136	0xbc93e3ab	-0.018052896
137	0xbbd2271c	-0.0064133536
138	0x3a934653	0.0011236168
139	0xbdfa53b6	-0.12222998
140	0xbd080085	-0.03320362
141	0x3ccea04a	0.025222916
142	0xbd2aa9d9	-0.041665886
143	0xbd419f50	-0.047271073
144	0x3d2be05d	0.041962016
145	0xbc8308f9	-0.01599549
146	0xbd897580	-0.067118645
147	0xbc079401	-0.008275033
148	0x3d32ac29	0.043621216
149	0xbd64dbbd	-0.05587362
150	0x3dc62325	0.09674672
151	0xbdbe54c0	-0.092935085
152	0xbc845c98	-0.016157433
153	0x3dc9bf83	0.09850981
154	0x3d38a56e	0.04507964
155	0xbcb76a59	-0.022389578
156	0x3eb3c415	0.35110536
157	0xbefd1a24	-0.49434006
158	0x3ed31df5	0.41233793
159	0xbdf08ce3	-0.11745622
160	0xbde6f44b	-0.11277064
161	0x3e8fee3b	0.28111443
162	0xbe31311b	-0.17303888
163	0x3da05509	0.07828719
164	0x3d665d80	0.056241512
165	0x3e0e08b6	0.1387051
166	0xbe8114f1	-0.2521129
167	0x3efb7eb4	0.49120104
168	0xbed6adb8	-0.41929412
169	0x3e32e186	0.17468843
170	0x3ce05b87	0.027387394
171	0xbe12daa7	-0.14341222
172	0x3ea20af5	0.31648985
173	0xbd43823a	-0.047731616
174	0xbcc5398b	-0.02407529
175	0xbe29b86b	-0.16574256
176	0xbd1ebd90	-0.038755
177	0x3e12eb03	0.14347462
178	0xbd9c1a42	-0.07622196
179	0x3c96d771	0.018413277
180	0xbe47ab42	-0.19498923
181	0x3e772166	0.24133834
182	0xbda7dd99	-0.08196563
183	0x3e4fd9ae	0.20297882
184	0x3e445a55	0.19175084
185	0x3ccf062e	0.025271501
186	0xbe52a685	-0.20571335
187	0xbe509b86	-0.20371827
188	0xbe238204	-0.15967566
189	0xbe27e5b0	-0.16396213
190	0x3e1ac60b	0.1511461
191	0xbdab3402	-0.08359529
192	0xbe2491f9	-0.16071309
193	0x3e213113	0.15741377
194	0x3e5b4558	0.21413171
195	0x3e50c876	0.2038897
196	0x3db7ff56	0.08984248
197	0x3dd21d68	0.10259515
198	0x3de03b4b	0.10948809
199	0x3afc3832	0.0019242822
200	0xbdd98d33	-0.10622635
201	0x3da83335	0.08212892
202	0x3ca4b5a4	0.020106144
203	0x3d84c974	0.06483737
204	0xbdc82293	-0.097722195
205	0x3a36e3c0	0.00069766864
206	0xbe835719	-0.25652388
207	0xbeb02498	-0.3440292
208	0xbe50e131	-0.20398404
209	0xbc92c488	-0.017915979
210	0x3e2ab5d2	0.16670921
211	0x3e920423	0.2851878
212	0x3f1b9f19	0.6078964
213	0x3e686c05	0.22697456
214	0x3e475203	0.19464879
215	0xbbbe28bc	-0.0058031958
216	0xbe80109d	-0.25012675
217	0xbebd199e	-0.36933607
218	0xbe4a6d75	-0.19768317
219	0xbd4ee569	-0.05051175
220	0xbde56ae8	-0.112020314
221	0x3da46305	0.08026699
222	0x3ce820a1	0.028335871
223	0x3d493b6b	0.04912893
224	0xbdaa8325	-0.08325795
225	0xbc6fd823	-0.014638933
226	0xbcc3db02	-0.023908142
227	0x3c39bf02	0.011337044
228	0x3e16658d	0.14687176
229	0xbd78c2fa	-0.06073282
230	0xbc541989	-0.012945541
231	0xbc247704	-0.010038141
232	0x3d0ce465	0.0343975
233	0x3e15613f	0.14587878
234	0xbd6d92b8	-0.05800125
235	0xbc531f8b	-0.012885938
236	0x3d87f648	0.06638771
237	0xbf165331	-0.5872069
238	0x3d898cee	0.06716333
239	0x3d25b361	0.040454272
240	0xbc58f93a	-0.013243014
241	0xbcefad77	-0.02925752
242	0x3d203ce6	0.039120577
243	0x3dcd9a44	0.100391895
244	0xbdd2ae56	-0.10287158
245	0xbc94b916	-0.018154662
246	0x3c32a60c	0.0109038465
247	0xbc9bd085	-0.019020328
248	0x3d740d47	0.059582975
249	0xbd38524c	-0.04500036
250	0xbcec2e24	-0.028830595
251	0xbe882b93	-0.26595744
252	0x3d53260d	0.05154996
253	0x3e906369	0.28200844
254	0xbd9a9989	-0.07548816
255	0xbbbc5005	-0.0057468438

regularizer.icnn.wz.weight f4 [32, 32, 5, 5]
0	0x38596fd4	5.184098e-05
1	0x383bfb88	4.481853e-05
2	0x3826ba70	3.9751118e-05
3	0x38470feb	4.7460122e-05
4	0x3846e155	4.7416735e-05
5	0x38415a19	4.6098696e-05
6	0x383f3d3a	4.559497e-05
7	0x3848ef28	4.7906447e-05
8	0x3846ec68	4.742705e-05
9	0x38429241	4.6389414e-05
10	0x385869e4	5.159703e-05
11	0x383e5b5a	4.5384608e-05
12	0x3831c44a	4.2382897e-05
13	0x383cc586	4.500665e-05
14	0x3856bfad	5.1200088e-05
15	0x383f639e	4.5630724e-05
16	0x38315fd7	4.2289346e-05
17	0x38552785	5.0819963e-05
18	0x38531e0b	5.03343e-05
19	0x383857c0	4.3950742e-05
20	0x38351dc8	4.31815e-05
21	0x384c5099	4.8712453e-05
22	0x3840755a	4.588566e-05
23	0x382ea9aa	4.1642845e-05
24	0x383b2293	4.4616474e-05
25	0x386e03da	5.674721e-05
26	0x3849ab3e	4.8081616e-05
27	0x3858afe3	5.166222e-05
28	0x382985db	4.0417402e-05
29	0x38301a5e	4.1986226e-05
30	0x383ef897	4.5531047e-05
31	0x38322c17	4.247957e-05
32	0x38252635	3.937465e-05
33	0x382eb97d	4.1657582e-05
34	0x38755f75	5.8501453e-05
35	0x382a2dc2	4.0573774e-05
36	0x38409add	4.5920595e-05
37	0x383e0b04	4.530979e-05
38	0x38435ae1	4.657626e-05
39	0x385314dd	5.032575e-05
40	0x3827e119	4.002554e-05
41	0x38482331	4.771649e-05
42	0x3824ea37	3.9318777e-05
43	0x38386fd5	4.397317e-05
44	0x382c7e3c	4.112556e-05
45	0x3834ded0	4.3122855e-05
46	0x3814ae34	3.544819e-05
47	0x38444c82	4.6801295e-05
48	0x381ab04a	3.6880643e-05
49	0x3841abd4	4.6174813e-05
50	0x38575b15	5.134482e-05
51	0x3834a4c9	4.3068812e-05
52	0x38570b39	5.1270446e-05
53	0x3821e37a	3.8597245e-05
54	0x382c16c2	4.102919e-05
55	0x382a09e0	4.0540355e-05
56	0x382d8bfb	4.137678e-05
57	0x38442267	4.676208e-05
58	0x38290c5a	4.0304243e-05
59	0x382d825d	4.1367824e-05
60	0x3841b4b8	4.6183093e-05
61	0x3825c8ba	3.9526007e-05
62	0x384a214b	4.819156e-05
63	0x3830a96c	4.2119456e-05
64	0x384c8758	4.876344e-05
65	0x38438f09	4.6624835e-05
66	0x385f73e3	5.327527e-05
67	0x3847730f	4.7552454e-05
68	0x38449b99	4.6874953e-05
69	0x382b232a	4.0802326e-05
70	0x38419020	4.6149013e-05
71	0x3855bdf7	5.0960076e-05
72	0x38386b6c	4.3969063e-05
73	0x383fd83e	4.573934e-05
74	0x383a3897	4.439856e-05
75	0x3859c247	5.1917767e-05
76	0x383e8eaf	4.5432414e-05
77	0x3834ff1b	4.315293e-05
78	0x383ba7f0	4.474068e-05
79	0x381d949c	3.757012e-05
80	0x382a1e19	4.055919e-05
81	0x386ff47e	5.720974e-05
82	0x385527fc	5.0820396e-05
83	0x3852c1b4	5.02483e-05
84	0x382aba15	4.070446e-05
85	0x382d4d3d	4.1318348e-05
86	0x3830fd38	4.21975e-05
87	0x385365a0	5.0400966e-05
88	0x383e608e	4.5389454e-05
89	0x38637308	5.422815e-05
90	0x382cb69d	4.1178067e-05
91	0x38460514	4.7211608e-05
92	0x3834c7c5	4.3101394e-05
93	0x383170a5	4.2304997e-05
94	0x3836237e	4.3425236e-05
95	0x3826e6f4	3.9792576e-05
96	0x38463e42	4.726486e-05
97	0x3865736d	5.4705353e-05
98	0x38418aee	4.6144174e-05
99	0x382e5b46	4.1569838e-05
100	0x3852f9f8	5.0300703e-05
101	0x38403ba3	4.583191e-05
102	0x383ee362	4.5511297e-05
103	0x3836f7fe	4.3623142e-05
104	0x38410746	4.602156e-05
105	0x382980c5	4.0412666e-05
106	0x38263bc9	3.9633163e-05
107	0x384700a9	4.7445912e-05
108	0x383f4ee0	4.5611407e-05
109	0x38559d92	5.0929906e-05
110	0x384fd1cb	4.954803e-05
111	0x383c4637	4.4888086e-05
112	0x383bc420	4.476693e-05
113	0x38543b0b	5.0599727e-05
114	0x3841d4ef	4.6213096e-05
115	0x3845a158	4.7118723e-05
116	0x3852a68b	5.0223007e-05
117	0x382d1f91	4.1275813e-05
118	0x384e4938	4.9182418e-05
119	0x3819a114	3.662806e-05
120	0x3848e781	4.789932e-05
121	0x38315411	4.227838e-05
122	0x383dec5c	4.528124e-05
123	0x383647cb	4.3459044e-05
124	0x382f7af9	4.183778e-05
125	0x3844d7ae	4.693091e-05
126	0x383dfb86	4.529536e-05
127	0x38447d14	4.684653e-05
128	0x38477c44	4.756103e-05
129	0x381cba7d	3.736698e-05
130	0x3844be38	4.6907197e-05
131	0x382568ca	3.9436658e-05
132	0x3836620f	4.3483506e-05
133	0x383a232e	4.437862e-05
134	0x3846cd93	4.7398335e-05
135	0x383b64ea	4.4678258e-05
136	0x3840a196	4.5926856e-05
137	0x381fbb49	3.8082977e-05
138	0x382de6bf	4.1461313e-05
139	0x38483988	4.7737296e-05
140	0x383225bd	4.2473654e-05
141	0x38219984	3.8528364e-05
142	0x3849ba69	4.8095742e-05
143	0x3843c976	4.6679248e-05
144	0x38484d0a	4.7755464e-05
145	0x38660301	5.483907e-05
146	0x38429c09	4.6398523e-05
147	0x3845ba40	4.714192e-05
148	0x3853c347	5.0488186e-05
149	0x384cc9cc	4.8825328e-05
150	0x3847583d	4.7527476e-05
151	0x382dddbf	4.145293e-05
152	0x384a9bb9	4.830558e-05
153	0x384514e4	4.6987916e-05
154	0x3841dc2c	4.6219837e-05
155	0x384366ce	4.6587367e-05
156	0x38463ea5	4.726522e-05
157	0x383f969f	4.5678225e-05
158	0x384d7081	4.8980586e-05
159	0x383492d7	4.30521e-05
160	0x382f9071	4.1857773e-05
161	0x3843cd7a	4.6682988e-05
162	0x3836fb36	4.362614e-05
163	0x3838c58e	4.4053006e-05
164	0x384a5a84	4.8244852e-05
165	0x384ae496	4.837344e-05
166	0x382ceb91	4.1227384e-05
167	0x383a6e21	4.444842e-05
168	0x3824eb24	3.931964e-05
169	0x384a925f	4.829687e-05
170	0x382f071b	4.172987e-05
171	0x3841ad94	4.6176443e-05
172	0x38303908	4.2014784e-05
173	0x3837c844	4.3817112e-05
174	0x3855eec7	5.1005536e-05
175	0x3854f7c4	5.077549e-05
176	0x38611aa7	5.3669002e-05
177	0x382028dc	3.8185026e-05
178	0x383626b2	4.342822e-05
179	0x38372658	4.366631e-05
180	0x3820d950	3.834936e-05
181	0x38462a9c	4.724656e-05
182	0x38546c4b	5.0645594e-05
183	0x3842dc39	4.6458303e-05
184	0x384bb177	4.856425e-05
185	0x38482701	4.772004e-05
186	0x382b9ba9	4.0914547e-05
187	0x38413fcf	4.6074212e-05
188	0x381c91e9	3.7329188e-05
189	0x382ffb83	4.195749e-05
190	0x383088a8	4.208894e-05
191	0x38307d5d	4.2078424e-05
192	0x384acc13	4.8350612e-05
193	0x38477f0b	4.7563615e-05
194	0x384a6cb4	4.826179e-05
195	0x381eac7f	3.7830785e-05
196	0x3827ee9f	4.0038136e-05
197	0x382adce6	4.0736886e-05
198	0x38450098	4.6969013e-05
199	0x383983da	4.4230233e-05
200	0x382be00c	4.0978237e-05
201	0x3813ed01	3.526826e-05
202	0x3846d063	4.7400954e-05
203	0x3827ba82	3.99896e-05
204	0x382af3ef	4.075834e-05
205	0x384ccb8c	4.8826958e-05
206	0x38276a08	3.9914652e-05
207	0x38309d6f	4.210829e-05
208	0x381f979f	3.8049762e-05
209	0x384064b9	4.5870172e-05
210	0x382acb78	4.0720653e-05
211	0x384b28d7	4.8437007e-05
212	0x3839aa46	4.4266017e-05
213	0x38401ff4	4.5806126e-05
214	0x383733d9	4.3678887e-05
215	0x38365b78	4.347737e-05
216	0x381ce4a4	3.7406237e-05
217	0x38562934	5.105995e-05
218	0x38490b9e	4.7932954e-05
219	0x383ccc29	4.5012832e-05
220	0x38325b9d	4.252383e-05
221	0x3846c633	4.7391466e-05
222	0x38488737	4.7809644e-05
223	0x38562737	5.1058098e-05
224	0x38270d5a	3.9828337e-05
225	0x385f2255	5.3199317e-05
226	0x38373be6	4.3686385e-05
227	0x38463bb1	4.726247e-05
228	0x38434c19	4.6562494e-05
229	0x38437eaa	4.6609588e-05
230	0x38359807	4.329535e-05
231	0x3834b640	4.3085078e-05
232	0x382e5cef	4.1571384e-05
233	0x3854a3c2	5.069725e-05
234	0x38353759	4.320531e-05
235	0x385c5bca	5.2537573e-05
236	0x383c70ef	4.492787e-05
237	0x38424f45	4.632703e-05
238	0x3852ecca	5.028843e-05
239	0x384849a9	4.7752317e-05
240	0x3825d742	3.953954e-05
241	0x3837e1f0	4.384102e-05
242	0x3811f12a	3.4795296e-05
243	0x381d8d56	3.7563346e-05
244	0x3871a33b	5.7610898e-05
245	0x38337e05	4.279429e-05
246	0x38353a66	4.320815e-05
247	0x3836253a	4.342685e-05
248	0x385b40aa	5.2273892e-05
249	0x3845294d	4.7006924e-05
250	0x38557134	5.0888586e-05
251	0x3837d012	4.382438e-05
252	0x383f2a22	4.5577188e-05
253	0x38334a78	4.274628e-05
254	0x3836c87e	4.3578904e-05
255	0x38542a78	5.058429e-05

regularizer.icnn.wz.bias f4 [32]
0	0xbc277eba	-0.010223085
1	0xbbf22aa3	-0.0073903366
2	0x3c52b1c3	0.0128597645
3	0x3caa29c4	0.020771869
4	0x3c2a624f	0.010399415
5	0x3bc2be65	0.005943107
6	0xbcda6f14	-0.026664294
7	0x3c3328b3	0.010934996
8	0x3cc519ba	0.024060119
9	0xbc4287cd	-0.011873198
10	0xbcbddc70	-0.023176402
11	0xbbcf9326	-0.00633468
12	0x3c414585	0.01179636
13	0x3c2eb1ea	0.010662535
14	0xbc15ef94	-0.009151358
15	0xbc18e95d	-0.009332982
16	0x3cf27393	0.029596126
17	0x3b906d50	0.0044075623
18	0x3d0a95b2	0.033834167
19	0xbc888e1d	-0.016669327
20	0x3c97b7eb	0.018520316
21	0xbc025e81	-0.007957102
22	0xbc0c4ea8	-0.008563675
23	0xbca0f3bc	-0.019647472
24	0xbcfd4046	-0.030914437
25	0xbc287966	-0.01028285
26	0xbc676249	-0.014122554
27	0xbcc2c607	-0.023776067
28	0x3cd3a6b9	0.025836335
29	0x3c156f87	0.0091208285
30	0xbc0fbee2	-0.008773537
31	0x3bac9c47	0.005267653
