weights/bilevel_Denoising/IDCNN_bilevel_JFB_for_Denoising.pt (torch, 218076 bytes, 10 tensors)

regularizer.icnn1.scaling f4 [1, 32, 1, 1]
0	0xc0e1ac7b	-7.0523047
1	0xc0dd0c55	-6.9077554
2	0xc0dd7baa	-6.9213457
3	0xc0dd7ba5	-6.9213433
4	0xc0dd0c55	-6.9077554
5	0xc0dd7bab	-6.921346
6	0xc0dd0c55	-6.9077554
7	0xc0dd0c55	-6.9077554
8	0xc0e47dce	-7.140357
9	0xc0dd7ba7	-6.9213443
10	0xc0dd77f1	-6.9208913
11	0xc0dd7bac	-6.9213467
12	0xc0dd0c55	-6.9077554
13	0xc0dd0c55	-6.9077554
14	0xc0dd0c55	-6.9077554
15	0xc0dd7ba9	-6.921345
16	0xc0dd7320	-6.9203033
17	0xc0dd7703	-6.920778
18	0xc0dd7bb5	-6.921351
19	0xc0dd7ba3	-6.9213424
20	0xc0dd0c55	-6.9077554
21	0xc0dd78d9	-6.921002
22	0xc0dd72a9	-6.9202466
23	0xc0dd72da	-6.92027
24	0xc0dd765f	-6.9206996
25	0xc0dd0c55	-6.9077554
26	0xc0dd0c55	-6.9077554
27	0xc0dd0c55	-6.9077554
28	0xc0dd7bb4	-6.9213505
29	0xc0dd0c55	-6.9077554
30	0xc0dd0c55	-6.9077554
31	0xc0dd0c55	-6.9077554

regularizer.icnn1.wx.bias f4 [32]
0	0x3c4eb308	0.012615927
1	0xbdb81d16	-0.08989923
2	0x3ea33541	0.31876567
3	0x3c5041d6	0.012711009
4	0xbdfc5cde	-0.123224005
5	0x3c55c8a8	0.013048328
6	0x3c4d6d47	0.012538261
7	0x3e42ebae	0.19035217
8	0x3c608089	0.01370252
9	0x3c4c8b29	0.01248435
10	0x3c5356f5	0.01289915
11	0x3ca1b942	0.019741658
12	0x3e9a2850	0.3010888
13	0x3c4dd4ac	0.012562912
14	0x3c503855	0.012708743
15	0x3c5931e5	0.013256525
16	0x3be7234b	0.007053768
17	0x3c0ccbe1	0.00859353
18	0x3c40d253	0.011768895
19	0x3c974d5b	0.018469503
20	0x3e0ab07a	0.13543883
21	0x3c50a6b8	0.012735061
22	0x3e4eb049	0.20184435
23	0x3c8f6b31	0.017507168
24	0x3c5d02ac	0.013489407
25	0x3c54ec08	0.012995727
26	0x3c462c9e	0.0120955985
27	0xbe9aba59	-0.30220297
28	0x3c53896c	0.012911182
29	0x3ef335d7	0.47502014
30	0xbe80c25d	-0.25148287
31	0x3c63a598	0.013894461

regularizer.icnn1.wx.parametrizations.weight.original f4 [32, 1, 5, 5]
0	0xbd13d79f	-0.036094304
1	0xbdd30927	-0.1030448
2	0x3d12fc07	0.035884883
3	0xbd84937a	-0.064734414
4	0x3d820fab	0.06350645
5	0x3e4d4e50	0.20049405
6	0x3e5fc5a8	0.21852744
7	0x3e056492	0.13026646
8	0x3e283c9e	0.16429374
9	0xbdcdee9d	-0.100552775
10	0xbe6bc415	-0.23024018
11	0xbeab4e33	-0.334581
12	0xbed18349	-0.40920475
13	0xbe9388c1	-0.28815272
14	0xbe8cab9e	-0.27474684
15	0xbd9bb488	-0.07602793
16	0x3df9d5a5	0.121989526
17	0x3e45728d	0.19281979
18	0x3e03b07d	0.12860294
19	0x3e8707e8	0.2637322
20	0x3d0b8ff1	0.03407282
21	0x3b519be2	0.0031983783
22	0xbd445cb4	-0.04793997
23	0xbd1157f2	-0.03548426
24	0xbd6be3ca	-0.057590283
25	0x3d849c76	0.06475155
26	0x3c04ee09	0.008113393
27	0x3ba5559a	0.005045605
28	0x3c69609f	0.014244228
29	0x3dcb8f20	0.09939408
30	0x3d3092d1	0.043108765
31	0x3c0ea4c8	0.008706279
32	0x3e05ab5c	0.1305365
33	0xbea52765	-0.32256618
34	0xbcc26e4d	-0.023734236
35	0x3d3f5c42	0.046718843
36	0xbcce0e70	-0.025153369
37	0x3dd229c1	0.1026187
38	0x3dab2458	0.083565414
39	0x3d8f0e0e	0.069851026
40	0x3cec3d07	0.028837694
41	0xbcbacfde	-0.022804197
42	0xbb49de9f	-0.0030802859
43	0xbc1bcfd2	-0.009509997
44	0xbae950a4	-0.0017800522
45	0x3d54fd93	0.05199964
46	0x3d0ea2f6	0.03482338
47	0x3ceca3be	0.028886672
48	0x3d6abcf4	0.057309106
49	0x3d8103da	0.06299563
50	0xbc11dfeb	-0.008903484
51	0x3bdbdb65	0.0067095035
52	0x3c77198a	0.015081773
53	0xbc5dfebe	-0.013549505
54	0x3d00deeb	0.03146259
55	0x3d5bf329	0.053698692
56	0x3cbb39cf	0.022854714
57	0xbcbbe2ca	-0.02293529
58	0x3da6bd37	0.081415586
59	0x3d2c6f5a	0.04209838
60	0xbe7df6d8	-0.24801195
61	0xbd8dc909	-0.0692311
62	0x3c91ef86	0.017814409
63	0xbe3e3eff	-0.18578719
64	0xbd7c7abf	-0.061640497
65	0xbc85f3da	-0.016351629
66	0x3c2e14de	0.010625092
67	0xbdc60d4e	-0.096705064
68	0x3de188a9	0.11012394
69	0xbcd7d6d4	-0.026347555
70	0x3d3b43a3	0.0457188
71	0xbc676731	-0.014123724
72	0x3d87b95c	0.06627151
73	0xbc25936d	-0.01010595
74	0xbc967956	-0.018368404
75	0x3daba21c	0.08380529
76	0xbc067e30	-0.008208796
77	0x39c1f336	0.00036993035
78	0xbca39be5	-0.019971797
79	0x3cf1ab88	0.029500738
80	0xbd06e6a3	-0.032934796
81	0x3d8290f3	0.06375303
82	0x3c8e0f23	0.017341202
83	0x3c6df9f9	0.01452493
84	0x3ca58a95	0.020207683
85	0x3cb1bf32	0.021697614
86	0xbc614968	-0.013750412
87	0xbecca674	-0.39970744
88	0xbde039ca	-0.109485224
89	0x3d37cf24	0.04487528
90	0xbc68fc45	-0.014220302
91	0x3c8f2c74	0.017477252
92	0xbe91fed0	-0.2851472
93	0x3e3e5662	0.1858764
94	0x3e20ef1f	0.15716217
95	0x3cdb79b9	0.02679144
96	0x3cdc7689	0.02691199
97	0x3d0e6c99	0.034771536
98	0x3ee459d8	0.44599795
99	0x3deeab20	0.11653733
100	0xbde34220	-0.11096597
101	0x3b533a70	0.0032230876
102	0xbd2458d7	-0.040123787
103	0x3c084ca1	0.008319051
104	0xbdf4416a	-0.11926539
105	0x3b3d85e6	0.002891892
106	0x3c3d9904	0.011572126
107	0x3d5596f7	0.052145924
108	0x3dd6cfcd	0.104888536
109	0x3db3728b	0.08762082
110	0x3ce0771d	0.027400548
111	0xbe70efd9	-0.23528995
112	0x3e3168e3	0.17325167
113	0xbd68424b	-0.056703847
114	0x3d7656c4	0.06014134
115	0xbd4a2e2a	-0.04936043
116	0xbd6c433e	-0.057681315
117	0x3d39eb54	0.045390442
118	0x3d8d056f	0.06885802
119	0x3d12f566	0.03587856
120	0x3c3f1563	0.011662814
121	0xbd8bf477	-0.06833737
122	0xbbca2c8f	-0.0061698626
123	0xbd3ae56c	-0.04562895
124	0xbd96b065	-0.07357863
125	0x3c54b18b	0.012981783
126	0xbde8d331	-0.113684066
127	0xbe0c549e	-0.13704154
128	0x3de85669	0.113446064
129	0x3d712696	0.05887469
130	0xbdf55439	-0.11978955
131	0xbcf7ac58	-0.030233547
132	0x3edf11d9	0.43568304
133	0x3dc9eb87	0.098593764
134	0xbe3138c8	-0.17306817
135	0x3d13fca6	0.036129616
136	0x3eb29b98	0.34884334
137	0xbde82b8e	-0.113364324
138	0xbee64d07	-0.44980642
139	0x3c496841	0.0122929225
140	0x3de73d5b	0.112909995
141	0xbe1c1d11	-0.15245463
142	0xbe9c8b8a	-0.3057521
143	0x3e3ac1f3	0.18238048
144	0x3e1985bb	0.1499242
145	0xbd4fd533	-0.050740432
146	0xbd7d689c	-0.06186734
147	0x3df3a14d	0.11896
148	0x3d4b75ce	0.049672894
149	0xbd730e9b	-0.0593401
150	0x3c108654	0.008821089
151	0x3de622ce	0.11237107
152	0x3d817d36	0.0632271
153	0x3da0bced	0.07848535
154	0x3e22f273	0.159128
155	0xbe40e2b1	-0.18836476
156	0xbe792f5c	-0.24334472
157	0xbe2e0407	-0.16993724
158	0xbe82c5d8	-0.25541568
159	0xbe5e56e4	-0.21712834
160	0x3d71ecf2	0.05906386
161	0x3d42153a	0.047383524
162	0x3e309320	0.17243624
163	0x3ded0321	0.115728624
164	0x3ba6a303	0.0050853505
165	0xbd34dde8	-0.04415694
166	0xbe80d03c	-0.2515887
167	0xbec79fb5	-0.38989034
168	0xbdf7ab96	-0.12093274
169	0xbdd2b828	-0.10289031
170	0xba4c532b	-0.00077943754
171	0x3e36c391	0.1784804
172	0x3e259c4b	0.16172902
173	0x3c8dac27	0.017294003
174	0xbc00531e	-0.007832317
175	0xbd9c2b67	-0.07625466
176	0xbdff545f	-0.124672644
177	0xbdb3a863	-0.087723516
178	0xbdc9a163	-0.09845235
179	0xbd11c5f0	-0.03558916
180	0xbdbf057e	-0.093272194
181	0x3c1e1656	0.00964888
182	0xbd443293	-0.047899794
183	0xbcb338ea	-0.021877725
184	0xbdb5d683	-0.088788055
185	0xbd83bd2e	-0.064325675
186	0xbd955f1a	-0.0729353
187	0xbdcabd7d	-0.09899423
188	0xbddd16fb	-0.10795399
189	0xbd91cb45	-0.07118849
190	0xbd44ae0b	-0.048017543
191	0xbb2f50e7	-0.0026751102
192	0x3bbdebfe	0.0057959547
193	0xbd1207a1	-0.035651807
194	0xbdb53617	-0.088482074
195	0xbd8d31b9	-0.068942495
196	0xbdea6cfb	-0.114465676
197	0x3e874c7e	0.26425546
198	0xbe695647	-0.22786818
199	0x3bb184dd	0.00541745
200	0x3d30ba94	0.043146685
201	0xbe0c1e0f	-0.13683341
202	0xbe407117	-0.1879314
203	0xbd6bf876	-0.057609998
204	0x3ea08f02	0.31359106
205	0xbe3b5dcf	-0.18297504
206	0xbd61e852	-0.0551532
207	0x3e729091	0.2368796
208	0x3c8b718a	0.017021913
209	0xbd114f51	-0.035476033
210	0xbe5a6c49	-0.2133037
211	0x3e9bdfc6	0.30444163
212	0xbdf67491	-0.12033952
213	0x3d834cc2	0.06411125
214	0xbd4af04c	-0.04954557
215	0x3d2be0a3	0.041962277
216	0xbe1b0793	-0.15139608
217	0x3e03ee31	0.12883832
218	0x3e4c6f97	0.19964443
219	0xbe714c22	-0.23564199
220	0x3e92a3a0	0.2864046
221	0x3cb894a2	0.022531811
222	0xbd9a7ef0	-0.07543743
223	0xbe76612f	-0.2406051
224	0xbc86b8e2	-0.01644558
225	0x3d34cc8b	0.04414038
226	0x3e3c1a8d	0.18369503
227	0x3d45636b	0.048190515
228	0xbdf87de3	-0.12133386
229	0x3d3122b8	0.043246
230	0xbdeecad6	-0.11659782
231	0xbdeb81e3	-0.11499383
232	0x3ebc5f8a	0.3679164
233	0x3e80fd04	0.25193036
234	0xbe0cd616	-0.13753542
235	0x3e544705	0.20730217
236	0xbe214747	-0.15749846
237	0xbec056a4	-0.37566102
238	0x3e87851c	0.26468742
239	0x3e574ff4	0.21026593
240	0x3cc99ddf	0.024611412
241	0x3e964514	0.29349577
242	0x3cc80ff5	0.024421671
243	0xbe7ed4d6	-0.24885878
244	0x3dcda7aa	0.10041745
245	0x3d1e43b6	0.038638793
246	0xbc148e68	-0.009067155
247	0x3e090086	0.13379106
248	0x3d642c1a	0.05570612
249	0xbc78e791	-0.0151919285
250	0xbc8c66db	-0.017138889
251	0x3bff7912	0.007796415
252	0xbaf3eb5f	-0.0018609575
253	0xbca82cec	-0.020529233
254	0x3cedb504	0.029016979
255	0x3e81666a	0.25273448

regularizer.icnn1.wz.weight f4 [32, 32, 5, 5]
0	0x3960c80d	0.0002143683
1	0x39498d63	0.00019221524
2	0x394dd5d7	0.00019629985
3	0x39464962	0.00018910089
4	0x394a7897	0.00019309144
5	0x3c1192b5	0.008885075
6	0x3bae09b2	0.0053112144
7	0x3c04a27e	0.008095382
8	0x3b5cd942	0.0033698832
9	0x3b266d41	0.002539471
10	0x3c18ba51	0.009321765
11	0x3bbea617	0.0058181393
12	0x3c0ed89a	0.008718634
13	0x3b80f4a1	0.003935412
14	0x3b46974f	0.003030259
15	0x3c0db2f1	0.00864862
16	0x3ba8a994	0.0051471684
17	0x3c04165c	0.0080619715
18	0x3b64f231	0.0034934396
19	0x3b32b875	0.002727059
20	0x398b54ea	0.00026575412
21	0x39821a9f	0.00024815366
22	0x39844e67	0.00025235416
23	0x3980bb97	0.00024553828
24	0x39839f5f	0.00025105008
25	0x3b272e49	0.0025509766
26	0x3b532881	0.0032220187
27	0x3c892d7c	0.016745321
28	0x3cabfb10	0.02099374
29	0x3c9be0c1	0.01902807
30	0x3b33df81	0.002744645
31	0x3b917db1	0.0044400324
32	0x3c97d46d	0.01853391
33	0x3cba6757	0.022754354
34	0x3caa4d8d	0.020788932
35	0x3beb3f81	0.007179201
36	0x3c46bfa0	0.012130648
37	0x3cd60971	0.026127549
38	0x3cf52677	0.029925568
39	0x3cdd07e9	0.02698131
40	0x3ac37bbe	0.0014914197
41	0x3b179325	0.0023128476
42	0x3c8632d6	0.016381662
43	0x3c4baa1a	0.012430692
44	0x3c3ca905	0.011514907
45	0x3a90b1ab	0.0011039277
46	0x3a98f3ff	0.0011669396
47	0x3be4bc21	0.0069804345
48	0x3b5ad25b	0.0033389542
49	0x3b2b4d04	0.0026138434
50	0x3ca32170	0.019913405
51	0x3c5de866	0.013544178
52	0x3ab4fa2d	0.0013807468
53	0x3aacafc3	0.001317494
54	0x3aafe0ec	0.0013418472
55	0x3ac9e013	0.0015401862
56	0x3a8096c9	0.0009810562
57	0x3a25bfe9	0.00063228473
58	0x3a17478f	0.0005770856
59	0x3a35ad92	0.0006930466
60	0x3b125462	0.0022328128
61	0x3b0243d9	0.0019876866
62	0x3af5a307	0.0018740603
63	0x3af2cc1c	0.0018523964
64	0x3aee28b4	0.001817009
65	0x3a5a79a4	0.0008334166
66	0x3a2c097f	0.00065626943
67	0x39f49185	0.00046647727
68	0x39f275d8	0.00046245637
69	0x3a1054c0	0.0005505793
70	0x3b17776d	0.0023111955
71	0x3c48c088	0.012252934
72	0x3ae75281	0.001764849
73	0x3af0f0fb	0.0018382365
74	0x3af59935	0.0018737676
75	0x3ba49d5c	0.0050236415
76	0x3bbc5e5e	0.005748554
77	0x3bd32c01	0.0064444547
78	0x39842cb1	0.000252103
79	0x397ae248	0.00023926154
80	0x3bece10f	0.0072289775
81	0x3c02a3fb	0.007973666
82	0x3c0e7788	0.008695491
83	0x3985c969	0.000255178
84	0x397e1bf3	0.0002423374
85	0x3c05ad92	0.008159058
86	0x3c120d0b	0.0089142425
87	0x3c1e465c	0.00966033
88	0x3986b128	0.00025690463
89	0x397feb19	0.00024406276
90	0x398a8863	0.00026423027
91	0x398da135	0.00027013724
92	0x398e1883	0.00027102613
93	0x396abc78	0.00022386189
94	0x395efbf3	0.00021265428
95	0x39da0b49	0.00041588608
96	0x39cc157c	0.0003892592
97	0x39eaf513	0.00044814553
98	0x396f03c7	0.00022794223
99	0x3963bf5c	0.00021719694
100	0x3ca45bbe	0.020063277
101	0x3c96b4af	0.018396704
102	0x3c8e5f64	0.01737947
103	0x3b1cc028	0.0023918245
104	0x3a772314	0.00094275293
105	0x3a36f997	0.0006979941
106	0x3a26af1d	0.00063584914
107	0x3a2557db	0.0006307342
108	0x3a4ddcbf	0.0007853023
109	0x3a09405e	0.0005235727
110	0x3a2dcc6d	0.0006629888
111	0x3a1e8f0c	0.00060485373
112	0x3a1d3d5b	0.00059982174
113	0x3a4bf285	0.00077799737
114	0x3a05c12e	0.00051023334
115	0x3a3f13a4	0.00072889985
116	0x3a2fd0fd	0.0006706862
117	0x3a2e8056	0.0006656697
118	0x3a4fdea3	0.0007929599
119	0x3a06c7a6	0.0005141444
120	0x3a35ed9f	0.00069400104
121	0x3a26342c	0.00063401717
122	0x3a248ff6	0.00062775554
123	0x3a2f4647	0.00066861924
124	0x3a14d055	0.0005676796
125	0x398d4a87	0.00026949143
126	0x3995f4d5	0.0002860191
127	0x39a66172	0.0003173459
128	0x3986d34c	0.000257159
129	0x397e9500	0.00024278834
130	0x39a2748c	0.00030985882
131	0x39aa7718	0.00032513659
132	0x39bc98d4	0.0003597202
133	0x399cd508	0.0002991336
134	0x3995098f	0.00028426616
135	0x39bdcbfa	0.00036200864
136	0x3a36beee	0.00069712
137	0x3baea18e	0.0053293174
138	0x39b9fc4a	0.0003547392
139	0x39b3f53d	0.00034324257
140	0x39b6bc10	0.00034853863
141	0x39bf8c42	0.0003653486
142	0x3b86c0af	0.004112325
143	0x39b17579	0.00033847595
144	0x39abb6ed	0.00032751952
145	0x39b0be9d	0.00033711354
146	0x39b893d2	0.0003520535
147	0x3aad2dd1	0.0013212507
148	0x39ac2b04	0.00032838446
149	0x39a3c384	0.00031235453
150	0x3c71d50d	0.014760268
151	0x3c380e42	0.011233868
152	0x3c6676aa	0.014066378
153	0x3b136d47	0.0022495554
154	0x39fa672f	0.00047760594
155	0x3c830741	0.01599467
156	0x3c4c8777	0.012483469
157	0x3c7b8e93	0.015353817
158	0x3b611c72	0.003434923
159	0x3a009e02	0.00049063575
160	0x3ba783a2	0.0051121274
161	0x3a7c7446	0.0009630363
162	0x3b5170ac	0.0031958027
163	0x39e4c439	0.00043633746
164	0x39d67a49	0.0004090837
165	0x3bfc4f51	0.007699885
166	0x3b95a85e	0.00456719
167	0x3c06966d	0.008214575
168	0x3a08ccf6	0.000521853
169	0x3a007d2b	0.0004901464
170	0x3bef7db0	0.0073086843
171	0x3b8a9ddd	0.0042302446
172	0x3c007b01	0.007841826
173	0x3a0a0a96	0.00052658597
174	0x3a01bf25	0.0004949442
175	0x3b403d70	0.0029333495
176	0x3b94aef2	0.0045374567
177	0x3c53a870	0.012918577
178	0x3c06f732	0.008237647
179	0x3add4e10	0.0016884226
180	0x3acd6e22	0.0015673081
181	0x3b095417	0.0020954662
182	0x3c57ee59	0.013179385
183	0x3c684ef1	0.014178977
184	0x3a9e57cb	0.0012080608
185	0x3ab47e9b	0.0013770642
186	0x3acb4478	0.0015508076
187	0x3c1bfd67	0.009520865
188	0x3c1faa11	0.009745137
189	0x3a9cdf6a	0.0011968438
190	0x3aaed946	0.0013339899
191	0x3ac40aa5	0.0014956786
192	0x3c9e6679	0.019335972
193	0x3c4249f6	0.011858454
194	0x3a9f526f	0.0012155304
195	0x3ac27c2e	0.0014838034
196	0x3b1aae62	0.0023602475
197	0x3d122962	0.035683997
198	0x3ceae2f8	0.02867268
199	0x3ab83641	0.0014054255
200	0x3b820c56	0.0039687557
201	0x3b3d3275	0.0028869186
202	0x3b4247fc	0.0029644957
203	0x3af1c42e	0.0018445307
204	0x3baa3828	0.0051946826
205	0x3afeacf4	0.0019430206
206	0x3aee0bf6	0.0018161524
207	0x3afe8605	0.0019418603
208	0x3a14919f	0.0005667451
209	0x3b76b6e1	0.0037645625
210	0x3a039810	0.00050199125
211	0x39f47b88	0.00046631345
212	0x3a2b6fce	0.00065397925
213	0x397d1818	0.00024136936
214	0x3b302448	0.0026877094
215	0x399006c7	0.0002747087
216	0x3979fd74	0.00023840909
217	0x397b6d4e	0.00023977945
218	0x397b2f43	0.00023954832
219	0x3b01ec23	0.0019824586
220	0x3a0d8eaa	0.0005399982
221	0x39d8532a	0.00041260693
222	0x397d64dd	0.00024165535
223	0x39cf7e19	0.00039576067
224	0x3b31bb6f	0.0027119776
225	0x38ccee04	9.771812e-05
226	0x38d114db	9.969781e-05
227	0x38f16f19	0.00011512469
228	0x38bfc895	9.144951e-05
229	0x389a5550	7.359183e-05
230	0x391c94d5	0.00014932764
231	0x391f1f37	0.0001517505
232	0x392fac0f	0.00016753397
233	0x39151d2e	0.00014220618
234	0x390150d4	0.0001233251
235	0x39ebf261	0.0004500328
236	0x3abb24ab	0.0014277896
237	0x3b104315	0.002201264
238	0x3a97b227	0.0011573479
239	0x3a226a53	0.0006195653
240	0x39707b47	0.00022934108
241	0x3a7ed8c1	0.000972163
242	0x3addde34	0.0016927184
243	0x3a373ddb	0.0006990113
244	0x395bdb32	0.00020967124
245	0x390f4d75	0.00013666398
246	0x390dfbff	0.00013540684
247	0x391c73d4	0.00014920469
248	0x38e4bbd9	0.000109068766
249	0x38bc57f3	8.9809204e-05
250	0x3b46eada	0.0030352385
251	0x3be07373	0.0068497
252	0x3c04f4d7	0.008115015
253	0x3bfcbac6	0.007712695
254	0x3bee35d0	0.0072695985
255	0x3a1ad302	0.00059060764

regularizer.icnn1.wz.bias f4 [32]
0	0xbbc9e84d	-0.0061617256
1	0xbd0424af	-0.032261547
2	0x3d07a898	0.033119768
3	0x3cb86e6a	0.022513587
4	0xbc1e9004	-0.009677891
5	0x3cc83a2c	0.024441801
6	0xbccd535a	-0.02506416
7	0xbd0c2816	-0.034217916
8	0x3b935c8b	0.004497116
9	0x3c4a8c29	0.012362518
10	0x3c0ea47d	0.008706209
11	0x3cbe5fba	0.023239005
12	0xbcfa636d	-0.030564988
13	0xbca4e94f	-0.020130781
14	0xbcf87795	-0.030330459
15	0x3c67a3ad	0.014138144
16	0x3b802695	0.0039108493
17	0x3af04476	0.001833095
18	0x3ce1026f	0.02746698
19	0x3c2f98f4	0.010717619
20	0xbc397c6a	-0.0113211665
21	0x3c1727fc	0.009225842
22	0x3bb35cdf	0.0054737176
23	0x3b9d8c5b	0.0048079914
24	0x3afadf30	0.0019140001
25	0xbcd77447	-0.026300563
26	0xbc949cf4	-0.018141247
27	0xbcf8c2f8	-0.030366406
28	0x3c519ef9	0.01279425
29	0xbd047f64	-0.03234805
30	0xbd0d324c	-0.034471795
31	0xbccfa11f	-0.025345383

regularizer.icnn2.scaling f4 [1, 32, 1, 1]
0	0xc0dd0c55	-6.9077554
1	0xc0e05273	-7.0100646
2	0xc0dd0c55	-6.9077554
3	0xc0dd0c60	-6.9077606
4	0xc0dd0c55	-6.9077554
5	0xc0dd0c55	-6.9077554
6	0xc0e05285	-7.010073
7	0xc0e05260	-7.0100555
8	0xc0dd0c55	-6.9077554
9	0xc0e052a8	-7.01009
10	0xc0e05270	-7.010063
11	0xc0dd0c55	-6.9077554
12	0xc0dd2bef	-6.911613
13	0xc0e05278	-7.010067
14	0xc0dff712	-6.99891
15	0xc0e0527e	-7.01007
16	0xc0dd0c55	-6.9077554
17	0xc0e0528a	-7.0100756
18	0xc0dd0c55	-6.9077554
19	0xc0dd2bef	-6.911613
20	0xc0e0526d	-7.0100617
21	0xc0e0527c	-7.010069
22	0xc0e0527c	-7.010069
23	0xc0e05281	-7.0100713
24	0xc0e05266	-7.0100584
25	0xc0dd2bef	-6.911613
26	0xc0e05277	-7.0100665
27	0xc0e05273	-7.0100646
28	0xc0e05266	-7.0100584
29	0xc0dd0c55	-6.9077554
30	0xc0dd0c55	-6.9077554
31	0xc0dd0c55	-6.9077554

regularizer.icnn2.wx.bias f4 [32]
0	0xbb4e4e67	-0.0031479837
1	0xbbfbde4b	-0.0076864115
2	0x3d3f7e8a	0.046751536
3	0xbba697e1	-0.0050840233
4	0x3d13809f	0.036011335
5	0x3dfe37dc	0.12412998
6	0xbe432ca0	-0.19059992
7	0xbba64815	-0.005074511
8	0xbd67a0ad	-0.056549717
9	0x3d19bdaf	0.037534412
10	0x3d1b63fd	0.037937153
11	0xbd98ee04	-0.07467273
12	0x3d15094d	0.036385823
13	0xbbc1635b	-0.0059017367
14	0xbbb4519c	-0.0055028927
15	0xbc27a551	-0.010232286
16	0x3e0240b0	0.12719989
17	0x3d196a53	0.037454914
18	0xbd363d21	-0.04449189
19	0x3d12ffc8	0.035888463
20	0xbba7f2f0	-0.005125396
21	0xbd9fced6	-0.07803123
22	0x3d2ae266	0.041719817
23	0x3d1c162c	0.038107082
24	0x3de3e6ea	0.11128028
25	0x3d1551dc	0.03645502
26	0x3d0fb01a	0.035080053
27	0x3d141bb5	0.036159236
28	0x3d6134b6	0.05498191
29	0xbbddd372	-0.006769591
30	0xbb6524a3	-0.0034964464
31	0x3de6cfd4	0.11270109

regularizer.icnn2.wx.parametrizations.weight.original f4 [32, 1, 5, 5]
0	0xbc978368	-0.018495277
1	0x3c2beb7b	0.010493155
2	0xbd38f52a	-0.04515568
3	0x3c2d1b6f	0.010565623
4	0x3d51c7d5	0.051215965
5	0x3b235a15	0.002492552
6	0x3dfb799f	0.12279057
7	0xbdd7ae9c	-0.10531351
8	0x3dc056e2	0.093915716
9	0x3daad56c	0.08341488
10	0x3e076130	0.13220668
11	0x3d7fd5b8	0.062459677
12	0xbe853896	-0.26019734
13	0xbd06169e	-0.032736413
14	0x3dd97281	0.10617543
15	0x3c9b8ba6	0.018987488
16	0xbe1cb18e	-0.15302107
17	0xbda6c594	-0.08143154
18	0xbe5469ee	-0.20743534
19	0xbe0f1664	-0.13973385
20	0x3d1e41c0	0.038636923
21	0x3dea1fc8	0.11431843
22	0x3e6e6a32	0.23282698
23	0x3e1261e1	0.1429515
24	0x3e38067d	0.17971225
25	0x3e0993e2	0.13435319
26	0x3d2d8891	0.042366568
27	0x3e26c81f	0.16287278
28	0x3d951375	0.07279102
29	0xbe06e868	-0.13174593
30	0xbe0f76b8	-0.14010131
31	0xbe3bcb6e	-0.18339321
32	0xbe1bda14	-0.15219909
33	0xbd271673	-0.040792894
34	0x3e47744f	0.19477962
35	0xbdffb871	-0.12486351
36	0xbce3434e	-0.027742054
37	0xbd399749	-0.045310292
38	0xbdedd49d	-0.116128184
39	0x3e0afc6a	0.13572851
40	0xbd346b85	-0.04404785
41	0x3cd5d0c5	0.026100526
42	0x3dc68446	0.09693198
43	0xbd793a6f	-0.060846742
44	0x3dbd9f01	0.09258843
45	0xbdbbb891	-0.091660626
46	0x3d039849	0.032127652
47	0xbc666b0a	-0.014063606
48	0xbd9cc9bc	-0.07655665
49	0x3dfe2f9c	0.124114245
50	0x3ddb1c88	0.10698801
51	0xbe355eb9	-0.17711915
52	0xbdae0e77	-0.08498853
53	0x3e2109e3	0.15726428
54	0x3c8062e9	0.015672164
55	0x3d663337	0.056201186
56	0x3db41b08	0.08794218
57	0x3d4849cb	0.0488985
58	0xbdb70a8c	-0.089375585
59	0xbd856d9e	-0.065150484
60	0xbd825873	-0.063645266
61	0x3e168150	0.14697766
62	0x3d33c783	0.04389144
63	0xbe514538	-0.20436561
64	0x3db0bc90	0.086297154
65	0xbd967f9c	-0.07348558
66	0xbd9b53a9	-0.07584316
67	0x3d886532	0.066599265
68	0x3e599a80	0.21250343
69	0x3db07337	0.086157255
70	0x3d3c804d	0.046020795
71	0x3cbd04e0	0.023073614
72	0xbd1cfb04	-0.038325325
73	0xbd281706	-0.04103758
74	0xbda70ad5	-0.08156363
75	0xbe8dfacb	-0.27730402
76	0x3e8ff4b6	0.28116387
77	0x3dc5d218	0.09659213
78	0xbda34e28	-0.079738915
79	0x3e0160fb	0.12634651
80	0xbdc6d426	-0.09708433
81	0x3eb0c1dd	0.34522906
82	0x3dc706c7	0.097180896
83	0xbe3c2311	-0.18372752
84	0x3d22251a	0.039586164
85	0xbdca09c4	-0.09865144
86	0xbdae7be5	-0.08519725
87	0xbd9c72b0	-0.076390624
88	0x3d1ed0d1	0.03877336
89	0xbd17b58f	-0.037038382
90	0x3c6b022b	0.014343779
91	0x3d182dd3	0.037153076
92	0xbbdeb99f	-0.00679703
93	0x3cc566a3	0.024096793
94	0xbd1dfa10	-0.038568556
95	0xbd6e7393	-0.05821569
96	0xbd8bfb8b	-0.068350874
97	0xbd96a4f8	-0.07355684
98	0xbc18a15f	-0.009315818
99	0xbd1fa2b4	-0.038973525
100	0xbd0cc3ac	-0.034366295
101	0xbd8166d8	-0.06318444
102	0x3d3f4f84	0.04670669
103	0x3d8466ba	0.06464906
104	0x3d159fa0	0.036529183
105	0xbd11e4f6	-0.035618745
106	0x3e04f2af	0.12983201
107	0x3d0bdbfd	0.034145344
108	0xbe82dbb1	-0.25558236
109	0x3da08979	0.07838721
110	0x3ccc9713	0.024974382
111	0x3d1ec232	0.038759418
112	0xbdfcb555	-0.12339274
113	0xbe8e98db	-0.27850994
114	0x3d3a093a	0.045418955
115	0x3d0225e6	0.031774424
116	0xbd495623	-0.049154412
117	0x3d732555	0.059361774
118	0x3e0532d0	0.13007665
119	0x3c9a79cd	0.018856907
120	0x3d64b871	0.05583996
121	0x3c6b2629	0.01435236
122	0x3bdbf3ec	0.0067124274
123	0x3ca7c46a	0.0204794
124	0x3cde13d1	0.027109059
125	0x3abae04f	0.0014257523
126	0xbd0263a8	-0.03183332
127	0x3c043cc2	0.008071126
128	0x3bb6906f	0.005571417
129	0xbc0daccf	-0.008647158
130	0xbca0e26e	-0.01963922
131	0x3d2322ef	0.039828237
132	0xbd719fd0	-0.0589903
133	0xbe751126	-0.23932323
134	0x3d30f4a2	0.04320205
135	0xbc09a40e	-0.00840093
136	0xbcd96940	-0.026539445
137	0xba9f5f37	-0.0012159114
138	0x3d5fac57	0.054607715
139	0xbcc6006c	-0.024170123
140	0xbc642a0a	-0.0139260385
141	0x3e645d00	0.22301102
142	0xbd971534	-0.07377091
143	0xbc6235c0	-0.01380676
144	0xbcd87875	-0.026424626
145	0xbc95cd08	-0.018286243
146	0xbaee9891	-0.0018203427
147	0xbae8fa82	-0.0017774852
148	0x3bf63eb7	0.0075148004
149	0xbbe0c07d	-0.006858884
150	0x3ce223bf	0.027604936
151	0xbbfe39ca	-0.007758354
152	0xbd803a2d	-0.06261096
153	0x3bef71fd	0.0073072896
154	0xbda605e2	-0.08106591
155	0xbe09d3ee	-0.13459751
156	0xbdd586f8	-0.10426134
157	0xbdb98152	-0.09057869
158	0xbd505702	-0.050864227
159	0xbd2325c3	-0.039830934
160	0xbe66ff14	-0.22558242
161	0x3d03e216	0.032198034
162	0x3dbbc1d9	0.09167833
163	0xbd52b1fd	-0.051439274
164	0x3cf6735e	0.030084308
165	0xbd99073c	-0.07472083
166	0x3bcfe4a8	0.0063443966
167	0x3e3cfaee	0.18455097
168	0xbdc5ec05	-0.09664158
169	0xbcbaabd9	-0.022787021
170	0x3cd0de76	0.025496703
171	0xbdb31481	-0.08744145
172	0xbda33770	-0.07969558
173	0x3b97acd7	0.0046287584
174	0xbdce76fe	-0.1008129
175	0x3d8ff172	0.07028474
176	0x3ddb4b56	0.107077286
177	0x3d71fea3	0.05908073
178	0x3caccd9b	0.021094134
179	0x3daec4b3	0.08533611
180	0x3da0d889	0.07853801
181	0xbdd8ae27	-0.10580092
182	0xbe2a7061	-0.16644432
183	0x3dad208e	0.08453475
184	0x3ccc0460	0.02490443
185	0x3df024ed	0.11725793
186	0xbe8cc723	-0.2749568
187	0xbe18a301	-0.14905931
188	0x3e1eea91	0.15519167
189	0x3d0426a5	0.032263417
190	0x3d593741	0.05303121
191	0x3d7187dd	0.05896746
192	0x3e370054	0.17871219
193	0xbb299a99	-0.00258795
194	0xbc7d516b	-0.015461306
195	0x3dc089ec	0.094013065
196	0x3d278408	0.0408974
197	0x3c6688fd	0.0140707465
198	0xbcf51dc7	-0.029921426
199	0xbc2e3979	-0.01063382
200	0xbdf36ec8	-0.11886364
201	0xbe18d0bd	-0.14923377
202	0x3b547f45	0.0032424491
203	0xbd531839	-0.051536772
204	0x3e8713f3	0.26382408
205	0x3cf10644	0.029421933
206	0x3cb764fa	0.022387017
207	0x3cc05db3	0.02348218
208	0xbcd3c13b	-0.025848975
209	0xbdc21c8b	-0.094781004
210	0xbd04fb20	-0.032466054
211	0xbda6798d	-0.08128653
212	0xbbd11dc6	-0.006381723
213	0x3cd9a9b8	0.026570186
214	0x3d30d8ac	0.043175384
215	0x3d0f8152	0.03503544
216	0x3e0a9d6e	0.13536617
217	0xbd364444	-0.044498697
218	0xbb10bcf4	-0.002208528
219	0xbe2d352d	-0.16914816
220	0x3cb2d6a0	0.021830857
221	0x3ce20fa7	0.027595354
222	0xbc2b7815	-0.0104656415
223	0x3ba1146d	0.004915765
224	0xbdc1a17c	-0.09454629
225	0x3d0ac013	0.033874582
226	0x3d921bc3	0.071342014
227	0xba1592df	-0.00057057844
228	0x3c15cc23	0.009142908
229	0x3d880d8e	0.0664321
230	0x3c9a2722	0.018817488
231	0xbe1c52a6	-0.15265903
232	0xbdc7ce48	-0.09756142
233	0x3da69b75	0.0813512
234	0xbd07ca50	-0.033151925
235	0x3d3666fb	0.044531804
236	0xbdc41f95	-0.09576336
237	0xbe3f112e	-0.18658897
238	0x3e444785	0.19167908
239	0x3cb5856e	0.02215835
240	0x3dbd6e05	0.092495
241	0x3e145ed1	0.14489295
242	0xbe96e9ac	-0.29475152
243	0xbe7edd01	-0.24888994
244	0x3d8e9ced	0.06963525
245	0xbe15dc16	-0.14634737
246	0xbcf34ff5	-0.029701212
247	0x3e256997	0.1615356
248	0x3cc422f3	0.023942446
249	0x3d568905	0.052376766
250	0xbd97652b	-0.07392343
251	0xbd86c7e3	-0.06581094
252	0xbddeb7a3	-0.1087487
253	0xbd70d524	-0.058797017
254	0xbd915fce	-0.070983514
255	0xbcc98816	-0.024601024

regularizer.icnn2.wz.weight f4 [32, 32, 5, 5]
0	0x385161fc	4.9920738e-05
1	0x38561f7a	5.105089e-05
2	0x382e2580	4.1519757e-05
3	0x384b53dc	4.847707e-05
4	0x3845d53d	4.7167054e-05
5	0x383c56f3	4.490367e-05
6	0x385efc28	5.3163763e-05
7	0x3859d9fe	5.1939853e-05
8	0x382fccb4	4.1913896e-05
9	0x384bb3da	4.856647e-05
10	0x38443792	4.6781795e-05
11	0x3814dfb5	3.5494293e-05
12	0x38521d68	5.009529e-05
13	0x38484a27	4.7752776e-05
14	0x386cb5e3	5.643618e-05
15	0x38595b81	5.182205e-05
16	0x385718ed	5.128321e-05
17	0x3848b84a	4.785535e-05
18	0x383d9573	4.5200297e-05
19	0x3841ee4e	4.6236724e-05
20	0x38466e25	4.730946e-05
21	0x3834ee0d	4.3137046e-05
22	0x383e189d	4.5322453e-05
23	0x38310131	4.2201198e-05
24	0x382e2c38	4.1526015e-05
25	0x3836f4df	4.3620235e-05
26	0x383854a5	4.394785e-05
27	0x384563b8	4.706133e-05
28	0x38464356	4.726959e-05
29	0x3839d150	4.4302375e-05
30	0x38432ff9	4.65363e-05
31	0x383d3f05	4.5119803e-05
32	0x38278156	3.9936356e-05
33	0x38595ef3	5.182526e-05
34	0x3849b7cc	4.809331e-05
35	0x383b90ac	4.471901e-05
36	0x38408011	4.589564e-05
37	0x3823c8a3	3.9049086e-05
38	0x38435696	4.6572262e-05
39	0x383a6542	4.444016e-05
40	0x38341e56	4.2943597e-05
41	0x384afa56	4.8393696e-05
42	0x3827aa01	3.997423e-05
43	0x382135e6	3.8435588e-05
44	0x382107a3	3.8392503e-05
45	0x382eff3f	4.172255e-05
46	0x38378dd6	4.3762695e-05
47	0x383b589b	4.4666795e-05
48	0x385b1202	5.223044e-05
49	0x384b1730	4.8420567e-05
50	0x384ef276	4.9340037e-05
51	0x383e1df4	4.5327426e-05
52	0x381fa66d	3.806355e-05
53	0x3842c6a1	4.6438192e-05
54	0x38407cc6	4.589257e-05
55	0x38369169	4.3527605e-05
56	0x382a2d4d	4.0573348e-05
57	0x382d4983	4.1314877e-05
58	0x3842ee7e	4.6475318e-05
59	0x3811eac0	3.4789322e-05
60	0x381d5062	3.750658e-05
61	0x38419de2	4.6161826e-05
62	0x382dddca	4.145297e-05
63	0x385062be	4.9683025e-05
64	0x383c2d5b	4.4864933e-05
65	0x382c6165	4.10987e-05
66	0x38236bf9	3.8962786e-05
67	0x382785ac	3.9940394e-05
68	0x383660f1	4.3482465e-05
69	0x3830d812	4.21629e-05
70	0x385efdbd	5.3165237e-05
71	0x384d0e7e	4.8889306e-05
72	0x3845298a	4.7007146e-05
73	0x383fd2e7	4.5734367e-05
74	0x383d2fa2	4.5105473e-05
75	0x381720f7	3.6031906e-05
76	0x383c738f	4.4930315e-05
77	0x382df39d	4.1473297e-05
78	0x3828d2d1	4.025066e-05
79	0x384fd1bd	4.954798e-05
80	0x382f372a	4.1774627e-05
81	0x383c1a33	4.4847093e-05
82	0x38315020	4.227471e-05
83	0x382a5c26	4.061698e-05
84	0x383061c1	4.205271e-05
85	0x382dd976	4.144894e-05
86	0x384780cb	4.7565245e-05
87	0x382e2045	4.1514886e-05
88	0x3848ab74	4.7843394e-05
89	0x381e160b	3.7690665e-05
90	0x383213c7	4.2456926e-05
91	0x384500a4	4.6969057e-05
92	0x38523449	5.0116596e-05
93	0x385c5943	5.253522e-05
94	0x3857811d	5.138024e-05
95	0x383efe54	4.553639e-05
96	0x3848d118	4.787845e-05
97	0x38676db3	5.5176857e-05
98	0x3844e241	4.6940757e-05
99	0x38429818	4.6394853e-05
100	0x386a91fb	5.5925902e-05
101	0x384db14c	4.904093e-05
102	0x38370684	4.3636668e-05
103	0x384695ef	4.7346515e-05
104	0x383fc47b	4.5720935e-05
105	0x38426da4	4.6355315e-05
106	0x382db372	4.1413536e-05
107	0x382c30f1	4.1053576e-05
108	0x3842bb1f	4.6427474e-05
109	0x385bcf7f	5.2406915e-05
110	0x38274d06	3.9887636e-05
111	0x384815c2	4.770398e-05
112	0x382cb37f	4.1175164e-05
113	0x384b6228	4.8490387e-05
114	0x385ef1b5	5.315403e-05
115	0x38440f4c	4.6744288e-05
116	0x384eb2f0	4.9280876e-05
117	0x381d93d7	3.7569404e-05
118	0x38330b70	4.2687578e-05
119	0x3836cc6b	4.358256e-05
120	0x3834d9a6	4.3118045e-05
121	0x3833d97a	4.2879466e-05
122	0x383f5e62	4.562585e-05
123	0x3859af4e	5.1900097e-05
124	0x3823a31c	3.9014136e-05
125	0x3836e6e4	4.3607215e-05
126	0x38470b8b	4.7456047e-05
127	0x384b52f7	4.847624e-05
128	0x384aa4ec	4.831415e-05
129	0x382e60b9	4.1574913e-05
130	0x3866b110	5.5001175e-05
131	0x3837a46d	4.3783733e-05
132	0x381158ba	3.4653327e-05
133	0x382f1d8c	4.175077e-05
134	0x383bac9c	4.474503e-05
135	0x385ee460	5.3141615e-05
136	0x3833e1b0	4.2887114e-05
137	0x383143e0	4.2263302e-05
138	0x385fd7f9	5.3368483e-05
139	0x38372f77	4.3674805e-05
140	0x382c37d6	4.1059997e-05
141	0x38509220	4.9727154e-05
142	0x384c007f	4.8637852e-05
143	0x38469608	4.7346606e-05
144	0x38698f01	5.568471e-05
145	0x38388568	4.3993263e-05
146	0x3839b7a5	4.427847e-05
147	0x38271ce5	3.9842813e-05
148	0x382619cb	3.9601506e-05
149	0x382af510	4.075939e-05
150	0x3838018d	4.3870463e-05
151	0x3832307c	4.248366e-05
152	0x3832a284	4.258986e-05
153	0x38344c17	4.298621e-05
154	0x38349a11	4.305883e-05
155	0x382252e3	3.8701004e-05
156	0x384d114b	4.8891914e-05
157	0x383ecfdc	4.5493114e-05
158	0x38523a72	5.0122333e-05
159	0x382b5bd1	4.0855088e-05
160	0x38412876	4.6052468e-05
161	0x383b3ad7	4.4639073e-05
162	0x382c710e	4.1113286e-05
163	0x383f8581	4.5662284e-05
164	0x3858e238	5.1709096e-05
165	0x3842bf73	4.6431505e-05
166	0x3845117a	4.6984736e-05
167	0x3864c23a	5.4540324e-05
168	0x38348edf	4.3048403e-05
169	0x383c6ea3	4.492573e-05
170	0x384f16d9	4.9373924e-05
171	0x38337aa5	4.2791147e-05
172	0x383eadc5	4.5461366e-05
173	0x385134d0	4.987867e-05
174	0x3840c128	4.5956258e-05
175	0x38372359	4.366352e-05
176	0x384318a1	4.651456e-05
177	0x38431a27	4.651598e-05
178	0x3822f6cc	3.8853657e-05
179	0x3830a7b3	4.2117852e-05
180	0x383561ed	4.3244963e-05
181	0x386468e1	5.4457112e-05
182	0x38422863	4.6290817e-05
183	0x3831b352	4.2367094e-05
184	0x385946f8	5.1802926e-05
185	0x385a8a96	5.210432e-05
186	0x383f48fd	4.5605924e-05
187	0x384e41ab	4.9175385e-05
188	0x3851d554	5.002816e-05
189	0x38363a93	4.3446733e-05
190	0x38584571	5.1563085e-05
191	0x38168e9c	3.5895602e-05
192	0x38651572	5.4617827e-05
193	0x38205005	3.8221497e-05
194	0x384ac2ea	4.834208e-05
195	0x382c8ade	4.1137326e-05
196	0x3824e9d0	3.9318402e-05
197	0x3837a8a4	4.378766e-05
198	0x3827c22a	3.9996732e-05
199	0x384e4a7b	4.9183593e-05
200	0x3856f7b3	5.1252264e-05
201	0x382b7845	4.0881587e-05
202	0x3853a1a3	5.0456856e-05
203	0x3852bd55	5.024423e-05
204	0x381ecedf	3.78628e-05
205	0x3837b8ca	4.38027e-05
206	0x382f73d2	4.1831117e-05
207	0x3824740c	3.9208724e-05
208	0x386d9d07	5.6651446e-05
209	0x3827e480	4.002871e-05
210	0x383833f0	4.391739e-05
211	0x385bd884	5.2415315e-05
212	0x38318e98	4.233289e-05
213	0x381f0fd4	3.7923295e-05
214	0x3815f6fe	3.5754398e-05
215	0x383d4426	4.512458e-05
216	0x3810e4cd	3.4545363e-05
217	0x383efb7c	4.5533743e-05
218	0x3833b94e	4.2849504e-05
219	0x384049e9	4.58452e-05
220	0x38358183	4.327438e-05
221	0x381ad809	3.691766e-05
222	0x383abcaa	4.4521563e-05
223	0x384f9b3a	4.9497212e-05
224	0x382bac81	4.0930234e-05
225	0x3837784a	4.3742628e-05
226	0x384d6e19	4.8978345e-05
227	0x384b6562	4.849339e-05
228	0x3832e609	4.2652744e-05
229	0x383c54c9	4.4901655e-05
230	0x38435b98	4.6576926e-05
231	0x3845cf28	4.716139e-05
232	0x383d6dfc	4.5163542e-05
233	0x386b306c	5.6073462e-05
234	0x3856f472	5.1249233e-05
235	0x382cd491	4.1205963e-05
236	0x383a9b4d	4.449049e-05
237	0x383f6a94	4.5637207e-05
238	0x384bead6	4.861768e-05
239	0x384e7d1f	4.9230755e-05
240	0x38373761	4.3682176e-05
241	0x38354467	4.3217467e-05
242	0x383a2c17	4.4386918e-05
243	0x383d8866	4.5188142e-05
244	0x382d5349	4.132398e-05
245	0x38453422	4.7017013e-05
246	0x382616c0	3.959867e-05
247	0x383dab2a	4.522052e-05
248	0x386a6bcb	5.5890338e-05
249	0x38419c52	4.616037e-05
250	0x384a5213	4.823699e-05
251	0x3837b738	4.3801236e-05
252	0x383664c6	4.3486034e-05
253	0x383fe658	4.5752473e-05
254	0x3847ae41	4.7607584e-05
255	0x386d4951	5.6573484e-05

regularizer.icnn2.wz.bias f4 [32]
0	0xbc95d2e6	-0.01828904
1	0x3c3931c3	0.011303368
2	0xbd0d188a	-0.03444723
3	0xbc2cfe90	-0.010558739
4	0xbd080b10	-0.033213675
5	0xbc186bcc	-0.0093030445
6	0x3cd486a5	0.02594311
7	0x3ce622ec	0.028092824
8	0xbce3e817	-0.02782063
9	0x3cbdd613	0.023173368
10	0x3cfca48f	0.030840186
11	0xbd058cd1	-0.032604996
12	0xbb2bcdc9	-0.0026215187
13	0x3cef39c3	0.029202348
14	0x3a743f78	0.0009317319
15	0x3c639fe1	0.013893099
16	0xbbf132f6	-0.0073608113
17	0x3c343d51	0.011000947
18	0xbca55182	-0.020180468
19	0xbb021c5e	-0.0019853334
20	0x3ccd7462	0.02507991
21	0x3cc70240	0.024293065
22	0x3cb966bc	0.022631995
23	0x3ca7a9b8	0.02046667
24	0x3cbcbaee	0.023038354
25	0xbb8d10df	-0.0043049897
26	0x3c9f1562	0.019419376
27	0x3cc7d521	0.02439362
28	0x3d011a44	0.03151919
29	0xbd08c723	-0.033393037
30	0xbd00814d	-0.03137331
31	0xbc477840	-0.012174666
