weights/bilevel_Denoising/WCRR_bilevel_JFB_for_Denoising.pt (torch, 58689 bytes, 4 tensors)

regularizer.scaling f4 [1, 64, 1, 1]
0	0x4031e528	2.7796116
1	0x40572c0b	3.3620632
2	0x407f9634	3.9935427
3	0x4085e21e	4.183852
4	0x4081e04e	4.058631
5	0x405821e2	3.377068
6	0x41023be6	8.139624
7	0x4027b6cf	2.6205328
8	0x4043b844	3.0581217
9	0x406974e9	3.6477606
10	0x40757bc3	3.8356788
11	0x40975db2	4.7301874
12	0x405afaea	3.4215646
13	0x40832b5b	4.0990424
14	0x406250c7	3.5361803
15	0x4030f833	2.7651489
16	0x40698f88	3.6493855
17	0x4081bc9a	4.0542727
18	0x4080cd15	4.0250344
19	0x40684eca	3.629809
20	0x407c6889	3.9438803
21	0x403ba944	2.9322062
22	0x4075dd66	3.841638
23	0x406fb8ed	3.745662
24	0x4075cedc	3.8407507
25	0x405019e7	3.251581
26	0x4048147c	3.1262503
27	0x407f4c41	3.9890292
28	0x4069cbbd	3.6530602
29	0x404257be	3.0366054
30	0x4085926b	4.1741233
31	0x406b296e	3.6744037
32	0x40580617	3.3753717
33	0x4072ea71	3.7955592
34	0x4034b304	2.8234262
35	0x407df103	3.9678352
36	0x40891bc8	4.2846413
37	0x401c6931	2.4439204
38	0x4075fa0f	3.8433874
39	0x40587ba3	3.3825462
40	0x405e9996	3.4781241
41	0x407bde69	3.9354498
42	0x405652e4	3.3488092
43	0x407d3dfc	3.9569082
44	0x4077d5eb	3.8724315
45	0x404d702a	3.209971
46	0x4037a05b	2.8691623
47	0x40600729	3.500437
48	0x4079d8a5	3.903848
49	0x406359f6	3.5523658
50	0x405bf1af	3.4366262
51	0x4081a6ae	4.0515966
52	0x406de45a	3.7170625
53	0x405108df	3.2661664
54	0x4073862b	3.805064
55	0x4082a898	4.0830803
56	0x4052feae	3.2967944
57	0x406f7c1e	3.7419505
58	0x4082f440	4.0923157
59	0x4069b228	3.6514988
60	0x40463b5f	3.0973737
61	0x4050ac1d	3.260505
62	0x405ed0ec	3.4815016
63	0x404f08bf	3.2349088

regularizer.filters.0.parametrizations.weight.original f4 [4, 1, 5, 5]
0	0xbf079e90	-0.5297632
1	0x3e5c3684	0.21505171
2	0x3ed5e2ee	0.41774696
3	0x3dea5b78	0.114432275
4	0x3ca0de77	0.01963733
5	0xbe36cb2d	-0.17850943
6	0xbefb934e	-0.49135822
7	0xbf81dec9	-1.0146114
8	0xbef24cf4	-0.47324336
9	0x3ea5f925	0.32416645
10	0x3dd215e3	0.10258081
11	0x3ef663e9	0.481231
12	0xbf48a7f5	-0.7838128
13	0xbda4bf96	-0.080443546
14	0x3ccbc2d3	0.024873173
15	0x3e977d42	0.29587752
16	0x3ec6be1a	0.3881691
17	0x3f41d36f	0.7571325
18	0x3e27aeae	0.16375229
19	0xbe0d9b2f	-0.13828729
20	0x3e6e8129	0.23291458
21	0x3dfd0b3e	0.1235566
22	0x3d5cc39a	0.053897478
23	0xbdb136ab	-0.08653005
24	0xbddfb07c	-0.109223336
25	0xbf0af199	-0.542749
26	0xbeaa271f	-0.33232972
27	0x3ebf9e6c	0.37425554
28	0x3e620013	0.22070341
29	0xbd719703	-0.058981907
30	0xbd21e103	-0.03952123
31	0xbebf142b	-0.37320074
32	0xbf0c3bc0	-0.5477867
33	0xbebe1a10	-0.3712926
34	0xbd359466	-0.044330977
35	0x3e8129c3	0.25227174
36	0xbf82d63a	-1.0221627
37	0x4040d836	3.0131965
38	0x3c3a6959	0.011377656
39	0xbcc81769	-0.024425225
40	0xbf3222e0	-0.69584465
41	0xbe0d6724	-0.13808876
42	0xbf2de57b	-0.67928284
43	0xbf16062b	-0.5860316
44	0xbdbd99ef	-0.09257876
45	0xbeb1eda5	-0.3475162
46	0x3e0cea0e	0.1376116
47	0xbce46b57	-0.027883215
48	0xbe1fbcc7	-0.15599357
49	0xbeb40292	-0.3515821
50	0xbd92e833	-0.07173195
51	0x391646f9	0.00014331554
52	0xbd34f1f8	-0.044176072
53	0x3e5fd6b6	0.2185925
54	0x3eef6dab	0.46763358
55	0x3f2f0182	0.68361676
56	0xbdc803e8	-0.0976637
57	0x3eb4f3a9	0.35342148
58	0x3edde5ba	0.4333933
59	0xbb63deb3	-0.003477019
60	0x3f189f2d	0.5961788
61	0x3eeee1b3	0.4665657
62	0xbfdea67b	-1.7394556
63	0xbde6171a	-0.11234875
64	0x3e673ff7	0.22582994
65	0xbea17045	-0.31530967
66	0xbd8ec3f3	-0.06970968
67	0x3f2c5240	0.67313004
68	0x3ef9f53a	0.48819906
69	0x3ea00208	0.3125155
70	0xbd2e3066	-0.042526625
71	0x3f019a08	0.5062566
72	0xbe471311	-0.19440867
73	0xbcd2ba6e	-0.025723662
74	0x3df2acd4	0.118493706
75	0x3d6909dd	0.056894172
76	0x3e20c395	0.15699609
77	0x3e1b9713	0.15194349
78	0xbe92b78c	-0.2865566
79	0xbd235146	-0.03987243
80	0xbe0867b9	-0.13320817
81	0xbe21abd1	-0.15788199
82	0xbf214cec	-0.63008
83	0x3dac70f4	0.084199816
84	0xbc137889	-0.009000906
85	0xbe8f5d08	-0.28000665
86	0xbef9cde4	-0.48789895
87	0x3f1d2ff0	0.6140127
88	0x3b5aa69b	0.0033363465
89	0x3e00b06a	0.12567297
90	0x3df85a0d	0.12126551
91	0xbee8e48c	-0.45486867
92	0x3f587ffc	0.8457029
93	0xbe91f7d6	-0.28509396
94	0x3f0f422b	0.5596034
95	0xbe5f5dc3	-0.21813111
96	0xbe23e83b	-0.16006558
97	0xbe511e88	-0.20421803
98	0x3f3a481f	0.727663
99	0xbe105730	-0.1409576

regularizer.filters.1.weight f4 [8, 4, 5, 5]
0	0x3e3bc113	0.1833537
1	0xbc8aa53a	-0.01692449
2	0x3ee7fc21	0.45309547
3	0xbf062f39	-0.52415806
4	0x3e874350	0.26418543
5	0xbe5b6ee2	-0.21429017
6	0xbed590f5	-0.41712156
7	0xbe328ccb	-0.17436521
8	0x3eb8f51a	0.36124498
9	0x3eed4a0b	0.46345553
10	0x3d2976e0	0.041373134
11	0x3c8c61aa	0.017136414
12	0xbfb29818	-1.3952665
13	0x3ef1fdec	0.4726404
14	0x3ee828c9	0.45343617
15	0xbe9c5eb3	-0.30541
16	0x3e9b4eaf	0.30333468
17	0xbed9e616	-0.42558354
18	0x3cae535d	0.021279985
19	0xbee6e552	-0.45096833
20	0x3e1926f8	0.14956272
21	0x3f04a83a	0.51819193
22	0xbeb6b184	-0.3568231
23	0xbf283a8e	-0.6571435
24	0x3d9edd81	0.07757092
25	0x3e8bd95b	0.27314267
26	0xbdbf4f82	-0.09341337
27	0xbf1afe65	-0.60544425
28	0x3f09a676	0.53769624
29	0x3f0949de	0.5362834
30	0xbeba172b	-0.363458
31	0x3f4456af	0.7669477
32	0x3ef60496	0.48050374
33	0x3e3a2e8a	0.18181816
34	0x3e83be5f	0.2573118
35	0x3def01b6	0.11670248
36	0x3eb41535	0.3517243
37	0x3fdd4db5	1.7289339
38	0xbfcf5ab8	-1.619956
39	0xbf16b1af	-0.58864874
40	0xbe2e0723	-0.1699491
41	0x3e09fda6	0.13475665
42	0xbe6bd6fa	-0.23031226
43	0xbf2a2f2f	-0.66478246
44	0xbf3f9049	-0.74829537
45	0x3e2cd403	0.16877751
46	0xbd1645a5	-0.036687512
47	0xbf859382	-1.0435641
48	0x3f5dbaf8	0.86613417
49	0xbe695bcf	-0.22788928
50	0x3d89b52f	0.06724011
51	0xbe5ff1c3	-0.21869569
52	0x3f8dbd2a	1.1073353
53	0xbf2066fd	-0.6265715
54	0x3ed48875	0.41510358
55	0xbe847132	-0.2586761
56	0xbe9a8c91	-0.3018537
57	0xbec0d403	-0.37661752
58	0x3f03ef16	0.5153669
59	0x3da4b7d6	0.080428764
60	0xbe9d423c	-0.30714595
61	0x3e5fb97c	0.218481
62	0xbfa4afda	-1.2866166
63	0x3f1cd4e7	0.61262363
64	0x3ef8de39	0.48607042
65	0x3ed9a534	0.42508852
66	0x3e083091	0.13299777
67	0xbe484c42	-0.1956034
68	0x3f3c76bf	0.7361869
69	0x3f4ca224	0.79934907
70	0xbf0ee122	-0.55812275
71	0x3edaaa6c	0.42708147
72	0x3e4fe4a4	0.20302063
73	0xbe606dee	-0.21916935
74	0xbe8cff1a	-0.27538377
75	0xbe50fc4c	-0.20408744
76	0xbec003b4	-0.37502825
77	0x3f17e202	0.59329236
78	0x3e1e647c	0.15468019
79	0xbee69ab9	-0.4503992
80	0xbf7712d3	-0.965131
81	0x3f75260b	0.95761174
82	0xbea34b82	-0.31893545
83	0xbf1bdeac	-0.60886645
84	0xbf57ade6	-0.8424972
85	0xbcadc500	-0.021212101
86	0x3d98881a	0.07447834
87	0xbeb2a633	-0.34892425
88	0xbf92c013	-1.1464866
89	0xbfa17087	-1.2612466
90	0xbd89a72c	-0.06721339
91	0xbec26a5e	-0.37971777
92	0xbe98e8e4	-0.2986518
93	0x3f4c151d	0.79719716
94	0xbeea1b7b	-0.4572409
95	0x3d06b853	0.03289063
96	0x3f001b4f	0.5004167
97	0x3e19bfbd	0.15014549
98	0xbdda7024	-0.106659204
99	0x3eeee50a	0.46659118
100	0xbd38538b	-0.045001548
101	0x3ee47358	0.4461925
102	0xbe301957	-0.17197166
103	0x3f0041b3	0.5010025
104	0x3f1488cb	0.5802123
105	0x3e883c17	0.26608345
106	0xbdea8919	-0.114519306
107	0x3f5a4291	0.8525782
108	0x3e989f5b	0.2980908
109	0xbe53e5a7	-0.20693074
110	0x3f406927	0.7516045
111	0x3f02701e	0.5095233
112	0x3f16a052	0.5883838
113	0x3fbb6940	1.4641495
114	0x3eb09162	0.34485918
115	0xbe69f917	-0.22848926
116	0x3fca74b0	1.581686
117	0x3f5198a6	0.8187355
118	0xbe5159a6	-0.20444354
119	0x3d385048	0.044998437
120	0x3cafd28b	0.0214627
121	0x3cf0a6ce	0.029376414
122	0x3e4c3809	0.1994325
123	0x3f290c9a	0.66034853
124	0xbe91ae1c	-0.28453147
125	0x3e50b9ff	0.20383452
126	0xbf20b2d0	-0.62772846
127	0x3f1220c9	0.57081276
128	0xbf989c66	-1.1922729
129	0xbf0b6130	-0.5444517
130	0xbe64595d	-0.22299714
131	0x3f7c0a97	0.9845366
132	0xbeaec5fe	-0.3413543
133	0x3db54f5d	0.08853028
134	0xbf95ed2b	-1.1713003
135	0x3de42291	0.111394055
136	0xbfa91ff2	-1.3212874
137	0xbf036e01	-0.5133973
138	0xc0059149	-2.0869925
139	0x3e8ad48b	0.27115282
140	0xbd1e8b7a	-0.038707234
141	0x3f5bd021	0.85864455
142	0x3fac6400	1.3468018
143	0x3e45925e	0.19294116
144	0xbf45ce80	-0.7726822
145	0x3e5ae186	0.21375093
146	0x3ea700dc	0.32617843
147	0x3d9eff78	0.077635705
148	0xbda7cefb	-0.08193775
149	0xbd1fb278	-0.03898856
150	0xbb8cf72d	-0.0043019266
151	0x3e9b1306	0.3028795
152	0x3f047aad	0.5174969
153	0xbe75ce10	-0.24004388
154	0x3eba7efa	0.36425
155	0x3ee36515	0.44413057
156	0xbf48d6c6	-0.7845272
157	0xbf1764b4	-0.59138036
158	0x3d6ff289	0.05858091
159	0x3da6a1f1	0.081363566
160	0xbe8b1f55	-0.27172342
161	0x3f71faba	0.94523203
162	0x3f513c61	0.81732756
163	0x3f003059	0.5007377
164	0xbe776d78	-0.24162853
165	0xbe5f8e84	-0.21831709
166	0xbef7d0c5	-0.48401466
167	0xbf9c7b77	-1.2225178
168	0xbeb60eb5	-0.35558096
169	0x3e159e7b	0.14611237
170	0xbe3850bb	-0.17999546
171	0x3d5dc3c4	0.054141775
172	0x3f227636	0.63461626
173	0x3e967c55	0.29391733
174	0xbf2c5034	-0.6730988
175	0x3f23591f	0.63807863
176	0xbd8a20eb	-0.0674456
177	0x3da895aa	0.08231671
178	0x3e717a7e	0.23581883
179	0xbf8d0e6b	-1.1020025
180	0xbfd42dca	-1.6576474
181	0x3f47b303	0.78007525
182	0xbebb134d	-0.36538163
183	0xbf6ee3df	-0.93316454
184	0xbebf1afb	-0.37325272
185	0xbeb0e06e	-0.34546226
186	0xbf30e5bd	-0.6910055
187	0x3ed342b6	0.41261834
188	0xbed8af07	-0.42321035
189	0x3d9144a4	0.0709317
190	0x3dbbcea6	0.091702744
191	0x3f2a9691	0.66635996
192	0x3ec9f1b9	0.39442232
193	0xbf211118	-0.6291671
194	0x3f0ed23a	0.5578953
195	0x3e0eba98	0.13938367
196	0x3d8a7eea	0.06762488
197	0xbea32a15	-0.31868044
198	0xbf1715ab	-0.5901744
199	0x3eec9c97	0.4621322
200	0x3e865488	0.26236367
201	0x3e45fd23	0.19334845
202	0x3d3b544a	0.04573468
203	0xbebaa6c6	-0.36455363
204	0x3f8027e2	1.0012171
205	0xbe1a8d75	-0.15093024
206	0xbea0f7b2	-0.31438977
207	0x3e1ebb9f	0.1550126
208	0x3f5c4982	0.86049664
209	0x3eb0289e	0.34405988
210	0xbe9337cf	-0.28753516
211	0xbecd8adc	-0.40145004
212	0x3e9ef2d4	0.31044638
213	0x3f3262e0	0.6968212
214	0xbdd159b2	-0.10222186
215	0xbf1f2c17	-0.6217665
216	0x3d820a21	0.06349588
217	0x3ed9318c	0.42420614
218	0xbcfc3cd5	-0.030790726
219	0xbeee5cb6	-0.46555108
220	0x3e69282d	0.22769232
221	0xbe57b971	-0.21066834
222	0x3f86c5d7	1.0529126
223	0x3eade2f7	0.33962223
224	0xbf231a9e	-0.6371249
225	0x3ea0aa24	0.31379807
226	0xbe78c743	-0.24294762
227	0x3fa7b714	1.3102746
228	0x3d82082f	0.06349217
229	0xbf0bc6c9	-0.546002
230	0xbe067c9f	-0.13133477
231	0x3f394ab8	0.72379637
232	0x3ee90a96	0.4551589
233	0xbe4cd63a	-0.20003596
234	0x3ddbd9d0	0.10734904
235	0x3f410b1b	0.7540757
236	0xbf168372	-0.5879432
237	0x3da6fc6b	0.08153614
238	0x3ebe8cb4	0.37216723
239	0xbdf04c6c	-0.11733326
240	0xbf514b47	-0.8175549
241	0x3ef1012c	0.47071207
242	0xbf9ef341	-1.2417985
243	0xbd2f456e	-0.042790823
244	0x3f47c9e5	0.7804244
245	0xbe9cf764	-0.30657494
246	0x3e8f44f7	0.27982304
247	0x3eaf27d8	0.34210086
248	0xbe0f32fa	-0.1398429
249	0xbe82ec16	-0.25570744
250	0x3e16788b	0.14694421
251	0x3ecb7487	0.3973734
252	0x3e347395	0.17622216
253	0xbec89a7c	-0.39180362
254	0x3ee03d52	0.43796784
255	0x3e588011	0.21142603

regularizer.filters.2.weight f4 [64, 8, 5, 5]
0	0xbec6f005	-0.38854995
1	0x3de11dd2	0.10992016
2	0xbd078420	-0.03308499
3	0xbd55440a	-0.05206684
4	0xbe3d63a2	-0.18495038
5	0x3e41f520	0.18941164
6	0xbec4d462	-0.38443285
7	0x3cbea05b	0.023269823
8	0x3e0f1621	0.13973285
9	0x3da51fff	0.080627434
10	0xbec425cd	-0.3831009
11	0x3e1a2b9d	0.150557
12	0x3feff764	1.8747373
13	0x3e0a1958	0.1348623
14	0x3d74ef63	0.05979861
15	0x3ed07581	0.40714648
16	0x3f15cee3	0.5851881
17	0x3d6970cc	0.056992337
18	0x3f36549e	0.71222866
19	0xbe18eb10	-0.14933419
20	0xbeca6894	-0.39532912
21	0x3939ecdd	0.00017731213
22	0xbf6fc2aa	-0.9365641
23	0xbe027918	-0.12741506
24	0x3deb3120	0.11483979
25	0x3cfca5a5	0.030840704
26	0xbe79daf9	-0.24399938
27	0xbf0b7484	-0.54474664
28	0x3e88c727	0.2671444
29	0x3e4cbe24	0.19994408
30	0xbd438d20	-0.04774201
31	0x3f0b6d81	0.54463965
32	0x3f983696	1.1891658
33	0x3f06d38c	0.52666545
34	0xbe40e141	-0.18835928
35	0x3f369673	0.7132332
36	0xbf89da03	-1.0769657
37	0xc03a8f78	-2.9150066
38	0xbfe9a70f	-1.8254107
39	0x3f232704	0.6373141
40	0xbf07ca0d	-0.5304268
41	0x3ea5dc30	0.32394552
42	0x3f3f0e03	0.74630755
43	0x3f50a3cc	0.81499934
44	0xbf39db42	-0.72600186
45	0x3e846463	0.2585784
46	0xbebc8a1c	-0.3682412
47	0x3e53a652	0.20668915
48	0xbf15fb20	-0.5858631
49	0x3e80c677	0.25151417
50	0x3ec86f07	0.39147207
51	0x3f0a2ea1	0.539774
52	0x3f0a40f7	0.5400538
53	0xbd6cb6d1	-0.057791535
54	0x3e4b4a0b	0.19852464
55	0x3e8cbb9d	0.27486888
56	0xbf088e78	-0.5334239
57	0xbf823304	-1.0171819
58	0x3e1f9574	0.15584356
59	0x3ded7d32	0.11596145
60	0xbeb1e1d7	-0.34742615
61	0x3f02cf2b	0.51097363
62	0x3fa5788e	1.2927415
63	0xbee0808a	-0.43848068
64	0x3f26d5ae	0.651698
65	0x3ecb2fa7	0.39684793
66	0xbf1852d4	-0.59501386
67	0x3f47787f	0.7791824
68	0x3f899d29	1.0751086
69	0xbf15a23f	-0.5845069
70	0xbedb7183	-0.4286004
71	0x3f01c871	0.50696474
72	0x3de63687	0.11240869
73	0x3e4f5b7a	0.2024974
74	0x3f089c6b	0.53363675
75	0x3e90ec60	0.2830534
76	0xbd91e958	-0.07124585
77	0x3d8d4101	0.06897164
78	0xbe512592	-0.20424488
79	0xbdc393b6	-0.09549658
80	0x3dadea17	0.08491915
81	0xbb65a140	-0.003503874
82	0xbf0695ae	-0.52572143
83	0x3f4e3b52	0.80559266
84	0xbe16f856	-0.1474317
85	0xbdfb6d85	-0.122767486
86	0x3e7fb125	0.24969919
87	0x3f1415cb	0.57845753
88	0xbf31da76	-0.6947397
89	0x3f045096	0.51685464
90	0xbe9d9a4a	-0.30781776
91	0xbfbec684	-1.4904332
92	0xbff7d6dd	-1.9362446
93	0xbe1d7719	-0.15377463
94	0xbef87c52	-0.4853235
95	0xbd9a05a4	-0.07520607
96	0x3f12a206	0.5727848
97	0x3e0662ed	0.13123675
98	0x3e427bee	0.18992588
99	0x3cc5874b	0.024112364
100	0x3de0fbaf	0.10985505
101	0xbe393a82	-0.18088725
102	0x3e108678	0.14113796
103	0xbd8a5e73	-0.06756296
104	0x3de0f5a6	0.10984354
105	0xbbdfb3eb	-0.006826868
106	0xbf02e558	-0.511312
107	0x3f191660	0.59799767
108	0xbbd07a0c	-0.0063622054
109	0x3d2a5192	0.041581698
110	0x3d2451ce	0.040117078
111	0x3f88f9a5	1.0701185
112	0xbfa594bc	-1.2936015
113	0x3e8fe967	0.2810776
114	0xbec40399	-0.38283995
115	0x3e5572c7	0.20844565
116	0xbf3e09d8	-0.7423377
117	0xbe8f6e4f	-0.28013846
118	0x3e063e77	0.13109766
119	0xbf31f724	-0.6951773
120	0xbd598cff	-0.05311298
121	0x3e0cbefe	0.13744733
122	0x3f662038	0.8989291
123	0xbeffd1ee	-0.4996485
124	0x3f16dd57	0.5893149
125	0x3ee86847	0.45392057
126	0x3ca111e4	0.019661851
127	0x3ba651ea	0.005075683
128	0x3eb61c4d	0.35568467
129	0xbe2d48d8	-0.16922319
130	0xbda22dbd	-0.0791888
131	0x3db05ab5	0.08611051
132	0x3edf0513	0.4355856
133	0xbe741ba4	-0.23838669
134	0x3de0fb9c	0.10985491
135	0x3e29f949	0.16599001
136	0xbe539ad8	-0.20664537
137	0xbf43ade6	-0.7643722
138	0xbf44ba4b	-0.7684676
139	0x3e867d13	0.262673
140	0x3dafa27d	0.08575914
141	0xbd8dbbee	-0.0692061
142	0x3ff8e417	1.9444607
143	0x3f6ceac4	0.92545724
144	0xbdbbede3	-0.09176233
145	0x3ddbfbb8	0.10741371
146	0x3ec7d3f0	0.39028883
147	0xbed32b54	-0.41243994
148	0xbf1ca34d	-0.6118668
149	0xbdc3c50a	-0.095590666
150	0xbcd37e68	-0.025817111
151	0xbe47ebf9	-0.1952361
152	0x3e0ac61a	0.13552132
153	0xbd61b147	-0.055100705
154	0xbe2200b8	-0.15820587
155	0x3e48fa9e	0.19626853
156	0x3e90eddb	0.2830647
157	0x3f6aa9bf	0.9166526
158	0xbe105a70	-0.14096999
159	0x3e302f5d	0.17205568
160	0x3dc8c81a	0.09803791
161	0xbf9750c9	-1.1821529
162	0xbfcfca10	-1.623354
163	0xbd50d71d	-0.050986398
164	0x3eb2faae	0.34956878
165	0xbe95fe28	-0.29295468
166	0xbcde8b29	-0.027165966
167	0xc0004229	-2.004038
168	0xbecd6781	-0.4011803
169	0xbeb0fda1	-0.34568503
170	0x3dfc4ddd	0.12319539
171	0x3de34d43	0.11098721
172	0x3ee91a9c	0.45528114
173	0x3f3827fe	0.71936023
174	0xbb086133	-0.0020809888
175	0xbe81ad70	-0.25327635
176	0x3f0c1c97	0.54731125
177	0xbe7d64c0	-0.24745464
178	0x3eca231b	0.39479908
179	0xbda9b9a7	-0.082873635
180	0xbeb10688	-0.34575295
181	0x3e2f7710	0.17135262
182	0x3ede6845	0.43438926
183	0xbeaca958	-0.3372295
184	0x3d73e4c4	0.05954434
185	0xbe72d2ee	-0.23713276
186	0x3e800b33	0.25008544
187	0x3f9e3797	1.2360715
188	0x3f4a3c53	0.789983
189	0xbe305bad	-0.17222472
190	0xbe93bdfa	-0.28855878
191	0xbfa52545	-1.2901999
192	0xbfedcda4	-1.8578382
193	0x3ea43c55	0.3207728
194	0x3e4a07eb	0.19729583
195	0x3df0a27c	0.117497414
196	0x3d289cb9	0.041165087
197	0xbe9074ac	-0.28214014
198	0xbe0a3326	-0.13496074
199	0xbd6e0953	-0.05811436
200	0x3e07f1b3	0.13275795
201	0x3da4b9d0	0.080432534
202	0x3e9f5525	0.31119648
203	0x3e9c117a	0.30482084
204	0xbe796368	-0.24354327
205	0x3ed795b6	0.42106408
206	0xbf8d42e2	-1.1036036
207	0xbef40811	-0.47662404
208	0x3e40ae81	0.18816568
209	0x3e5db8c3	0.21652512
210	0x3f08d65e	0.534521
211	0xc02e794c	-2.7261534
212	0xbf89d5e4	-1.0768399
213	0x3fbb0eaa	1.461385
214	0x3e717dfb	0.23583214
215	0x3bfe22dc	0.0077556204
216	0xbf7eb8c3	-0.99500674
217	0x3c04344e	0.008069111
218	0x3ed1480c	0.4087528
219	0x3de9052e	0.11377941
220	0x3ef94265	0.48683468
221	0x3e8fa03e	0.28051943
222	0x3e1753f2	0.14778116
223	0xbe88efbb	-0.267454
224	0x3eb15681	0.3463631
225	0x3eba22e1	0.36354735
226	0x3eb57275	0.35438886
227	0xbeb38c71	-0.35068086
228	0xbe46d244	-0.19416147
229	0x3e1f45d3	0.1555398
230	0x3d928fd8	0.07156342
231	0xbf6af9ff	-0.91787714
232	0xbeb9fd68	-0.36326146
233	0x3f4f014b	0.8086135
234	0x3dcfbc54	0.101433426
235	0x3f625846	0.88415945
236	0xbe0a9b12	-0.13535717
237	0xbfe8f642	-1.8200152
238	0xbedce0f6	-0.43140382
239	0xbeb84685	-0.35991302
240	0x3e800971	0.25007203
241	0xbf6a85ce	-0.9161042
242	0xbfa9408b	-1.3222822
243	0x3ef1325a	0.47108728
244	0x3e4b1de9	0.19835629
245	0xbe1908ba	-0.14944735
246	0xbee9681c	-0.45587242
247	0x3e3515e1	0.17684127
248	0xbe6a8449	-0.22902025
249	0xbe03b938	-0.12863624
250	0x3ebc5134	0.36780703
251	0xbf0f546c	-0.5598819
252	0x3de6ef07	0.112760596
253	0xbecb138a	-0.39663345
254	0x3e90e790	0.28301668
255	0x3cffc64b	0.031222483
