weights/bilevel_CT/CRR_bilevel_JFB_for_CT.pt (torch, 58601 bytes, 4 tensors)

regularizer.scaling f4 [1, 64, 1, 1]
4.092034 6.4529347 2.5070033 4.202316 4.0561075 4.1521425 4.040988 4.0499296
4.276251 4.283544 3.8853245 3.995606 4.339744 4.0975385 4.196054 4.0712395
4.3176074 4.3081307 4.748358 4.1014757 4.384189 4.2377896 3.9623713 4.1320243
4.139239 4.27376 4.0986824 4.3003707 4.401346 4.1195917 2.7292976 4.257592
4.2136836 4.1679845 4.2721853 4.2091794 4.350936 4.130285 4.056172 4.125724
4.186452 4.155044 4.160623 4.2408013 4.0609794 4.0347295 4.098527 4.2014165
4.2197723 4.4160085 4.0204678 4.0771894 4.1573887 4.114858 3.9825823 4.4535017
4.2261934 4.0167794 4.1727715 3.175334 4.152747 4.12461 4.2375207 3.9341455
00000000: f1f1 8240 717e ce40 be72 2040 5f79 8640
00000010: a2cb 8140 5ade 8440 c64f 8140 0699 8140
00000020: 0cd7 8840 cb12 8940 28a9 7840 02b8 7f40
00000030: 2fdf 8a40 091f 8340 1346 8640 9847 8240
00000040: d729 8a40 35dc 8940 8cf2 9740 4a3f 8340
00000050: 474b 8c40 f99b 8740 7e97 7d40 8b39 8440
00000060: a574 8440 a4c2 8840 6828 8340 a39c 8940
00000070: d4d7 8c40 b2d3 8340 d0ac 2e40 323e 8840
00000080: 7fd6 8640 2160 8540 beb5 8840 99b1 8640
00000090: de3a 8b40 4b2b 8440 29cc 8140 ee05 8440
000000a0: 6af7 8540 1ff6 8440 d323 8540 a5b4 8740
000000b0: 8bf3 8140 811c 8140 2227 8340 0172 8640
000000c0: 6008 8740 f14f 8d40 aca7 8040 5678 8240
000000d0: 5409 8540 ebac 8340 a1e2 7e40 1683 8e40
000000e0: fa3c 8740 7589 8040 5887 8540 ac38 4b40
000000f0: 4ee3 8440 cefc 8340 c599 8740 0ac9 7b40

regularizer.filters.0.parametrizations.weight.original f4 [4, 1, 5, 5]
-0.096229866 -0.0065069837 -0.50641274 0.48465636 -0.66495484 -0.07568066 0.24917863 -0.034841046
-0.2968705 0.7440617 0.4782374 0.42390913 -0.14602953 -0.112436086 -0.5334672 0.14066984
-0.09027456 -0.46725646 -0.17313038 0.72195023 0.2848814 -0.007173555 -0.048820127 -0.3795826
0.5424554 -0.28660545 0.5252812 -0.46102017 0.21625267 -0.09812051 -0.68181574 0.7410842
0.27698702 0.25540024 0.52671516 0.029986998 -0.13900593 0.3335065 0.092577964 -0.26472536
0.46387017 0.6154463 -0.4818294 -0.21530198 -0.30288684 0.27711487 -0.099180914 -0.53563863
0.7737854 -0.61535025 -0.2534433 0.22108787 0.016407533 0.3599954 -0.18793607 2.4691598
-0.53800637 -0.51612145 0.32000503 -0.14104939 -0.4422701 -0.49142385 0.6731349 0.024140842
-0.24790458 0.120662525 0.020103563 0.055516418 -0.37420136 -0.26161653 -0.12387292 0.031725384
0.076312385 0.075173385 -0.10159522 0.19127886 -0.65531194 0.30048856 0.029408414 -0.1136302
-0.15127586 -0.5301041 0.7448675 0.39941677 -0.5612711 0.30402863 0.016614528 0.7454166
0.95632774 0.315227 0.14527352 -1.1816273 -0.01621092 -1.2491951 0.26473564 -0.0044185384
-0.6234583 0.29768384 -0.38231587 -0.14218216
00000000: 2a14 c5bd 8938 d5bb 44a4 01bf e124 f83e
00000010: 7b3a 2abf 76fe 9abd af28 7f3e 7cb5 0ebd
00000020: 69ff 97be d47a 3e3f 88db f43e 9e0a d93e
00000030: c488 15be e444 e6bd 4e91 08bf c10b 103e
00000040: dee1 b8bd 3d3c efbe 1749 31be bbd1 383f
00000050: fadb 913e 2410 ebbb 9df7 47bd a758 c2be
00000060: 5bde 0a3f f3bd 92be d478 063f d60a ecbe
00000070: 5771 5d3e 68f3 c8bd 7a8b 2ebf b2b7 3d3f
00000080: 3ed1 8d3e d2c3 823e ced6 063f 4ba7 f53c
00000090: 9257 0ebe 5dc1 aa3e 8499 bd3d 158a 87be
000000a0: 6480 ed3e e48d 1d3f 58b2 f6be 1f78 5cbe
000000b0: fc13 9bbe 00e2 8d3e 5d1f cbbd 9d1f 09bf
000000c0: cd16 463f 9887 1dbf 52c3 81be dc64 623e
000000d0: 1769 863c 5151 b83e 5072 40be b706 1e40
000000e0: c9ba 09bf 8920 04bf b3d7 a33e 406f 10be
000000f0: 3a71 e2be e89b fbbe 9252 2c3f 04c3 c53c
00000100: b3da 7dbe ea1d f73d 3ab0 a43c 2f65 633d
00000110: 5297 bfbe 9af2 85be 16b1 fdbd 7af2 013d
00000120: ab49 9c3d 81f4 993d 2811 d0bd 9bde 433e
00000130: 86c2 27bf a3d9 993e eae9 f03c f3b6 e8bd
00000140: 0fe8 1abe e7b4 07bf a3af 3e3f 5b80 cc3e
00000150: 76af 0fbf a4a9 9b3e 311b 883c 9fd3 3e3f
00000160: e5d1 743f 6f65 a13e 95c2 143e 903f 97bf
00000170: c3cc 84bc a0e5 9fbf 6e8b 873e 63c9 90bb
00000180: f79a 1fbf 046a 983e e8be c3be 3398 11be

regularizer.filters.1.weight f4 [8, 4, 5, 5]
0.97616494 -0.47060347 0.28639057 -0.5408417 0.4100813 -0.47606993 -0.64480066 0.2278776
-0.03445809 -0.3717004 0.039289866 0.34141314 0.9193041 -0.18864214 0.15879788 -0.8688259
-0.3771441 0.146875 -0.2737501 0.04910584 0.25277296 0.37809396 -0.6468021 0.26022786
-0.031287592 -0.5734701 -0.37161848 0.43229508 -0.61329824 -0.6990074 -0.0035119615 -0.29528543
-0.530391 0.20129693 0.73401636 1.0255512 -0.16679552 -0.33491138 0.27426016 0.36084095
-0.027313007 -0.39709565 0.2191099 -0.079649016 0.5925938 -0.040447913 0.87817186 -0.010423833
-0.16582094 0.11211668 0.16172573 -0.29973137 -0.21500589 0.20529835 0.33226746 -0.20957854
1.241949 -0.017704587 0.21874073 0.1621563 -0.9318076 0.91531926 -0.34668714 -0.012596779
-0.8142083 -0.45317414 0.29348055 -0.7968086 -0.6129902 -0.43693915 0.18247758 0.70612144
0.5643569 -0.13236225 -0.604642 0.40857056 -0.9124079 0.010143795 0.27309617 -0.48071
-0.15364638 0.005240323 -0.29643977 0.581587 -0.18073593 -0.019732106 0.0049502747 0.27313286
-0.5277423 0.327577 0.2546277 0.4137116 -0.7895605 0.35602722 0.19819061 0.0040822313
-0.6254962 0.50582725 -0.61103696 0.22612603 1.519724 -0.74271315 -0.027089065 0.029407129
-0.39215323 0.48671356 0.65158564 -0.90440935 0.29911137 0.29643872 0.20011847 0.7861817
-0.5974631 -0.54988265 -1.0700532 0.5406353 -0.7026545 -0.21575199 -0.5480342 0.717499
-0.021663971 0.31132182 -0.2539777 0.20452525 0.07321928 -0.50478774 0.2713803 -0.19329756
-0.229498 0.40709212 -0.41959327 -1.1521119 0.20278974 0.52304924 -0.03512744 -0.42264912
0.4652077 -0.6316665 0.4590601 0.7056083 -0.15727714 0.1835492 -1.290766 -0.13458106
0.19415477 0.050884657 -1.0180916 -0.3307649 0.1775682 0.30896318 -0.3031123 0.14452334
0.50373787 -0.5200419 0.4633468 -0.5460123 -0.26273462 0.50802857 0.3540186 0.34879193
-0.2818991 -0.12196129 -0.6235795 0.35759574 -0.017658794 -0.731913 -0.38909256 0.09647556
-0.6186437 -1.3165216 0.0772595 -0.38407853 0.2495055 -0.10710415 0.35402712 -0.32742244
0.44211295 0.12805617 0.7754898 -0.14721775 -0.1211056 -0.98299164 -0.089801535 0.88307816
-0.0092380075 0.188125 0.17306617 -1.0033957 0.21066669 0.62952155 -0.46653578 -0.07099061
0.67218757 0.635137 0.10644284 0.098755665 0.37736985 -0.8673984 0.72663313 -0.082847334
0.5298521 -0.38062674 -0.05803731 0.25859252 -0.60793626 -1.1196486 0.14432399 -1.0199034
0.3067933 0.5696818 -0.2881872 0.4218755 0.5517178 -0.18719773 -0.2957696 -0.4334811
1.5068871 -0.16583945 -0.08727359 0.48374596 0.62417966 -0.9445737 0.4372706 0.17201765
-0.23342729 0.2807623 0.038384747 0.09755912 0.36582705 0.4123244 0.66336364 -0.08566164
-0.7834258 0.35131973 -0.36642626 0.47213498 -0.5635259 0.85312676 -0.1918884 0.070819564
0.060688213 1.016959 -0.43479186 0.47726312 0.28322813 0.23364508 -0.20020093 -0.13850963
0.5043798 -0.4211698 0.29048702 -0.40597895 -0.3213997 -0.16510923 -0.59275216 0.06542235
00000000: f2e5 793f f0f2 f0be c9a1 923e 9a74 0abf
00000010: 2df6 d13e 70bf f3be a811 25bf bf58 693e
00000020: ed23 0dbd 844f bebe 69ee 203d b4cd ae3e
00000030: 8357 6b3f 682b 41be e99b 223e 606b 5ebf
00000040: 0819 c1be 6666 163e f928 8cbe 3523 493d
00000050: 756b 813e 8895 c13e d394 25bf 963c 853e
00000060: 6b27 00bd f0ce 12bf c744 bebe c855 dd3e
00000070: 1d01 1dbf 26f2 32bf f028 66bb a72f 97be
00000080: b4c7 07bf c820 4e3e 7fe8 3b3f 4345 833f
00000090: 72cc 2abe 8179 abbe d46b 8c3e 25c0 b83e
000000a0: 87bf dfbc 1f50 cbbe 585e 603e 061f a3bd
000000b0: 3ab4 173f b6ac 25bd dfcf 603f b9c8 2abc
000000c0: f7cc 29be 6e9d e53d 6e9b 253e 6476 99be
000000d0: 812a 5cbe bb39 523e f61e aa3e c29b 56be
000000e0: 2ff8 9e3f 3609 91bc 92fd 5f3e 4d0c 263e
000000f0: f18a 6ebf 5d52 6a3f fa80 b1be b862 4ebc
00000100: f56f 50bf 7106 e8be 1543 963e a6fb 4bbf
00000110: edec 1cbf 7db6 dfbe 67db 3a3e 60c4 343f
00000120: b279 103f f889 07be d1c9 1abf 2930 d13e
00000130: 9093 69bf 2932 263c 43d3 8b3e 9f1f f6be
00000140: 7a55 1dbe 04b7 ab3b f4c6 97be e3e2 143f
00000150: d712 39be 3aa5 a1bc ea35 a23b 12d8 8b3e
00000160: 1f1a 07bf 2cb8 a73e 905e 823e 02d2 d33e
00000170: a320 4abf 3349 b63e 7bf2 4a3e 3dc4 853b
00000180: 8520 20bf e57d 013f eb6c 1cbf 958d 673e
00000190: 5186 c23f 7322 3ebf e3e9 ddbc 38e7 f03c
000001a0: 4fc8 c8be 8532 f93e 51ce 263f 5f87 67bf
000001b0: 2025 993e d1c6 973e dbeb 4c3e 3443 493f
000001c0: 57f3 18bf 1cc5 0cbf 81f7 88bf 1367 0a3f
000001d0: 2ae1 33bf 17ee 5cbe f84b 0cbf 04ae 373f
000001e0: a478 b1bc 9365 9f3e 5d09 82be 116f 513e
000001f0: fdf3 953d c539 01bf 5cf2 8a3e ccef 45be
00000200: 8601 6bbe 616e d03e eed4 d6be 6778 93bf
00000210: 1da8 4f3e 8ee6 053f cae1 0fbd 7765 d8be
00000220: b42f ee3e e5b4 21bf ed09 eb3e bfa2 343f
00000230: 420d 21be 52f4 3b3e d237 a5bf 9ecf 09be
00000240: 82d0 463e 6e6c 503d d350 82bf 045a a9be
00000250: 70d4 353e 6c30 9e3e 8931 9bbe edfd 133e
00000260: f7f4 003f 7721 05bf cb3b ed3e 76c7 0bbf
00000270: 2785 86be 290e 023f ed41 b53e db94 b23e
00000280: 1455 90be d7c6 f9bd e8a2 1fbf ca16 b73e
00000290: 2da9 90bc a65e 3bbf 2437 c7be fa94 c53d
000002a0: 6f5f 1ebf c883 a8bf 3b3a 9e3d f1a5 c4be
000002b0: 5f7e 7f3e 6c59 dbbd 0b43 b53e eaa3 a7be
000002c0: a15c e23e 2821 033e 8086 463f 40c0 16be
000002d0: 3606 f8bd 57a5 7bbf dee9 b7bd 6911 623f
000002e0: 035b 17bc d7a3 403e 4238 313e 456f 80bf
000002f0: 02b9 573e 5328 213f c7dd eebe 8663 91bd
00000300: 7c14 2c3f 5798 223f b4fe d93d 6940 ca3d
00000310: 9f36 c13e d20d 5ebf a104 3a3f ddab a9bd
00000320: 63a4 073f 82e1 c2be 88b8 6dbd 3d66 843e
00000330: b6a1 1bbf a550 8fbf abc9 133e 328c 82bf
00000340: 0314 9d3e abd6 113f 468d 93be 1100 d83e
00000350: 613d 0d3f c3b0 3fbe 1d6f 97be 3cf1 ddbe
00000360: ade1 c03f d1d1 29be 7fbc b2bd 8dad f73e
00000370: 3dca 1f3f 95cf 71bf efe1 df3e 6525 303e
00000380: 9007 6fbe 14c0 8f3e 5339 1d3d 13cd c73d
00000390: af4d bb3e 2f1c d33e 33d2 293f 5f6f afbd
000003a0: 988e 48bf 2ee0 b33e 399c bbbe adbb f13e
000003b0: 3c43 10bf 8466 5a3f 657e 44be d909 913d
000003c0: 3494 783d b62b 823f 0a9d debe d55b f43e
000003d0: 4703 913e a840 6f3e 7901 4dbe 78d5 0dbe
000003e0: 091f 013f 91a3 d7be b7ba 943e 79dc cfbe
000003f0: 808e a4be 6512 29be 9bbe 17bf 27fc 853d

regularizer.filters.2.weight f4 [64, 8, 5, 5]
0.4422945 0.42206976 0.58915704 0.22296387 -0.82829225 -0.9032362 -0.48304182 -0.7647184
0.30387214 0.5734518 -0.24644996 -0.12660353 -0.06029171 0.22391169 0.9347092 0.87892336
0.016543433 -0.41165358 -1.4319228 -0.5714025 -0.28268132 0.0125459405 0.8873585 0.5848409
-0.27718958 -0.1592327 -0.30526736 -0.30221394 0.019612186 0.047081005 0.37367007 0.6586661
-0.19519539 -0.5578277 0.25509635 -0.28762597 0.6483098 0.86228454 0.44667155 0.29455218
-0.1535123 -0.43762243 -0.08860949 0.90924287 0.25728637 0.43281302 -0.17546733 -0.57259935
-0.95975065 -0.5380204 0.37197763 0.60847634 -0.26827222 0.45739916 -0.32639736 -0.065564126
-0.32421234 -0.119251624 0.9665895 0.8674402 -0.102800556 0.06727106 0.6167178 -1.1091901
0.12225486 -0.68486357 -0.3409839 0.2890745 -0.18422669 -0.3947719 0.763393 -0.024034088
-0.38055694 -0.33642173 -0.4747922 -0.7797591 -0.95062447 -0.81246865 -1.0373733 0.12222304
0.39783293 0.3658085 0.17686085 0.13956706 -0.31013274 0.28929275 0.40961647 0.17615305
0.5180251 -0.59985125 -0.24734955 0.4354517 -0.122584276 -0.07345944 0.2088767 -0.022268029
-0.33129707 -0.07731883 -0.025155693 0.6189618 -0.27700886 -0.15419334 -0.0054658283 0.09309182
-0.061374433 0.61054736 -0.081485696 -0.27250096 -0.46188116 0.107184075 0.27787971 1.3239845
0.6333009 -0.42066783 -0.5569507 -0.4049861 -0.08020966 0.7474008 0.9637176 0.1746784
-0.0101837125 -0.7453002 -0.67484 0.054616388 0.36704308 0.12523188 0.32817093 0.09816387
0.11078373 -0.012872143 0.055286974 -0.3033507 -0.12674633 -0.3005248 -0.012430343 -0.27175942
0.115598485 0.0948687 0.26073295 0.011995186 -0.03721382 0.3418127 0.1105937 0.3066287
0.01012652 0.028557986 -0.5605855 -0.23653273 -0.38962382 0.12451171 -0.1358117 0.5834016
0.4806553 -0.57807475 -0.3575258 -0.12501423 -0.34051737 0.14058669 0.4721615 -0.25345024
-0.015760193 -0.57637733 -0.74104244 0.6042511 0.5122523 0.53517705 0.12867345 -0.007035419
-1.129048 -0.08091768 -0.22215387 0.51523864 0.21352017 0.29386428 -0.07317807 0.018718978
-0.21310396 -0.23297586 0.43422267 0.3982218 0.67160314 0.8267893 -0.09811661 -0.99197316
-0.71486306 -0.729437 0.36341813 1.2514434 1.1188991 -0.03741522 -0.24698292 -0.9113733
-1.0222554 -0.16370283 0.5035173 0.29995286 0.6299855 0.15333582 -0.42605543 -0.41989025
0.13756655 -0.3561099 0.5250247 -0.1785666 -0.0647516 -0.34509552 -0.29869157 0.37532866
0.050790504 0.18786253 -0.14584629 -0.1379656 -0.0823065 0.07696401 1.0856162 0.25013083
-0.49712515 0.13153349 0.43004453 -0.42511097 0.57567894 -0.29404506 -0.2622788 0.872871
-0.11769748 -0.15336356 0.57325447 0.68096715 1.1588025 -0.7290312 0.2024308 -0.10599785
0.6114957 0.19719362 -0.5043054 -0.26908877 0.3881284 0.50105715 0.08934883 0.1484669
-1.1723604 0.92741483 0.23405719 -0.018240683 0.017719405 -0.96779466 0.5571154 0.61497885
-0.0833328 -0.37861314 0.6246246 0.15373802 -0.22114436 -0.14815702 -0.41973037 -0.4806396
00000000: 6d74 e23e 8719 d83e ffd2 163f a450 643e
00000010: f60a 54bf 7d3a 67bf 4251 f7be 96c4 43bf
00000020: 2195 9b3e bdcd 123f 615d 7cbe 5ba4 01be
00000030: 71f4 76bd 1b49 653e 1a49 6f3f 1f01 613f
00000040: 1886 873c 42c4 d2be 3f49 b7bf 6f47 12bf
00000050: 9bbb 90be 7d8d 4d3c ed29 633f 22b8 153f
00000060: cbeb 8dbe e60d 23be 014c 9cbe c9bb 9abe
00000070: bca9 a03c 03d8 403d af51 bf3e 579e 283f
00000080: 4de1 47be cccd 0ebf fd9b 823e b643 93be
00000090: a2f7 253f aebe 5c3f 22b2 e43e 8bcf 963e
000000a0: 5432 1dbe 0c10 e0be e478 b5bd 24c4 683f
000000b0: 0abb 833e ab99 dd3e b5ad 33be df95 12bf
000000c0: 38b2 75bf b4bb 09bf da73 be3e 1bc5 1b3f
000000d0: fa5a 89be 3930 ea3e 8e1d a7be 7c46 86bd
000000e0: 29ff a5be 323a f4bd 6972 773f 9010 5e3f
000000f0: 1989 d2bd 69c5 893d 38e1 1d3f f1f9 8dbf
00000100: c260 fa3d 3853 2fbf 7195 aebe 9301 943e
00000110: eca5 3cbe 8b1f cabe b96d 433f 23e3 c4bc
00000120: 5cd8 c2be 783f acbe f717 f3be 4b9e 47bf
00000130: 205c 73bf f2fd 4fbf a6c8 84bf 1350 fa3d
00000140: c2b0 cb3e 404b bb3e 031b 353e abea 0e3e
00000150: b8c9 9ebe 2e1e 943e 40b9 d13e 7761 343e
00000160: 4b9d 043f da8f 19bf 3349 7dbe 86f3 de3e
00000170: 770d fbbd e771 96bd c6e3 553e 716b b6bc
00000180: c59f a9be 5659 9ebd 5013 cebc 4874 1e3f
00000190: 1bd4 8dbe dce4 1dbe b11a b3bb eda6 be3d
000001a0: c263 7bbd d54c 1c3f f9e1 a6bd 3f85 8bbe
000001b0: b07b ecbe 5383 db3d 4046 8e3e 5378 a93f
000001c0: 0220 223f c661 d7be 5294 0ebf 575a cfbe
000001d0: f644 a4bd a955 3f3f 32b6 763f e5de 323e
000001e0: 96d9 26bc fecb 3ebf 50c2 2cbf 6fb5 5f3d
000001f0: 12ed bb3e c93c 003e 0506 a83e 240a c93d
00000200: 95e2 e23d aee5 52bc 9874 623d c850 9bbe
00000210: cac9 01be 63de 99be a3a8 4bbc 0d24 8bbe
00000220: e6be ec3d 854a c23d ca7e 853e 7587 443c
00000230: 856d 18bd 1302 af3e f37e e23d 70fe 9c3e
00000240: b4e9 253c 70f2 e93c 8882 0fbf a335 72be
00000250: c67c c7be ffff fe3d 3912 0bbe cf59 153f
00000260: 7418 f63e b5fc 13bf 9f0d b7be bb03 00be
00000270: 4b58 aebe f5f5 0f3e 27bf f13e 3bc4 81be
00000280: 851b 81bc 778d 13bf f5b4 3dbf 33b0 1a3f
00000290: f722 033f 5d01 093f f9c2 033e 5f89 e6bb
000002a0: a584 90bf 2bb8 a5bd 4e7c 63be aee6 033f
000002b0: 08a5 5a3e 6175 963e 62de 95bd 8b58 993c
000002c0: ed37 5abe 3991 6ebe 6f52 de3e bae3 cb3e
000002d0: 2fee 2b3f 77a8 533f 5cf1 c8bd f4f1 7dbf
000002e0: 4401 37bf 62bc 3abf f111 ba3e 4c2f a03f
000002f0: 1638 8f3f b440 19bd 17e9 7cbe c34f 69bf
00000300: 44d9 82bf b7a1 27be 83e6 003f 6c93 993e
00000310: bb46 213f 1104 1d3e f023 dabe dbfb d6be
00000320: 3fde 0c3e 0954 b6be 0568 063f 2ada 36be
00000330: 7d9c 84bd 5cb0 b0be 1aee 98be 142b c03e
00000340: b409 503d 095f 403e bb58 15be db46 0dbe
00000350: 4f90 a8bd 4f9f 9d3d 79f5 8a3f 2611 803e
00000360: 3087 febe b7b0 063e cc2e dc3e 25a8 d9be
00000370: b25f 133f 138d 96be 6849 86be 7974 5f3f
00000380: 600b f1bd 560b 1dbe cec0 123f dd53 2e3f
00000390: a453 943f caa1 3abf 054a 4f3e 6715 d9bd
000003a0: fb8a 1c3f 20ed 493e 291a 01bf 01c6 89be
000003b0: c4b8 c63e 4845 003f 85fc b63d b507 183e
000003c0: e80f 96bf 0f6b 6d3f b0ac 6f3e 7c6d 95bc
000003d0: 4928 913c 64c1 77bf 1d9f 0e3f 416f 1d3f
000003e0: 63aa aabd 95d9 c1be 66e7 1f3f 806d 1d3e
000003f0: ab73 62be 79b6 17be e6e6 d6be 6516 f6be
