weights/bilevel_CT/IDCNN_bilevel_JFB_for_CT.pt (torch, 217950 bytes, 10 tensors)

regularizer.icnn1.scaling f4 [1, 32, 1, 1]
00000000: 16ad ddc0 dc25 ddc0 0cad ddc0 06ad ddc0
00000010: cfa5 ddc0 ffac ddc0 16ad ddc0 0dad ddc0
00000020: 085b ddc0 0aad ddc0 0aa7 ddc0 0bad ddc0
00000030: 15ad ddc0 08ad ddc0 3aa5 ddc0 6f3a ddc0
00000040: f7ac ddc0 9f60 ddc0 0ea5 ddc0 20ad ddc0
00000050: 0bad ddc0 16ad ddc0 550c ddc0 23ad ddc0
00000060: 6bde dcc0 0bad ddc0 550c ddc0 11ad ddc0
00000070: 2a5b ddc0 2067 ddc0 2e05 ddc0 fdac ddc0
-6.9273787 -6.9108715 -6.927374 -6.927371 -6.9264903 -6.9273677 -6.9273787 -6.9273744
-6.917362 -6.927373 -6.9266405 -6.9273734 -6.927378 -6.927372 -6.9264193 -6.913383
-6.927364 -6.9180446 -6.9263983 -6.9273834 -6.9273734 -6.9273787 -6.9077554 -6.927385
-6.9021506 -6.9273734 -6.9077554 -6.9273763 -6.9173784 -6.9188385 -6.9068823 -6.9273667

regularizer.icnn1.wx.bias f4 [32]
00000000: 6400 b03d 10ab 1c3c 1056 153c e3aa 54be
00000010: 2ab1 ed3e 01c1 c43e fa1c 14be 31a7 053c
00000020: 0846 f83b e1d3 173c ee1a 933e 4b9e bb3e
00000030: 84b2 26be d73c 823d 5314 d3bd c6c7 4abe
00000040: b59a c93e 418b f03d 50c2 e7bd dc81 3a3d
00000050: 1610 b8bd 2ffe 3dbd bc3f 0e3e b3f5 ddbd
00000060: cb17 283c 1d02 c83e 26ff c2bc 548e 203e
00000070: c898 953e a5fe 3e3d c464 ab3e bfff eabd
0.085938245 0.009562269 0.009114757 -0.20768313 0.46424228 0.384285 -0.14464179 0.008157537
0.0075767078 0.009266824 0.28731483 0.36644205 -0.16279036 0.063592605 -0.10306611 -0.1980277
0.39375845 0.117453106 -0.11316359 0.045534 -0.08987443 -0.046384986 0.138915 -0.10837879
0.010259579 0.39064112 -0.023803305 0.15679294 0.29218125 0.046629567 0.33475316 -0.11474561

regularizer.icnn1.wx.parametrizations.weight.original f4 [32, 1, 5, 5]
00000000: 3a3d 5c3d 1a96 70bd 9aec 9ebd 834f b8bd
00000010: b4af b1bd 8931 953d fcb3 bdbc c194 cb3d
00000020: a045 3f3d 3cde 9c3d 07e4 22be 5625 933e
00000030: c1e6 b7be ea75 5fbe fac2 743c 9754 6c3d
00000040: 8230 353c d85f 103e 10d4 b53d dc91 183e
00000050: a381 3bbd 980e cdba fee9 453d 74be 583d
00000060: 1919 103b ca69 ec3b 21f5 80bd da5f f3bd
00000070: 5ddd 8fba 2d2d bf3c 2ab8 2d3d 288d 023e
00000080: dbec 953e 262e 1c3e 682f 023d 29b0 1bbd
00000090: 94ba f83b e94c dbbd 386d eebd 8c29 86bd
000000a0: d67e ae3d 5ef7 97bc 6f4d c6bd 15fe 09bd
000000b0: bed6 723d 6e4f c6bc 9125 edbb b99b b03d
000000c0: 72bb 953d ecd9 bb37 e355 3bbc 44a7 933d
000000d0: b754 2b3e 39f7 3fbe ad7c fd3a 8987 11be
000000e0: 5da2 55bb 78d2 383e e4b6 0abd 6dc2 be3c
000000f0: e7bd 5c3d 1f07 16be 73e7 a9bd 27ff 373e
00000100: 071e 143d bb7b f23d 188f 73bd 34b6 24be
00000110: eb40 8f3d be17 2cbd 6eda 663c bf16 343c
00000120: 7547 cd3c 0208 52bc ddaa e7bb 3d55 1ebd
00000130: 72fa f33c c42e cdbd 834b c2bd 8159 813b
00000140: 3266 6339 db95 e33c d717 613a d623 cf3d
00000150: afcb f3bd e6b4 19be 31ee b4bd 224e c8bd
00000160: 0ea4 8e3d 11db f63b 77f7 493d 1c0d 1f3e
00000170: 6fd4 28be 4c46 89bd 2a96 53bd ccdb efbd
00000180: 5b6e 5d3d d3b0 b6bc d914 b0bd 233d 423c
00000190: df3e ac3c b054 ee3d a91b 133e 6b10 97bd
000001a0: 8674 c23d 22a2 10be fcf9 133d 6788 2bbe
000001b0: 798d adbd 31ca e13c 3cf0 023c 513e 833d
000001c0: fcac 943d 8bd7 e8bc 2d9a e13d a9fd ccbd
000001d0: 2f39 2abe 82c7 4ebd 2d44 d8bc 247f ecbc
000001e0: 0f6d 083e 7334 0cbd 4c23 48be 9911 103e
000001f0: afb8 10be e6b1 ea3d 3364 773d aecb 723c
00000200: 6735 ee3b b424 013e 7138 913d 3247 3c3d
00000210: 3e1f 503c ec01 9cbd 812f e9bd bf09 02be
00000220: 5afc 743d 6ca1 3f3b 5e64 ec3d 98c2 103e
00000230: 085c 2b3d 29fa de3d d576 983d bceb 543b
00000240: f636 f23d 89d4 0cbe c01c 1d3e aabd 883c
00000250: 9ecd ba3d b10c 24be 1716 f7bd 2a90 1f3d
00000260: 6518 81be 5181 25bc fb61 d63c 05c0 e53c
00000270: a68b 2b3e 884f febd 45f6 1c3d a20b 98bd
00000280: 76c5 df3d 1f49 373e 1c9e f4bc bcb1 ce3d
00000290: adb9 98bd fc41 273d 565d 2f3e 8a3e b1bd
000002a0: 0a9e 50be 91a8 89bd a768 103e d256 2cbe
000002b0: bc47 28be deee 1e3e 215c 1d3e 8c63 003d
000002c0: c901 ab3c b486 113c e130 843c cb02 c9bc
000002d0: ba2b b3bd 90b1 9a3c 4256 da3d 7918 8ebd
000002e0: 8aca ad3d 243b fc3d 74c5 9fbd c89a 303e
000002f0: e51a 56be 14d2 363d cc59 afbc 8179 dcbd
00000300: 7766 373e 5443 3ebd 7eb1 6c3d 8aa9 41bc
00000310: 2dca b83d 9993 353d 537f 0ebe 174e 883d
00000320: cd65 86bb 6acf 0dbc 5bb3 3bbd 3687 863d
00000330: b460 1bbd 5efc 043e eabf 2c3d 551e 07be
00000340: 1acd b0bd b5fb 103c 7344 a33e 9e0f 313d
00000350: bc9b 9abe 676a eebd 1c4f 013d f386 713e
00000360: 1ee7 67bd 0d55 65be cb7d 8ebc 3d36 233d
00000370: d7dc 893d 5936 dbbc 5af7 f2bd 13e7 6c3d
00000380: a046 fbbc ff92 c13c 4c6b 053e 4943 593c
00000390: 8770 253c 63d2 283d 6d98 163c a662 7dbd
000003a0: 0064 75be ed2f 6fbe a343 abbd 8e35 e23d
000003b0: e20a e3ba 5e27 fabd cb99 90bd 6d9e 50bd
000003c0: 9386 cd3d 7adf 8e3d 2c45 433e c7b9 833e
000003d0: 2559 0f3e 13a5 8bbc d8cc 8f3d 4ec9 8f3e
000003e0: dfe1 b63e 38ea 3e3e 6d57 8b3d 887d 62bd
000003f0: c758 d93d 37f5 2d3d 8f54 ffbd 30d8 58bd
0.053769328 -0.058736898 -0.07759972 -0.08999541 -0.08676091 0.07284839 -0.023157112 0.09940482
0.04669726 0.07659575 -0.15907298 0.28739423 -0.3591824 -0.21822324 0.014939064 0.05769786
0.011058928 0.14099061 0.08878338 0.14899391 -0.045777928 -0.0015644608 0.048318855 0.052916005
0.0021987616 0.0072147595 -0.06296755 -0.118835166 -0.0010976006 0.023336971 0.04241196 0.1274916
0.2928227 0.15251979 0.03178349 -0.038009796 0.007590601 -0.10708029 -0.116419256 -0.06550893
0.08520286 -0.018550571 -0.09682738 -0.033689577 0.059286825 -0.024207797 -0.0072371443 0.08623452
0.07311143 2.2393615e-05 -0.011434051 0.07209638 0.16731535 -0.18746652 0.0019339524 -0.14211859
-0.0032597997 0.18049037 -0.033865824 0.023286069 0.053892042 -0.14651154 -0.082960986 0.17968427
0.03616145 0.11840006 -0.059462637 -0.1608513 0.06994804 -0.04201483 0.014090164 0.010991751
0.025058487 -0.012819292 -0.007069929 -0.03865551 0.029782508 -0.100186855 -0.09487059 0.0039474373
0.00021686478 0.027781418 0.0008586621 0.10114257 -0.11904084 -0.15010414 -0.08834494 -0.09780528
0.06964885 0.007533439 0.049308266 0.15532345 -0.16487287 -0.06702861 -0.05165688 -0.11711845
0.05406032 -0.022301113 -0.085977264 0.011855396 0.021026073 0.116372466 0.1436602 -0.07376178
0.09494881 -0.14124349 0.036127076 -0.16751252 -0.084742494 0.027562233 0.007991847 0.0640837
0.07259557 -0.028423091 0.11015735 -0.10009319 -0.16623376 -0.050483234 -0.026399696 -0.02886922
0.13322853 -0.034229707 -0.19544715 0.14069213 -0.14132951 0.11459713 0.06039829 0.014819069
0.0072695496 0.12611657 0.070908435 0.045966335 0.012702761 -0.07617554 -0.11386014 -0.1269903
0.059810974 0.0029240502 0.11542581 0.14136732 0.041835815 0.10887558 0.074445404 0.0032489141
0.11826889 -0.1375295 0.15342999 0.016692001 0.091212496 -0.16020466 -0.1206476 0.038955845
-0.25213924 -0.010101632 0.026169768 0.028045664 0.1675249 -0.12417513 0.0383208 -0.07424094
0.109263346 0.17898987 -0.029860549 0.10092494 -0.0745729 0.040834412 0.17125449 -0.086545065
-0.20372787 -0.067216046 0.14102422 -0.16829994 -0.16433614 0.15520808 0.15367176 0.031344935
0.020874875 0.008882213 0.016136589 -0.024537465 -0.087485746 0.018883497 0.106609836 -0.069382615
0.08485897 0.12315968 -0.07801333 0.17246544 -0.20908697 0.04463394 -0.021405123 -0.107653625
0.17910181 -0.046450928 0.057786457 -0.011820206 0.09022937 0.044330213 -0.13915758 0.066555195
-0.004101491 -0.008655408 -0.045825344 0.06568758 -0.03793402 0.12986895 0.04217521 -0.13195165
-0.0863287 0.008849074 0.3188816 0.043227784 -0.3019694 -0.116413884 0.031569585 0.23586635
-0.056616895 -0.22395726 -0.017393967 0.039846648 0.06731575 -0.026759313 -0.11863585 0.057837557
-0.030673325 0.023629664 0.13029212 0.013260671 0.010097629 0.041216265 0.009191615 -0.061861657
-0.23963928 -0.23358126 -0.0836251 0.11045371 -0.0017321969 -0.1221454 -0.07060584 -0.050932337
0.100354336 0.069762185 0.19069356 0.25727674 0.1399885 -0.017046487 0.07021493 0.2808327
0.357192 0.18644035 0.068037845 -0.055295497 0.10612636 0.042470183 -0.124673 -0.052940547

regularizer.icnn1.wz.weight f4 [32, 32, 5, 5]
00000000: 5fa8 c438 d81a 1b3b 7a5b d83a 8d6c 2e3a
00000010: bdbf 3c3a 73a0 aa38 b066 4b3a 1ba5 483a
00000020: aae1 be39 f289 ce39 de87 273c dd6e 9839
00000030: 2966 e83c 6727 c738 90b3 963d c7ec 403c
00000040: 2323 1b39 b7c3 543b 62ff a238 ff75 a738
00000050: 0e2d 8137 8ee4 883b c6f8 0e3b dea5 ac38
00000060: 3791 b338 cf7f 193b 3995 4b3b ad6b 8d3b
00000070: c67d 4e3b bd71 633b d3df 2a38 783f 3138
00000080: 4a0e d93c 4462 2e38 d9e9 2c38 e8f6 2838
00000090: d436 703d b08f 2e3e 03aa 5b3c 35f6 2938
000000a0: 4a9a 2438 addd 6b3d a675 2d3e babc 4a3c
000000b0: 78b0 2538 58bd 2938 731a 613d 87dd 2b3e
000000c0: 7ae6 133c cf8e 2c38 d0ce ad38 24c5 b138
000000d0: 6966 343b 8f58 013b 1e2d 203b 0cef b238
000000e0: be06 b738 950e 543d 2166 1d3b af04 3d3b
000000f0: 643f b638 5b6f e33d 337d 423e 7e60 733d
00000100: 5ba8 5d3b 8437 b338 45da 963b ce0f ac3d
00000110: 7455 2b3b 0df2 4b3b a014 f238 77e5 043a
00000120: 3bb6 ba3c cf63 4e3b 09e3 6f3b 92a5 7439
00000130: 92a5 7439 92a5 7439 92a5 7439 500e dc38
00000140: 787e 7439 787e 7439 787e 7439 787e 7439
00000150: a0c0 db38 787e 7439 787e 7439 787e 7439
00000160: 787e 7439 a0c0 db38 787e 7439 787e 7439
00000170: 787e 7439 787e 7439 a0c0 db38 9186 6d39
00000180: 9186 6d39 9186 6d39 9186 6d39 85d0 cd38
00000190: 7fc1 453d 3273 da39 fea6 623a c3ff e93b
000001a0: d121 113c 5453 0c3a ef4f ac38 932c 0939
000001b0: 281c db39 9a3a fc3a b234 3e3c c064 d039
000001c0: a317 9939 634e 603b b2ae 063d 1eb7 8c3b
000001d0: 4413 c73b 4d8a 803d 5172 683c 7169 283d
000001e0: b9c2 0b3d c232 ae3b 8652 c03c 92e1 033d
000001f0: 76ce 143d 9c40 4139 129b 9138 c454 093c
00000200: 29e0 443c 3d31 da39 a160 e23a f1bd 453a
00000210: 8e3b 013c f9e4 033c 7726 1a3b 1aba d33c
00000220: 53af 8239 c193 853d 3ffa f73c 9b52 843d
00000230: 4392 4e3a 5d29 a539 7364 b83b f403 ab3b
00000240: 16a8 0f3a 5b7b 433a 9f56 9839 c74c 7c3b
00000250: bb5a b33b b01f 803c 5182 983b 080b 613b
00000260: cfee 703b cfee 703b d1f4 6f3b 509c a83b
00000270: 1661 803b 818a 883b 818a 883b 850d 883b
00000280: 14aa c63b 4049 9e3b 224e a63b 224e a63b
00000290: 58d4 a53b 0000 0000 0000 0000 0000 0000
000002a0: 0000 0000 0000 0000 0000 0000 0000 0000
000002b0: 0000 0000 0000 0000 0000 0000 4bdc ad38
000002c0: 8ea4 a838 88fd b838 df68 be38 7774 7c3a
000002d0: 1974 b638 2862 b138 fc17 8239 43fd 4139
000002e0: 3550 b73a 03c1 083e 523e 113e 836a 113e
000002f0: 92e6 073e 9ee7 2c3b 0c2a 063b 6d6f 273c
00000300: 2290 353c 626b f839 88cc dd3a 9a9e fa38
00000310: 2db7 f238 e510 763a 71d0 613a 81d6 093b
00000320: d8e5 af3a d322 5f38 0ebc 3738 1f65 7337
00000330: 0000 0000 657d 143b 6259 7a38 89ed 5138
00000340: 7749 ae37 b735 7535 f47b 9e3b 3765 173a
00000350: 534d bd3d 6911 aa3d a365 833d 8218 233b
00000360: 223b 7a38 c99d 5138 c0c5 ad37 90b6 6735
00000370: 21f3 c23a 75ca 5538 655a 2e38 7466 4e37
00000380: 0000 0000 67ea 8d38 17bc 323b de61 d63c
00000390: 2250 0f3a 389e 8638 1399 8a38 da23 183b
000003a0: e269 6d3d f0f0 1b39 32f7 8238 8c09 9138
000003b0: 3f73 373b 00af 883d 8231 243a f28a 8938
000003c0: ae95 9338 b292 2e3b 7039 e83c eca7 f539
000003d0: adf3 8b38 d7dd 3b38 3938 8a38 96c2 9438
000003e0: 6d33 4638 fd01 2838 2008 ac3b c50a 653c
000003f0: d57e 173d dd05 d53c 4672 a33c 31bd e539
9.37737e-05 0.0023667123 0.0016506754 0.00066537486 0.0007200202 8.136118e-05 0.0007759137 0.0007653997
0.00036407757 0.0003939416 0.010225264 0.000290743 0.028369026 9.496399e-05 0.073584676 0.011775202
0.00014795041 0.0032465288 7.772331e-05 7.985159e-05 1.5398979e-05 0.0041776365 0.002181576 8.232494e-05
8.5624335e-05 0.0023422127 0.0031064285 0.0043158145 0.0031508072 0.0034705244 4.073961e-05 4.22592e-05
0.026496071 4.157635e-05 4.1225783e-05 4.028427e-05 0.05864604 0.17047 0.013407233 4.0522038e-05
3.924434e-05 0.057584453 0.1693941 0.0123740975 3.9503415e-05 4.046908e-05 0.054956865 0.16783725
0.009027118 4.1140996e-05 8.287805e-05 8.476738e-05 0.0027526862 0.0019736623 0.0024440954 8.5322274e-05
8.727376e-05 0.05177172 0.0024017172 0.0028841903 8.690244e-05 0.11105224 0.18993072 0.059418194
0.0033822272 8.545726e-05 0.0046036565 0.08401452 0.0026143463 0.0031119615 0.00011543301 0.00050695933
0.022791972 0.0031492596 0.003660383 0.00023331333 0.00023331333 0.00023331333 0.00023331333 0.000104930834
0.00023316767 0.00023316767 0.00023316767 0.00023316767 0.00010478613 0.00023316767 0.00023316767 0.00023316767
0.00023316767 0.00010478613 0.00023316767 0.00023316767 0.00023316767 0.00023316767 0.00010478613 0.00022652211
0.00022652211 0.00022652211 0.00022652211 9.8140015e-05 0.048280235 0.00041666027 0.00086460996 0.007141085
0.00885816 0.0005352993 8.216488e-05 0.00013081943 0.00041791913 0.0019243539 0.011609243 0.00039747916
0.00029200045 0.003422641 0.032881446 0.00429429 0.0060752947 0.06276379 0.014187411 0.04111618
0.03412125 0.0053161094 0.02347685 0.032197542 0.03632971 0.00018429983 6.943023e-05 0.008382026
0.012016335 0.00041616886 0.0017271229 0.0007543257 0.007887734 0.008050197 0.0023521462 0.025845576
0.0002492616 0.065223224 0.030270694 0.06461068 0.0007880071 0.0003150207 0.005627209 0.005218977
0.0005480064 0.0007457041 0.00029056237 0.0038497911 0.0054734624 0.01564011 0.004654207 0.003433885
0.0036763435 0.0036763435 0.0036614428 0.005145587 0.0039178235 0.0041669016 0.0041669016 0.0041520023
0.0060627554 0.0048305094 0.005075232 0.005075232 0.0050607137 0.0 0.0 0.0
0.0 0.0 0.0 0.0 0.0 0.0 0.0 8.2903156e-05
8.041515e-05 8.8210276e-05 9.07944e-05 0.0009630392 8.700061e-05 8.458301e-05 0.00024813402 0.00018500262
0.0013985696 0.13354878 0.1418393 0.14200787 0.1327155 0.0026383172 0.002047184 0.010219437
0.011081727 0.00047382253 0.0016921917 0.00011950471 0.000115735784 0.0009386673 0.0008614129 0.0021032395
0.0013419939 5.3199776e-05 4.380574e-05 1.4507473e-05 0.0 0.0022657749 5.968789e-05 5.0050705e-05
2.0776626e-05 9.134778e-07 0.0048365537 0.0005775275 0.09243264 0.08304102 0.0641587 0.0024886434
5.9659716e-05 4.9976432e-05 2.0715292e-05 8.631987e-07 0.0014873483 5.097171e-05 4.156902e-05 1.2302411e-05
0.0 6.767065e-05 0.0027272755 0.026169714 0.0005466958 6.4190885e-05 6.608865e-05 0.0023214729
0.057962306 0.00014871708 6.244927e-05 6.915917e-05 0.0027992276 0.066740036 0.0006263481 6.55855e-05
7.037386e-05 0.002663773 0.0283477 0.00046855153 6.673425e-05 4.479088e-05 6.590825e-05 7.0934344e-05
4.7254773e-05 4.0056173e-05 0.005249992 0.013979618 0.03698619 0.026003772 0.01995195 0.00043819242

regularizer.icnn1.wz.bias f4 [32]
00000000: 9d20 a53c 9f5f d0bc c87a 7a3c 2e13 063d
00000010: a067 2d3c 9b5f 473c 4a79 4a3c 0cb8 103d
00000020: efb4 0cbd a1f5 dd3c ef09 383c 22a5 013d
00000030: eed2 fb3c 6f25 ec3c 3652 fc3b 329f 8dbc
00000040: dba9 193c 4f19 12bd 8900 233c 9cdc 803c
00000050: 1da8 9a3c a86a 643c 807b e0bc 6c72 d33c
00000060: 8fb5 e7bc 608c e73c c074 0abd fd2f ed3c
00000070: ddfc 0bbd cb2f 0abd fef4 d1bc 5035 de3c
0.020157153 -0.02543622 0.015288062 0.032733135 0.010583788 0.01216879 0.012358019 0.03533177
-0.03435224 0.027094664 0.011232837 0.031651624 0.030740228 0.028826443 0.00770023 -0.017287824
0.009378876 -0.035668667 0.009948858 0.015730195 0.01887899 0.013941444 -0.02740264 0.025811397
-0.028284816 0.028265178 -0.033802748 0.028953547 -0.034176696 -0.033736985 -0.025629517 0.02712503

regularizer.icnn2.scaling f4 [1, 32, 1, 1]
00000000: 0be7 dcc0 0be7 dcc0 550c ddc0 0be7 dcc0
00000010: fde6 dcc0 550c ddc0 0be7 dcc0 550c ddc0
00000020: 0be7 dcc0 550c ddc0 0be7 dcc0 550c ddc0
00000030: 0be7 dcc0 0be7 dcc0 550c ddc0 0be7 dcc0
00000040: 550c ddc0 550c ddc0 0be7 dcc0 0be7 dcc0
00000050: 0be7 dcc0 0be7 dcc0 fae6 dcc0 0be7 dcc0
00000060: 550c ddc0 0be7 dcc0 e2e5 dcc0 550c ddc0
00000070: 550c ddc0 550c ddc0 550c ddc0 550c ddc0
-6.9032035 -6.9032035 -6.9077554 -6.9032035 -6.903197 -6.9077554 -6.9032035 -6.9077554
-6.9032035 -6.9077554 -6.9032035 -6.9077554 -6.9032035 -6.9032035 -6.9077554 -6.9032035
-6.9077554 -6.9077554 -6.9032035 -6.9032035 -6.9032035 -6.9032035 -6.9031954 -6.9032035
-6.9077554 -6.9032035 -6.903062 -6.9077554 -6.9077554 -6.9077554 -6.9077554 -6.9077554

regularizer.icnn2.wx.bias f4 [32]
00000000: 7a28 f73d 7ecc ac3d ec64 b03c 6de8 433e
00000010: 79a0 193d 1713 603d 34e1 7dbd 8f3d 043d
00000020: 87f5 fdbd 6299 fd3d a9a7 72bd 029a e9bc
00000030: 00de 8bbd f4d2 cc3d 975d f5bb 8424 da3d
00000040: 4693 b13d 1939 dfbc c880 7dbd 14a1 693d
00000050: 2810 a3bc 8426 10bd 737b f6bd f82c 7b3d
00000060: 5b4f b73d ed71 30be 70f3 0ebe 3340 8dbd
00000070: ddd7 2b3e 45c1 4bbe 4c8a 9e3c 7cba 083e
0.12068267 0.08437441 0.021532498 0.19131632 0.037506554 0.054705705 -0.06198235 0.03228527
-0.12400346 0.12382771 -0.059241924 -0.02851582 -0.068294525 0.100011736 -0.0074879634 0.10651496
0.08670668 -0.027248906 -0.061890393 0.05703838 -0.019905165 -0.03519298 -0.12035265 0.061322182
0.08950683 -0.17230959 -0.13960052 -0.06897011 0.16781564 -0.19897945 0.019353054 0.13352388

regularizer.icnn2.wx.parametrizations.weight.original f4 [32, 1, 5, 5]
00000000: 237c 093d d7a7 84bd 7b18 06be 2b19 cbbd
00000010: 9ab3 96bc 02d0 64be fea3 79bd 2840 98bd
00000020: 23bf b63d 9c7c 863d dc45 aabd 4d7b 55bd
00000030: 05a2 2b3e 9c8a 69bd 4ffa 0bbe 7697 8b3d
00000040: 06c9 623e ea68 cd3d e07b 823c 0cbe 543e
00000050: c1c3 7d3d 2e6c 28be 3bac 92bc 7284 10be
00000060: e1d3 55bc b642 2b3d 786d 933c 8174 95bd
00000070: 1913 24be 06a6 18be 9fe4 0fbd 938f 13be
00000080: 2cdf 2d3e 5f18 8dbd f55f 94bb 1713 1c3c
00000090: e438 92bd 58e7 8c3c 8548 46bc 153c 06be
000000a0: c519 263e 6509 2c3e 9aaa d3bd d09e 1d3e
000000b0: b260 f33c 3988 023e 2896 e2bd c613 cdbd
000000c0: fea6 9b3d db50 b8bd 48d1 033e 39a3 1fbd
000000d0: ffb9 e6bb 2a88 933c f285 183e 7a07 b1bd
000000e0: aac6 acbd af0f 0fbd 7d8e 03bc 3473 7f3d
000000f0: d234 92bc 82bc 7b3d d241 4bbe 656e 8a3d
00000100: 5ae4 013c 5024 103d a958 223d c7d4 0cbe
00000110: d92b 78be a6df 47be 3157 043e 8cea 723c
00000120: d716 233d 5dd1 8b3a 31d7 69be 93d1 93bd
00000130: bfca 97bd cbd1 f13d d6fb 403e 1cc4 693d
00000140: b3ff 403e e9ab 033e b390 9b3d 9141 3d3c
00000150: c0e0 493e 1214 c8bd facd 1b3e 1010 4c3d
00000160: 0b61 d4bd 7922 423e 8e61 18be 1094 eb38
00000170: 67b5 36be 05a7 1abe 261b db3d c7e6 e93b
00000180: d898 9bbd 77f7 45bc 4afb 103d e515 fdbb
00000190: 037e 3cbe d062 2bbe a179 3dbe b076 a53b
000001a0: e9ca 173e e049 f13d bea3 bd3d e419 dbbd
000001b0: 96f1 d53c 623e 8dbd e15c bfbd 1bae 533e
000001c0: 9013 a0bd 8982 6ebd abe7 4c3d 95d8 053e
000001d0: ff9c a03d 828f a8bd b744 d13d f8d8 4bbd
000001e0: 62f2 203e 5293 753d 3f9b c6bd 6118 533d
000001f0: 53e2 37bd fdac 09be 15bf 74be 8e17 2cbe
00000200: f2a1 05be baf5 c83b 74f7 5abe b45a 513c
00000210: aaf5 0c3e 1176 bf3d 74e4 24be aee6 0a3c
00000220: 1934 ed3d 8f7d f3bc e8a7 22be b80e a83d
00000230: 310c 473d ac33 aebc b3cb d13d a92a 153e
00000240: acf2 f3bd 7065 c7bd 62e3 9dbd 8539 583c
00000250: 1893 babc 124d e93d 0541 6bbc e78b 0cbe
00000260: 251d d03c a60e 7f3d 8136 b4bd 2eaa 083e
00000270: 8904 37be 041f 39bd 243f 09be 16e8 103e
00000280: 1a90 1cbe 0365 1e3e d6d0 5c3d 6828 84bc
00000290: 957d 553d e389 3cbd 6f44 8dbd 35fd a9bd
000002a0: 77e8 163e 5fd7 053d 5231 ba3d e7cb 18ba
000002b0: e93e b33d b080 d93d f83b 983d 0e95 073e
000002c0: 9c16 96bb dec3 8e3d 7766 b3bb f0fb 49be
000002d0: 5451 dfbd 2733 ae3d 929d 143b 8acd 49bd
000002e0: 40b2 a83c 3e60 d2bd adfa 2f3d 43d8 34bc
000002f0: 9a3c 103e cc77 a5bd 338f 41bd 2997 783b
00000300: b4ef 2e3d 5ac8 283e dff0 efbd 775f 5e3d
00000310: 8619 c9bc 239a 20be 03c1 3cbe d8d8 b8bd
00000320: dd98 0b3e e290 3ebd a82c 89bd dab3 283d
00000330: 5d36 1cbe a997 40be 3a17 71bd f0f1 e13d
00000340: e501 25be 534b 30bd 2745 313d 3b51 1f3d
00000350: dfc8 5cbd 956c b7bd 8313 d7bd d803 95bd
00000360: 2fbe 1f3e c886 963d 2d59 833d 2d97 3dbe
00000370: 949e 333d bdc3 69be 14d4 8dbd 359b 523e
00000380: d11e bbbc 9c35 393e 312f dcbd 30fb 6b3d
00000390: c709 03be 69ac 23be be2b 2abd ba49 4f3c
000003a0: 5d97 6ebc 96a4 ae3d 7985 413d fcf4 8f3c
000003b0: 21dd 583d 5e39 4cbe b1b7 32bd a2c6 e7bc
000003c0: c13d 463e d84a dcbd a370 99bd 5c81 9e3d
000003d0: 8027 c2bd b3c1 24bc 6737 adbd 80e5 bc3d
000003e0: ada5 513d 63a4 4fbe 34c9 91bd 3c8f 473d
000003f0: 5a19 573c 88c1 30be 9a99 d9bd 0c31 ba3d
0.03356565 -0.064773254 -0.13095276 -0.0991691 -0.018396188 -0.22344974 -0.06094741 -0.07434112
0.08923175 0.06566736 -0.08314106 -0.052119542 0.16761024 -0.057016954 -0.13669704 0.06815998
0.22146997 0.100297764 0.015928209 0.20775622 0.061954264 -0.16447517 -0.017904392 -0.14113024
-0.013051004 0.041811667 0.017996535 -0.07297612 -0.1602291 -0.14907083 -0.03513014 -0.14410238
0.16979665 -0.06889414 -0.0045280405 0.009526036 -0.07139757 0.017200157 -0.012102251 -0.13108857
0.16220768 0.16800459 -0.10335274 0.15392613 0.029709194 0.12747277 -0.11063796 -0.10013537
0.076002106 -0.08999797 0.12872803 -0.03897402 -0.0070412154 0.018009264 0.14894846 -0.08644004
-0.0843633 -0.034927066 -0.008029577 0.062365726 -0.017847452 0.061459072 -0.19849327 0.06759337
0.007927978 0.03519088 0.039635334 -0.13753043 -0.24235477 -0.19518909 0.12923886 0.014826428
0.039816704 0.0010667254 -0.22835995 -0.072177075 -0.074117176 0.11807593 0.18846068 0.05707179
0.18847542 0.12858547 0.075959586 0.011551277 0.19714642 -0.09769453 0.15215293 0.049820006
-0.10370072 0.18958463 -0.14880964 0.00011233252 -0.17842637 -0.15102775 0.106985375 0.0071381065
-0.07597512 -0.012082926 0.035395898 -0.0077235573 -0.18407445 -0.16736913 -0.18503429 0.005049549
0.14823498 0.11781669 0.09259747 -0.106982976 0.026116174 -0.06896664 -0.09343887 0.20671885
-0.07816231 -0.058229957 0.050025623 0.130709 0.07842445 -0.08230497 0.102181844 -0.049767464
0.15717462 0.05995495 -0.096975796 0.05153692 -0.044893574 -0.13444896 -0.23901017 -0.1680586
-0.13050058 0.0061328085 -0.21383458 0.012777973 0.13765588 0.09348691 -0.16102773 0.00847785
0.115822025 -0.029722957 -0.15884364 0.082059324 0.04859561 -0.021264873 0.10243931 0.14567055
-0.1191152 -0.097361445 -0.077093855 0.0131973075 -0.022775218 0.11391653 -0.014358764 -0.13725244
0.025404522 0.06226983 -0.08799458 0.13346168 -0.17872824 -0.045195594 -0.13402992 0.14151034
-0.15289345 0.1546822 0.0539101 -0.016132548 0.052121717 -0.046029937 -0.06897818 -0.083002485
0.14737116 0.032676097 0.09091438 -0.00058287237 0.087522335 0.10620248 0.07433313 0.13240454
-0.004580332 0.069709525 -0.0054748612 -0.19725013 -0.10904184 0.0850585 0.0022676927 -0.049268283
0.020592809 -0.10272263 0.042963672 -0.011037889 0.14085618 -0.0807949 -0.047255706 0.0037931895
0.042709067 0.16482678 -0.117158644 0.05429026 -0.024548303 -0.15683798 -0.18433003 -0.09025735
0.13632531 -0.04652489 -0.06697971 0.041187145 -0.15255113 -0.18807854 -0.05886004 0.11032474
-0.16114004 -0.043040585 0.04327884 0.038895827 -0.053902503 -0.08956257 -0.105017684 -0.07276124
0.15599893 0.07349926 0.06413493 -0.185147 0.043852404 -0.22828574 -0.06925216 0.2056702
-0.022841843 0.18086857 -0.107511885 0.057612598 -0.12796699 -0.15983738 -0.041545622 0.012651855
-0.014562455 0.08527486 0.04724643 0.017572872 0.05294526 -0.19943759 -0.043632213 -0.028292958
0.19359495 -0.10756463 -0.07492187 0.07739517 -0.0948019 -0.010055947 -0.08457833 0.09223461
0.05118339 -0.20277552 -0.071184546 0.048720583 0.013128603 -0.17261326 -0.10625 0.09091386

regularizer.icnn2.wz.weight f4 [32, 32, 5, 5]
00000000: ff47 7a3b 2fe3 663b b2b8 533b de86 803b
00000010: e7b9 2c3b 7f53 ba3a 8b1b 9c3a 7fdd 953a
00000020: 48b3 0e3b 4ee8 b63a de66 2a3b 7ac7 123b
00000030: 5ad2 033b ec5a 4c3b 1194 133b 11bf d73b
00000040: 2509 c63b b00b c33b a9ce e83b 6d13 d13b
00000050: 71fb f03b 69c1 e53b b015 ef3b 4d7d 0a3c
00000060: 43c6 fc3b aa5e 323a fc35 5a3a a222 3f3a
00000070: 00a6 8c3a 135e 5239 7d0b d63a c544 ed3a
00000080: 636c e83a 5ea9 0a3b e740 a73a 4d5b fd3a
00000090: 2f3e 293b 9771 2e3b b87b 1f3b 06d9 c93a
000000a0: 5409 4b3b 3299 813b b3b0 813b 3636 4f3b
000000b0: 70d7 083b 42f5 403b 5c31 773b 2cfb 763b
000000c0: 3af4 403b fc9b f63a d442 d33b c9c4 de3b
000000d0: 594f de3b 2d5b c93b 1d0f fe3b d482 793b
000000e0: dff1 873b 4aa8 863b baac 5e3b 9526 a33b
000000f0: 541d 523b 7b52 673b 2550 633b 7c17 333b
00000100: 6113 8e3b c34a bc3b a77f c53b 6e1f c23b
00000110: cc6b a93b 4be2 dc3b 7698 e43b c19f ed3b
00000120: 7775 e93b 2b4a d03b e5e7 013c 037c 2d3c
00000130: a754 683b f61b ea3a b56c e13a 2cf7 d139
00000140: b081 1f3c a0a4 243b 873f 383a a22c e039
00000150: f2c1 6f38 2acd fc3b 449b 2e3a 4c61 7638
00000160: 862d 7238 a8ae 6c38 e9f1 573c e0a5 cc3b
00000170: 3eae 993b 1fae 933b c0cb 5e3b 7682 a63c
00000180: 2947 5c3c 4835 403c 9e30 3f3c b6e9 2a3c
00000190: 013d 2b3c 7c54 073c a623 173c f3ad 663b
000001a0: 3ba6 e13b 0534 193c 9936 e93b 4236 033c
000001b0: 1837 133b a384 b93b 3f8e fd3b 21df b23b
000001c0: bf5e ce3b 4b07 f739 1bd1 7f3b 9c9a 0b3c
000001d0: 9008 cc3b 6f9e e53b bcca 9a3a 370e 973b
000001e0: 5f3b 153c 8f03 de3b 0893 f53b 9410 dd3a
000001f0: 11f9 a73b 0c70 943b 51a3 eb3b 16b7 e33b
00000200: bb18 ee3b 8092 e63b fad4 773b f5fd d33b
00000210: f2c7 cd3b 0472 db3b bd3d d63b eb37 3238
00000220: 7665 1b3b a950 1b3b 6b6b 2f3b d513 323b
00000230: 04eb 423a 12a9 5f3b d13f 533b d54a 703b
00000240: 973c 683b ef74 d93a d4a2 8d3b 2065 893b
00000250: 8f8c 973b 61c0 933b 9e57 493b 5b64 463b
00000260: 5529 453b 97fa 8e3b 7816 233b 19d8 483b
00000270: cde4 453b dfa9 443b d4ba 8e3b 5997 223b
00000280: b32f 483b 3f3c 453b 4801 443b ad65 8e3b
00000290: d1ed 213b 5e93 ff38 96e2 ff38 96e2 ff38
000002a0: 7197 e939 dd05 ed38 360c 553b deba 543b
000002b0: 817e 533b 7d4c 963b f32f 313b 105d 093c
000002c0: 52f0 013c 804c ea3b 1805 f53b e885 d93b
000002d0: 66fb 063c 0d0e 013c 8fed e83b 2f3b f53b
000002e0: 6463 dc3b 4050 f73b d378 ec3b b092 d43b
000002f0: 72ad e13b 55ae cb3b 54b6 0a3c 4884 053c
00000300: b613 f33b 242a 003c 9316 ea3b 5368 153c
00000310: e6bd 103c 72cc 043c ac88 0b3c d659 003c
00000320: 8442 0f3c 6860 b23b 2261 943b 5ad6 933b
00000330: 9b81 913b be26 fe3b 11ab 913b 1308 6e3b
00000340: 6cf2 6c3b 093a 683b 231f fe3b cba2 913b
00000350: 54f7 6d3b bae1 6c3b 5529 683b ee24 983b
00000360: 2628 bc3a a738 223a 01dd 1d3a cfde 0a3a
00000370: ccb5 963b 86ab b73a 362f 193a 57d1 143a
00000380: abcd 013a 6785 be3b 0fdb bb3b 9a25 ba3b
00000390: 8ded 073c b139 183b 3bb8 b23b 8fdd b03b
000003a0: d47d af3b b488 ff3b 4ccc dd3a 1ad3 a53b
000003b0: 7691 a73b 3e74 a83b f172 f43b 5859 af3a
000003c0: ee37 393b 80dd 443b 0f15 403b 57d0 ad3b
000003d0: 648f ac38 97a6 333b 9e0e 403b af7d 303b
000003e0: 68c0 a33b fd47 a838 68e8 fb3b 0137 ed3b
000003f0: bbad b43b 01ce b53b 8d94 cd3b ab09 0e3c
0.0038189886 0.0035230627 0.0032306132 0.0039223274 0.0026355924 0.0014215558 0.0011910064 0.0011433809
0.002177434 0.001395473 0.0026001255 0.002239673 0.0020114393 0.0031182123 0.0022518674 0.006584056
0.0060435706 0.005952321 0.007104714 0.0063804896 0.007354193 0.0070115817 0.0072962865 0.008452726
0.0077140643 0.0006804267 0.00083240843 0.00072912325 0.0010730624 0.00020062206 0.0016330328 0.001810216
0.0017732497 0.002115808 0.0012760431 0.0019329578 0.0025824418 0.0026617998 0.0024335217 0.0015399761
0.0030980902 0.00395503 0.0039578318 0.0031618006 0.0020880364 0.002944306 0.003771863 0.0037686331
0.0029442445 0.0018814798 0.0064471755 0.006798361 0.0067843613 0.006144902 0.0077532665 0.0038072364
0.0041487063 0.004109417 0.0033977465 0.0049789646 0.0032060938 0.0035296965 0.003468522 0.002732723
0.0043358062 0.005746217 0.0060271802 0.005924157 0.005170321 0.0067408434 0.0069761826 0.00725171
0.0071245986 0.0063564978 0.007928823 0.010588649 0.0035450847 0.0017861116 0.0017198535 0.00040047744
0.00973551 0.0025122538 0.0007028509 0.00042757863 5.7162666e-05 0.007714887 0.00066607096 5.8741585e-05
5.7739693e-05 5.6429446e-05 0.0131802345 0.00624536 0.0046899607 0.004506841 0.0033995956 0.02032588
0.0134447 0.011731453 0.011669306 0.010431698 0.010451556 0.008259889 0.009224808 0.0035198897
0.0068862713 0.009350781 0.0071171043 0.008008542 0.0022463258 0.0056615635 0.0077379043 0.005458728
0.0062979157 0.00047116945 0.0039034549 0.0085207485 0.0062266067 0.007007412 0.0011809687 0.004609849
0.009108393 0.0067753266 0.007494334 0.0016865903 0.0051261266 0.0045299586 0.0071910997 0.006949316
0.0072661317 0.007036507 0.0037816153 0.006469483 0.006279939 0.0066969413 0.0065381215 4.2490585e-05
0.0023711598 0.00236992 0.0026766907 0.0027172465 0.0007435533 0.0034127873 0.0032234082 0.0036665697
0.0035436505 0.0016590635 0.004322389 0.0041929632 0.00462491 0.0045090173 0.003072239 0.003027222
0.003008445 0.0043633687 0.0024885219 0.0030646382 0.003019619 0.0030008478 0.0043557677 0.0024809449
0.003054601 0.0030095724 0.002990799 0.004345617 0.00247084 0.00012186797 0.000122015525 0.000122015525
0.00044554056 0.00011302133 0.00325085 0.0032460014 0.0032271447 0.004586755 0.0027036637 0.008384004
0.007930832 0.007150233 0.007477414 0.0066382773 0.008238649 0.007876885 0.0071083973 0.007483862
0.0067257155 0.0075474083 0.007216552 0.006487213 0.0068871314 0.0062158504 0.008466322 0.008149214
0.007418121 0.007822547 0.0071438043 0.009119111 0.008834338 0.008105384 0.008516472 0.007833919
0.008743886 0.0054436214 0.0045281807 0.0045116367 0.004440499 0.0077560833 0.0044454415 0.003632073
0.0036155237 0.0035434982 0.0077551766 0.0044444553 0.003631075 0.0036145286 0.0035425026 0.0046430742
0.0014355227 0.00061882514 0.0006022007 0.00052974833 0.0045993086 0.001401291 0.0005843522 0.0005676946
0.00049516064 0.0058142426 0.005732901 0.005680752 0.008296383 0.0023227746 0.005454091 0.0053975056
0.005355576 0.0077982787 0.0016921847 0.0050605657 0.005113776 0.0051408103 0.007459991 0.0013378067
0.0028262096 0.003003925 0.0029309427 0.005304377 8.228308e-05 0.0027412528 0.0029305588 0.0026930382
0.004997302 8.024273e-05 0.007687617 0.007239223 0.0055138743 0.005548239 0.006273812 0.008669297

regularizer.icnn2.wz.bias f4 [32]
00000000: af05 2d3c 4352 383c d12b 74bc 9ec5 0b3d
00000010: 24cb fe3b 9845 a8bc eafa e63c 0efd f8bc
00000020: 3299 793c cc0e 2cbc 2760 403c 2f27 01bd
00000030: a844 b43c c2c9 a13c c4fb e3bc 02b6 ad3c
00000040: 32d5 28bc b14d c3bc 2e3a c13c 1da1 dc3c
00000050: a854 a73c cee6 fd3c f922 d63b f3e6 713c
00000060: ac48 0fbc cd63 ac3c 3597 193a 020e 91bc
00000070: 2ee5 52bc f75a 11bc 4217 00bd c3f5 a4bb
0.010560437 0.0112500815 -0.014903025 0.03412401 0.007775681 -0.020540997 0.028195817 -0.030394103
0.0152342785 -0.010501575 0.0117416745 -0.03153151 0.022005394 0.019749526 -0.027830012 0.021204952
-0.010304736 -0.023840757 0.023587313 0.026932294 0.02042611 0.030993845 0.006534931 0.014764535
-0.008745354 0.021043682 0.00058590184 -0.017706875 -0.0128720235 -0.008871785 -0.03127218 -0.00503418
