weights/CRR_sigma_25.pt (torch, 57721 bytes, 4 tensors)

scaling f4 [1, 64, 1, 1]
00000000: e331 4b40 52c5 8340 3c66 7f40 16d3 5f40
00000010: 3c61 5140 5243 5640 147f 6f40 19e7 5540
00000020: ff7e 4d40 060d 4c40 cc67 6240 b37b 8d40
00000030: fd36 7240 7cea 8840 8260 5340 8205 6e40
00000040: 9ec7 8340 ee7b 7f40 ccb8 6f40 ceda 7f40
00000050: a42d 6740 00db 8a40 229b 8640 bd8c 5340
00000060: 33f5 4c40 8cb4 5340 5587 8c40 fd52 7340
00000070: 327a 8240 05c9 7340 324e 5040 418a 7940
00000080: 0851 6d40 8e27 7b40 f690 8b40 1334 5340
00000090: 93dc 8740 28de 5140 068b 5740 af85 5340
000000a0: e4c5 8040 ab4d 8a40 5a4f 8040 da2c 7f40
000000b0: b21d 8d40 9b92 8040 a819 8a40 1bfb 7b40
000000c0: 3ad5 8340 501c 7a40 d740 7c40 cb89 8040
000000d0: e958 8b40 d3fa 7740 d888 4c40 79ff 7740
000000e0: 6cfd 5040 1216 7e40 c202 8940 9fa5 4c40
000000f0: 3b76 6d40 6b40 4c40 9d67 8940 1494 7f40
3.1749198 4.117837 3.990615 3.4972587 3.2715597 3.347859 3.7421312 3.34223
3.2108762 3.188295 3.5375853 4.42135 3.7846062 4.2786236 3.3027654 3.7190862
4.1181173 3.991939 3.745654 3.9977298 3.6121607 4.3392334 4.206437 3.305465
3.2024658 3.3078947 4.39152 3.8019402 4.0774164 3.8091443 3.2547727 3.8990633
3.7080708 3.9242892 4.3614454 3.3000534 4.2456756 3.2791843 3.3678603 3.3050344
4.0241566 4.321981 4.0096865 3.9871125 4.409875 4.017896 4.315632 3.9372013
4.1197786 3.907978 3.9414575 4.0168204 4.3546033 3.874684 3.1958523 3.8749678
3.2654676 3.970097 4.2815866 3.1976087 3.7103412 3.1914318 4.293898 3.993413

conv.0.parametrizations.weight.original f4 [4, 1, 5, 5]
00000000: 670f c3bc d2d9 613d 4e18 9dbd 9849 dfbb
00000010: 018b 26bc 34ce b93c 2e71 87bd 0a19 a63d
00000020: 1397 09bd ce41 5bbb a0d1 e3bc b532 1dbd
00000030: d5ec 3abe 04af b5bd 9eb3 2ebc c081 093c
00000040: ed3c 3bbd b3a3 973e 992f bcbd 98d9 29bc
00000050: 478e c2bc 4ec5 543d ca42 94bd 3fe4 8f3d
00000060: 3cca 9abc ed03 0c3d d5a6 503c 8e9e 1cbe
00000070: 68dd 9cbc cb7e 06bd 063b 24bd 68c8 043e
00000080: 3d76 4abe fd59 54bc b649 9bbd 2da2 11be
00000090: 19ce 81be 3ee9 613e 408d 013d abd9 383d
000000a0: 04ad da3c 50b7 eebd 5dad f03c 2eea d3bd
000000b0: 61c8 76bd df10 81bd 4650 5b3a 7aeb b1bc
000000c0: 3ad6 0abd 7ddc c3bc 4146 883d 64b0 213d
000000d0: 43aa f73c 853d 193d 16b8 163d d889 cabc
000000e0: 884d 9c3d 0ce0 8ebd 0f16 213d 4d48 733c
000000f0: e5e2 973d 2561 903d 51de 5fbe 1db2 083e
00000100: 324e ac3d 9f0c 743d bba9 233c 9d87 c73d
00000110: 63a8 8e3d 16b1 3f3d 0c5e 90bb 0e75 3b3d
00000120: 2b9d 643d dd21 353d b388 4d3d e45f 913d
00000130: 8453 74bc f2f0 2ebe d6a3 f73c b04d 2dbd
00000140: e09c 2ebe e0a8 af3d 5cdc d13d 2d7f 4bbe
00000150: 1726 bb3c ca86 a93c d89c 3ebd b8b1 85bd
00000160: 6f43 203d f6ee 95bd bb8d de3c 269d 49bd
00000170: fc0e 073d a5a0 b1bc 1b10 c4bd 2e92 b7bd
00000180: 202e 5fbc c325 853c 04d3 8cbd f3cf fd3a
-0.023811055 0.05513937 -0.076706514 -0.006814193 -0.010164977 0.022681333 -0.06613384 0.081102446
-0.03359134 -0.003345597 -0.027809918 -0.038378436 -0.18254407 -0.08871272 -0.010662941 0.008392751
-0.0457124 0.2961708 -0.09188766 -0.01036682 -0.023749484 0.051945977 -0.072393015 0.07025956
-0.018895261 0.03418343 0.012735088 -0.15294859 -0.019148543 -0.032835763 -0.04009535 0.12967074
-0.19771667 -0.012960908 -0.075824186 -0.14222021 -0.25352553 0.22061631 0.031628847 0.04512946
0.026693828 -0.11656058 0.029379541 -0.103474006 -0.06024969 -0.06302046 0.00083661487 -0.02171873
-0.03389571 -0.023908848 0.06654025 0.03947486 0.030232554 0.037412185 0.03679665 -0.024723932
0.076319754 -0.06976327 0.039327677 0.014848781 0.074163236 0.07049779 -0.2186215 0.13349195
0.08413352 0.05958235 0.009989197 0.09742663 0.06965711 0.04679974 -0.0044057425 0.04576593
0.05581395 0.044221748 0.050179195 0.07098368 -0.01491249 -0.17084101 0.03022949 -0.042310417
-0.1705203 0.08577132 0.10247108 -0.19872732 0.022845311 0.020694155 -0.046536297 -0.06528038
0.03912681 -0.07320969 0.027167192 -0.049222134 0.032973275 -0.021683047 -0.095733844 -0.089634284
-0.013621837 0.016253358 -0.068761855 0.0019364342

conv.1.weight f4 [8, 4, 5, 5]
00000000: ce97 823d b6cd df3d d608 c4bd 983b f8bb
00000010: c413 e7bc 5e3e 14bd 2526 3ebe 4a18 9cbd
00000020: 17f4 163d 3740 2f3d 2ac1 d33c bd06 893d
00000030: 1f28 d4bc 9bf3 303c e5cf 9d3c 35e1 d3bc
00000040: d808 a03c 1e61 113d d74d 843d 3cb0 53bc
00000050: 93ed 023c 19e0 283c 5822 a93c ad89 26bd
00000060: c672 42bc ddb8 40bc 5ac7 283b 547b 82bd
00000070: d4b8 8dbc abd6 a0bc dfd1 c3bc ceea e43b
00000080: eb1e 803d 37d2 7abd 5cb5 18bb 3775 a13c
00000090: 3ee7 c73d f8d5 b4bd 9946 1e3d 9f1b 01bd
000000a0: a9b3 d83c 65b7 adbd afdf e23d 7136 16be
000000b0: 6a5a c0bc f669 84bc 600f 453d 0568 22bd
000000c0: 28e4 48bd 328c ed3a 3fa3 37bd 90d5 243c
000000d0: 595a 453d 561f 813c 03c4 d3bb 343e 6ebd
000000e0: 723e 6e3d 0317 f8bd ef1d cbbc 497c da3c
000000f0: 5325 493d 89c7 31bd ced3 88bd f229 ddbc
00000100: 5dc3 af3c c153 59bd bb78 0dbe 7fc1 6c3d
00000110: 7cd6 9bbd 7a2b 44bd c6e2 2a3d c16c 0abc
00000120: ca02 f23b 4305 2c3d 020a 60bd cd22 be3c
00000130: 4c4d b8bc 8865 d83c a023 6c3b c538 7cba
00000140: 02eb 713b 36e4 98bc 5203 273d 05cd 2dbd
00000150: 425a 1dbb 8b1f 8bbc 2a62 3d3c c9da 27bd
00000160: 47b9 f4bd 9f50 4bbc 5961 9e3c 4ddc e53d
00000170: 5630 0ebe bb2d bdbc f85e 55bd d197 41bb
00000180: d255 17bd d3a3 213d 3094 46bd 64f3 e1bc
00000190: a2ce b8bc d371 cd3d bb20 863c 4856 0bbc
000001a0: 361a 5c3b 40cb 7b3d 2eb3 ecbd bebc 363e
000001b0: 9520 353d 1133 86bd d601 4e3d 9d21 9bbd
000001c0: 4ea8 73bc ad3f a6bc 08fc 083d 3473 c83c
000001d0: 6e68 66bd d7b0 a0bd 5d2a b43d 1f12 03bb
000001e0: aad5 1cbc f121 5d3d 614c 473c c671 133d
000001f0: 2fc9 7bbc fb52 803c 238e c2bc fe50 dd3c
00000200: fcc3 35bd c214 bf3c b740 2bbd 0bf5 fa3c
00000210: 2034 66bb d273 40bd 43e4 1e3d 7ec1 ba3c
00000220: 84e5 a83c 597d be3d 4f18 1cbe dea1 973d
00000230: d91e 103c 0a1d c23d 2625 a93d 05d1 10bc
00000240: 8370 7d3c 9796 033b 3a20 36bd 520c d13d
00000250: c485 efbc 58dc cc3c b340 82bc 21ab aa3c
00000260: a646 953c c6e7 cd3c 1af4 5ebc 2eef 3f3d
00000270: e3a8 bbbd 7386 e03d 8953 903c 5e5a dfbc
00000280: 157a 90bd 7138 ad3d afa2 03bd d377 903d
00000290: 4e7c c8bc 8c54 613c ea27 163d ff3e dfbc
000002a0: 7e8a 9a3d 6085 6d3c a4e8 7fbd d60b 54bd
000002b0: 14a0 afbd 32b9 c53c c696 54bc 0919 25bb
000002c0: 3081 c63c 6de9 84bc fe7f 293c c602 453c
000002d0: 4420 863b 8ca0 b23b 3e74 d3bc 48a0 7a3d
000002e0: d153 fabb 65b0 6d3d 273c 47bd 5dd2 0dbc
000002f0: ff46 ad3c e338 2f3c 5822 c0bc 767a 87bc
00000300: b8b5 373d 6122 c73c 6043 d8bc 0ea6 cd3c
00000310: 4005 573d a5ba 27bc 843a 3c3d 046e 0bbb
00000320: fa22 b0bc 7959 b03c 8fc2 f4bb 3781 4cbc
00000330: db43 673c c12f d5bc 78a0 3a3d a6ca 7a3d
00000340: 63d2 273c 2e6e 22bd 857e 0dbd 8f18 e9bc
00000350: 512f 423c 4bad a03c 4f3e 9f3d bae2 89bb
00000360: 2f51 753b 9f04 ae3c 3093 2a3c e0cb 78bd
00000370: 3209 b1bc 0dc0 093d 4957 3cbc 27f7 513d
00000380: a9f9 ab3c 4d1d 963c 8587 8d3b f97c 753c
00000390: a666 cb3c 567f 1d3c 11dc 54bb a447 e03b
000003a0: 0398 e23c 28e6 a83a 9f01 c33c ff8d ee3c
000003b0: 1e10 4c3c 602a cd3d 7a15 803c 501d a73c
000003c0: a808 ecbc 5485 1bbe c839 943b f33d 2abd
000003d0: e504 05bd 1953 5cbd ac84 ffbc ed1b 5e3d
000003e0: bada 8bbd 89a5 08bd 073c debc 1ce4 32bc
000003f0: ff1e 4ebc 81fa 863c ce19 d4bb 81da 473d
0.06376611 0.10927908 -0.09571998 -0.0075754635 -0.028207667 -0.03619229 -0.18569238 -0.0762182
0.036853876 0.04278585 0.025848944 0.06690738 -0.025898037 0.010800268 0.01926417 -0.025864223
0.019535467 0.03549301 0.06460159 -0.0129204355 0.007991212 0.010307335 0.02064626 -0.04065864
-0.011868184 -0.011762825 0.0025753588 -0.06371179 -0.017300047 -0.019633612 -0.023903785 0.0069859987
0.06255897 -0.061235633 -0.0023301458 0.019709213 0.09760903 -0.08829874 0.038641546 -0.031520482
0.026452856 -0.08482245 0.110778205 -0.14669205 -0.023480613 -0.016163807 0.048110366 -0.039649982
-0.04904571 0.0018123446 -0.044833418 0.010060683 0.048181865 0.015762012 -0.0064625754 -0.05816479
0.05816502 -0.12113764 -0.024794547 0.026670592 0.04910786 -0.043403182 -0.066810235 -0.02699754
0.021455461 -0.05305839 -0.13815586 0.05780172 -0.07609269 -0.047893025 0.041720174 -0.0084487805
0.0073855864 0.041997205 -0.054697044 0.023209954 -0.022497796 0.026415601 0.0036031976 -0.00096214964
0.0036913757 -0.018663507 0.04077465 -0.04243185 -0.0024010097 -0.016982814 0.011559049 -0.040980134
-0.11949401 -0.012409358 0.019333528 0.1122366 -0.13885626 -0.023093095 -0.052092522 -0.0029539953
-0.03694708 0.039462876 -0.048481166 -0.027581878 -0.022559468 0.10031476 0.016373029 -0.008504458
0.003358496 0.06147313 -0.11557613 0.17845437 0.044220526 -0.06552709 0.05029472 -0.075747706
-0.01487167 -0.020294035 0.03344348 0.024468996 -0.056251936 -0.078462295 0.08797143 -0.0019999815
-0.009572426 0.053987447 0.012164206 0.035997175 -0.01536779 0.015664568 -0.023749417 0.02701616
-0.04437636 0.023325328 -0.041809764 0.030634424 -0.0035126284 -0.046985455 0.038791906 0.022797342
0.020617254 0.09301252 -0.15243648 0.074039206 0.008796417 0.09478195 0.082590386 -0.008838897
0.015468719 0.0020078772 -0.044464327 0.10207428 -0.02923859 0.025007412 -0.015899992 0.020833554
0.018222164 0.025134932 -0.013608003 0.04685896 -0.09163072 0.10963144 0.017617958 -0.02726477
-0.07054535 0.08458031 -0.03213757 0.07054105 -0.024473336 0.013753068 0.03665916 -0.027251719
0.075459465 0.014497131 -0.062477723 -0.0517691 -0.08575454 0.02413616 -0.0129754 -0.0025191924
0.024231523 -0.016224587 0.010345457 0.012024587 0.004093202 0.0054512676 -0.025812265 0.061188012
-0.007639386 0.05802955 -0.04864135 -0.008656112 0.021152018 0.010694715 -0.023453876 -0.016537886
0.044851035 0.024308385 -0.026399314 0.025103595 0.05249524 -0.010237371 0.045954242 -0.0021275291
-0.021501053 0.021527039 -0.0074694823 -0.012481979 0.014115299 -0.026023747 0.04556319 0.061228417
0.010243031 -0.039655857 -0.034544487 -0.028454093 0.011852101 0.019613883 0.07775556 -0.004207936
0.0037432422 0.021242438 0.010411069 -0.060741305 -0.02161083 0.03363042 -0.01149542 0.051261093
0.02099307 0.018324519 0.0043191337 0.014983409 0.02482922 0.009612879 -0.0032479803 0.0068444777
0.027660375 0.0012885975 0.023804484 0.029120443 0.0124550145 0.10017848 0.01563524 0.02039972
-0.028812721 -0.1518758 0.0045234896 -0.041562986 -0.03247537 -0.053790186 -0.031191193 0.05422585
-0.06828828 -0.03336099 -0.027128233 -0.010918643 -0.012580632 0.016476871 -0.0064728027 0.048792366

conv.2.weight f4 [64, 8, 5, 5]
00000000: 1e7b 9636 5ac6 17b9 5a33 f738 b897 2939
00000010: f730 b1b8 0858 d938 1966 013a 9891 79b9
00000020: 5c2e 48b9 c227 ac38 4d6c 05b9 4c24 75b9
00000030: c781 dcb9 c52c f3b8 9aee 0ab9 66fb 0f38
00000040: f911 17b9 2c0e 033a 65e2 e138 b469 3339
00000050: 3736 6837 9f7e f9b6 b716 a2b9 f318 f838
00000060: 48fc 1fb9 3ee5 3438 99ec b237 97c3 8db9
00000070: 8568 bd38 b534 93b8 f9fd 4b39 72a1 30b9
00000080: 053e c339 70ff d5b8 21ee 9739 3041 91b9
00000090: 688f b339 f31e 14ba 82e0 e338 d553 0cba
000000a0: ffcd 0c39 a70c 25ba 79c9 5f3a cc2f e5b9
000000b0: d0fd a838 cf34 7737 ba1a d739 8d42 d0b8
000000c0: c60c c3b7 a1cf 1339 d184 5b38 e775 b6b8
000000d0: b0b7 4d39 c26d e2b8 cbd4 b438 111e 2338
000000e0: 3331 1839 af49 3dba 0e8c ed39 635d 08b9
000000f0: bc32 df38 6d6d 78ba 2204 023b 6919 4aba
00000100: a8c2 b538 5f86 4d39 ddf7 113a 388e bcba
00000110: 1476 0f3a fe11 77b8 3a01 f0b8 67ad d737
00000120: 43c2 5d39 8643 85b7 a5ec 6d38 e8af 47b9
00000130: 98d0 2639 3a0d b0b8 0529 ee38 3b79 85b8
00000140: 287c 7739 3882 4cb9 338f ad39 5af5 56b8
00000150: e9b8 7239 61e9 12b9 bd02 80b7 dbd8 02ba
00000160: fdd1 89b8 e30a 38b9 7deb 5139 984f 37ba
00000170: 2c52 c33a 1572 c4b8 3f62 92b8 c135 34b9
00000180: d754 223a 71e2 5fba f838 b2b7 d722 bc37
00000190: e31c 9538 f8d7 c6b8 5ff5 11b9 94f8 5937
000001a0: 0a93 b8b8 ac65 cd38 5bb4 42b8 71c6 2cb8
000001b0: 97ba 0eb8 23e1 fdb7 66e4 18b9 32f5 4239
000001c0: 1bee a536 16cf 8639 5a8f 9038 5254 7ab6
000001d0: 7eb9 fab9 f91f 1b3a f7e1 0cba 20f6 bc37
000001e0: 9dd5 6135 18fc f5b7 a007 aeb8 733a bd39
000001f0: ebc0 feb5 81b7 15b9 97e9 5339 212f 73b9
00000200: 891e 4c39 dad0 d6b6 a7bd 3e39 b68c b834
00000210: d771 9bb8 e515 d638 4ed8 7238 cf11 95b7
00000220: dcde eab8 9de5 ac38 74d2 21ba e532 33b9
00000230: 77be be37 25db 5739 d957 5fb8 3a5a 0a3a
00000240: 013c 6b38 902a 9bb8 57f0 65b9 b14c 6a39
00000250: 7476 80b9 dd63 cc37 7b94 cab7 a9bf cf38
00000260: 158f 00b9 3c72 d338 a7a4 0537 6c87 e137
00000270: 5ce3 f6b8 9281 be39 cf25 c2b9 dc20 16b9
00000280: e869 83b9 5937 1d35 3ddb f839 5ecc dab6
00000290: 85e5 e737 35da 7939 9c25 6eb7 9147 85b9
000002a0: 3bce c439 ecfe 3039 5ca2 1bb9 3761 3238
000002b0: 13a6 5038 0454 c938 6e0e c138 760d 0b38
000002c0: 462e b9b7 8ce1 bdb9 a81e 3239 e656 31b6
000002d0: 0485 e038 f497 0136 4d31 2b3a 868c e2b9
000002e0: 3dcf 4a39 d9d4 76b6 7d32 af39 7e45 0e39
000002f0: 58ad 643a 577f 4fb9 8aed 63b8 7924 28ba
00000300: 1b07 e1b9 8393 04ba 5677 0cb9 9e85 2f37
00000310: 73e9 0d3a 9d4c 88b9 4a63 cb38 005a 4db8
00000320: e2fc d83e 95d0 11be bf28 22be 4338 8f3d
00000330: c40e 13bd df03 163e ce49 ed3d 21fb 48be
00000340: 1297 5b3d 8435 493d f344 d1bd eb6d ed3d
00000350: 05e7 82bd f5e4 073d ca5f 75bc cc5a 11be
00000360: 42f0 ee3d 4da4 3b3d d6a4 8d3a 4c48 343d
00000370: 8a7f a3bd 1c2b cf3e af50 49be 4a9d 1dbe
00000380: 483c 78bd 8be6 a9bd 6cb8 fdbd 2d62 743d
00000390: f156 bf3d dc94 993d d68d 233d 7a75 1dbd
000003a0: 8f37 243d 3967 86bc 955b 8e3d cc2e a93d
000003b0: 8a24 afbe 4688 883e 27f7 0a3e b62f 17bd
000003c0: b0af 0a3e 5221 ee3b 41f8 133e d144 3f3a
000003d0: 9085 14bd a0a7 dc3d 2d62 a6bd bbe6 903c
000003e0: 120d fc3d 4de0 f0bd a30b a73d 6f45 8abe
000003f0: d147 433e 07fc 323d b7bb ab3c dcc9 873d
4.484681e-06 -0.00014474374 0.00011787443 0.00016173616 -8.449138e-05 0.000103637634 0.0004936173 -0.00023800728
-0.00019090757 8.2090046e-05 -0.00012724214 -0.00023378542 -0.00042058362 -0.00011595482 -0.00013249592 3.432799e-05
-0.00014407178 0.0004999365 0.00010771005 0.00017110148 1.38409005e-05 -7.435519e-06 -0.00030915972 0.00011830209
-0.00015257404 4.3128843e-05 2.1329428e-05 -0.00027039342 9.0316906e-05 -7.019324e-05 0.00019454201 -0.00016844811
0.00037239506 -0.000102042104 0.00028978384 -0.00027705124 0.00034248387 -0.0005650364 0.00010866021 -0.0005353068
0.0001342818 -0.0006296136 0.00085367967 -0.00043713895 8.0581405e-05 1.4734643e-05 0.00041027908 -9.930609e-05
-2.325176e-05 0.0001409636 5.2337364e-05 -8.700397e-05 0.00019618752 -0.00010796964 8.6227046e-05 3.889023e-05
0.00014514178 -0.00072207575 0.00045308511 -0.0001300476 0.00010642919 -0.0009476755 0.001983889 -0.0007709475
8.66701e-05 0.0001960038 0.00055682455 -0.0014385646 0.0005472612 -5.8906146e-05 -0.0001144432 2.5710744e-05
0.0002114857 -1.5886279e-05 5.6725596e-05 -0.00019043649 0.00015908701 -8.3947976e-05 0.00011356365 -6.364515e-05
0.00023602007 -0.00019503466 0.00033103823 -5.1250077e-05 0.00023147803 -0.00014010585 -1.5260064e-05 -0.00049914204
-6.5717824e-05 -0.00017551663 0.0002001952 -0.00069927564 0.0014901808 -9.367258e-05 -6.980122e-05 -0.00017186163
0.00061924517 -0.00085405173 -2.1245782e-05 2.242757e-05 7.110254e-05 -9.481603e-05 -0.00013919685 1.29920845e-05
-8.801192e-05 9.7940996e-05 -4.6421173e-05 -4.119281e-05 -3.4029214e-05 -3.0264788e-05 -0.00014580935 0.00018592624
4.9451023e-06 0.00025712763 6.8931564e-05 -3.7301984e-06 -0.00047821918 0.0005917545 -0.00053742476 2.2525957e-05
8.412988e-07 -2.9323666e-05 -8.298387e-05 0.00036092437 -1.8980621e-06 -0.00014278108 0.00020209547 -0.00023191843
0.00019466331 -6.4020105e-06 0.00018190463 3.4375051e-07 -7.41218e-05 0.00010208393 5.7898746e-05 -1.7770477e-05
-0.000111995 8.244368e-05 -0.00061730226 -0.0001708973 2.2738457e-05 0.00020585636 -5.3249158e-05 0.0005277727
5.608425e-05 -7.398904e-05 -0.00021928675 0.00022344549 -0.00024502317 2.4365198e-05 -2.4149418e-05 9.906229e-05
-0.00012260333 0.00010082542 7.965754e-06 2.688515e-05 -0.00011772543 0.0003633616 -0.00037030733 -0.00014317356
-0.00025065173 5.85676e-07 0.0004746559 -6.5206978e-06 2.7644224e-05 0.00023827779 -1.4194662e-05 -0.00025421058
0.00037537687 0.00016879634 -0.00014842435 4.2529045e-05 4.9745733e-05 9.600076e-05 9.205645e-05 3.315272e-05
-2.2075266e-05 -0.00036216935 0.00016986823 -2.6425637e-06 0.000107059284 1.9310946e-06 0.0006530479 -0.00043210777
0.00019341423 -3.678075e-06 0.00033416218 0.00013568063 0.000872334 -0.00019788496 -5.4342243e-05 -0.0006414126
-0.00042920638 -0.00050573813 -0.00013395897 1.0461923e-05 0.000541351 -0.00025997023 9.698288e-05 -4.8959628e-05
0.42380434 -0.14239724 -0.15835856 0.06993153 -0.035902753 0.14649914 0.11586343 -0.19627048
0.05361087 0.049123302 -0.10218229 0.11593231 -0.0639172 0.033177335 -0.014976451 -0.14194793
0.11666919 0.045810986 0.0010806571 0.04401426 -0.079833105 0.40462577 -0.19659685 -0.15392032
-0.060604364 -0.08295926 -0.12388691 0.05966394 0.09342755 0.07499096 0.039930187 -0.038442113
0.040092047 -0.016406642 0.06951062 0.08260879 -0.34207565 0.26666468 0.13570844 -0.036910735
0.13543582 0.0072671557 0.1445017 0.0007296326 -0.036260188 0.107741594 -0.08124194 0.017688146
0.123071805 -0.11761532 0.081565164 -0.270061 0.19070365 0.043697383 0.020963533 0.066302985
