weights/CRR_jfb_CT.pt (torch, 57703 bytes, 4 tensors)

scaling f4 [1, 64, 1, 1]
000000 ff ca 2a 40 4b 8c 1b 40 8f bd 2b 40 f6 84 14 40
       2.66864 2.4304378 2.6834447 2.3206153
000010 cf 07 17 40 fe ad 10 40 69 12 14 40 0c f5 37 40
       2.3598516 2.2606196 2.3136237 2.8743315
000020 4b 8b 4c 40 f0 12 49 40 e4 e2 1e 40 39 0a fb 3f
       3.1960018 3.1417809 2.4825983 1.9612495
000030 e3 a8 04 40 77 9a 27 40 8c 42 2b 40 6e 70 3e 40
       2.072808 2.6188028 2.6759367 2.9756122
000040 cc 35 3e 40 55 d9 08 40 92 6b 1a 40 14 a1 11 40
       2.9720335 2.138265 2.4128156 2.2754564
000050 3a 81 23 40 38 48 1c 40 23 76 47 40 15 fa 1f 40
       2.5547624 2.441908 3.1165855 2.4996388
000060 e9 e3 58 40 88 10 00 40 3d bd 33 40 64 24 07 40
       3.3889105 2.001009 2.8084252 2.111596
000070 af f1 0b 40 ba e8 35 40 cc 6d 1e 40 40 1e 4d 40
       2.1866262 2.8423295 2.4754515 3.2049713
000080 fd 12 17 40 35 97 1e 40 0b b7 16 40 f4 29 1d 40
       2.360534 2.477979 2.354922 2.4556856
000090 a7 ac 1e 40 f4 19 34 40 ad 68 42 40 df f1 1d 40
       2.4792879 2.814084 3.037639 2.4678876
0000a0 33 7f 45 40 ed b7 2e 40 03 73 22 40 02 a8 11 40
       3.0858886 2.729976 2.5382698 2.2758794
0000b0 4b 60 36 40 6c 5c 53 40 b6 bf 3c 40 e3 5e 59 40
       2.8496273 3.302516 2.949201 3.3964164
0000c0 2b 7f 17 40 78 c1 01 40 9d b8 16 40 b1 56 5b 40
       2.3671367 2.0274334 2.355018 3.4271662
0000d0 53 42 0c 40 17 ed 18 40 17 e2 48 40 72 91 1a 40
       2.191548 2.3894708 3.1387994 2.4151273
0000e0 2e c8 2b 40 d9 3f 5e 40 1e b4 09 40 46 d8 0b 40
       2.684093 3.472647 2.1516185 2.1850753
0000f0 87 a2 04 40 9d b8 3d 40 3d 32 28 40 b1 a1 58 40
       2.07242 2.964393 2.6280663 3.3848689

filters.0.parametrizations.weight.original f4 [4, 1, 5, 5]
000000 28 70 59 3c dd 45 f1 bc a9 65 31 3e 89 bb 78 bd
       0.013271369 -0.029452259 0.17323937 -0.060725722
000010 9a 0f 34 bb bb 63 11 be 70 8f 0c 3d 39 f3 2b bd
       -0.002747512 -0.141982 0.03431648 -0.041980002
000020 b8 2c dd bb 6c d7 94 3c bf af 3b 3e d2 bb 77 3e
       -0.0067497157 0.018169127 0.1832876 0.24192742
000030 d3 d8 5c be 99 8c 71 be 34 38 11 3e d0 6c 29 be
       -0.21567087 -0.2358879 0.14181596 -0.16545415
000040 e8 5e 1f be c0 54 c2 bd 05 d3 dc 3d 66 59 8b 3c
       -0.15563548 -0.09488821 0.10782436 0.017010402
000050 22 c6 b0 3d 08 29 bd 3d f7 4d 8a bc 86 e3 36 3d
       0.08631541 0.09236342 -0.01688288 0.044650577
000060 b9 b6 e6 3d a2 00 98 bd cb 4f ea 3c c5 0d 9b bd
       0.1126532 -0.07421996 0.028602501 -0.07570986
000070 a5 0f 14 3e db 19 d5 3d 46 21 0c 3e 17 fd ee bd
       0.14459093 0.10405322 0.13684568 -0.11669367
000080 a9 8e 6d 3d 9a 0f 45 be f8 71 b3 b8 10 e3 1e 3e
       0.05799738 -0.19244233 -8.5566135e-05 0.15516305
000090 53 19 29 be 5d 86 3b be d1 1d 4b 3e 81 2b 91 3e
       -0.16513567 -0.18312974 0.19835593 0.28353503
0000a0 58 f3 61 3c 11 44 74 be 01 83 8d bc 95 35 cb bc
       0.013790928 -0.2385409 -0.017274382 -0.024805823
0000b0 a3 68 93 3d d9 49 0b be 3c c3 17 bd 26 5e 20 bd
       0.07197692 -0.1360239 -0.037051424 -0.039152287
0000c0 87 32 70 be 3b 6d 33 3d 27 09 60 bd a6 a6 0b bb
       -0.23456775 0.043805342 -0.05469623 -0.0021309047
0000d0 75 70 be 3d 05 24 8b 3c 06 a5 07 be d4 1d 99 bd
       0.09298793 0.016984949 -0.13246545 -0.074763924
0000e0 72 bf 00 be 07 3e 9a be 62 69 13 3e ff 1b f0 3c
       -0.1257303 -0.30125448 0.14395669 0.029310225
0000f0 a3 e1 af 3d 96 6b b5 3e 35 6f 2f be e1 21 3e bd
       0.08587959 0.35433644 -0.17132266 -0.04641903
000100 6e d0 38 3e cd 61 bd 3d ac 7b 9b 3d b4 cc dc bd
       0.1804826 0.0924717 0.07591948 -0.107812315
000110 42 c7 6a 3e 07 5f f1 bd 4b 38 c6 bd 20 9c 6f bd
       0.22927573 -0.11785703 -0.09678706 -0.0584985
000120 dd fe e2 bc 9d 9f 80 be 50 1b 50 3b 3c a1 08 be
       -0.027709419 -0.25121775 0.003175456 -0.13342756
000130 b9 86 2d 3e 9b 67 44 be 3d 56 0e 3e 5f 56 2b 3d
       0.16945924 -0.19180147 0.13900085 0.041830417
000140 bb 71 28 be 58 58 ed bd e6 48 bd bd b9 7e bd bd
       -0.16449635 -0.11589116 -0.0924242 -0.09252686
000150 95 1e c6 3d 07 e8 b0 bc e2 4c 9d be 60 b5 99 3c
       0.09673802 -0.021595014 -0.3072272 0.018763244
000160 7c 5c 39 be c9 06 47 3e 65 b9 a0 bd c2 99 3c 3e
       -0.18101686 0.19436182 -0.07847861 0.18418029
000170 cf 47 04 3e a8 b2 25 be 6c a0 df bc 5c 34 34 bd
       0.12918018 -0.16181433 -0.027298175 -0.043995246
000180 7e 7c 1f 3e 19 1c 20 3e 00 97 08 3d bd 18 ca 3d
       0.15574834 0.15635718 0.03334713 0.09868

filters.1.weight f4 [8, 4, 5, 5]
000000 d2 22 c7 bd 73 b4 b9 bd a5 46 46 be b2 f6 c8 3c
       -0.09723438 -0.09067621 -0.19362886 0.024531696
000010 da 6e b1 3d d0 a3 c1 b9 89 da bb 3d 20 65 10 3e
       0.086637214 -0.00036933878 0.09172542 0.14101076
000020 81 9d b0 3d 68 30 52 3d 67 16 10 3e 43 a8 a7 bd
       0.086237915 0.051315695 0.14071046 -0.0818639
000030 ed 20 8d be 68 f4 21 bd f6 19 70 bc 4d a9 a5 bd
       -0.27564183 -0.039539725 -0.014654627 -0.08088932
000040 88 7c ec 3d e6 b3 37 3e 96 c6 5d 3e f8 81 a0 bc
       0.1154719 0.1793972 0.21657786 -0.019593224
000050 b3 c3 10 bc 5a db 0c be fc ea 0e 3e c0 a4 cf bd
       -0.008835721 -0.13755551 0.13956827 -0.101388454
000060 01 95 1c 3c 7b 6d 6a bc 40 0c f1 3d 51 fa 25 bd
       0.00955701 -0.014308329 0.117699146 -0.040521923
000070 84 08 9b 3d 7c 41 2f 3c 6d cb a0 bd dc 1e 55 3d
       0.075699836 0.010696765 -0.078513004 0.052031383
000080 4d 11 d5 3d fa c0 b4 bc 12 b0 19 bd 08 cd 6d bc
       0.104036905 -0.022064675 -0.03752143 -0.014514215
000090 89 c8 21 3d 6e 3e aa bd aa c0 29 be f1 4d 1c 3c
       0.039497886 -0.08312689 -0.16577402 0.009540067
0000a0 32 47 2b bd dd 21 6f be 64 30 7b bd f3 46 15 bd
       -0.041815944 -0.23352762 -0.061325446 -0.036444616
0000b0 de 4a 81 3d 74 47 f5 bd ea 5f 19 3e 17 91 d6 bd
       0.06313108 -0.11976519 0.14977995 -0.104768924
0000c0 b8 2d 4a bd 10 07 2d bc f5 2c a7 bc e5 cb 86 bb
       -0.049360007 -0.010560766 -0.02040718 -0.0041136616
0000d0 e8 c9 dd 3a 26 34 f6 3d e7 33 22 b9 37 1f 1c be
       0.0016921135 0.12021665 -0.00015468859 -0.15246283
0000e0 93 5b 30 3c 8d 49 88 bd 54 2f 83 bd 54 01 d4 3a
       0.0107640205 -0.06654654 -0.064055115 0.0016174712
0000f0 4f c6 80 bc e8 d7 15 be 27 28 42 be 7b 2a 11 3e
       -0.01571956 -0.14633143 -0.1896063 0.14176361
000100 4c 37 95 bc 8e f3 1c bc de 7f a8 3d f8 ce c6 3d
       -0.018214844 -0.009579552 0.08227514 0.09707445
000110 1e 32 2a 3e 24 c7 98 bc 00 79 1a bc 73 77 4f be
       0.1662068 -0.018649645 -0.009428263 -0.2026041
000120 f3 da e9 3c ee 7c 33 3c 59 bb de bd 3c bc 89 3d
       0.028546786 0.0109550785 -0.108755775 0.06725356
000130 46 43 f1 3d 52 bb bb 3d af f0 51 3c 08 af ba bc
       0.117804095 0.09166588 0.012813731 -0.02278854
000140 35 14 9a bd 34 6a 9a 3d 33 7d 94 bd 85 f1 f6 3d
       -0.075233854 0.07539788 -0.07250442 0.12057785
000150 63 d1 d3 bd e1 55 c8 3c e5 5c 80 bd 1a 08 b2 3e
       -0.10342672 0.024455013 -0.06267718 0.34771806
000160 97 f1 16 be bf 87 00 3b fc 84 af 3c f3 78 c3 bd
       -0.14740597 0.001961216 0.021425717 -0.095445536
000170 8d ac 1e 3d 75 c7 32 3e 57 1c 2f bd bf 92 c4 bc
       0.038738776 0.174589 -0.042751636 -0.023995755
000180 34 d0 4a bd 1a 96 4d be 5b fa 13 bd a8 e0 6b 3d
       -0.049514964 -0.2007679 -0.03612743 0.057587296
000190 6c 24 73 bd 3e 36 36 3d 8d 55 a6 bc db fd 54 ba
       -0.059360906 0.044485323 -0.020304466 -0.00081249856
0001a0 dd 27 30 bd 0b 77 1b be 17 50 12 bb bd a6 6c 3d
       -0.043006767 -0.1518213 -0.002232557 0.0577762
0001b0 25 90 08 be 68 31 a7 bd 33 9d 68 bd f8 24 df bd
       -0.13336237 -0.0816372 -0.05679054 -0.10895723
0001c0 88 b1 61 bb ad 6b f0 3d ad 43 ab 3d ef 35 aa ba
       -0.0034438092 0.117392875 0.083625175 -0.0012986044
0001d0 6d 35 12 bd 75 73 54 3c 9a de 77 bd 11 12 26 37
       -0.035695482 0.01296698 -0.060515024 9.898577e-06
0001e0 a7 16 9b bd a0 46 3d bc 92 8f 8e bc c7 c3 6d bd
       -0.0757268 -0.011552483 -0.017402444 -0.058048036
0001f0 92 53 1d 3e a2 49 be bd 64 8f b9 bc f1 44 a9 3d
       0.15363911 -0.09291388 -0.022651382 0.08265103
000200 9c 53 9e 3c b3 4f f1 3c e0 87 04 be f1 6b 37 be
       0.019326977 0.029456949 -0.12942457 -0.1791227
000210 da de 96 bd f3 af ce 3c bb 7d 1d be fe 47 34 3d
       -0.07366724 0.025230384 -0.15379994 0.04401397
000220 a9 8c 16 bc 50 ad 8b 3d 10 10 63 3d ea 0f b4 3c
       -0.009188809 0.06820166 0.05543524 0.021980245
000230 9f fc 01 be 26 b6 d1 3c 52 fd b7 bd 22 c3 36 bd
       -0.12694024 0.02559955 -0.08983864 -0.044619687
000240 b0 c3 9e bc 05 fc fe 3b 46 43 4f 3d 5b ad 16 3e
       -0.01938042 0.007781508 0.050601266 0.14714567
000250 d4 02 e8 3c 47 04 23 3d de 9d d3 bc e4 83 4b 3c
       0.028321661 0.039799 -0.025832113 0.012421582
000260 bc 02 dd bd ac 72 0c be d4 40 1b bb 4d be 32 bd
       -0.10791537 -0.13715619 -0.0023689764 -0.043638516
000270 45 44 97 3c 2e 3e 14 3e 4a 3b 4e be ea 1e c7 bb
       0.01846517 0.14476845 -0.20139804 -0.0060766833
000280 3e 33 1c be 8a 6b 95 bc c0 52 90 3d c9 d5 d7 3d
       -0.15253922 -0.018239755 0.07047033 0.10538823
000290 04 08 99 bd b8 b2 ad bd 84 58 30 be 8c 82 e3 bb
       -0.07472232 -0.084813535 -0.17221266 -0.0069430526
0002a0 fd 11 2d 3d 18 36 84 bd c1 23 61 bd b9 56 21 3e
       0.042253483 -0.0645563 -0.05496574 0.15755738
0002b0 a3 b0 4c bd ef 70 39 bd 71 fa ec 3c 20 22 86 bd
       -0.04997314 -0.045273717 0.028928014 -0.065494776
0002c0 e9 5a 7e 3d 43 c2 a8 bc 03 bb fa 3d 1b 45 01 be
       0.062098417 -0.020600444 0.12242701 -0.12624018
0002d0 33 37 30 bd 14 47 6b 3d c6 dd 0d 3d 9f 8d 88 3c
       -0.043021392 0.057440832 0.034635328 0.016669093
0002e0 e2 b7 1c 3d 40 b0 28 be 74 f0 33 bd ca d9 c4 3d
       0.0382613 -0.16473484 -0.043930486 0.096118525
0002f0 91 1e 12 3c 9a c7 07 3e 60 61 8a bd 6c fa e0 3c
       0.00891842 0.13259736 -0.06756854 0.02746316
000300 38 79 04 be 8d 18 15 be 83 78 b6 3c 71 d4 a4 3d
       -0.12936866 -0.14560147 0.022274261 0.080483325
000310 a4 44 08 bc 2e 73 0a be 40 db 49 3d a0 77 1b bd
       -0.008317146 -0.135205 0.04928136 -0.03795588
000320 68 e9 fb 3d 4d 52 80 3d 7f 02 64 bd 5f 2b 6b bd
       0.12300378 0.06265698 -0.055666443 -0.05741441
000330 48 6f 45 bd 28 32 92 3d d9 0c 9e 3d 62 3a 09 bd
       -0.04820183 0.07138473 0.07717294 -0.033502944
000340 c8 7f d3 3c c2 97 13 be 64 64 b2 3d 4c e6 1a be
       0.025817767 -0.1441336 0.08710554 -0.15126914
000350 c8 84 bf be 45 c2 69 3d b4 f1 84 3d 61 b6 ce 3d
       -0.37405992 0.057070035 0.06491414 0.1009338
000360 03 f1 e8 bd b9 b2 34 bd 79 0a 06 3d 04 b8 13 be
       -0.11374094 -0.044115756 0.03272483 -0.14425665
000370 09 3c 19 3d 7c a0 fc 3a 8e be 06 3e 9c 9a 7a 3d
       0.03741077 0.0019273902 0.13158628 0.061182603
000380 4b 47 86 3d 41 ab c9 3d 43 46 84 bd 4e 20 62 bd
       0.06556567 0.09847117 -0.06458714 -0.05520659
000390 18 52 71 3d a4 95 1c bc a6 37 1b 3e 90 14 98 3d
       0.05891618 -0.0095571615 0.15157947 0.07425797
0003a0 9d df b0 3d ec 80 e1 bd 4f cc 2f 3e 87 56 69 3e
       0.08636401 -0.11010918 0.17167781 0.22786914
0003b0 77 ce b2 3d e4 ca 18 be eb 12 1c be c8 ee a2 bb
       0.08730786 -0.14921147 -0.15241592 -0.0049723126
0003c0 c5 61 07 3d 1e 16 ab bd 59 c4 8e 3d 1d fc 5e 3c
       0.033052225 -0.08353828 0.06971044 0.013609913
0003d0 ca d9 8c 3d 71 df 2f 3e 25 e9 ed 3d a4 7a ab 3d
       0.068774775 0.1717508 0.116167344 0.08373001
0003e0 53 81 d5 3d 87 b2 fa 3d 1a 2f 1d bd 06 d8 28 bd
       0.10425057 0.12241083 -0.038374998 -0.04122164
0003f0 74 30 20 3e 3f 78 ee bc a1 e5 92 bc 24 f0 6d 3d
       0.15643483 -0.029110072 -0.017931761 0.058090344

filters.2.weight f4 [64, 8, 5, 5]
000000 a4 cb 5d 3d bf 90 53 3d 73 9a 7b 3d ed 57 28 3e
       0.054149285 0.051651713 0.06142659 0.16439791
000010 9f 28 cd 3d 39 36 1a 3d 7e 62 97 3d 40 f6 33 3d
       0.100175135 0.037649367 0.07391833 0.043936014
000020 76 4c 1a 3e e8 2a f8 3d 55 56 3c 3d 05 73 80 3d
       0.1506823 0.12117559 0.04598077 0.06271938
000030 c4 74 1d bc 51 b8 13 3e b1 87 c2 3d e0 d4 21 3e
       -0.009610359 0.1442578 0.09498537 0.15803862
000040 7b f2 05 3e 30 17 c8 3c dc e2 dc 3d 61 dc ec 3b
       0.1308078 0.02442512 0.107854575 0.0072284197
000050 e6 8c 01 3e 50 ad 2e 3e 8a 0d f3 3c 5a a4 74 39
       0.12651405 0.17058301 0.029669542 0.00023330879
000060 f4 b2 84 3d f4 b0 58 bc 1c cf 51 3d 92 c7 70 3e
       0.06479445 -0.013225783 0.051222906 0.2351363
000070 c1 8e 0b 3e c4 fb ee 3d 88 8a b6 ba bd a2 78 3d
       0.13628675 0.11669114 -0.0013926784 0.060702074
000080 8a 93 cc 3c 44 34 00 3e 51 e9 15 3e ab 59 b5 bd
       0.024972696 0.12519938 0.14639784 -0.088549934
000090 61 be 08 3c 61 6d 5a 3b a2 f2 bf 3d 36 ee 5e 3c
       0.008346171 0.0033329355 0.093724504 0.013606599
0000a0 e4 11 84 3d 7b 39 78 3c 89 36 2a 3e 6d 76 b7 3d
       0.06448725 0.015150423 0.16622366 0.08958135
0000b0 cf 4e 80 3d 8f 28 c2 3d 87 e8 94 bb 35 0d 01 3d
       0.062650315 0.09480392 -0.004544321 0.031506736
0000c0 4e 93 1d 3d 8d d8 b9 3d dc 41 eb bc a6 f9 64 bd
       0.03847056 0.09074507 -0.028717928 -0.055902146
0000d0 97 6f 25 be 9f 57 46 be 36 5d 74 be ed 56 93 bd
       -0.1615585 -0.19369362 -0.23863682 -0.07194314
0000e0 e4 07 19 bd 93 84 9e bd a7 0e d7 bd 79 6f 00 be
       -0.03736104 -0.0774013 -0.105008416 -0.12542523
0000f0 92 ab 47 bd c6 96 14 be 24 38 22 bd 81 07 41 be
       -0.048747607 -0.1451064 -0.03960432 -0.18850519
000100 21 c1 a1 bd 73 49 fc bd b4 d1 d4 bd 4d b2 50 be
       -0.078981645 -0.12318697 -0.1039156 -0.20380516
000110 b3 53 0a be c8 67 94 bd eb 94 d4 bd b9 d3 18 be
       -0.13508491 -0.07246357 -0.10379966 -0.14924516
000120 75 a8 2d be 32 35 a0 bd 37 4d 7f bd 57 78 01 3d
       -0.16958793 -0.07822646 -0.062329497 0.031608906
000130 35 6c 2b bd 8e fd 8c 3d 88 21 0e 3e ff 5b 99 3d
       -0.04185124 0.06884299 0.13879979 0.0748825
000140 2e 6d 4a 3c 6b d4 a6 bc 18 27 0c 3e 98 37 ba 3d
       0.012355132 -0.02036496 0.13686788 0.09092635
000150 37 b5 c9 3d 57 15 1e 3d 71 bc 76 bc c9 d6 f5 bb
       0.09849017 0.03859457 -0.015059576 -0.007502411
000160 e1 91 d7 3d 5b 6f fa 3d 76 78 3f 3e 3a b3 e8 3d
       0.10525871 0.122282706 0.18698296 0.1136231
000170 6d 3c 9c 3c 4e 87 b8 bc 12 31 49 3d 43 16 d5 3d
       0.019071782 -0.022525456 0.049119063 0.10404637
000180 c7 d9 05 3e 4e 9a 0d 3e b7 f9 4b bd 0d ca 61 bd
       0.13071357 0.13828394 -0.049798694 -0.05512433
000190 31 82 09 3c d2 6d e2 bd 80 8d 2d be 56 4e 14 be
       0.008392856 -0.11056103 -0.16948509 -0.14483008
0001a0 9c 92 42 bc 07 4a c5 3c 92 ee b7 ba ac c8 d0 bb
       -0.011875775 0.02408315 -0.0014032891 -0.006371578
0001b0 54 87 05 bd aa d3 e5 3c 1c da f0 3c d4 a8 ce 3b
       -0.032599762 0.02805503 0.029400878 0.006306747
0001c0 25 e4 d9 bc a0 2f 12 bd 3d 02 c3 3b 56 12 3f be
       -0.026598046 -0.03568995 0.0059511946 -0.18659338
0001d0 eb 06 ce bc f0 26 90 bc 34 cc 0e bd 78 94 15 3d
       -0.025149783 -0.017596692 -0.034862712 0.036518544
0001e0 01 cd 90 be 31 08 40 be b8 07 5c 3b 1d c2 45 bc
       -0.28281406 -0.18753125 0.0033573937 -0.012070206
0001f0 da 56 b0 3d 72 22 39 3c 7b 79 19 3d 71 ce bd 3d
       0.086103156 0.011299716 0.03746937 0.09267891
000200 ad 9c 64 3e e3 ba 0e 3e 9d 35 80 3d 48 e0 81 3d
       0.22325392 0.13938479 0.06260226 0.063416064
000210 65 62 67 3d 9f 62 3c 3d de 86 3e 3d 95 61 b6 3d
       0.05649032 0.04599249 0.046515338 0.08905331
000220 de a2 35 bc 43 bc 5d 3d 3a dd 04 bd 07 1b 87 bd
       -0.011086194 0.05413462 -0.03243754 -0.06596952
000230 e8 14 93 3d 05 76 59 3d b8 a2 ee bc 22 f8 57 bd
       0.07181722 0.053091068 -0.029130325 -0.052726872
000240 7a 16 32 3b 9b 92 f9 3d e6 bf 14 3e 2f 0e 9f 3d
       0.0027174042 0.12186166 0.14526328 0.07766377
000250 39 b9 2f bc 1c 75 ac bb 03 a7 9d 3d 0a 7f d5 3c
       -0.010725313 -0.005262984 0.076978706 0.026061554
000260 24 66 35 bc 3c 90 09 bd 89 08 d2 3c b1 4d ab 3d
       -0.0110717155 -0.03358482 0.025638836 0.08364428
000270 e8 db 8b 3c 4f 06 9c bc b5 0c 83 bc 36 bf 5d bc
       0.017072633 -0.019045977 -0.01599727 -0.013534358
000280 59 1e e0 3d ce 5d 34 3d 89 13 a2 bd 72 f5 d1 bc
       0.10943288 0.04403477 -0.07913882 -0.025629733
000290 b6 47 67 3c a3 53 e2 3d 79 f1 37 ba 29 70 c8 bc
       0.014116218 0.11051109 -0.0007016878 -0.024467545
0002a0 ae 63 92 bd f9 8c ae bb c0 7a b7 3d 20 9e b1 3d
       -0.07147919 -0.005326864 0.089589596 0.08672738
0002b0 05 a9 a3 3d 64 78 13 bd 6a 24 e0 3c 08 67 52 3d
       0.07991222 -0.036003485 0.027361114 0.05136779
0002c0 84 83 ff bd d2 19 9e bd b0 76 16 3d 5d b6 64 bd
       -0.124762565 -0.077197686 0.036734283 -0.055837978
0002d0 10 db 1e 3d 03 4c 78 3d 91 81 c2 bc 0d f9 5c 3c
       0.038783133 0.060619365 -0.023743423 0.013487113
0002e0 6e 0d 48 bd 20 00 a2 bc b8 94 c3 bd 10 81 03 be
       -0.048840933 -0.01977545 -0.0954985 -0.12842202
0002f0 45 bf 2d be 7c 09 0e be a4 57 ff bb 8b 9b 56 3c
       -0.16967495 -0.13870806 -0.00779243 0.013098608
000300 6b 40 12 be 72 4d 02 be a4 42 b0 bd 51 9f 88 3c
       -0.14282386 -0.12724856 -0.08606461 0.01667753
000310 16 9d c5 bc e1 3a a4 bd 02 84 63 bd 8f ed 08 be
       -0.024122756 -0.08019043 -0.055545814 -0.13371871
000320 bf 9f f4 3c 36 d1 a0 bc d7 f3 ff 3c e9 ec 0a 3d
       0.02986133 -0.01963101 0.031244202 0.03391734
000330 1d 98 62 bc d9 cc 8a bc 08 b5 2b be 98 75 f1 bd
       -0.013830212 -0.016943382 -0.16768277 -0.11790007
000340 4f 5f 9a bd 82 5b a2 bd 14 bf 97 3d f8 bf 31 3e
       -0.0753771 -0.0792761 0.07409492 0.17358387
000350 54 05 af 3b 4d 4d b3 3d 54 9b 22 3c 35 53 d9 bd
       0.0053412113 0.08754978 0.009924728 -0.106115736
000360 b9 26 50 be c6 96 a9 bd fb 35 f0 bc 1d 00 39 bd
       -0.20327272 -0.08280711 -0.029322615 -0.045166124
000370 01 01 fc 3d b4 80 d2 3c cf 00 da 3d f1 0b 82 3d
       0.12304879 0.025696136 0.106446855 0.06349934
000380 32 eb 01 3e a9 f7 e6 3c 54 a2 63 bd de 33 92 bc
       0.12687376 0.028194265 -0.05557473 -0.017846998
000390 89 79 8d bd fd ef 9b bd 07 ca 83 3d 5d fd 48 bc
       -0.069079466 -0.076141335 0.06435018 -0.012267438
0003a0 03 0b a1 3d 61 68 cc bc cb 39 d9 3d d6 81 f8 bb
       0.078634284 -0.024952115 0.10606726 -0.007583837
0003b0 ed 34 cb bd e9 1c d0 bd ab 6c d2 bd 69 e9 07 be
       -0.09922204 -0.10161764 -0.10274633 -0.13272633
0003c0 dc 59 e7 3d bd 3b e0 3d 92 a5 f4 3c 6e f9 2f 3e
       0.11296436 0.10948894 0.029864106 0.17184994
0003d0 14 02 07 3e 23 b2 d2 bc d4 65 e2 bd bb 0b 1f bd
       0.13184386 -0.025719708 -0.110545784 -0.038829546
0003e0 2d 6c 32 be 25 4c e4 bc f6 74 c1 3c 63 e9 10 bd
       -0.17424078 -0.02786834 0.023615342 -0.035378825
0003f0 c0 93 28 3c 59 35 34 bd e5 95 29 bd 52 73 dc 3d
       0.010289133 -0.04399619 -0.041402716 0.10764183
