weights/CRR_bilevel.pt (torch, 57712 bytes, 4 tensors)

scaling f4 [1, 64, 1, 1]
000000 9b 62 53 40 89 69 53 40 88 7b 64 40 64 44 4a 40
       3.3028934 3.3033164 3.5700397 3.1604242
000010 8c 0a 5d 40 b2 3a 50 40 27 66 58 40 09 97 64 40
       3.4537687 3.2535825 3.381235 3.5717185
000020 10 cb 67 40 10 6b 59 40 dd 50 56 40 43 05 5f 40
       3.621769 3.3971596 3.3486855 3.4846961
000030 b3 dc 66 40 4b 4b 58 40 5e 34 5d 40 27 9a 6d 40
       3.6072204 3.3795955 3.4563212 3.7125337
000040 5b 99 60 40 07 ca 5b 40 31 e4 64 40 8e 87 59 40
       3.50936 3.4342058 3.5764277 3.3988986
000050 f9 5c 60 40 35 ee 5a 40 80 43 4f 40 2a 65 57 40
       3.5056746 3.420789 3.2384949 3.3655496
000060 7c c1 59 40 cd 79 56 40 70 5d 59 40 a8 d8 47 40
       3.4024343 3.3511841 3.396328 3.1225986
000070 cc a6 59 40 e6 4f 63 40 61 11 57 40 64 83 50 40
       3.4008055 3.5517516 3.3604357 3.2580194
000080 b6 03 62 40 ff 7e 5f 40 a9 ce 62 40 0b a9 54 40
       3.5314765 3.4921262 3.5438635 3.3228176
000090 73 26 55 40 29 51 52 40 33 c3 58 40 80 db 5d 40
       3.3304718 3.2862036 3.386914 3.4665222
0000a0 c2 a1 5b 40 f0 af 58 40 65 16 61 40 64 45 3a 40
       3.431748 3.3857384 3.5169919 2.9104853
0000b0 9c da 50 40 e4 99 56 40 6b bc 57 40 99 35 4c 40
       3.2633429 3.3531427 3.3708751 3.1907713
0000c0 c4 7f 65 40 94 82 6d 40 33 d8 58 40 71 a1 61 40
       3.5859232 3.7110949 3.3881958 3.5254786
0000d0 08 87 59 40 72 b6 5a 40 63 d6 52 40 4f 37 54 40
       3.3988667 3.4173856 3.2943351 3.3158758
0000e0 63 5e 63 40 00 06 4f 40 27 3f 61 40 03 ec 5d 40
       3.552636 3.2347412 3.5194795 3.46753
0000f0 43 0d 59 40 79 87 5e 40 1c 74 5c 40 5c 17 59 40
       3.3914344 3.4770186 3.4445868 3.3920507

filters.0.parametrizations.weight.original f4 [4, 1, 5, 5]
000000 ca 6c c8 3d b3 27 bb 3d 35 c8 1c 3e 2b cc d6 3c
       0.09786375 0.091384314 0.15310748 0.026220402
000010 0d 4a ff 3c f8 c1 fa bc c6 7d a6 bd b9 bc c2 3e
       0.03116324 -0.03061007 -0.08129458 0.3803461
000020 d3 74 12 bb ab b3 2c bd 91 8e 77 bd 3d 75 e3 be
       -0.0022347465 -0.042163532 -0.060438696 -0.44425383
000030 ba 28 11 3d d4 47 b5 3d 36 db 80 3c ab c0 01 be
       0.03543923 0.08851591 0.015729528 -0.12671153
000040 20 38 4d 3e bb ae 7d 3e d4 a9 2c be 6a 04 ec 3d
       0.20040941 0.24773686 -0.1686166 0.115242794
000050 56 28 e9 3d b2 0e 0d bd c3 c5 c0 bd f5 95 00 be
       0.113846466 -0.034437843 -0.0941272 -0.12557204
000060 63 27 df 3d 23 63 33 3d 27 44 e1 3a e1 5c a9 3d
       0.10896184 0.043795716 0.0017186449 0.08269668
000070 f1 c8 ea 3d b3 24 a1 bd 99 c8 42 3c 4d 28 cc 3d
       0.11464108 -0.07868328 0.0118886465 0.09968624
000080 48 c2 bd bd 56 a2 9e 3c dd c4 3e be 9f a9 f8 bd
       -0.09265572 0.019364517 -0.18629785 -0.12141728
000090 7e 4f 38 3e 0e c8 a8 bd 99 3e df 3e aa d3 e9 3d
       0.17999074 -0.082412824 0.43602446 0.11417325
0000a0 c5 72 00 3e c3 9b 0e bc 99 12 95 be ca 9b 06 be
       0.12543781 -0.008704129 -0.2911575 -0.13145366
0000b0 93 c1 3c 3e 94 c6 b5 3c 6c 9f 1a bd f5 be b1 3d
       0.18433218 0.022189416 -0.037749693 0.08679
0000c0 91 17 d0 bd 12 42 4b 3d ac e4 42 bb 32 35 30 3e
       -0.10160745 0.049623556 -0.002973835 0.17207792
0000d0 bd 8f 78 be 38 ef 2f 3e 7a 74 18 3e a6 c6 96 bd
       -0.24273582 0.17181098 0.14888182 -0.07362108
0000e0 ed bd 6c 3d 62 c7 26 3e ec 20 2f 3e 3a ad f6 bc
       0.057798315 0.16286996 0.17102402 -0.030111898
0000f0 0f 6c 59 3e 4a 6c 1e 3e 88 dc 90 3e 18 a1 83 be
       0.21232627 0.15470996 0.28293252 -0.25708842
000100 cf fe a4 3b 49 60 39 3b 26 d2 8f 3c 9e 5e 5a bc
       0.0050352584 0.002828615 0.017556261 -0.013328223
000110 d6 a2 08 be a6 66 75 bd 4b 95 db 3c 6a 1b df 3d
       -0.13343367 -0.059912346 0.026804587 0.10893901
000120 20 c3 58 be 48 f2 d3 3d a0 b0 3a bc 55 fb 78 bc
       -0.21168184 0.10348946 -0.01139465 -0.015196641
000130 86 4f 23 3e 5d 66 08 be 83 9a 70 ba 24 f0 40 bb
       0.15948305 -0.13320298 -0.00091782975 -0.002944001
000140 73 48 b3 bd 09 88 f6 bd f1 70 a3 3e c3 fa ec bd
       -0.08754053 -0.120376654 0.31922105 -0.115712665
000150 5e 3d 15 3c 1d b6 82 bd 13 b1 5d 3e dd 2b 41 bf
       0.009108869 -0.063823916 0.2164958 -0.75457555
000160 a3 7e 01 bd 0b a2 03 be 59 5f 99 3d 76 b7 07 3e
       -0.03161491 -0.12854783 0.07488889 0.13253579
000170 4f 19 9a be 32 79 2e be 7f 3d f6 3c e3 8b 79 bd
       -0.30097434 -0.1703842 0.03005862 -0.060924422
000180 39 18 1a 3d d9 b0 c8 3d 3c 2f 41 bd 46 dd 4d bc
       0.037620757 0.09799356 -0.047164187 -0.012564963

filters.1.weight f4 [8, 4, 5, 5]
000000 a4 6b 16 bc d4 11 99 3d c5 40 c6 3d 1f 92 3a be
       -0.009180937 0.074741036 0.096803226 -0.18219803
000010 8b d7 15 3d 59 50 b0 bd c1 0f 4f bd 91 cd a9 bd
       0.03658251 -0.08609075 -0.050552133 -0.08291162
000020 3d f6 52 3e 7b d4 af 3d 72 bd b9 3c e0 23 3b bd
       0.20601745 0.08585449 0.022673342 -0.04568851
000030 8d 94 4b 3e e7 75 95 3e 7f 97 59 3d 17 32 88 bd
       0.19880886 0.29191515 0.053122994 -0.06650179
000040 3d d9 75 bd 36 2d 97 bd 34 bc 75 3e 29 8f 8d 3c
       -0.060021628 -0.0738167 0.23997575 0.017280178
000050 ea 72 ed 3d e0 ef 7d 3d 8a c2 33 bd ed 1c 19 3d
       0.11594184 0.06199634 -0.0438867 0.0373811
000060 d4 76 d8 bc b9 7c 6f bd db 9a 71 bd 14 26 38 bd
       -0.02642385 -0.058468554 -0.058985572 -0.04495819
000070 cb ea 20 3d c3 18 38 3d b3 4d 47 3e d8 97 8d 3e
       0.039286416 0.04494549 0.19463234 0.2765491
000080 a1 b3 6a bd 51 de c2 bd 9f f7 91 3c 0e d6 b9 3d
       -0.057300214 -0.0951506 0.01781827 0.09074031
000090 2b 4f 72 3d 41 e6 64 3e 81 7c 52 3d 08 6e 14 3e
       0.05915753 0.2235346 0.051388267 0.14495099
0000a0 1f 0b 7b 3c 3b 97 8a 3c 72 40 85 3d 46 bb 98 be
       0.015322476 0.016917815 0.065064326 -0.29830378
0000b0 bd 1b c1 3c eb 7b 8d bd 08 29 97 3c 77 00 98 bd
       0.023572797 -0.06908401 0.018452182 -0.07421964
0000c0 1a 2f 81 bd d4 cb 28 3d f0 35 a9 bd 05 1a d8 3b
       -0.06307812 0.04121001 -0.08262241 0.0065948986
0000d0 37 30 11 3e f6 b7 65 3d af e6 a8 3c dd c1 16 3c
       0.14178549 0.056083642 0.020617811 0.009201494
0000e0 71 d8 49 be d7 da 18 3e 1f f1 0e be 63 a4 39 3e
       -0.19711472 0.14927231 -0.13959168 0.18129115
0000f0 1b a0 80 be 1a ee a3 bd 00 78 11 be d9 cf 9f bd
       -0.2512215 -0.08004399 -0.14205933 -0.07803316
000100 04 95 eb bc 64 3a 2e bc 44 a0 68 3d 92 18 44 be
       -0.02875758 -0.010634039 0.056793466 -0.19149998
000110 e1 cb f1 3c 8a 23 6d 3b d7 39 66 3d 8d 7c 09 3c
       0.029516162 0.0036184513 0.056207504 0.008391512
000120 48 af ca 3c 0e f3 3a be 6e 48 f1 3d 4e ea fc bc
       0.024741784 -0.1825678 0.11781393 -0.030873444
000130 89 c2 2c 3d 2f 5d 50 3e e3 32 1f be 26 ec 01 be
       0.04217771 0.20348047 -0.15546755 -0.1268774
000140 38 f1 04 3d ad 2c 0a 3e 1d 1b ab be 9f 17 63 be
       0.032456607 0.13493605 -0.33419123 -0.2217698
000150 80 d0 97 3c d3 fc 7e 3d 13 ac 8d bc c3 34 db 3e
       0.018532038 0.06225283 -0.017293965 0.42813691
000160 3e 8b b2 be 0c b4 e8 3c e8 e0 97 bd 46 56 0e be
       -0.34871858 0.028406166 -0.07415944 -0.13900098
000170 6d e6 b5 3d ea f0 50 be 0f e8 a0 3d 50 d9 ca 3d
       0.08881841 -0.20404401 0.07856762 0.0990473
000180 7d 1f 49 bc a7 0e b8 bd c0 c6 2e bd f6 7c c8 3d
       -0.012275574 -0.0898717 -0.04267001 0.097894594
000190 d6 7d 09 be 2d 6e 9c 3d cf 80 90 bd 5e c6 62 bd
       -0.13426909 0.07638202 -0.07055818 -0.05536496
0001a0 db 10 9b 3d 87 23 da 3c 1e c9 d9 ba d6 57 96 3d
       0.07571574 0.026628269 -0.0016615724 0.07340972
0001b0 a2 28 52 3c 60 1c c7 bd 18 d1 7d 3c f0 16 88 bd
       0.01282707 -0.09722209 0.015491746 -0.06645
0001c0 35 bd f1 bd a8 0f 1a 3e 8d 2c 0c 3e 61 b4 cb 3d
       -0.118036665 0.15045035 0.1368887 0.09946514
0001d0 80 75 06 be 6a 6e 01 be 40 10 ad bd a1 ad 35 be
       -0.1313076 -0.12639776 -0.08450365 -0.17742015
0001e0 46 6a ab 3c 43 85 7a bd 41 87 a9 bd df 2b 42 be
       0.020924699 -0.061162245 -0.08277751 -0.18962048
0001f0 d3 45 4c 3e 2c eb 6c bd 3f 87 a4 bd 8e 11 b5 3d
       0.19948511 -0.057841465 -0.08033609 0.08841239
000200 92 cb c3 bc cb f8 25 bc d2 2b 00 be 57 fd 23 bd
       -0.02390078 -0.010130118 -0.12516716 -0.040036526
000210 e4 4a 37 3c 39 dd c0 3d ff df 16 3d ce 58 06 be
       0.011187289 0.09417195 0.036834713 -0.13119814
000220 23 d9 74 3e 56 04 89 be 7d a9 a5 3c 66 5d ed 3c
       0.23910956 -0.2676112 0.02022242 0.0289752
000230 ca bb d5 bd 7e bd cb 3e ef d8 86 bd 61 b5 af bc
       -0.104362085 0.3979301 -0.065843455 -0.021448793
000240 71 fd 97 bc f3 87 bd bd 1c ad e5 bb 52 43 bf bd
       -0.018553467 -0.09254446 -0.0070091616 -0.09339012
000250 7c 86 a3 bc d5 ef 88 bd 8b 1b 47 3d 9e 25 0e bc
       -0.019961588 -0.06686369 0.04861025 -0.008675961
000260 9a 91 14 3c 17 78 2a bd 88 3b d8 3c ec a8 d1 bd
       0.009067917 -0.041618433 0.026395574 -0.102372974
000270 89 92 ab be ee 96 30 3d ab aa 02 bd c0 38 fd 3b
       -0.33510235 0.043112688 -0.031901043 0.0077277124
000280 73 0a 11 3e e1 b5 d3 bd 6a ff 1e 3e 58 a8 e9 bd
       0.14164142 -0.10337425 0.1552712 -0.11409062
000290 b6 aa 05 3b 48 94 4d bd 39 ed 54 be 88 60 ad bb
       0.002039594 -0.05019024 -0.20793618 -0.0052910484
0002a0 4e 7f 91 bd f5 59 7f 3c 04 40 78 3b 7e 1c 7f 3d
       -0.071043596 0.015585412 0.0037879953 0.06228303
0002b0 02 00 41 3d c6 2e c4 bd 34 c1 ae 3b cf c7 a5 bd
       0.047119148 -0.09579234 0.00533309 -0.08094751
0002c0 31 38 49 3e 0d e9 3d 3e b3 f0 c3 bd 81 e5 97 bc
       0.19650342 0.18545933 -0.09567394 -0.018542053
0002d0 37 25 85 3d b3 c6 d1 3c 29 4c e4 bd 72 1a c2 3a
       0.06501239 0.025607442 -0.11147339 0.0014808907
0002e0 b2 4e 15 bd 0a bb 96 3d 91 60 45 3d 84 f4 64 3b
       -0.036452003 0.073598936 0.048187796 0.0034935782
0002f0 34 5b a4 3e 3f e4 67 bd 1b f1 77 bd 22 68 d1 bd
       0.32100832 -0.056614157 -0.06053267 -0.1022494
000300 a2 20 5d be b5 4e 03 be 99 9e 4e bb 6a 28 8b 3d
       -0.2159448 -0.12822993 -0.0031527637 0.06794818
000310 0d c0 96 bd 96 e3 50 be 3f 2c 8e 3d 61 ff 3b bc
       -0.073608495 -0.20399317 0.06942033 -0.011474461
000320 1a 38 9f bd f9 a4 e4 3c 74 32 e8 3c 3d d1 51 3c
       -0.077743724 0.027910696 0.02834437 0.012806234
000330 5e 31 af bb 2c a8 4c bd c5 fe b8 bd d2 16 9d 3d
       -0.005346461 -0.04996507 -0.090329684 0.07670368
000340 47 59 6b 3e e9 ba 0e bd 39 18 17 3e 8e 16 3b be
       0.22983275 -0.03484622 0.14755334 -0.18270323
000350 c5 3b 52 3c b6 40 24 3e 5e 22 ef 3d 73 ab 94 3b
       0.012831633 0.1604031 0.11676477 0.00453704
000360 0f ed 23 be 32 e3 14 3e dc b3 30 3e b3 b6 00 3e
       -0.160084 0.14539793 0.17256111 0.12569694
000370 62 c7 4e 3d 46 cd 48 bc e9 7f 90 bc 31 fb 34 3d
       0.050483115 -0.012255972 -0.017639117 0.044184867
000380 f2 28 87 3c 7d 21 88 bd 34 de b8 bd 75 65 8d 3c
       0.016499016 -0.066470124 -0.09026757 0.017260293
000390 2b 6a 74 3d 73 13 d7 3d 90 3e a4 bd 9d 0b 12 3e
       0.059671562 0.105017565 -0.08019745 0.14262243
0003a0 ce 34 24 3b d8 5c d1 bd c1 9a 05 bc 31 e1 2f be
       0.0025055888 -0.10222787 -0.008154572 -0.17175747
0003b0 07 06 97 3d 6d 4c 19 3e f3 4f f0 bd 57 90 b6 3c
       0.073741965 0.1497056 -0.11733999 0.022285623
0003c0 a0 6f a3 3d 6a b7 19 3d 2d 0a 2d bc ea 1b d4 ba
       0.07980275 0.037528433 -0.010561508 -0.0016182635
0003d0 50 00 5a 3c 88 4e 1c be c3 2e 04 be f8 ac 96 3d
       0.013305739 -0.15264332 -0.12908463 0.0735721
0003e0 99 a4 67 3d d3 d8 30 bd 61 1c 4c bd 1e e8 3e bb
       0.056553457 -0.04317553 -0.04983175 -0.0029130052
0003f0 9f db 19 3d 1e f0 db 3c e2 1f 61 3d ee 74 45 3e
       0.037562963 0.026847895 0.054962046 0.19282886

filters.2.weight f4 [64, 8, 5, 5]
000000 a5 53 aa bb cf bc 62 3c 86 58 2c 3e f0 b5 4e 3b
       -0.0051979595 0.013838961 0.16830644 0.0031541549
000010 27 54 22 3d d1 09 0d bd 95 db 39 bd cc e8 a6 be
       0.039631035 -0.03443319 -0.045375425 -0.32599485
000020 66 5f f8 bd 8e 8c 79 bd 19 1f ca 3d 22 22 e8 bb
       -0.12127571 -0.06092506 0.09869213 -0.007084147
000030 8f 1e 26 3e 19 2b e6 3d d5 dc 42 3d 61 4a dc 3b
       0.16222595 0.11238689 0.047573883 0.006722734
000040 dd 27 b5 bd c8 c2 89 bd 75 44 67 be 59 de bc be
       -0.08845494 -0.06726605 -0.22584708 -0.36888388
000050 8c ca e5 bb 25 1f 10 3d b2 73 13 bd 0d 04 db 3d
       -0.007012671 0.03518595 -0.035999008 0.10694132
000060 1a 9d 6c 3e 2b 1e ea 3d d8 a6 4e 3c 1e fa 0a 3a
       0.23106804 0.11431535 0.012613021 0.00053015526
000070 23 49 4c bd 4e c9 37 bd e2 4f 39 be 5b 55 4b be
       -0.049874436 -0.044869713 -0.18096879 -0.1985678
000080 fb c8 91 be 41 79 9f be 1e e1 5c bd 6d b7 3b 3e
       -0.28473648 -0.31147197 -0.053925626 0.1833169
000090 92 1e 86 3e af fe b7 3e 1d ef a2 3d e1 07 40 3b
       0.26195198 0.35936496 0.079557635 0.0029301571
0000a0 3e 46 85 bd 58 22 e0 bc 4e 61 00 ba f3 84 95 3d
       -0.06507538 -0.027360126 -0.0004897312 0.07300749
0000b0 5a a6 58 3d 4a 19 df 3c 15 0f eb 3b ff 40 62 bc
       0.05289302 0.027233738 0.007173429 -0.013809442
0000c0 d6 02 a2 bd f6 ac d8 bd ac 64 20 be 00 13 82 bd
       -0.07910697 -0.10579865 -0.15663403 -0.0635128
0000d0 0d 45 37 bc 72 46 38 3d f4 a5 9a bc a5 b0 28 3e
       -0.011185897 0.044989057 -0.01887796 0.16473635
0000e0 e8 b8 75 bd 7f 69 e2 bd 42 9c 92 bd f1 2a 21 b9
       -0.059990793 -0.11055278 -0.0715871 -0.00015370153
0000f0 aa 56 23 bd 7d 94 c8 3d fa fd c6 bb 58 f3 18 3e
       -0.03987757 0.09793947 -0.006072757 0.14936578
000100 98 35 98 3d 93 61 6f bd fb 8d 63 bd 94 69 90 3d
       0.07432097 -0.058442663 -0.055555325 0.070513874
000110 92 5d 17 be 72 8c 39 be bb 34 db bc 79 cc 77 3d
       -0.14781788 -0.18119982 -0.026758542 0.060497735
000120 db 98 95 3c 84 db f9 3c 9a 52 43 3d 88 b0 8d bd
       0.018261364 0.030500181 0.047686197 -0.06918436
000130 11 3a b8 bd ce 88 1d 3d 48 f6 b4 bd 9c 83 61 be
       -0.0899545 0.038460545 -0.08836037 -0.22022861
000140 1e a8 1a be c1 38 df bd b0 d9 49 be 5f 87 1a bd
       -0.15103194 -0.10899497 -0.19711947 -0.037726756
000150 d2 98 31 bd 84 71 5b 3e cb 1d 6c 3e ef d1 e7 3e
       -0.04335863 0.21430022 0.2305824 0.45277354
000160 07 7c 07 bd 9b 89 36 3e 8b 64 50 bd f5 a5 1b be
       -0.033077266 0.1782593 -0.050877135 -0.15200026
000170 58 85 83 be 4d 3f 5a 3d 66 58 0f be 2a e6 f8 3b
       -0.2568767 0.053283025 -0.13998565 0.007595797
000180 1e f2 33 bd 56 47 91 bd e0 ed 94 bd cc 5b 8c bd
       -0.043932073 -0.070936844 -0.072719336 -0.06853446
000190 2c 77 66 3d 88 d4 3a bd e1 03 9f 3d b6 e5 18 3e
       0.056265995 -0.04561284 0.07764412 0.14931378
0001a0 87 f2 1b bd 8e a0 2b be 4d 6f 25 be 53 44 98 be
       -0.03807309 -0.16760466 -0.16155739 -0.29739627
0001b0 43 8e 52 be a8 ab f5 bd 46 33 68 3c 59 8f a8 3d
       -0.20562081 -0.119956315 0.014172381 0.082304664
0001c0 1b 37 d6 3d aa 0a 8e 3c 15 77 4a bd 7d 41 04 bc
       0.10459729 0.01733907 -0.04942997 -0.008072254
0001d0 50 90 47 3c b7 a6 8d 3d 0a 5f fa bb 96 3c 86 3d
       0.012180403 0.06916564 -0.007640724 0.065545246
0001e0 c1 6c 12 bc 65 38 ff 3b 79 a5 58 bd ac 86 a5 3b
       -0.008937062 0.007788705 -0.052892182 0.0050514545
0001f0 70 92 07 bc c3 f6 18 bd ca 5f 9a bd 59 3a 5e 3d
       -0.0082746595 -0.037344705 -0.075378016 0.054254863
000200 23 9c 5b 3d aa c9 1b 3d 84 cd 74 3d 3c ea 36 3d
       0.0536157 0.03803412 0.059766307 0.044656977
000210 8b 0d 01 be 30 19 44 bd f1 41 b6 bd ad b2 05 bb
       -0.12602822 -0.047875583 -0.08899296 -0.0020400689
000220 17 6b bb bd b2 8f 83 bd 67 25 d7 3a 07 bd 08 3e
       -0.09151285 -0.06423892 0.0016414345 0.13353358
000230 22 d7 6a 3e 8f c1 65 3e dc 4c 93 3e d1 c0 cc 3e
       0.22933629 0.22437118 0.28769577 0.39990857
000240 9c 23 e3 3d 76 e7 58 bd ba 24 a4 bd d5 84 aa bd
       0.11090776 -0.052955113 -0.080148175 -0.08326117
000250 d0 03 ed bb 2a f5 b2 3d 6d c0 13 3e 33 93 92 3d
       -0.0072331205 0.087381676 0.14428873 0.07156982
000260 33 f5 d3 3d ba 2d a6 3c 29 c5 a3 bb 15 36 ee 3d
       0.103495024 0.020285476 -0.0049978686 0.11631409
000270 55 cc 5b 3d cd 03 b8 bd 07 e7 39 3d 02 9e 1d 3d
       0.053661663 -0.089851 0.04538634 0.038480766
000280 ce ec c1 bd c3 d4 08 be b8 12 53 bc bf 04 4f bd
       -0.09468995 -0.13362412 -0.012882881 -0.050541636
000290 fa 4a 42 3e 07 fc a3 3c f5 dc 7e 3d a7 bd ca 3d
       0.18973914 0.020017637 0.06222244 0.098994546
0002a0 4c e7 78 bb df 12 64 be 70 b5 d1 bd a6 cf 6b 3d
       -0.003797966 -0.22272824 -0.102396846 0.057571076
0002b0 cf df 66 3c 6f 8a e2 3d 15 89 24 bc 00 91 73 bd
       0.014091446 0.1106156 -0.0100424485 -0.059464455
0002c0 a8 6c cd bd 25 5f 9b bd 34 1d aa 3c 35 79 01 bb
       -0.1003049 -0.07586507 0.020765878 -0.0019756083
0002d0 ef 1e c0 3d 78 9e 65 3e f9 3c ad 3e 17 7e 30 3e
       0.093809 0.22423732 0.3383558 0.172356
0002e0 26 ec f2 3d 30 b5 dc bd d0 c2 80 be f5 a6 e5 be
       0.11861448 -0.10776746 -0.2514863 -0.4485394
0002f0 b1 e2 7d be a5 35 15 be a7 dd 01 3e 5e 1b 64 3e
       -0.24793507 -0.14571245 0.1268221 0.22276065
000300 fe 94 c7 3e a2 88 81 3c d8 59 f4 bd 0d 9d 4d bd
       0.3898086 0.015812222 -0.11931199 -0.050198603
000310 98 54 a9 bc 1c 49 05 be c5 64 ed 3c 8b 49 fc 3c
       -0.02067022 -0.1301617 0.028978715 0.030796787
000320 ed cf b0 bc ba 55 90 3d 45 05 de 3c 4d 68 9a 3c
       -0.021583522 0.07047601 0.027102122 0.018848563
000330 b9 92 80 bd 2b 88 8c 3d d6 dc 1b 3e 31 42 51 bd
       -0.06277985 0.068619095 0.15220961 -0.051088516
000340 5b bc 9f 3c 2b 05 11 3d a3 0f 11 3d c3 3d 82 bd
       0.019498995 0.03540532 0.035415303 -0.06359436
000350 b9 2c da 3d c1 f5 25 3e bc a0 93 3d 91 82 b3 3d
       0.106530614 0.16207029 0.07208392 0.08765138
000360 8e 17 dc 3d 7a 7c a3 bd 9e e3 11 be e1 1f 29 bd
       0.1074668 -0.079827264 -0.14246985 -0.041290168
000370 49 dd 58 3d b2 5c 12 be 76 c8 a4 3c 83 62 a8 3d
       0.05294541 -0.14293173 0.020115118 0.082219146
000380 3e 77 79 3d 77 74 5b bd 16 d5 0b bb b7 7f 0c 3e
       0.060904734 -0.053577866 -0.0021336726 0.13720594
000390 e7 e8 d3 bc 71 5b 27 3c 01 d1 c9 3d a2 01 a4 3d
       -0.025867892 0.010214672 0.098543175 0.08008124
0003a0 1d 58 f7 bd 15 06 c9 3d 90 51 9b bd 52 68 f8 bc
       -0.12077353 0.09815613 -0.07583916 -0.030323181
0003b0 ac f0 2f be 33 26 d4 3d fa 01 61 3e 53 37 07 be
       -0.17181653 0.103588484 0.2197341 -0.13204698
0003c0 0e 58 ad 3c dd 73 37 3e e1 68 21 3e d9 58 42 be
       0.021160152 0.17915292 0.15762664 -0.18979205
0003d0 56 5f 5a bd 4a 07 a3 3c 7a bf 67 3d 7c f6 1f be
       -0.053313576 0.019900937 0.05657909 -0.1562137
0003e0 f4 6b 10 bd 73 f8 14 3d a2 c2 35 3d 70 a1 b6 bd
       -0.035259202 0.036369752 0.04437507 -0.089175105
0003f0 9d 6e a3 bb a8 89 02 be 2c b3 f7 3d 0a 8e 8a 3d
       -0.0049875514 -0.12747824 0.12094721 0.06765373
