weights/LocalAR_bilevel_IFT_p=15x15_BSD500.pt (torch, 713210 bytes, 13 tensors)

convnet.0.weight f4 [128, 1, 3, 3]
00000000: 9b55 95be 99ab 40bd 4203 743e 2164 5f3d
00000010: 8c53 08be 1046 963e 9e1a 933d a55a 083e
00000020: 9f7a c3be c8dc 393e 9a23 1f3e 2501 bbbc
00000030: ca44 1e3e 1fc2 98bc 9735 493e b0d5 003e
00000040: a088 183e b85d ef3d 16cf 993e daae 693d
00000050: dc66 f73c 6745 01be 8c92 673d 0372 143e
00000060: acac 85be f1a8 3e3d 4bb1 acbe 2ab6 78bd
00000070: 8a4f 4fbe 7d25 febd 047d d23c 5a7f a73e
00000080: 5246 793e 7270 613b 0e05 59bd 1310 80be
00000090: 9a46 37be e8a3 883d 25d5 41be 0fcc 37bd
000000a0: 5ad5 a73e 401d 553d 6bde df3d 87c3 23be
000000b0: c06b 9e3e ec9d ebbd ec06 94be 4c48 dd3e
000000c0: 5d17 0cbe ec5f ec3e 39c6 8dbe 8cef 07be
000000d0: f7d1 0dbe 7bdd 05bc 43d6 00be 9d5c 8cbe
000000e0: 305a ba3e 79a1 17be 3728 e13d 2a28 3cbe
000000f0: 2861 733e 4cfb 483c ce25 40bc 3d79 78be
00000100: 2d43 c2bd 7adc 003f 9083 d93d 63b6 abbd
00000110: fb37 ecbc 831a c43b fcf0 34be f612 483d
00000120: fdd8 643e 4533 89be ae3b 433e fd21 b1bd
00000130: bfb7 023e da14 a2bc c696 b2be aa6d f93b
00000140: fbd6 1c3e 4f2c c6bd e5c8 44be 2b78 e63d
00000150: 41d1 4c3e 724c 8cbe e3db fb3d e5d3 a2be
00000160: eeb0 5c3e d9c3 733e 3a31 593d 2f1a a13d
00000170: f97d 28be 290d 9fbd c179 01be 6ed8 50be
00000180: daf6 dfbd ef27 adbe b44d b1be 3302 d73d
00000190: 8a7a 923e 1b04 11bd 6dba ad3e db70 a6be
000001a0: 487d f23c 0ffa bcbd a6de 94be 3455 85bb
000001b0: 6351 bebd 3246 ea3b bb17 5dbe d15c 41be
000001c0: 0d60 853e 8a03 14be 7a48 053e d9a9 ba3e
000001d0: d154 d1bd 7a29 58be 8e48 883d 33fc 513e
000001e0: aecb 6e3e 41ce 913d c3ea 0c3e f1fe e03d
000001f0: a0bd afbe e3ed 96be e408 9ebe 825d 92be
00000200: 0d0b 2abd 81bd a33e d26a 80be abe6 9c3d
00000210: 9990 41bd 3ecd 453e 80a5 233e 707f e13c
00000220: ea1a 55bd 6931 3fbe 2e87 663e 3ac0 e53c
00000230: 3ade a5bc b84b f03d 8f04 07be 687c 43bd
00000240: 47ad 8ebd 2899 81be 4109 aa3e 3e72 693e
00000250: e028 ac3d 74f1 563c 1bcc acbd 6463 22be
00000260: d5f7 e1bc f542 2abe fffe 86be e971 00bc
00000270: 5be9 613d 7c1a 7bbd 6c13 923e 27ee ff3d
00000280: d1b7 d53d 8eba a4bd bcc9 9f3e a356 ffbd
00000290: b1dd 833c 246c 15bd 868e 9b3e 492a 963e
000002a0: 7683 70be 5922 883d 52dd 42be 9a09 d13e
000002b0: 4995 b9be 670e 453d f2ea db3d 140e 5a3e
000002c0: 20b7 a1be e695 a5be 0225 8dbd ef0b c63d
000002d0: db3d f73c 04db 7f3e 75e6 80bd 84c5 2fbd
000002e0: 0ea2 b43c 1273 44bd 6175 35be f348 d2bd
000002f0: 0a91 52bd b7ea 0fbe ceae a0bd 4071 383e
00000300: 0b55 3fbe 2a28 87be 8fc2 2f3e 291c 91bd
00000310: 8a1d 953e 8f55 913d 08e3 363e 1e53 013e
00000320: 63f7 25be 7f43 b4bd 6fc7 61be 27ea 8bbe
00000330: 7cc7 713e cd48 313e 4b7c 7ebc 7933 bdbc
00000340: 9bb7 743d 2897 f53d 3f04 d13d a4f7 3f3e
00000350: 3380 b8bc da13 653e b28e b7be edf5 99be
00000360: cc55 b1bd fae4 90bd a383 203e b549 873e
00000370: a054 85be 245b 873e aabc 90be 1abd fdbd
00000380: 2dfe d03d 82d2 233e 67a5 64bd b3d4 b4be
00000390: e836 86be 9cc8 653e 1ae7 2b3d 0ce0 3d3e
000003a0: 0ef8 3dbc 0676 c23d 1315 323e f601 8bbe
000003b0: 0dd3 d53d 53f4 9ebe 1017 bc3e 44e0 8c3c
000003c0: 475e 8dbe ff6f 3d3e 3502 8abc bbe0 cd3d
000003d0: 90d6 a7be 410b 823e f276 a43e 168a 843e
000003e0: ef3c 00be e114 bfbe 3561 69be 5136 a33d
000003f0: d2e4 a83d bd81 1abe bc32 273d 4af1 b1be
-0.29166874 -0.04703865 0.23829368 0.05453885 -0.1331312 0.29350328 0.07182811 0.13315828
-0.3817949 0.18150628 0.15540925 -0.022827694 0.15455928 -0.018647252 0.19649349 0.12581515
0.14895868 0.11687797 0.30040807 0.057051517 0.030200414 -0.12624131 0.056536242 0.14496617
-0.261083 0.046547834 -0.33729014 -0.0607206 -0.20245185 -0.12409494 0.025694378 0.3271435
0.24343231 0.0034399298 -0.052983336 -0.25012264 -0.17898026 0.06671888 -0.18928964 -0.04487234
0.32779962 0.052029848 0.10931095 -0.15992557 0.30941582 -0.115047306 -0.2891153 0.4321922
-0.13680787 0.46166933 -0.27690294 -0.13274974 -0.13849626 -0.008170481 -0.12581734 -0.27414408
0.36396933 -0.1480769 0.109939985 -0.18374696 0.23767531 0.012266945 -0.011727763 -0.24264999
-0.09485469 0.5033642 0.10620797 -0.08384397 -0.028835287 0.0059846058 -0.17670053 0.048846208
0.223484 -0.26796928 0.19065735 -0.08649061 0.12765406 -0.019785333 -0.34880656 0.00761195
0.15316384 -0.0967642 -0.1921726 0.11253389 0.20001699 -0.27402073 0.122977994 -0.31802288
0.21551868 0.23805179 0.05302546 0.07866322 -0.16454305 -0.07766182 -0.12644102 -0.20395061
-0.10935755 -0.3381953 -0.34629595 0.10498466 0.28609115 -0.035404306 0.33931294 -0.32507977
0.029600754 -0.092273824 -0.29076117 -0.004068995 -0.09292867 0.007149481 -0.21591084 -0.18883063
0.26049843 -0.14454475 0.13015929 0.36457708 -0.102212556 -0.21109572 0.06654464 0.20506363
0.23319885 0.07119418 0.1376143 0.10986126 -0.3432436 -0.29478368 -0.30866158 -0.28586966
-0.041514445 0.31980518 -0.25081497 0.07661184 -0.04725704 0.19316575 0.15981102 0.027526587
-0.05202762 -0.18671192 0.22512504 0.028045762 -0.020247567 0.11733192 -0.13185333 -0.047726065
-0.06966644 -0.2531216 0.33210185 0.22797486 0.08406234 0.01311909 -0.084373675 -0.15858227
-0.027583996 -0.16627105 -0.26366422 -0.007839658 0.055154186 -0.061304554 0.28530443 0.12496596
0.10435451 -0.08043395 0.312086 -0.124676965 0.016096922 -0.036480084 0.30382174 0.29329136
-0.23487648 0.06647176 -0.1902974 0.40827638 -0.36246708 0.04810944 0.10738172 0.21294433
-0.31585026 -0.32340926 -0.06891824 0.09670245 0.030180862 0.24985892 -0.06293956 -0.042912975
0.02204993 -0.047961302 -0.17720558 -0.1026782 -0.05140785 -0.1405438 -0.07845841 0.18011951
-0.18684785 -0.2639783 0.17164062 -0.07085449 0.291241 0.07096397 0.17860043 0.12629363
-0.16207652 -0.08801936 -0.22048734 -0.27327082 0.23611253 0.17312928 -0.015532563 -0.023095833
0.059745412 0.119917214 0.10205888 0.18746811 -0.022522068 0.22370854 -0.35851055 -0.3007044
-0.086589426 -0.07074924 0.15675215 0.26423422 -0.26041126 0.26436722 -0.2826894 -0.12389584
0.1020473 0.15998271 -0.055821802 -0.35318527 -0.26213765 0.22439808 0.041968442 0.18542498
-0.011594785 0.094951674 0.17390852 -0.27149934 0.10440645 -0.3104578 0.36736345 0.017196782
-0.2761099 0.18499754 -0.016846756 0.100526296 -0.32780886 0.2539921 0.32121998 0.258866
-0.12523244 -0.37320617 -0.22790988 0.079693444 0.08246769 -0.15088554 0.04081987 -0.347544

convnet.0.bias f4 [128]
00000000: 78d7 a3bc 11a8 f23d 07b1 3d3d 65fa 88bd
00000010: fb28 533d 3212 89be 4fb9 06bd dd93 943d
00000020: dbad 103e 6261 0f3e 4604 c4bd 3ad0 413e
00000030: 1f63 8a3d bb19 693e 4ad2 5ebe 809e 9ebc
00000040: 69f2 7bbe 19dd 5e3d 4742 3a3e 3f7b cdbd
00000050: 8a7d 39be 16b9 dd3d 063e 2f3e 88a1 1abd
00000060: d47c a73d ac3a 013e 2fb8 223e c275 40be
00000070: ece3 4c3e 2828 b3be 57be 24be f7e4 633e
00000080: eb5a b7be 266a 9dbe 29c4 9a3d 5f72 73bd
00000090: 4f8d 483e 827f c5be 2b7e 89bd 9952 fcbd
000000a0: 1c45 223e db02 edbd 5a9a 973c e431 debd
000000b0: 9dc6 38be c4fb 72be c385 a1bd 7e76 753d
000000c0: 6b16 6a3e 5b67 4b3e 3d31 1f3d e82c 8abe
000000d0: e978 00be f846 92be b2a5 8cbe 9990 aebe
000000e0: 279e f93d 9f34 aabe f3ef 263e ecf6 933c
000000f0: d59a 673e c35d 233e 7bff 873e 38aa 4bbe
00000100: 4d86 0ebd 84db 643e 2b27 8fbe a690 293d
00000110: 49e5 2dbe 295e eabd dfc4 afbd c97b 403e
00000120: c2c4 0a3e 4ea8 ec3d bc0e 87be ae54 f2bd
00000130: 6359 3abe 3526 34bd 0556 8a3d 1fc1 033e
00000140: 58d2 073e 9568 3fbe dff9 bdbd 8c00 c2bd
00000150: 5aad 863e 63c5 363e eda0 94be 83d2 4dbe
00000160: 2dcb aabe 7ad9 acbe 134e 20be 1676 9bbe
00000170: 2c56 763e 0729 603e a284 b1be 95ee 94bd
00000180: 9fc9 613e bd95 0e3d 54bb 71be 2bdb a63d
00000190: 01c8 1a3e 77eb fc3d d446 913e 993a 2ebe
000001a0: 3a87 84be 2c9f 0ebd 7740 2f3d 6af0 43be
000001b0: d8e5 a6bd 84fa a6be 4ad0 83be 2db8 c0be
000001c0: d9f6 773e 967a 243e 73a9 f13d 8890 f73b
000001d0: 464a 7f3e 70a4 113e cfe6 ac3d 6949 ba3d
000001e0: 9818 2ebe 7de8 6f3e ac02 a73d 37c5 10bd
000001f0: ba5b e43d f345 a9be 4029 933d ce18 d03d
-0.020000204 0.118484624 0.046311405 -0.06688384 0.051552754 -0.26771694 -0.032891568 0.07254765
0.1412882 0.14001992 -0.095711276 0.18927088 0.06757187 0.22763722 -0.21759906 -0.019362688
-0.24604191 0.054410074 0.18189345 -0.10033273 -0.18114296 0.10826318 0.17113504 -0.037751704
0.08178106 0.12620038 0.15890573 -0.18794921 0.2000882 -0.34991574 -0.16088234 0.22255312
-0.35811552 -0.30745047 0.07556946 -0.059435245 0.19585155 -0.38573843 -0.06713518 -0.12320442
0.15846676 -0.1157281 0.018506218 -0.1084936 -0.18044515 -0.23728853 -0.07886841 0.059927456
0.22860114 0.19863646 0.038865317 -0.26987386 -0.12546124 -0.2856977 -0.27470165 -0.34094694
0.12188368 -0.33243272 0.16302471 0.018062077 0.22617657 0.15953736 0.26562104 -0.19889152
-0.034796048 0.22349364 -0.2795957 0.041397713 -0.16981997 -0.11443741 -0.08582472 0.1879722
0.1355162 0.11555539 -0.2637843 -0.118325576 -0.18198161 -0.04398175 0.06754688 0.12866639
0.13263834 -0.18692239 -0.09276175 -0.094727606 0.26304132 0.17848735 -0.29029027 -0.20099835
-0.33358136 -0.3375967 -0.15654783 -0.3036353 0.2405631 0.2189065 -0.34671503 -0.072720684
0.22049569 0.03481077 -0.23606616 0.08147272 0.15115358 0.12349599 0.2837435 -0.1701454
-0.2588442 -0.034819767 0.042786088 -0.1913468 -0.08149308 -0.32613003 -0.2574485 -0.37640515
0.24215259 0.16062388 0.11799898 0.0075550713 0.24930677 0.14222884 0.08442461 0.09096033
-0.1700157 0.23428531 0.081548065 -0.03534433 0.11150308 -0.3306118 0.07185602 0.10160981

convnet.2.weight f4 [64, 128, 3, 3]
00000000: f28c 36be 0908 09be c98d c5bd 72a6 34be
00000010: a0ce 00be 80c6 08be 53dc 40be 1aeb ffbd
00000020: 98fa ccbd bd4a 0e3d 6551 963d c750 fe3c
00000030: 31b7 0c3d 37d4 4e3d 49d1 813d a8f2 b23d
00000040: 215a 643d 7f58 083d b841 9a3d e36f 873d
00000050: 428a 873d 6229 203d 99c3 2c3d f7e3 a73b
00000060: 5665 a1bc 9295 bfbc d74e 4abc a62e fabc
00000070: 5bd7 a4bd 9a5b b4bd ef4d 16bd 0267 53bd
00000080: ba35 64bd a36c b2bc cbcf 7dbd 3043 44bd
00000090: 4826 e73c 5a73 8c3c ea20 893d 6b65 983c
000000a0: 69af 6b3d 74c7 8a3d 922f af3d 55b6 883d
000000b0: 7243 c93d 2103 47bd a84c 71bd db18 71bd
000000c0: c8ba 76bd e001 77bd e06c 97bc 076a 24bd
000000d0: a61a 49bd 0608 7ebd 4dea cbbd a997 ddbd
000000e0: 43bd 95bd b190 bfbd 167e a2bd 1afb 78bd
000000f0: 0cc2 c6bd 9040 67bd 5424 8dbd d974 f73b
00000100: 460d 063d c837 523d b05b a1bc 3081 fd3b
00000110: 7a45 333d 2793 b43b 6c10 06ba 96c6 fb3c
00000120: 6011 16bc b321 92b9 fb7d f33c a5b9 4aba
00000130: 4ae5 a33b 5d4d 333c ba8b 10bc f382 d9bb
00000140: 5a4d 0d3d 032c 1ebc 8e06 a43a 51f5 19bc
00000150: 8bc8 ccbc a263 0abd ef8f 8cbc 7c00 db3a
00000160: ccfb 2ebd 23f0 e13c 871d ec3b 7f6c 2d3d
00000170: eedd a63b 48ce 0c3b 723a 93bb e4b0 01bc
00000180: d2f9 0d3d 744b 9f3c cd1f 9a39 d145 3d3d
00000190: e146 713d a15d 9c3d 9a0f 833d 22c7 d03c
000001a0: 5af1 993c 8ce6 813c bea7 613d 2162 353d
000001b0: c572 30bd b4e1 8cbd 2570 bfbc c51a 8dbc
000001c0: 3bcd bfbc 3d32 cebb e4ad 01bd 52fc d5bc
000001d0: 68cb 7bbd 666c 123d a567 5c3c b02b 293d
000001e0: 9c37 e43c f46c 503d 4599 bf3c 6b50 343d
000001f0: 4737 ea3c 8f95 6d3b 54d8 08bc 1038 3bbd
00000200: d475 1fbd 73e8 31bd 914a e8bc e420 76bb
00000210: 3418 e7bc 2051 f2bc 8b5a 6a3c 9395 df3c
00000220: 6cfa 0e3c 509e cabb 2ba4 c13c 9d90 a93c
00000230: 9f11 97bc c936 c33b 5186 9bbc 9dcf 1bbc
00000240: c323 0cbd cd19 cfbc e1e3 95bc dbc7 9fbd
00000250: 88b4 ddbc 972d 93bd c155 82bd 3597 82bd
00000260: 0051 9cbc 5d70 f3bc 648c 89bb 2c33 2fbd
00000270: 9401 f8bc d17c 873c 6f9e b73a 2178 62bb
00000280: 7c75 0e3d 6950 a23c c7fa 8d3d 11ee 393d
00000290: f2f1 ad3d 6498 e93c c7e6 d83c 5330 633d
000002a0: a0d2 c23c 4a76 133d 1c9a be3c 1d62 99bd
000002b0: 3b33 8bbd 90bb 92bd df9e a7bd 5adf 9ebd
000002c0: bb35 5fbd 4194 6cbd e879 9ebd e358 d0bd
000002d0: 87bd 99bb 9609 943c 966f eebb 3ccc 80bb
000002e0: 4684 01bc 2850 f63a d606 fcbc d9b7 8abc
000002f0: ec46 04bd 89ab ecbc ca43 0bbd 6aae 5ebc
00000300: a6db 3abd c2ad c8bc bdcf ce3c 7a62 33bd
00000310: a518 853c fb3a 663d ef7f 013d 6b85 5b3c
00000320: 9bfc 303d 7b05 8e3d 1050 c93c fc7c ee3b
00000330: be98 883d d624 473d 30d9 4e3b 0dfd 1dbb
00000340: d737 debc 419b 94bd 4e1e 6fbd f6ca 79bd
00000350: 4476 ffbd 732f abbd b576 c0bd 4682 d0bd
00000360: 7f23 31bd b6d8 06bc aa04 83bc c1a2 8539
00000370: 716a 0c3c 1812 9ebc e94e 1dbd 4857 e4bc
00000380: 0920 6dbc 4ad8 dc3b 9850 1bbd d667 0abd
00000390: c40d 0d3d b19b fcbc 65b8 c7bc a125 b83c
000003a0: b9aa 5fbc 20b1 193c b78f 91bc 9dc0 12bc
000003b0: 223b 3f3d 5810 50bc 4311 e13c a51a be3b
000003c0: 8ecf a93b 6b63 673c a696 083d ba82 b8bd
000003d0: 7706 59bd 14e2 83bd 8f03 8cbd 5501 92bd
000003e0: d6bb 37bd 3d93 81bd 7362 b2bd d2b0 54bd
000003f0: 9da0 353c 84c1 233d 9498 17bc 0c7e 5c3c
-0.17827204 -0.13381971 -0.09646184 -0.17641619 -0.12578821 -0.13356972 -0.18834047 -0.12496014
-0.100087345 0.034739245 0.073397435 0.031044377 0.034354392 0.050495353 0.06338746 0.08737689
0.055750016 0.03328752 0.07532066 0.066131376 0.066181675 0.039101966 0.042178724 0.005123611
-0.019701641 -0.02338675 -0.012347898 -0.030539822 -0.08048888 -0.08806534 -0.036695417 -0.051611908
-0.0557153 -0.021780318 -0.061965745 -0.047915637 0.028216496 0.017144848 0.06695731 0.018603047
0.05754033 0.06776324 0.08553995 0.06675402 0.09827317 -0.04858697 -0.058910996 -0.058861595
-0.060236722 -0.060304523 -0.018484533 -0.040140178 -0.04909768 -0.06201937 -0.09956799 -0.108199425
-0.073114894 -0.093537696 -0.07934205 -0.060786344 -0.0970498 -0.056458056 -0.06891695 0.007551771
0.032727502 0.05132273 -0.01969704 0.0077363476 0.04376743 0.005510706 -0.00051141414 0.030734342
-0.009159416 -0.00027872398 0.029723158 -0.00077333517 0.0050016986 0.010943738 -0.008822376 -0.006637925
0.034497596 -0.009654048 0.001251416 -0.009396867 -0.02499797 -0.033786424 -0.017158477 0.0016708518
-0.0427206 0.027580326 0.0072056684 0.042339798 0.005092374 0.0021485258 -0.004493051 -0.007915709
0.034662075 0.019445159 0.00029396862 0.04620916 0.058905486 0.07635046 0.0639946 0.025485579
0.018791843 0.015857004 0.055091612 0.044283036 -0.043078203 -0.06878987 -0.023368904 -0.017224679
-0.023413291 -0.00629261 -0.031659976 -0.026121292 -0.06147328 0.035747908 0.013452445 0.04130143
0.027858548 0.050885156 0.023388514 0.044022005 0.028590811 0.0036252474 -0.008352358 -0.045707762
-0.03893073 -0.04343457 -0.028355869 -0.0037556225 -0.028209783 -0.029579699 0.014303814 0.027293002
0.008726697 -0.006183423 0.023637852 0.02069884 -0.01844102 0.0059574586 -0.018984945 -0.009509948
-0.034213793 -0.025280857 -0.018297138 -0.07801791 -0.027063623 -0.0718643 -0.063640125 -0.06376497
-0.019081593 -0.029716665 -0.004197644 -0.04277341 -0.03027419 0.01653901 0.0014009009 -0.0034556466
0.03478001 0.019813733 0.069325976 0.045393053 0.08493413 0.028515048 0.02647723 0.055466007
0.023782074 0.03600148 0.023266844 -0.07489417 -0.06796881 -0.07164681 -0.08184599 -0.07757445
-0.0544946 -0.057758573 -0.077380955 -0.10173204 -0.004691783 0.018070977 -0.0072764857 -0.0039305966
-0.007905072 0.0018792199 -0.030764978 -0.016933369 -0.0322942 -0.028890388 -0.034000196 -0.013591388
-0.04561963 -0.024496917 0.025245542 -0.043795086 0.016247103 0.056208592 0.031616148 0.013398509
0.043209653 0.06934639 0.02457431 0.007278083 0.06669758 0.048619114 0.003156256 -0.002410713
-0.027126236 -0.07256175 -0.05837851 -0.060984574 -0.12473729 -0.083586596 -0.093976416 -0.10181098
-0.043246742 -0.008230379 -0.015993435 0.00025488998 0.0085702995 -0.019295737 -0.038405333 -0.02787365
-0.01447297 0.006739651 -0.037918657 -0.033790432 0.034436956 -0.030835958 -0.024379918 0.02247888
-0.013651543 0.009380609 -0.017768724 -0.008957055 0.046687253 -0.012699209 0.027474051 0.005801516
0.005182213 0.014122824 0.033346795 -0.09009309 -0.05298468 -0.06439605 -0.06836616 -0.0712916
-0.04485687 -0.063269116 -0.08710184 -0.05192644 0.0110856565 0.039979473 -0.009252686 0.013457786

convnet.2.bias f4 [64]
00000000: 15b0 183c 11b7 323d 777c 4ebd 70c3 3ebd
00000010: 50a2 93bd fd16 e93d 6dad a93d 3001 87bc
00000020: 2526 1f3e b0aa f3bc a1c3 fcbc de2e 70bd
00000030: b399 3cbd cdf8 f4bc 521c 4e3d c852 6d3d
00000040: 7d6e c2bc 022b 26bd 51ac 52bd ef21 fdbb
00000050: 747a cabc 35bd fabc 46c4 183e cc79 883d
00000060: 9ade c0bc 6721 71bc 48c3 b4bc d528 f6bd
00000070: 1cd4 b8bd 44ff b53d 5131 edbc baba 2cbd
00000080: aeed 50bd 8294 923d 2f05 52bd ecfc 41bd
00000090: a9bc b3bd 505a e1bb 69fc bf3d 50af 933d
000000a0: 5907 72bd d7b7 78bc 0d23 263b 1dad 80bd
000000b0: 167e 84bd f4c8 48bd e84c 243c 3348 b53d
000000c0: f1a8 89bd 480c 9cbc a518 f03d 32e8 edbd
000000d0: 2149 51bd 0298 0bbd 9c03 1fbb 0ac4 18bd
000000e0: df06 eabc f7a8 cb3d 588a e8bd ef99 e9bc
000000f0: dfb4 1dbd 7b36 bcb8 9d22 453d bc41 ac3d
0.009319325 0.043631617 -0.050411668 -0.046573102 -0.07208693 0.11381338 0.082850315 -0.016480058
0.15541895 -0.029744476 -0.030855002 -0.058638446 -0.046045016 -0.029903794 0.050319977 0.057940274
-0.023734326 -0.04056836 -0.051433865 -0.0077249925 -0.024716593 -0.030607799 0.14918622 0.06663856
-0.023543645 -0.014717436 -0.022065774 -0.12019507 -0.09024832 0.08886579 -0.02895418 -0.042170264
-0.05100792 0.07157232 -0.051274475 -0.047360346 -0.087762184 -0.006877221 0.09374315 0.072111726
-0.05908904 -0.01518055 0.0025350482 -0.06283019 -0.064693615 -0.04901977 0.0100281015 0.088516615
-0.06721676 -0.019048825 0.117234506 -0.11616553 -0.05109513 -0.034080513 -0.0024263626 -0.037296332
-0.02856773 0.09944337 -0.11354512 -0.028515784 -0.03850257 -8.974686e-05 0.048128713 0.08410975

convnet.4.weight f4 [64, 64, 3, 3]
00000000: 06bd 3cbd c1e2 35bd 30a3 36bd 084c 26bd
00000010: ca57 65bd 3b43 59bd 1d78 a1bd 49d7 70bb
00000020: 3f63 a1bd 69e1 aabd f1a6 aebc d8c2 b8bd
00000030: c3c5 2bbc e1a0 6ebd 0a7f 6dbd 8a1b bbbc
00000040: 00ae a1bd 784d 2dbd 6b11 d0bc 2004 c1bc
00000050: 067e 79bb 6226 f5bb 45b8 9ebc 112d 1bbc
00000060: 6943 2bbd 7eca 24bc c82e 39bd 5266 4cbc
00000070: 8196 563d 6839 993b f251 443d 4431 31bc
00000080: e16c 353d d557 893d b0ad 483d 1161 a73c
00000090: 609b e23c 15a6 7a3d 00d3 3c3d c710 f53c
000000a0: 585a 963d 8163 213d efb5 b63d 3f6f 383d
000000b0: 5f6d a63d d7c0 86bd d000 84bd 48d0 aabc
000000c0: 8ef4 02bd 760d 93bd 29ef 64bd cfd7 9cbb
000000d0: 2924 2fbc cdc4 10bd bfcf 9cbd dffa 7bbd
000000e0: 2cd9 eabc 49d2 84bd b56a 83bc 5a43 b3bd
000000f0: 10c0 07bd 5c72 64bd cf47 87bd 7484 803d
00000100: 860e 97bc b6f3 a53b 5fb1 793c 7fbd 45bb
00000110: 68de c8ba 3a07 1b3c 2c94 9ebc e36d 343d
00000120: 7064 b8bc 5ef7 3abd 5304 d2bc 6864 f9bc
00000130: dd86 3ebc 687b 3abd fb04 31bc f4a7 5ebd
00000140: 51fb 6fbc 6da1 e1bb 4caf 713d 81d6 ea3c
00000150: 3f77 64bc 771e 653d 5388 753d 28fc 04bc
00000160: e06f c13c 74bd 4d3d 4792 8bbd 1324 e1bb
00000170: fdd1 bfbc 8bd1 13bc 7b87 70bd 293b 5fbc
00000180: 37ab 87bd 0bfd 9cbc ddfb 0dbd aabb a03d
00000190: 0ed8 af3d 39a3 9c3d 6ac9 933d 1a48 9b3d
000001a0: a0ad f33b e77b ac3d 2b7f 9e3d eecf 003d
000001b0: f723 88bd 1287 6bbc 4f74 81bc 58e8 6dbd
000001c0: 5f7a a2bc c887 e2bc b0be ecbc baf0 b1bc
000001d0: c95d 92bd 806d 58bd 477a 94bc 281f 33bd
000001e0: f2f8 903c 8c2b 4ebd ccd7 bebc f03e 99bc
000001f0: c168 b7bc 5ba8 50bd 841f 11bd f3ef 003b
00000200: 9506 85bd 5587 67bd b6b3 32bd 8915 a0bd
00000210: 4266 83bd b813 00bd 0ac6 8abb df8c b1bc
00000220: c0c4 03bd 795f 31bd cd1a 24bd de15 3bbd
00000230: 48fd 78bd ebda b5bd 40eb 3ebd 207a f0bc
00000240: 5a82 8e3c 584a 9d3d 5fb8 8c3d 36b1 213c
00000250: 832b 213d df0e 413d 6f68 5d3d e68b 8b3d
00000260: a7a2 4b3d bb15 de3a 9c94 423d 0cbf 2f3c
00000270: e193 c93c b1b8 543d 2453 ae3c 2b39 503d
00000280: 4ff0 8b3d fb86 8a3d 61fb e83b d1c5 483b
00000290: b189 0f3c eda9 f03c 243a 2c3d 1d9c 34bc
000002a0: ea9c 483d 9d9e d63a 39d4 813d 0593 8abd
000002b0: 93bc 5fbd 0110 13bd 2edc 9fbc 8188 2dbd
000002c0: 2c09 21bd 19f2 72bd bf28 20bd 52d0 b7bc
000002d0: 6f5a 3ebd 71f4 2abd 1afe b0bd d833 67bd
000002e0: f804 efbc 1ef7 38bd b34f 75bc 4e01 a4bd
000002f0: ff02 96bc fc9b 9fbc dfbb a33c d0ad 4abd
00000300: 0e5a 50bd c3b3 84ba 1f91 1b3c 1426 a93b
00000310: cd82 99bc 4c20 60bd 4be8 0fbd 2a13 a03b
00000320: 8838 3ebd e060 6cbc 6fec f1bc fa82 20bd
00000330: 4afe 67bd 989f afbb 663d 87bd 8949 b93c
00000340: fb30 8a3c 26ac ea3c 6f22 f43c ed18 0f3b
00000350: f641 c33a aa75 e23c 48fd f23c d687 99bc
00000360: f993 823d a388 cb3d c3c4 ad3d 3f5f 983d
00000370: 6764 a93d 9996 b23d 5961 fd3c c566 bc3d
00000380: 3f6a 043d 8638 87bd 18c4 b6bc c3ff 74bd
00000390: 8abe 9dbd 12de 38bd f689 45bc efcb adbd
000003a0: d823 45bd 34b1 94bd f8f0 a0bb 3271 05bd
000003b0: 4df4 27bd 1e65 9ebb fc43 09bd 56d4 15bd
000003c0: 1e04 6fbd 5edd 86bc 713d 02bd 0dfd 8dbd
000003d0: 5d88 93bd fa1d 3abd e5b6 9abd 2e60 94bd
000003e0: c7f9 0bbc 3b0b 79bd fec0 8abc 5c49 c7bc
000003f0: b38f 8c3d 4b45 603d 4348 033d b15e 733d
-0.046078704 -0.044405703 -0.04458922 -0.040599853 -0.055991925 -0.05304263 -0.07884238 -0.0036749414
-0.07880258 -0.08343775 -0.021319838 -0.090215385 -0.010484162 -0.058258895 -0.057982482 -0.02284028
-0.07894516 -0.042310208 -0.02539893 -0.023561537 -0.00380695 -0.007481382 -0.019374976 -0.009471194
-0.041812334 -0.0100580435 -0.04521063 -0.012475567 0.052389625 0.004676033 0.04792971 -0.0108149685
0.04429329 0.06706206 0.048993766 0.020432027 0.02766198 0.061193544 0.046099663 0.029915227
0.073414505 0.039401535 0.0892142 0.045027968 0.0812633 -0.0657975 -0.064454675 -0.02085127
-0.031971507 -0.07180302 -0.055892143 -0.0047864686 -0.010689774 -0.035343934 -0.07656812 -0.061518546
-0.028668009 -0.06485421 -0.016042093 -0.08753081 -0.03314215 -0.055773124 -0.06605493 0.062752634
-0.018439543 0.005064453 0.0152400425 -0.0030172763 -0.0015325071 0.009462172 -0.019357763 0.04405011
-0.02250883 -0.045646064 -0.025636828 -0.030443385 -0.011628834 -0.045527846 -0.01080441 -0.05435939
-0.014647321 -0.0068856985 0.059005067 0.028666737 -0.013944446 0.055937257 0.059944462 -0.008116759
0.023612916 0.050229505 -0.068150096 -0.0068707555 -0.02341556 -0.009022127 -0.058722954 -0.013624945
-0.066244535 -0.019163629 -0.034664024 0.07848294 0.08586131 0.0764832 0.07216151 0.07582112
0.007436469 0.0842207 0.07739099 0.031448297 -0.06647485 -0.014375465 -0.01580253 -0.05808291
-0.019833742 -0.027652636 -0.02889952 -0.021721233 -0.07146794 -0.052838802 -0.018124713 -0.043730885
0.017696831 -0.0503345 -0.02329626 -0.018706769 -0.022388818 -0.050941806 -0.035430446 0.001967427
-0.06495396 -0.056525547 -0.043628417 -0.078166075 -0.064159885 -0.031268805 -0.004235034 -0.021673618
-0.032170057 -0.04330394 -0.04006462 -0.04567515 -0.060788423 -0.08879646 -0.04661107 -0.029355109
0.01739614 0.076801956 0.068711035 0.009868911 0.039348137 0.047133323 0.054054674 0.06813793
0.049715664 0.0016943732 0.047505006 0.0107267015 0.024606647 0.051933948 0.021279879 0.05083577
0.068329446 0.06764027 0.007110045 0.0030635486 0.0087608555 0.029377902 0.042047635 -0.011023548
0.04897777 0.0016374175 0.063393064 -0.06766323 -0.054623198 -0.035903934 -0.01951417 -0.04236651
-0.039315388 -0.059312914 -0.03910136 -0.022438202 -0.046472963 -0.041737024 -0.08642216 -0.056445926
-0.029177174 -0.045157544 -0.014972615 -0.08008061 -0.018311976 -0.019483559 0.019987045 -0.049482167
-0.050867133 -0.0010124374 0.009495049 0.00516201 -0.018739128 -0.0547183 -0.03513364 0.004885097
-0.04644063 -0.014427394 -0.029531686 -0.03918741 -0.056638993 -0.005359601 -0.06603508 0.022618072
0.016869059 0.02864654 0.029801575 0.0021834925 0.0014896977 0.027643997 0.02966179 -0.01874153
0.0637588 0.09938171 0.08484795 0.07440042 0.08271103 0.087201305 0.030930208 0.09199289
0.032327887 -0.06602578 -0.022310302 -0.059814226 -0.07702358 -0.045133658 -0.012056818 -0.08486163
-0.048129886 -0.07260361 -0.004911538 -0.032578655 -0.041004468 -0.0048338315 -0.0335121 -0.036579452
-0.058353536 -0.016462978 -0.031796876 -0.06933031 -0.072037436 -0.045438744 -0.075544156 -0.07244907
-0.008543438 -0.060801726 -0.016937729 -0.024326973 0.06863346 0.054753583 0.032051336 0.059416477

convnet.4.bias f4 [64]
00000000: b50b a2bd 6bc1 693d d111 f4bc ab4b 33bc
00000010: 5ac4 4c3c 5119 b6bc df21 02bd 9efb c2bb
00000020: 270e 153c ccd4 0fbc 9cf9 153e 3cfe 143d
00000030: 7be4 5dbd e8e9 3d3b 036d 6e3a dac0 b6bc
00000040: 80a6 a53c 9413 cdbc 7715 463d 9b53 cebc
00000050: 1ac8 79bd 68f2 cdbb 1cec 74bd 264b 8d3c
00000060: c68e adbc 86a9 d4bc 13b1 933c 170e 1b3d
00000070: dc25 243d 6cd8 393d a903 14bd e8c5 b3bc
00000080: 97bf c4bd f42f 23bc 4d47 f5bc 0e74 d53b
00000090: 7f97 c0bc 6959 c5bc a7b3 a53c 6310 69bd
000000a0: e78b 883b 799d 81bd 81b6 a03b 81fc c93b
000000b0: 604e a73c 1cbc 433c f226 373c 552a 3fbd
000000c0: cf1f bbbc 7a8d acbc 05b0 f53c ab94 0e3d
000000d0: cd45 0cbd 2647 623d 36a8 303d 4a38 d43c
000000e0: ad28 29bd 2dd5 edbc 7f59 383b eafd 1dbc
000000f0: 81a4 84bc eb63 1bbb d3f5 2abd d4e3 1a3c
-0.07912389 0.057069223 -0.029793652 -0.010943334 0.012497986 -0.022228869 -0.031770583 -0.0059504053
0.009097612 -0.008778762 0.14646 0.03637527 -0.054172974 0.002897853 0.00090952235 -0.022308756
0.020220995 -0.02503375 0.048360314 -0.02518635 -0.060981847 -0.0062850006 -0.059795484 0.017247748
-0.021186244 -0.025959741 0.018028772 0.037855234 0.040075168 0.04537241 -0.036136303 -0.021944955
-0.09606855 -0.009960163 -0.029941225 0.006514079 -0.023509739 -0.024090486 0.020227266 -0.056900393
0.0041670683 -0.06328864 0.0049045687 0.006164134 0.020423114 0.011946704 0.011178719 -0.04667123
-0.022842316 -0.021063555 0.02999116 0.03480975 -0.034246255 0.055243634 0.04312917 0.025905747
-0.041298557 -0.029032314 0.0028129516 -0.009643057 -0.016191723 -0.0023710679 -0.041738342 0.0094537325

convnet.6.weight f4 [64, 64, 3, 3]
00000000: 2044 36bd 66fd e1bc 9148 b3bd a124 08bd
00000010: 2383 0fbd dd9b 85bc 4c97 2fbd 7ee4 94bd
00000020: 352c 4dbd 7e17 f53c 9251 773b 65e2 8fbc
00000030: 2dd1 2e3d 7731 613d 2264 9ebc 4a52 bcbc
00000040: b08e 663c 99e2 57bc f10f 6bbd 6ecf 02bd
00000050: 98ca 3d3c fe41 78bd 9be2 6bbd 0154 783b
00000060: c65c 0bbd 73f1 683c ffb5 88bc bcd2 2db9
00000070: cf8e 473d b206 e83c 586f 7d3d 08b9 6a3d
00000080: 775b 633d bff7 1c3c b02c 823d 2cb7 1e3d
00000090: 18dd 273d 167a 0f3d 4c48 92bc d262 8dbc
000000a0: 17c8 4a3d 6237 763c d6b4 3f3d 540f 9cbb
000000b0: 2cf3 123d 0a78 913c 916e eb3c cf84 eb3c
000000c0: 5075 22bb 3405 2c3d a0a4 aabc 94b2 103c
000000d0: 69b8 613c 4658 4b3b 734b 04bd 617d adbc
000000e0: 4dd3 f2ba 8853 8ebd 4033 e6bc 8700 1bbd
000000f0: e54b 153c f565 97bd f14c 2cbd 8bd2 823c
00000100: 1527 4c3d 3049 983b b135 19bc 38d7 1d3d
00000110: a012 6e3b ddee 843c 8188 7e3d f9cd 0e3d
00000120: a70c 9dbc a365 083b 867c 7fbc bfa5 313c
00000130: 0ddc 3fbd 8d1b 083c 5ddf 3ebd 8129 cdbc
00000140: d509 313c c2bf 173c 8270 643d e599 b03c
00000150: b43a a23c 9152 0c3d 3ba6 913d a989 883d
00000160: 4a47 0a3d 0298 453d b83a a5bc 48e6 22bd
00000170: f1b7 0abc 3b11 2c3b 3fbc e5bc bee1 34bd
00000180: e325 973c 09b6 8c3b f384 fcbc 4e86 26bd
00000190: b81c 90bd 8c8c 8bbb a6bc 7abc 5802 51bc
000001a0: bf60 9dbc 2f8f b1bc e13f cebb eef6 f8bc
000001b0: 435c 253d 9526 783d cb38 0a3b 4909 9ebb
000001c0: 3c1a 983a fc60 48bb 931d 243d f25c 403d
000001d0: a9c1 3a3d a893 863b 956e 81bd d164 5ebd
000001e0: c320 50bd f3ff 1e3c 14fc a2bc 4bae d7bc
000001f0: ee7c 54bd ac52 83bd e162 6a3c ad28 8a3c
00000200: 2210 05bd 1ec1 1a3c ba88 23bd 547a 81bc
00000210: e680 f13b c124 aabb 19dc 8bba 94d3 df3c
00000220: 065a a63c 9257 adbc dab8 5c3c 6069 a8bc
00000230: ac4b 4b3d 90ce 4b3c 5ed7 c8ba 7c68 9b37
00000240: 9184 ebba 97e4 f83c 3732 243b f4a3 0cbc
00000250: 2956 a4bc 83e5 483d e148 c83c f701 dbbb
00000260: b7bd 59bb b9ba 483a 136b 52bd 9fd6 983a
00000270: bd68 f9bc 03bb 3bbd 9e71 f1bc 37d2 44bb
00000280: 6fab c1bc 3a26 993a a881 de3c a522 bab9
00000290: 98f7 1a3c 9a28 c13c 52d8 8a3c 503d 8ebc
000002a0: a45d 773b 867b 0bbd 6170 273c 8b42 793c
000002b0: 79a3 1c3d 424f 21bc 1cce 593d 2b9d 8e3c
000002c0: f23c 3d3c 9ab7 563d 3683 f73c 6bc0 1b3d
000002d0: c93e 193d 6591 0c3d 4df7 9f3d 1df3 913d
000002e0: 3cf3 fa3c 5e20 9f3d 0200 dc3c b379 973b
000002f0: 6fd7 083d b06c 36bc b5e1 6e3d 66f2 6abb
00000300: fedf 6d3c 69be 633b cc66 783c 1ce2 2d3b
00000310: 53db 583d 1860 943b 7d26 853b 3990 1e3d
00000320: 7a6e 223d 93cd 203d ef31 2a3d 0f3c 393d
00000330: 7afd d73c 427a 263d 0bb1 433d 0710 203d
00000340: 5e00 8d3d 09f0 d63c 5fba cd3c 3dae 2b3d
00000350: a769 db3c 4697 f1b9 e5bf 673d dccd 8ebb
00000360: ed02 a9bd 5193 96bd 1b7e a3bd 14ba 9dbd
00000370: abf5 21bd a6bc 06bd 1ecf 7ebd e99f 11bd
00000380: 501c cabc c55c 563d 7472 8a3d 8755 993c
00000390: 989f 963d 857c 213d e41a e73c 5b5b 503d
000003a0: df38 5b3d a871 893d 5bc9 d43c 178b 953c
000003b0: ef1d c73c 0844 963d 3f18 a63c 3d17 eb3c
000003c0: 25f8 873d 8219 393d 5481 5d3d 1975 81bd
000003d0: 6f82 543c 6e95 56bd 06ad b5bb 861b 77bd
000003e0: d764 39bb d5c8 3b3c a9aa 7fbc 9552 2f3b
000003f0: c034 4fbd c11b 83bd 4966 1fbd 3a8f a5bd
-0.044498563 -0.02758665 -0.08754075 -0.033238057 -0.03503717 -0.016309673 -0.042868897 -0.07270144
-0.050090987 0.029918429 0.0037737829 -0.017564008 0.042679954 0.054978814 -0.019334856 -0.022988457
0.014072105 -0.013176584 -0.05738825 -0.0319361 0.011583947 -0.06060981 -0.057589155 0.0037891867
-0.034024023 0.014217722 -0.016688345 -0.0001657707 0.048720177 0.028323505 0.061873764 0.057305366
0.05550715 0.009580552 0.0635618 0.038748905 0.040982336 0.03502854 -0.01785674 -0.017259035
0.049507227 0.015027853 0.046803318 -0.0047625694 0.035876438 0.017757434 0.028739246 0.028749852
-0.0024789162 0.04199715 -0.020830452 0.008831639 0.013776877 0.0031027957 -0.032298516 -0.02117795
-0.0018526107 -0.06949526 -0.02810061 -0.0378423 0.009112333 -0.07392494 -0.042065565 0.015969535
0.04984196 0.0046473965 -0.00935118 0.038535327 0.003632702 0.01622718 0.0621419 0.0348644
-0.019171072 0.0020812533 -0.015593654 0.01084274 -0.046840716 0.00830735 -0.046599735 -0.025044205
0.010805567 0.009262027 0.05577136 0.021557758 0.019803382 0.03425843 0.07111784 0.066668816
0.033759393 0.04824067 -0.0201696 -0.039770395 -0.008466707 0.0026255387 -0.028043864 -0.044160597
0.018450683 0.004294161 -0.030825114 -0.040655427 -0.07036728 -0.004258698 -0.015303766 -0.012756906
-0.019211171 -0.02167472 -0.006294236 -0.030391183 0.04037119 0.06058367 0.002109098 -0.004822884
0.0011604498 -0.0030575385 0.040067267 0.04696364 0.045594845 0.0041069575 -0.0631992 -0.054295365
-0.050812494 0.009704578 -0.01989559 -0.026328227 -0.051876955 -0.06412253 0.014305801 0.016865099
-0.03248609 0.009445457 -0.039925314 -0.0158054 0.007370102 -0.0051923697 -0.0010670453 0.027322568
0.020306598 -0.02115992 0.013471806 -0.02055806 0.049632713 0.012439385 -0.0015322973 1.8526094e-05
-0.0017968585 0.030382438 0.0025054344 -0.008584011 -0.020060616 0.049047004 0.024448814 -0.006683584
-0.003322465 0.00076572184 -0.051371645 0.0011660642 -0.03044545 -0.045832645 -0.029473122 -0.0030032524
-0.023641316 0.0011684366 0.027161434 -0.00035502497 0.009458445 0.02357893 0.016948853 -0.01736322
0.0037745023 -0.034053348 0.010219664 0.015213619 0.038241837 -0.009845557 0.053175077 0.017408928
0.011550175 0.05242119 0.030213933 0.0380253 0.037413392 0.034318347 0.07810841 0.07126448
0.030633561 0.077698454 0.026855472 0.004622662 0.03340858 -0.011134312 0.05832072 -0.0035850047
0.014518736 0.0034750944 0.015161227 0.0026532477 0.05294354 0.004528057 0.004063426 0.03871176
0.03965614 0.03925855 0.041551527 0.045223292 0.026365984 0.040643938 0.047776263 0.039077785
0.06884836 0.026237505 0.025113283 0.041914213 0.026783777 -0.0004607981 0.05657949 -0.0043580364
-0.08252511 -0.07352317 -0.07983037 -0.07701507 -0.039540928 -0.032894753 -0.06220924 -0.035552893
-0.024671704 0.052334566 0.067601115 0.01871754 0.07354659 0.03942539 0.028211065 0.050868373
0.053521033 0.06711131 0.02597492 0.0182548 0.024306266 0.07337195 0.020275233 0.028697604
0.06639127 0.04519034 0.054078415 -0.06321163 0.012970551 -0.0523886 -0.0055443076 -0.060328983
-0.0028288865 0.011461456 -0.015604653 0.0026752104 -0.050587416 -0.06401778 -0.038915906 -0.08083959

convnet.6.bias f4 [64]
00000000: 7b76 20bd 0203 81bc 4231 e33d eae6 52bd
00000010: 9d43 323c 19cd dd3c 5880 a8bc 3b63 063d
00000020: cb35 083d 69c4 abbc bd2b ac3c 5b5d b03d
00000030: 74e2 ed3d 32c2 47bd 7f23 00bc d500 323e
00000040: 93da 213d aefa d23d ddf0 153d 09d7 a43d
00000050: c2c7 b9bc 4bce a83d b513 3dbd b42e 153e
00000060: 7124 653b 8cc3 ec3d d1df c43c c3f0 ad3c
00000070: 65cb b13b 2142 df3d 65c6 553d 7826 2dbd
00000080: e0e6 213e 2114 0bbc a7fc b13d e96f 3abd
00000090: 94c9 f8bc a359 c63b b4f4 823c 4719 adbb
000000a0: 2cbe 3e3d 28d3 983d e150 a63d bdef 0a3c
000000b0: 7ac6 b2bb 2a2c cdbc 3526 66bd 160a 2d3e
000000c0: c450 533c 93ad 6ebc 1bb0 273e 3341 f939
000000d0: 85b3 583e e2a9 483c 4fc6 4dbc 809c edbc
000000e0: bced 273e c201 38bd d976 50bd b236 e33b
000000f0: c676 1abc 5f9f af3d df86 2f3e feba 87bc
-0.03917549 -0.015748505 0.110933796 -0.051489748 0.010880378 0.027075337 -0.020569012 0.032809477
0.033254426 -0.02096768 0.02101695 0.08611556 0.11615458 -0.048769183 -0.007820963 0.1738313
0.03951509 0.103017196 0.03660666 0.08048827 -0.02267826 0.08242472 -0.046161372 0.14568597
0.0034964348 0.11560735 0.024032505 0.021232968 0.005425858 0.10901285 0.052191157 -0.042273015
0.15810728 -0.008488686 0.08690768 -0.045516882 -0.030369557 0.006053166 0.015985824 -0.0052825543
0.04656808 0.0746215 0.08120895 0.00848001 -0.005455789 -0.025045473 -0.05618878 0.16898379
0.012897674 -0.0145677505 0.16375773 0.00047541558 0.21162231 0.0122475345 -0.0125594875 -0.02900529
0.16399282 -0.04492355 -0.050894592 0.0069340104 -0.009427732 0.085753195 0.17141293 -0.016568657

convnet.8.weight f4 [32, 64, 3, 3]
00000000: 0433 083d d3bb e3bb 7a95 5dbc d77d 9dbb
00000010: 0f3b 5dbc 38b2 d8bc abaa e13c b698 913c
00000020: 8cbc 113d ad59 033c a76b 043c 5d9b a8bb
00000030: 9713 c9bb 5a16 163d 58f2 bc3c f56e aa3c
00000040: 7260 5f3d 0a55 fbbb 075b a6bc f9d7 14bd
00000050: 62d0 bdbc 76ca 3fbc 81ad e2bb f41b 29bd
00000060: 208c c13b fbf0 553b 250d 4f3c 5474 1f3d
00000070: fd6d 343d 9edd 8bbc aecb e4bc 94c9 e6bc
00000080: 9fd2 50bc 8859 2a3d e1d5 c0bc ddb6 2a3d
00000090: fe46 243d 7557 363c 0a87 103d d26c 6d3d
000000a0: 64bd 4a3d 8794 0a3d 8edb 963c f06b a93c
000000b0: 018f 7f3d 9b27 513d dcf8 273c 8ff3 53bc
000000c0: 01d5 98bc 8923 623a 5cc5 a2bc 195d 82bc
000000d0: 5cd2 563c 7c5c b8bc 564b 903a 51da 38bc
000000e0: 2abf 6f3d 0e4a 0a3d 623f 7b3d 9282 8b3b
000000f0: 3b0b 5f3d ef30 143d f29f 353d 9174 a13c
00000100: f5ce 0c3d 0ab0 4bbb be11 853d 1b2f 823d
00000110: 4ecb 9d3d 463d 983d 81cb 9b3d d5da 823d
00000120: c18a 86bb f516 f13c a9a0 0f3c 7f05 383d
00000130: 1dbf 4f3c 1bee 173d 1165 723d e82f 7eba
00000140: 0a02 ad3c e6cc 303c 081f ba3c 262f 9b3c
00000150: ad9b 5d3d ef87 7bbc 2ba0 47bc 0db5 123b
00000160: 2bf9 c23c cc61 263d 3967 7aba 1930 6f3d
00000170: 8922 5c3c 1a4c 183c bd55 7a3d 8306 b23c
00000180: 9c23 2dbb 1e27 453c a9c8 223c 633b 743b
00000190: 859f 59bd 188d 03bd c45d 30bd 23ec 75bd
000001a0: 711a 0ebd 19a3 44bd 62d0 7d3c 318a c7bc
000001b0: c27f a3bd 5ab9 b0bd ec37 cbbd 1842 29bd
000001c0: fb4b 4fbd 0655 6dbd fb4d 94bd 0357 45bd
000001d0: c05b adbd cc5b 743c f440 96bc 9e3a c53c
000001e0: b71e fd3c b347 37bc ef1f 0ebd 3f16 f1bc
000001f0: 98e6 35bc 534a 1f3b 7410 e23c 0789 173c
00000200: 84a9 e13c 0017 3d3d c68a 8b3c c792 5a3d
00000210: 62db cdbc d87c 363d 9bb0 60bc b0ee 5ebd
00000220: 00b3 27bd 28c4 3bbd 5603 c1bd 1593 91bd
00000230: 4d9d f8bc 5cf7 30bd d8ab a9bd 789b a1bc
00000240: 4eef 8ebd 26de d0bd 706d 00be 61dc 9dbd
00000250: f82d 01be 9a57 09be 61e5 16be f9dd 8bbd
00000260: 3c5e d7bd 4000 47bd edaf 46bd 48f0 bfbd
00000270: dd7b bbbc e721 1dbd e2e2 c8bd 62ee 8dbd
00000280: 57bf 77bd 06cb 68bd af55 213d fe01 743d
00000290: f499 903d 73c4 e63c 5366 8c3c a80a 933d
000002a0: d0aa 3c3d e989 933d f74f 4d3d fbe4 aebc
000002b0: b45a 80bd 7b12 29bd 302a a6bd 281b 11bd
000002c0: 2adb c1bd c4b2 70bd f4b6 24bd 2628 59bd
000002d0: 53c4 56bb c3f4 5abd def9 f53b 88f7 2bbd
000002e0: 5c6f 093c 6313 683b 2dee 39bc 039b 76bc
000002f0: 446d 2fbd 481f 1abc b2ad 9cbc abb8 61bc
00000300: f941 9abc cde4 1dbd 91f7 8c3b 938a 21ba
00000310: cbdb 23bc 8ad4 d0bc b0c4 b2bc 91b0 0a3c
00000320: fcc6 993b a020 00bd c6fd 3abc 8bdf b13c
00000330: fcb1 3bbd 17d2 30bc 4148 863c 8747 59bd
00000340: 661b 31bd ec5d e5b8 c29a 7b3c abbc 05bd
00000350: cb2e 61bc 08cd 32bc b3e9 c2bc 3e1d 093c
00000360: 5280 1cbc 9042 e63c b25d d7bb 8d3d 0cbd
00000370: 5f73 213d 9e1a 50bc 1d8f 2fbd 1250 7f3c
00000380: 94a0 08bd ef51 f13c e485 683a afc1 8b3c
00000390: 8961 afbc b240 5bbc 392c 20bc 9731 053d
000003a0: e82a 2f3b 23a4 d23c bb6e a2bc 0916 1a3d
000003b0: b3fa a2bc ecba 443c 3f97 223d 4516 4f3d
000003c0: a94d 95bc 0ec1 3f3d e9ae a5bb d4db 21bd
000003d0: bc2b 6dbd af3f 89bd cec7 a8bd c402 18bd
000003e0: 2628 d0bd 3945 2ebd 3d8a 79bd 2a87 cbbd
000003f0: eae0 213c f844 b43c cdd0 27bc 0f7d 4f3d
0.033251777 -0.0069498806 -0.0135244075 -0.004806261 -0.01350285 -0.026452169 0.027547201 0.017773014
0.035580203 0.008016986 0.008082307 -0.005145474 -0.0061363685 0.03664241 0.023064777 0.020804862
0.054535337 -0.0076700496 -0.020307077 -0.03633878 -0.023170654 -0.011705985 -0.006917656 -0.041286424
0.005906597 0.0032644856 0.012637411 0.0389293 0.044050205 -0.017073449 -0.027929153 -0.028172292
-0.0127455285 0.04158929 -0.023539485 0.0416783 0.040106766 0.01112925 0.035285033 0.057965107
0.049497023 0.033833053 0.018415239 0.020681351 0.06239224 0.05106316 0.010252204 -0.012936487
-0.018656256 0.0008626511 -0.019869499 -0.015913533 0.013111677 -0.022505037 0.001100878 -0.011282519
0.058531918 0.03376203 0.061339743 0.0042575086 0.05445407 0.03617948 0.04434199 0.019708904
0.034377057 -0.003108027 0.06497525 0.06356641 0.07704793 0.07433562 0.07607175 0.06389395
-0.004105896 0.029429892 0.008766332 0.044927116 0.012679842 0.03709231 0.059178416 -0.00096964696
0.021119136 0.010791039 0.022719875 0.01894338 0.054103542 -0.015352233 -0.012184183 0.0022385747
0.023800453 0.04062061 -0.00095521245 0.05839548 0.013435968 0.009295488 0.061116923 0.02173162
-0.002641893 0.012033252 0.009935536 0.0037266843 -0.053130645 -0.03211698 -0.043058172 -0.06003965
-0.034693185 -0.048007105 0.015491577 -0.024357887 -0.07983352 -0.08629103 -0.099227756 -0.041322798
-0.05060957 -0.057942413 -0.07241436 -0.048178684 -0.084647655 0.014914464 -0.018341519 0.024075802
0.030898435 -0.011186528 -0.034698423 -0.029429553 -0.011102341 0.0024305775 0.027595736 0.009248978
0.027546652 0.046164513 0.017033946 0.053362634 -0.025129024 0.044552654 -0.013713981 -0.05442685
-0.040942192 -0.045841366 -0.094244644 -0.07108132 -0.030348444 -0.04320465 -0.0828473 -0.019727454
-0.069792375 -0.101986215 -0.12541747 -0.077080496 -0.12615192 -0.13412324 -0.14735939 -0.06829447
-0.10516021 -0.048584223 -0.04850762 -0.09372002 -0.022886211 -0.03836241 -0.098088995 -0.069302335
-0.06048521 -0.056834243 0.039388355 0.059572212 0.07060614 0.028169846 0.017138636 0.07179767
0.046061337 0.07204039 0.05012509 -0.02134942 -0.062673 -0.04127739 -0.081135154 -0.03542629
-0.0946563 -0.058764234 -0.04021354 -0.053016804 -0.0032770827 -0.05345608 0.007506593 -0.04198411
0.008388367 0.0035411946 -0.011348289 -0.015051606 -0.042828813 -0.009406872 -0.019125793 -0.013776938
-0.018830286 -0.03854828 0.004301973 -0.0006162312 -0.010001133 -0.025491972 -0.021822304 0.008464948
0.0046929102 -0.031281114 -0.011413043 0.021713039 -0.045824036 -0.010792277 0.016391875 -0.05304673
-0.04323902 -0.00010937065 0.015356721 -0.03265063 -0.0137440665 -0.010913141 -0.023793077 0.008368788
-0.009552078 0.028107911 -0.0065724486 -0.034238387 0.039416667 -0.0127016585 -0.042861093 0.015583055
-0.033356264 0.029458014 0.0008870049 0.017060129 -0.021408813 -0.013382124 -0.0097761685 0.032517996
0.0026728455 0.025713032 -0.019828191 0.03761867 -0.019894933 0.012007456 0.03969502 0.050558347
-0.018225508 0.04681497 -0.0050562513 -0.039516285 -0.057903036 -0.067016 -0.08241235 -0.037112013
-0.10163908 -0.042546485 -0.06092285 -0.0993789 0.009880284 0.022005543 -0.010242653 0.050656375

convnet.8.bias f4 [32]
00000000: 3891 5ebd f7a0 8cbc 93d2 9cbc cacf 1c3d
00000010: 6fff e3bd ec3d 19bd db34 0fbe 21ad 13be
00000020: 44c2 11bd c315 f4bd f67a 52bc 6a2e faba
00000030: 1d36 2a39 b2d5 56bd af4d 77bd cdbe 473c
00000040: e407 65bd ef4a 28bc c2f9 4abd 7a75 073d
00000050: 73d4 cfbc c57d 14be 2be3 49bd 0626 43bd
00000060: b26d cfbc 7afc b5bd e7a0 dbbc 2f7c 60bd
00000070: 8e5c 933a e5dc 41bd e771 373e bf4b cbbd
-0.05433771 -0.017166598 -0.019143378 0.0382841 -0.111327045 -0.03741257 -0.13985007 -0.14421512
-0.035585657 -0.11918213 -0.012846699 -0.0019087319 0.00016232622 -0.05244989 -0.06037682 0.012191487
-0.05591573 -0.010271772 -0.049554594 0.03307102 -0.025369858 -0.14501102 -0.04928891 -0.047643684
-0.025320861 -0.08886047 -0.026810123 -0.05480593 0.0011242793 -0.047329802 0.17914544 -0.09926557

convnet.10.weight f4 [32, 32, 3, 3]
00000000: 908c cd3d 12d4 963d 0372 b93d fcd2 d13d
00000010: d57c fe3d 5b0c e73d ea9e ca3d 91d3 633d
00000020: 736c 023e a90f 613d 9396 d53d 3cc3 e83c
00000030: 2b2c 163d e442 0f3d adf3 193d c9e8 2c3d
00000040: 8a80 893d b3e1 9b3d e48a 383e 5c1e 5f3e
00000050: 580c 463e 293d 393e 817a 5a3e 32dd 343e
00000060: d880 633e c07d 5c3e 5db9 743e 4109 523d
00000070: 53aa 803d 1fcf b23d 060d 183e 5feb 143e
00000080: 1502 0e3e 834b e83d 48fe 223e 37e0 d33d
00000090: 9dbb 2c3d 2f38 603d 11c6 2e3d 2825 83bc
000000a0: be63 5ebc 8168 b3bc e423 513d ba42 4abd
000000b0: eeda aabb 964e dd3d d7d4 c13d b291 023e
000000c0: 426e a83d 8bfb d93d a302 af3d 780d 043e
000000d0: 1f93 6c3d b66d fe3d 600f 423a 4d20 9c3c
000000e0: 32dd 38bd 6c1b 363d 04b1 853c 5cdf 573d
000000f0: 3699 213d 8811 a4bc 465a 973c 4caf 2fbd
00000100: f357 d53c b5d2 4e3d 4e63 433d 145a 18bd
00000110: 19f4 4d3d e37f 0ebb 8224 433c bbd2 6a3d
00000120: 60f7 0b3c 2514 693d a3f8 883d 0e4a c4bb
00000130: cee8 983c fa0f 853d 4981 a43d edc5 6a3d
00000140: 8ccb a23d 41b0 2cbc e517 433d cdcb 023d
00000150: fb1f 93bc 49d7 0abd 67f8 b73c f120 51bc
00000160: 5a73 7a3d 254c 5d3a d299 cd3d 762d af3d
00000170: 8833 203d 5faf cd3d 181d 4f3d bd2f 9a3c
00000180: 7429 963d e224 f23b cc4d a1bb 70cc 603e
00000190: a6e8 683e 51c6 843e cc92 8c3e 4d04 5e3e
000001a0: 0847 413e 96ca 8a3e f784 663e 36ff 883e
000001b0: ad18 1e3d fe22 133d 11e5 213c 0aa2 54bd
000001c0: 1081 113d b40c 03bd 9beb 413d a719 23bd
000001d0: 70b6 8e3c 3598 973d a78e 243d 53ad 2a3d
000001e0: 0157 5a3d 1caa 8b3c 2684 ed3d 36d9 a23d
000001f0: cf97 693c 0f5c ec3d ecea 913b ddac a33c
00000200: 914a 86bb 8f83 643b f148 d9bc 437f ae3d
00000210: 6723 6a3b 9dc5 183d 1ab7 e43c a3ea 803d
00000220: 1483 e43c 2a31 333d cc7b 0abc ba9d 1fbb
00000230: 4560 0f3d 6253 e53c ff43 dfbc 6d01 c63c
00000240: 225d 18bd 0fc8 863c 3b41 cf3c 641a 9ebc
00000250: 0248 19bc 1776 c53a c7f0 a63c c9ce 07bb
00000260: d14d 803c a562 f8bb 2ce1 4b3d b7cb 853d
00000270: 7783 0bbb 3c90 03bd 220a e13b 9982 b5bc
00000280: a711 ac3c 9417 053d 59b5 2f3d bca6 683d
00000290: 4535 443d 32c5 293d 3650 753c d092 913a
000002a0: 4fa9 1e3c 1a95 1d3d a937 a5bc cd1b 8d3b
000002b0: e76d aebc 7561 66bc aed8 a4bd e49f 6abd
000002c0: afe0 69bc cbf0 a0bd 641e 5fbb b47e 80bc
000002d0: eef6 4cbb d0a1 8d3d c158 14bc 21e1 613c
000002e0: 6c75 4f3d 66e4 873d 999c 9d3d 720d e13c
000002f0: e3af 7a3d a121 723d 0ebb 6bba fffe 603d
00000300: ea7e 0abd 49d7 a13c d2fa d5bb cbee ff3c
00000310: 4172 9739 2e60 4abd 1bea 9e3d 7c27 0c3d
00000320: a8cf 843d 76e8 843d 2165 093c 5684 a13c
00000330: afb8 03bc 39d5 853c c470 dabb 1694 7b3d
00000340: a939 cf3d d834 443d e326 943c 73b2 093d
00000350: 2a29 863d db7f f33d bea2 fc3d cd96 e23d
00000360: c523 533e f39a 523e 6566 2c3e 1063 0a3e
00000370: 3635 683e 2cbd 443e d019 6b3e d3ba 363e
00000380: 9692 003e 842a ea3c 44cf 17bd d6a1 ddbc
00000390: 35bd 6fbd 2cbd f73c 8d45 8b3c 6e43 bb3c
000003a0: c92f d13c d279 2e3d c803 833d 40d6 c83d
000003b0: c673 a43d 7f72 f43c 31c2 b43d 5ace ca3c
000003c0: ec89 0c3d 3a5c 733d b90a b73d fbcd 173d
000003d0: 6783 153d 9de5 dd3c 8f06 883d d069 683d
000003e0: 1fca 443c 32e9 2fbd f1f1 1abd fd1e 0cbd
000003f0: e5b5 593c c932 a03d 1f71 c63c a52b 143d
0.10036576 0.07364668 0.09054949 0.1024532 0.124261536 0.112816535 0.09893592 0.055621687
0.12736683 0.054946575 0.104291104 0.028413408 0.036663216 0.0349759 0.037585903 0.04221419
0.0671397 0.07611408 0.18021733 0.21788925 0.19340646 0.18089737 0.21335794 0.17662504
0.22217119 0.21532345 0.23898835 0.051278356 0.06282487 0.087309115 0.14848718 0.14542912
0.13867982 0.11342528 0.15917313 0.103455 0.04217111 0.05474108 0.04266936 -0.016008928
-0.013573585 -0.021900417 0.05105962 -0.04938004 -0.0052140867 0.10806005 0.09464424 0.12750891
0.08224155 0.10643681 0.08545425 0.12895763 0.057757493 0.124232695 0.0007402804 0.019058371
-0.045132823 0.044459745 0.01631976 0.052703246 0.039452754 -0.02002789 0.018475663 -0.042891786
0.026042914 0.050493915 0.047702126 -0.03719528 0.050281618 -0.0021743707 0.01191056 0.057329874
0.0085428655 0.056903977 0.06688049 -0.0059902733 0.018665697 0.06497188 0.08032472 0.057317663
0.0794898 -0.010540069 0.04763021 0.03193264 -0.017959585 -0.03389672 0.022457315 -0.0127642015
0.061145164 0.00084418274 0.100391045 0.08553593 0.039111644 0.10043215 0.050564855 0.018821592
0.07332125 0.0073896507 -0.004922604 0.21952987 0.22744998 0.25932553 0.27455747 0.21681328
0.18874753 0.27107686 0.2251166 0.2675721 0.03859775 0.035922043 0.009881274 -0.051912345
0.035523474 -0.031994537 0.04734383 -0.039819386 0.017420977 0.07402078 0.040175106 0.0416692
0.05330563 0.017048888 0.11597471 0.07951586 0.014257385 0.11540996 0.0044530537 0.019979889
-0.0040982445 0.0034868454 -0.026524039 0.08520367 0.0035726668 0.037297834 0.02791934 0.062947534
0.027894534 0.04374806 -0.008452367 -0.0024355487 0.03500392 0.027993862 -0.027254103 0.024170602
-0.037198193 0.016452817 0.025299659 -0.019299693 -0.009355547 0.0015065101 0.020378483 -0.0020722619
0.015662106 -0.0075801187 0.049775288 0.06532996 -0.0021288076 -0.032119974 0.006867663 -0.022157
0.021004511 0.03249319 0.042897556 0.056799635 0.047902364 0.041447826 0.014972737 0.0011106376
0.009683921 0.038472272 -0.020168142 0.0043062926 -0.02129264 -0.0140613215 -0.08049141 -0.05728139
-0.01427476 -0.078584276 -0.0034045214 -0.015685417 -0.0031275111 0.06915629 -0.009054364 0.013786585
0.05064909 0.066353604 0.07695884 0.027472232 0.061202895 0.059114102 -0.0008992412 0.054930683
-0.03381244 0.019755976 -0.0065301443 0.031241795 0.0002888609 -0.04940813 0.07759496 0.034217343
0.0648492 0.06489651 0.008385927 0.019716423 -0.0080396375 0.016337024 -0.0066662747 0.061420523
0.1011842 0.04790196 0.018084949 0.033617448 0.0655082 0.11889621 0.12335728 0.11063919
0.20619114 0.20566921 0.16835935 0.13514352 0.22676548 0.19212788 0.22959065 0.17844705
0.12555918 0.028584726 -0.0370629 -0.027054708 -0.05853005 0.030241571 0.017000938 0.022859301
0.025535481 0.042596646 0.063972056 0.0980649 0.080298945 0.029839752 0.088261016 0.0247566
0.03431122 0.059414126 0.08937592 0.037061673 0.03650227 0.027087027 0.06641876 0.056741536
0.01201108 -0.042947 -0.03782839 -0.03420924 0.013287996 0.078221865 0.024223862 0.036174435

convnet.10.bias f4 [32]
00000000: 1631 0b3b dc7a 19be 812b c73c c99c 7fbd
00000010: 135a 0b3e 6ec4 a13c 1ec0 a7bd 8968 893c
00000020: 9c63 123c 6f59 cc3c e397 54be 2159 d3bd
00000030: c3aa c9bc 8740 eabc 2484 053e 3479 7fbc
00000040: b575 1dbe fb75 613d 6365 37bd c77b 183d
00000050: 0139 cabd 257e ad3d 18be 713d 85be 65bd
00000060: 5e5b 1dbe ce8c a1bd 59f6 e0bc dc7c 09bd
00000070: 2cee fdbd ba65 b83c 5e91 a2bd 762f ddbd
0.0021238974 -0.14988273 0.024312736 -0.06240538 0.1360858 0.019746985 -0.0819094 0.016773479
0.008934882 0.024944989 -0.20761065 -0.10319734 -0.024617558 -0.028595222 0.13038689 -0.015592862
-0.15376933 0.055044156 -0.044774424 0.03722742 -0.09874154 0.08471326 0.05901918 -0.056089897
-0.15366885 -0.078881845 -0.027461218 -0.03356634 -0.12398943 0.022509445 -0.07937883 -0.10800068
