weights/LocalAR_adversarial_p=15x15_BSD500.pt (torch, 713554 bytes, 13 tensors)

convnet.0.weight f4 [128, 1, 3, 3]
00000000: f6e0 823e 7db0 f73e d093 a0be 850e 00bf
00000010: 7050 543e d692 97bd f28c 943d 6b13 0e3f
00000020: 059f 2fbf 2217 bebe b122 8d3f 9ac4 2ebf
00000030: ebbf 833e a13d 58bd a0e5 f43e cf74 1f3f
00000040: 0839 7dbf ca93 bdbe cc9f 923e 2fe3 dcbe
00000050: a4a2 e23e 9a1a e43d 5088 223f 8843 ae3e
00000060: d730 9fbf 29bc 393e 27e7 afbe 6e3f 34bf
00000070: 9c33 8a3e dbab b13d 662c d0be 9cf7 723d
00000080: 95c6 943d fcbf 9dbe 35cf 223f 4045 963e
00000090: 24cb f83e c23d 47be 08eb b03e 5b52 2ebe
000000a0: 6205 ae3e 909c ec3e 3024 2abf c43d 13be
000000b0: 5875 e9be efa3 5a3e 5352 30be 70b4 53bd
000000c0: 7904 b6bd d641 2bbc 26bd c03e ff83 5dbf
000000d0: b642 823f df45 d9be 7a29 823d fa94 8abe
000000e0: 05d4 193f 3b1e 153e 58c8 c7be 7403 c33e
000000f0: ccdd 4fbe 7fd8 1ebf de7f 943e 50f3 a13e
00000100: c8b2 ccbe be08 cb3e 84ff fdbe 337f 1fbd
00000110: 098d 06bf c40d ba3e 34da 573e 4ab8 283e
00000120: dc38 39be 439c b13e f2eb a1be 756d ed3e
00000130: 3866 d9be 70d0 f93e b6d5 16be e293 e3be
00000140: 524c 663e 6e37 40bf 8a21 2b3e aed0 733e
00000150: 7228 d63e 25fe ccbe fe10 9abe 1b36 443e
00000160: e740 38be 1d68 1e3f 691c e03e 514a 85be
00000170: 0d19 b7be be1c 4bbf b46c d03e bc14 633e
00000180: 71a2 4abe e6e6 b63e a714 373e b332 453f
00000190: 09d4 1bbe e626 28be 2a62 2ebf 3757 aebe
000001a0: 16b5 313d 3b4d 4e3d 1a1b 7f3e ffcb 613e
000001b0: 1f1c 9d3e fc85 7bbf af68 2f3e 4d61 6a3e
000001c0: 983f df3d f5c5 073e f7c9 ee3e ec5d 42bf
000001d0: cf19 aa3e c9cc f1be 99cf f93e 97af 90be
000001e0: 3557 643e 71d1 f33e d2c8 213e a0ce 82be
000001f0: 5c92 023c bcf2 abbe d8a2 ab3e 105d 91bd
00000200: 00ac 0abe c8de 13be 8c02 f5ba 351e d0bd
00000210: aaf3 92be 708e d43e 5339 a2bc f236 483d
00000220: 11a5 2abe d2fd 6fbd 77b4 c0bd f234 be3e
00000230: a816 c9bc 1bb1 f73e 4138 5fbf 50b6 9e3e
00000240: 376f e83e 9c37 2ebf 34db 1a3f a7f5 11be
00000250: f50f 003f ecb2 c8be 284a 8dbe 5037 26be
00000260: b6b1 d53d 46a8 af3e be95 a53d dfb1 493e
00000270: 7484 19bf dc88 98be 81ca 803d 11d9 60be
00000280: 998a 333f a9ec 8cbe eaa3 08bf c5d5 e3be
00000290: f240 813c a14b c73e ba9b dbbb dba2 d7be
000002a0: 3048 133f d27d b4bd af27 043f a15e eebe
000002b0: 8b3a 553f d89d 2abf 7b98 c33d 8248 f5bd
000002c0: cde0 7c3f 8de6 93be 208d 8abe ad4e c7bd
000002d0: 2d4d cf3e 038f 4fbf 248b 373e 7c8e d3bb
000002e0: 00ad 053c 9b97 e5be c6dc d83e bb25 723e
000002f0: 8c38 7f3c 949a 053f 18f0 1ebf 1eae 18bf
00000300: 658c c23e cabd 4b3e f3b2 3fbe f25f 05bf
00000310: 25ca f33e 1260 b43e 60b1 103e 2be5 f7bc
00000320: 64c5 e93d e885 3dbf c89b b33e e4c7 9c3e
00000330: 6407 c63e 036a 123e 48a9 29bf 1721 48bf
00000340: e3fd 643d 500a 2fbe c82a 1c3f 3393 7e3f
00000350: 2981 4dbe 776e bcbe 7ef0 e7be b007 a13e
00000360: c7ea 20bf 114c aa3e 5b1c a13e 9644 eabc
00000370: cfdd 5f3e 78ed e73c 2950 a5be 87ca d73e
00000380: 6f87 a9be 127d d7be cc2d 773e 0f2d cd3e
00000390: b3aa 19be 146c b5bc ed09 0ebf 67f6 843e
000003a0: 1267 dfbe bdc2 313f 62f3 a9be f508 eb3e
000003b0: 7907 56be 286a f63e 4800 35be 9b6f 1ebe
000003c0: 5e5c 983d a266 403e 0088 abbe eade 77be
000003d0: e6a1 95bd abd2 e83e 0701 66be 4b1d 0a3f
000003e0: 3a1a 6fbe ed24 a5be 9d3f 083e 3ea2 01bd
000003f0: 585e e73e 2a8b 2ebf 5f77 773e 023c 86be
0.25562257 0.48376837 -0.31362772 -0.50022155 0.2073381 -0.074010536 0.07253446 0.5549838
-0.6860202 -0.37127024 1.1026212 -0.6826874 0.2573236 -0.05279315 0.4783144 0.6228761
-0.9891515 -0.37026817 0.2863754 -0.43142077 0.4426471 0.11137886 0.63489246 0.34035897
-1.243678 0.18138184 -0.34356043 -0.70409286 0.269925 0.08675357 -0.40658873 0.05931817
0.07264439 -0.30810535 0.6359742 0.2934971 0.48592484 -0.19457152 0.34554315 -0.17023604
0.33988482 0.46213198 -0.6646147 -0.1437903 -0.4559734 0.21351598 -0.17218904 -0.05168575
-0.08887572 -0.010452708 0.3764431 -0.86529535 1.0176609 -0.4243612 0.06355567 -0.27066785
0.6008914 0.14562313 -0.39020038 0.38088572 -0.20299453 -0.62049097 0.29003805 0.31630945
-0.3998015 0.39655107 -0.49609005 -0.038939666 -0.5255895 0.36338627 0.21079332 0.1647655
-0.18088096 0.3468953 -0.31625324 0.46372572 -0.424608 0.48791838 -0.14729962 -0.44448763
0.22490051 -0.7508458 0.16712013 0.23810074 0.41827732 -0.40037647 -0.3009109 0.19161265
-0.17993508 0.61877614 0.43771675 -0.2603326 -0.357613 -0.7934073 0.40707934 0.22175878
-0.19788529 0.35723037 0.17878972 0.77030486 -0.15217604 -0.16421089 -0.68118536 -0.34050915
0.043385588 0.05036662 0.24912682 0.22050475 0.30685517 -0.9825132 0.17129777 0.2288868
0.109008014 0.13259108 0.46638462 -0.75924563 0.33222815 -0.4722655 0.48791197 -0.28258964
0.22298892 0.4762073 0.15799263 -0.25548267 0.007969465 -0.3358363 0.33522677 -0.070978284
-0.13542175 -0.14440453 -0.0018692776 -0.101620115 -0.28701526 0.4151492 -0.019802725 0.048880525
-0.1666453 -0.05859167 -0.09409421 0.3714977 -0.024546936 0.48377308 -0.8719521 0.30998468
0.4539735 -0.68053603 0.6049073 -0.14253865 0.5002435 -0.39199007 -0.2759564 -0.16232038
0.10434286 0.3430807 0.08085202 0.19696759 -0.5996773 -0.29791915 0.062886246 -0.21957804
0.7013336 -0.27524307 -0.53375113 -0.4449903 0.015778039 0.38924888 -0.0067019137 -0.42116436
0.57532024 -0.08813061 0.5162305 -0.4655657 0.83292454 -0.666471 0.09550568 -0.119767204
0.9878052 -0.28886834 -0.27060795 -0.09731803 0.40488568 -0.81077594 0.17924172 -0.0064561944
0.008158922 -0.44842228 0.42355937 0.23647206 0.015577447 0.5218899 -0.62085104 -0.5964068
0.37997738 0.19896618 -0.18720607 -0.52099526 0.47615162 0.35229546 0.14130163 -0.030260643
0.114146024 -0.7403245 0.3507979 0.30621254 0.38677514 0.14298253 -0.6627393 -0.7817549
0.055906188 -0.17093778 0.6100278 0.9944336 -0.20068802 -0.36803028 -0.45300668 0.31451178
-0.6285824 0.3326116 0.31466946 -0.028597157 0.21861957 0.028311476 -0.3228772 0.42146704
-0.3311114 -0.4208761 0.24138564 0.4007344 -0.15006523 -0.022146262 -0.55483896 0.2596924
-0.43633324 0.6943777 -0.331935 0.4590527 -0.20901288 0.48127866 -0.17675889 -0.15472262
0.07439493 0.18789151 -0.33502197 -0.24206129 -0.0730627 0.45473227 -0.2246133 0.5395095
-0.23349848 -0.32254735 0.13305517 -0.031648867 0.45189166 -0.681811 0.2416663 -0.26217657

convnet.0.bias f4 [128]
00000000: 42e5 1f3a 8175 1bba 4811 58ba e554 6cbb
00000010: 06ca efba ef0b 64b9 cc1f 8dba 7a2d f839
00000020: 7708 bbbb c981 31ba d8bc 5f3b 0a95 183b
00000030: e286 2e3a ab48 d8ba 7548 473c 409a 8dba
00000040: 0a21 34bb 6d80 9f3a 178a 313a 5bca ddbb
00000050: c592 8938 673a 2ab9 9f49 3fbb 32fc 16ba
00000060: c22a 37b7 cfb3 85ba a479 393a 4b29 223a
00000070: bd72 26b9 70ab 8dba 3c97 593b 798d a6bb
00000080: d5fc 1bbb 4c0e 9eba cbca 3f3b 80b9 173c
00000090: 6207 f43a 1858 933d 07ce f5b9 49e1 9cba
000000a0: 6595 ca3b a4b3 be3b f4a6 43ba a966 d63a
000000b0: f112 86ba 13f3 ddb9 9754 2b3a 5668 d0ba
000000c0: fafc 253b aa8c 19ba 868b 88b8 1134 d73a
000000d0: 0809 8dbb 6487 9d3a c6d9 f5b9 d9d9 213b
000000e0: d7c0 d3ba 4cc9 213b 2d07 5eba a13e 20bb
000000f0: f9bf 5cba fab4 1f3b 0b80 72b7 de45 b13b
00000100: b243 0abb 5bdc 8a3b e6a2 03ba 5d1d 4539
00000110: d849 d2ba 15c9 acb9 8aea c43d 6f31 a3bc
00000120: 1dae 95ba 9c31 37bb f2f6 84bb 869f 1e3a
00000130: 69ce 033b 3966 5c3b 586d 933b f46a 493a
00000140: f207 843a d93b 0f3b 2425 053b c7ac adba
00000150: 6bd2 9e3b 0dc4 d5ba f55c 94b8 08e7 11ba
00000160: 0865 033b 546f 0cbb 0823 b3bb 01a9 60ba
00000170: 3044 423a d9be 7aba 0948 72bb a4dc f1b9
00000180: 19c4 953b 802c 0fbb 74a5 d93b d16f 2aba
00000190: 5db3 bfba 3e75 20bb 5779 d33a d897 943a
000001a0: 0ccf f1ba 749e a139 7f55 8c3a ccc7 6a3b
000001b0: 42ab 473b a70c b53b 5c9b c3ba 42db fe3b
000001c0: 2ab5 903b 230f a2ba ca1c 5e3b 5d63 7239
000001d0: fffa 0a3b 4770 cb39 cf9f 5abb 93c2 943b
000001e0: 2849 b2ba 7550 153b e420 d73a 83f6 783a
000001f0: 2371 62bb 2f7b 3dbb b2a0 2dba a1a7 dcba
0.0006099531 -0.000593029 -0.0008242321 -0.0036061343 -0.0018294461 -0.0002174822 -0.0010766922 0.0004733613
-0.005707796 -0.00067713537 0.003413966 0.0023282194 0.00066576723 -0.0016501149 0.012163271 -0.0010803416
-0.0027485513 0.0012169011 0.0006772591 -0.0067685074 6.560007e-05 -0.0001623422 -0.0029188169 -0.0005759626
-1.0917605e-05 -0.0010200682 0.0007075316 0.00061859627 -0.00015873737 -0.0010808539 0.0033201715 -0.005082783
-0.0023801823 -0.0012058704 0.002926516 0.009260535 0.0018617923 0.07194537 -0.00046883544 -0.0011968996
0.00618236 0.0058197547 -0.00074635376 0.0016357499 -0.0010229034 -0.0004233351 0.0006535737 -0.0015900235
0.0025327788 -0.00058574474 -6.5109736e-05 0.0016418715 -0.004304055 0.0012018499 -0.00046892295 0.0024696498
-0.0016155493 0.0024686633 -0.0008469697 -0.0024451392 -0.000842094 0.0024369345 -1.4454136e-05 0.00540994
-0.0021097478 0.004237694 -0.0005021527 0.00018798323 -0.0016043736 -0.00032956214 0.09615047 -0.019921033
-0.0011419688 -0.0027953153 -0.0040577585 0.00060509925 0.0020112044 0.0033630265 0.004499119 0.0007683479
0.0010073169 0.002185574 0.0020316327 -0.0013250344 0.004846861 -0.0016309038 -7.0745045e-05 -0.00055657374
0.0020049233 -0.0021428661 -0.0054668225 -0.00085701054 0.00074106734 -0.00095651817 -0.0036969206 -0.00046131492
0.004570496 -0.0021846592 0.006642038 -0.00065016473 -0.0014625598 -0.0024483944 0.0016134185 0.0011336757
-0.0018448546 0.0003082637 0.0010706632 0.0035824655 0.0030467068 0.00552519 -0.001492362 0.0077776024
0.0044161277 -0.001236413 0.0033891671 0.00023115934 0.0021206734 0.0003880283 -0.0033359414 0.0045397966
-0.0013602125 0.0022783552 0.0016413 0.00094971823 -0.0034552298 -0.0028912534 -0.0006623372 -0.0016834625

convnet.2.weight f4 [64, 128, 3, 3]
00000000: 1f2b ccbe 76e9 96be 45fb 60bd 3d80 65be
00000010: de76 82bd e1c9 ad3d 9e95 1dbe 4291 38bd
00000020: 082a 63bc 8306 903e dd85 41bd 1ed1 86be
00000030: 2788 343e c511 9a3c fae7 bbbd 4f6d 253d
00000040: 0432 94bd 0715 85bd 5254 67be 31ce 30be
00000050: aa87 5abc 42e3 26be 96c0 babd 414a bfbd
00000060: 551f 4ebe 03c4 51bd 9ca5 92bd fb5d 3b3d
00000070: 273f 32be 2c70 55be 810b e73d 8735 83be
00000080: 08f0 6abe 727c 86bd c0c8 b5be 24c9 02be
00000090: 9833 21be d494 853d 58a0 3f3d cb32 79bd
000000a0: fc81 29bd 4ce3 f2bd 3d84 94bb df21 a23d
000000b0: 8ca9 8dbd 5c2b ca3d 84fc 19bc cade 8dbd
000000c0: 09b7 af3c a1fa 83bd b9f2 41be 32b6 c4bd
000000d0: 192d ecbd b28f 89be b81b 80be bca9 84be
000000e0: bb71 24bd 3563 54be 5f77 06be 2145 8a3d
000000f0: 83e4 14be f327 a4bd d559 203c a38b bf3d
00000100: 8bef 7a3d c540 eabd d5e2 3d3d e115 a63d
00000110: 45b8 4dbd 3ae4 303c 7147 bfba cedd 1abd
00000120: 8756 f53d 6af7 193d 3a8c 653c bfdb ebbc
00000130: 9d6f a73c c15b 23bc 8d30 8cbd 710e 81bd
00000140: 58b2 28bd aaeb 6fbe edd5 513e 8033 ee3d
00000150: f1aa f53c 2d59 0b3e 1a36 22bd e67b 65bd
00000160: da18 8ebb 3f3c 71bc fffd acbd 46df fbbc
00000170: 2783 b4bd 0bf2 51bd f768 dcbd 0440 19bd
00000180: 06b2 92bd a59a 92bd e3bb b53d c0d9 50be
00000190: 8ceb 8ebd 35c2 113d 14a5 91bd ecba 16bc
000001a0: 4a42 a03d 3808 abbd f56d 223d b552 4e3e
000001b0: 1a73 b8be f43f 0dbe dc32 05be 6ac0 6dbe
000001c0: d76c 21be 7b2f d3bd d790 9dbd 87d2 babd
000001d0: c6fb 08be db5e e3bd b9e0 b73d b9f4 aebd
000001e0: 9c66 1bbd 8107 6c3c 3933 cabd 8d77 ca3d
000001f0: e36d 893d 4b4f 053c b9a6 63bd 5fb0 a1bd
00000200: f825 cdbd f39e 5abd ae8a 16bd dae4 93bd
00000210: e7e0 50bd b596 dbbb 936e 87bd 70d3 8b3c
00000220: 12b5 403d b7b3 e63d bb0f c73c 6582 ac3d
00000230: c2d5 d33c f87c 973c e266 7e3d ce68 bcbd
00000240: bcd4 71be 381a 15be dde0 9fbd f58b 1ebd
00000250: caa1 dd3d dc85 9c3d 05b6 b03d 5bde b63d
00000260: 2610 c03a fe5d 613b 3d08 533d ede4 b8bd
00000270: c6d0 9b3c ff95 873d 289b c73c 2d35 f0bd
00000280: 336a aebd f435 93bd 9e01 26be d501 373e
00000290: b448 013c 6000 1238 c599 44bd 9d24 8cbe
000002a0: 848d 9ebd d4d1 223c 7f26 1ebe 1524 0dbe
000002b0: c26b 9cbd bbfd 93be 788a 17bc 9e43 393d
000002c0: 7c53 78be 4c75 ea3d 4c03 52bd 78b1 88be
000002d0: 663b a1bd 56e9 06be 33fd 71be 2768 983c
000002e0: c8f0 38bd f3cf d4bd 818f dc3d 130d 143d
000002f0: 7b91 9bbc 4c2c 81be 6472 6bbe f8a7 06be
00000300: 9d09 8cbe f0e6 17be c225 17be 77bf a5bb
00000310: 41b9 eabd d015 0bbe 9da2 6a3d 0129 6f3d
00000320: 19fd 6ebd db86 a23c 2269 ca3d eff9 bb3d
00000330: b2c2 033c 2bd2 03bc 0723 423d 479f 77bd
00000340: 3794 033e 7795 47bd f6f4 28bd 52a7 5f3d
00000350: 334c b4bd ebcf 23be dd33 d33c db0b 00bd
00000360: 3fa8 913d eafa 633d 12e7 8dbd 9753 b33d
00000370: 0631 8d3c 568d a7bc 93bc 113e c23c 82bd
00000380: dfd2 6e3c 49a1 623d e9f6 003e 69c2 e4bd
00000390: 25e6 eb3d 341a 493d 5581 0dbe dd6d 133b
000003a0: 0665 81bd 3c72 53be 2048 6dbd e958 2c3d
000003b0: 79dc 8cbd b5f7 583d b81c aebc a155 fcbc
000003c0: 6c53 133d 78ce 103d 3a07 473d 0a8d 2d3e
000003d0: 8908 c23b 9724 2fbd 96ed 9b3d 0d91 0cbc
000003e0: b085 6f3d 953c c63d 9c6f 10bd 3b48 da3b
000003f0: d25f f6bd a45d 2ebb 67f7 1bbd 80d5 da3c
-0.3987665 -0.29474992 -0.05492713 -0.224122 -0.06370328 0.08485771 -0.15389106 -0.045060404
-0.0138650015 0.28129968 -0.047246803 -0.2633142 0.17630063 0.018807301 -0.091751054 0.040387448
-0.07236102 -0.06498151 -0.2259076 -0.17266156 -0.013338009 -0.1629763 -0.09118764 -0.09340335
-0.2012914 -0.051212322 -0.07160494 0.045743924 -0.17406903 -0.20843571 0.11281491 -0.25626776
-0.22943127 -0.06566705 -0.35504723 -0.12772042 -0.15742338 0.06522527 0.046783775 -0.060839456
-0.04138373 -0.1185976 -0.0045323656 0.07916617 -0.06917104 0.098715514 -0.009398583 -0.06927259
0.021449583 -0.06444288 -0.18940248 -0.096050635 -0.11532039 -0.26867443 -0.25021148 -0.25910747
-0.040147524 -0.2074097 -0.13131474 0.067514665 -0.14540295 -0.08015432 0.009787043 0.093528055
0.061263602 -0.11438135 0.046358902 0.08109642 -0.05022456 0.010796601 -0.0014593435 -0.037809186
0.119793944 0.037589468 0.014010483 -0.028791307 0.020438964 -0.009970606 -0.06845198 -0.063015826
-0.041185707 -0.23429742 0.20491762 0.116309166 0.029988738 0.13608237 -0.039602377 -0.056026362
-0.0043364586 -0.014723836 -0.084468834 -0.030746114 -0.08814078 -0.05125622 -0.10762208 -0.037414566
-0.071628615 -0.07158402 0.08873727 -0.20395565 -0.06978521 0.0355856 -0.07111564 -0.009199839
0.07825144 -0.08351177 0.039655644 0.20148738 -0.36025316 -0.13793927 -0.13007683 -0.23217931
-0.15764175 -0.103117906 -0.07693642 -0.09122186 -0.13377294 -0.111020766 0.08978409 -0.08542771
-0.037939653 0.014406086 -0.09873051 0.09886084 0.06710412 0.008136581 -0.05557892 -0.07894968
-0.100170076 -0.053374242 -0.03675335 -0.07221384 -0.050995734 -0.0067013153 -0.06612887 0.017068595
0.047047682 0.11264747 0.024299493 0.08423308 0.025858764 0.018492207 0.062109835 -0.091996774
-0.23616308 -0.14560783 -0.07806561 -0.038707692 0.108218744 0.07642719 0.086284675 0.0892913
0.001465325 0.00343883 0.05152153 -0.09028039 0.01902045 0.06620406 0.024365976 -0.117288925
-0.0851635 -0.07188025 -0.16211554 0.17871793 0.007890869 3.480946e-05 -0.04799821 -0.27371684
-0.07741836 0.009937722 -0.15444373 -0.13783295 -0.07637741 -0.28904518 -0.009249322 0.0452305
-0.24250597 0.11448154 -0.051272675 -0.26697898 -0.078726575 -0.13174948 -0.23631744 0.018604351
-0.045151502 -0.10391226 0.10769559 0.03614528 -0.018990269 -0.25229108 -0.22992855 -0.13150012
-0.27351084 -0.1483419 -0.14760497 -0.005058225 -0.11461116 -0.1358254 0.057283986 0.058388714
-0.05834684 0.019839695 0.09883334 0.091785304 0.008042024 -0.008045713 0.047396686 -0.060454633
0.12849508 -0.048726525 -0.041249238 0.05460293 -0.08803596 -0.15997283 0.025781566 -0.031261306
0.071121685 0.055659212 -0.06928839 0.08756178 0.01723529 -0.020453136 0.14232092 -0.06359245
0.014576643 0.055329595 0.12594189 -0.11169893 0.11518506 0.049097255 -0.13818868 0.0022495904
-0.06318097 -0.20649046 -0.057930112 0.04207698 -0.06877989 0.052970607 -0.021253929 -0.03080255
0.03596823 0.035353154 0.048590876 0.16948333 0.0059214276 -0.042759504 0.07613675 -0.008579505
0.058477104 0.09679524 -0.03526269 0.0066614426 -0.12029995 -0.0026606107 -0.038077738 0.026713133

convnet.2.bias f4 [64]
00000000: f7f6 d2be 0d70 c5bd d1ec 3bbf 4119 60be
00000010: 96a5 ccbd 795d ba3c 233c eb3d e0b9 363e
00000020: 5549 abbc 3000 433b 4d13 933d 64d7 5a3d
00000030: cab1 a93c 420b 413d 2408 753d 98b7 e13c
00000040: fabf b53c ce1c 243d 78ed 563d 5592 eb3d
00000050: 6a4e 1e3d 754e 3dbd 683f 163d dc16 04bd
00000060: 81f4 c23c 2f6f 453d 2840 98be 1041 a83d
00000070: 3281 dc3d 56bd a03b bef1 e23b 19b8 2cbd
00000080: 6023 96bd 71ec 723d fb90 12bc 5f1a 0a3e
00000090: 4bb8 ec3c b94e 0fbe c340 743c 82eb c93d
000000a0: 2a9d 553d dfa5 843d e06d fc3c e65d ad3d
000000b0: b3c1 d23d 3ea6 22bd 4530 193a 6234 423d
000000c0: 83ba c3bd 9646 b8bc 0394 2e3e 0622 ee3d
000000d0: caa1 89bd 4529 56bf ca4f bfbe 25d5 123e
000000e0: a97e 1dbf 6c14 4b3d 708a d83d 7f94 e83d
000000f0: 2d9b ba3e c9a5 9a3d 1d97 9438 7656 153b
-0.41204044 -0.096405126 -0.7340823 -0.21884634 -0.099925205 0.02274965 0.114860795 0.17844343
-0.02090899 0.002975475 0.07181416 0.05342807 0.02071466 0.047129877 0.059822217 0.027553365
0.022186268 0.040066533 0.05247256 0.1150252 0.038649 -0.0462174 0.036681563 -0.032248363
0.02379823 0.048201736 -0.29736447 0.08215535 0.107668296 0.004905383 0.0069257906 -0.042167757
-0.07330966 0.05930752 -0.008945699 0.13486622 0.028896471 -0.13994874 0.0149080185 0.09859373
0.052151836 0.0647695 0.030814111 0.08465175 0.102908514 -0.039709322 0.00058436795 0.047413237
-0.09557059 -0.022494595 0.1704865 0.11627583 -0.06720312 -0.8365672 -0.37365562 0.1433912
-0.61521393 0.049580023 0.1057328 0.113564484 0.36446515 0.07551152 7.085337e-05 0.002278713

convnet.4.weight f4 [64, 64, 3, 3]
00000000: 70e7 033e ab4e 003e 4cc0 c63d d107 1c3e
00000010: c739 da3d 1193 e93d c2df 193e ee44 093e
00000020: 8426 0f3e eae6 283d 140f e23d e02e 653d
00000030: 548d b03d 7625 0b3d 551f 9b3d 45c4 cc3d
00000040: b471 c13d f413 9b3d 3099 3f3e beee 403e
00000050: 41a1 df3d e8ce 143e 273b 043e cc64 0f3e
00000060: 8148 2b3e 1a55 2b3e 3444 2c3e 0840 d2bc
00000070: 6f46 93bd fa00 30bc 4f47 e9bc 04c4 54bc
00000080: 2c73 cc3c 4360 debd 520e e0bc f214 11bd
00000090: 4f25 9abd 5f8a c4bd 3ed1 583c d53d bfbd
000000a0: 3d74 16bd a067 b23c 2adc 19be 2dfd adbd
000000b0: 7dba be3d f014 9fbf 8cc5 9ebf e203 88bf
000000c0: 17a1 82bf a00e 80bf add5 98bf 4f17 6dbf
000000d0: c3ee 80bf 2252 93bf dc73 13be 9a3b 41be
000000e0: 9026 25be 68aa 20be e3e0 0ebe 60c8 40be
000000f0: a919 c4bd a7b9 39bd 3ebc 25be 78de 4fbe
00000100: 9461 5ebd 7741 28be 5757 a8bd eb2a 013e
00000110: d682 753a 60cc 14bd fc4b f83d 36c4 55bd
00000120: 2e05 73bf ef3a 8cbf dfd6 afbf 87aa 56bf
00000130: 4eb6 64bf be1c a2bf 9187 62bf 27ef 2cbf
00000140: 92ef 53bf cf7d 363d 5205 88bc b174 0b3d
00000150: 8435 51bd 5150 023e c535 cc3d 5618 63bd
00000160: 929e b4bb 1016 c63d a3a1 16be 82da 983d
00000170: 7eb1 4f3e 6d03 71be 39a8 c4be 7ac8 543d
00000180: 84e5 afbd bde0 14bd 796a a63d 9836 69bf
00000190: 912c eabe 0b12 9cbe a19c 74bf 83ce 4ebf
000001a0: d2d3 3cbf 12cf c5bf 8f91 afbf cd96 abbf
000001b0: 30f2 a3bf fadf 7bbf 3aa8 24bf 413b 92bf
000001c0: 897f 49bf 8cce 21bf 5346 b3bf 33ad 85bf
000001d0: cec1 82bf 16b8 693e 3a15 013e 8189 293d
000001e0: e099 353e 7576 253e f825 a13d f7b8 353d
000001f0: f546 fe3d 243a ce3d 3d4a a6be 8a0b ccbe
00000200: 29cf abbe 77a8 e0be 7a33 efbe 8a04 27bf
00000210: 6469 04be a3af c4be b408 95be bc0d 023e
00000220: 756f 393d 9360 efbe 2cd0 1c3e 3781 16bd
00000230: 1adb 90be 6168 25be 25bf 0ebf f716 40be
00000240: 7594 5ebf 7cd6 45bf 357b 1dbf 15aa 70bf
00000250: 0ee5 1fbf 889b a8be f587 32bf ef88 07bf
00000260: e3c7 0bbe 39c7 213e 5f7a f03d e5fe 803e
00000270: 1dfe 1f3e 6de3 b33e dddb d43e c3e0 033b
00000280: c0f7 983e 045d 963e 8381 8bbf 09a8 7ebf
00000290: f683 4cbf 481e 8cbf 71c4 49bf 2547 2ebf
000002a0: b292 b8bf 35f7 7abf 1c45 fcbe 62f4 96be
000002b0: dc02 b3be 9922 ebbd 0516 98be 9b13 6dbd
000002c0: c45b 6cbd 6ddb 5cbe 434f 893d d6e4 b2bd
000002d0: 8c85 4d3e a426 463d 17e0 43be b331 773e
000002e0: ce9b 463e 3fe6 b93d 15e7 a63e c8bc b83c
000002f0: 0152 863d 51c8 5d3e a23c 033e fd93 fe3d
00000300: b77f 243e 3d5f 4e3e f582 113e ba36 293e
00000310: 9886 363e fe3c b63d 0fb6 a9bd fa5b 8ebe
00000320: e60b 893d f9dc 743d 3630 3abc 71f3 343d
00000330: 0e69 26bf 387b 3cbe 1f4f 823e 68b9 313d
00000340: b6f4 bd3c 1952 263d ea09 b4bd d96e be3c
00000350: 46f6 cd3d cca2 20bc 05bf b4bd 6d74 6f3d
00000360: 267b fdbd 65fd 103e 1ef7 05be 70c2 b23d
00000370: 02f0 123e 904a 403d cf52 fa3d db2d 633e
00000380: 0332 ad3e 0849 b4be dbda f2be 539e d2be
00000390: c29d 47be 98f6 0cbf bcb1 43bf 2903 23be
000003a0: 7df1 e4be b350 e1be 6c7a 6f3d 5fb1 e53d
000003b0: b5d7 d23d 6fba 243d b343 e93d ec80 b23d
000003c0: 125e 873d 35ae 4b3d 47f9 d83d 2f4b 66be
000003d0: d999 b8be 26ec 60bf cd3c d6be ca2f fbbe
000003e0: b056 59bf 2de4 30bf 4111 38bf 753a 53bf
000003f0: 9d4e b63e cc3c 9e3e 920c b73e aaa9 ac3e
0.12881255 0.1253001 0.097046465 0.15237357 0.106555514 0.11405004 0.15026763 0.13405201
0.13979536 0.04123584 0.11038032 0.055952907 0.08620706 0.033971272 0.075743355 0.09998373
0.09445515 0.07572165 0.1871078 0.18841073 0.109194286 0.14532053 0.1291319 0.14003295
0.16726877 0.16731682 0.16822892 -0.025665298 -0.071911685 -0.01074242 -0.028476385 -0.012986187
0.024957262 -0.10858204 -0.027350578 -0.035420366 -0.07526647 -0.09596705 0.013233481 -0.093379654
-0.036731947 0.021777928 -0.15025392 -0.08495555 0.093129136 -1.2428265 -1.2404037 -1.0626185
-1.0205411 -1.0004463 -1.1940209 -0.9261369 -1.0072864 -1.150944 -0.14399666 -0.18870392
-0.16127992 -0.15690005 -0.13952975 -0.18826437 -0.09575207 -0.045343067 -0.1618509 -0.20299709
-0.054292277 -0.16431223 -0.08219784 0.12614028 0.00093655044 -0.03632772 0.12123868 -0.052189074
-0.9492978 -1.0955485 -1.3737448 -0.83853954 -0.89340675 -1.2665021 -0.8848811 -0.6755242
-0.8278743 0.044553574 -0.0166041 0.034046832 -0.051076427 0.12725951 0.09971193 -0.05544313
-0.005512067 0.09672177 -0.14710097 0.07463552 0.20282552 -0.23536463 -0.38409594 0.051949
-0.085886985 -0.03634714 0.08125777 -0.9109893 -0.45737126 -0.30482516 -0.95551497 -0.8078386
-0.7376071 -1.5453818 -1.3716296 -1.3405396 -1.2808285 -0.98388636 -0.64319193 -1.1424333
-0.7871023 -0.6320579 -1.4005836 -1.0443481 -1.0215394 0.2282413 0.12605754 0.0413909
0.1773448 0.16158469 0.0786857 0.04436585 0.12415878 0.10069683 -0.32478514 -0.39852554
-0.33556488 -0.43878528 -0.4671896 -0.652413 -0.12930828 -0.3841525 -0.29108202 0.12700552
0.04527231 -0.46753368 0.15313786 -0.036744323 -0.2829216 -0.16153099 -0.55760413 -0.1875876
-0.8694528 -0.772804 -0.61516124 -0.94009525 -0.62458885 -0.3293116 -0.69738704 -0.5294332
-0.1365047 0.15798654 0.117420904 0.2519447 0.1562428 0.3513445 0.41573992 0.0020122982
0.29876518 0.2936784 -1.0898899 -0.9947515 -0.79888856 -1.0946741 -0.7881537 -0.6807731
-1.4419768 -0.9803346 -0.49271476 -0.29483324 -0.3496312 -0.11481208 -0.297043 -0.057880025
-0.057704702 -0.2156808 0.06704571 -0.08735053 0.20070475 0.048376694 -0.19128452 0.24140052
0.19395372 0.09077119 0.32598177 0.022550955 0.0655861 0.21658446 0.12816098 0.1243057
0.16064344 0.20153518 0.14210112 0.16524783 0.17824781 0.08898352 -0.08286678 -0.27804548
0.066917226 0.05978105 -0.011364033 0.044177476 -0.6500405 -0.18406379 0.2545099 0.043389708
0.023187976 0.04060564 -0.087909535 0.023246216 0.100567386 -0.009804439 -0.088254966 0.05846064
-0.12377004 0.14159162 -0.13082549 0.08728492 0.14349368 0.04694611 0.12222826 0.22185461
0.33827218 -0.35211968 -0.47432598 -0.41136417 -0.19493774 -0.5506377 -0.76443076 -0.15919174
-0.4471549 -0.4400688 0.05846636 0.112154715 0.10295049 0.04021686 0.11389866 0.08715996
0.06609739 0.049726684 0.10594421 -0.22489618 -0.36054876 -0.87860334 -0.41843262 -0.49059898
-0.848979 -0.6909817 -0.7190133 -0.82511073 0.35606852 0.3090576 0.35751778 0.33723193

convnet.4.bias f4 [64]
00000000: 9639 35be d529 b9bc 26fd 423f a053 76bd
00000010: 5eec 053f 3488 053c d68a 303e 060f 54be
00000020: 7e96 edbd ea99 2dbd 72f4 fcbc 36d6 79bd
00000030: a386 5e3d 8070 04be d2a9 51be 3528 c3bd
00000040: 1134 213f b5c6 5f3c af13 06be e562 ae3d
00000050: 7d24 80bd a0a6 88bd 3217 d13d 09b5 14be
00000060: f5df 1e3e 808d d6bd b356 073f 7680 9dbe
00000070: 7d22 26be 0c5c 96be 8233 46be e87f 3ebe
00000080: c90b 19be a2b4 50be b5fe 87be b363 36be
00000090: dbb5 283f 774c 0ebe b522 29be dca2 3f3f
000000a0: 7c9b f1bd 1e91 6d3d 941c 04be d11f 823e
000000b0: dfda f8bd a5df 493f 8672 6bbe 71d7 1abd
000000c0: 6a94 8ebd 149f 05be f988 23be 725d 1dbe
000000d0: d77e 61be aa10 6dbd ed8a 5a3f 3f5b 3cbe
000000e0: f833 87be c1ae 0fbe 69ef 47be 4513 d3bd
000000f0: 5920 7f3e bbc9 093e 0ce0 f83c 10a5 d4bd
-0.17697749 -0.022602955 0.76167524 -0.060138345 0.5231379 0.008150149 0.17240462 -0.20708856
-0.1160097 -0.042383112 -0.03087828 -0.060995303 0.05432762 -0.1293354 -0.20474938 -0.09529153
0.6297007 0.013658215 -0.13093446 0.085149564 -0.062569596 -0.06672406 0.10209502 -0.14522184
0.1551512 -0.10476208 0.5286667 -0.3076207 -0.16224094 -0.293671 -0.19355586 -0.1860348
-0.14945902 -0.20381406 -0.26561514 -0.1781147 0.6590249 -0.13896357 -0.16517146 0.7485788
-0.117972344 0.057999723 -0.12901527 0.254149 -0.12151121 0.7885688 -0.22992906 -0.037803117
-0.069619015 -0.13048965 -0.1597022 -0.15367678 -0.22021042 -0.05787722 0.85368234 -0.18394183
-0.26406837 -0.14031507 -0.19524921 -0.1030641 0.24914683 0.1345586 0.030380271 -0.10383046

convnet.6.weight f4 [64, 64, 3, 3]
00000000: f661 163d fe0e 9e3d 7340 6a3d b83f 943d
00000010: 220b 3c3d a017 ba3d 7ae5 e73d 2962 093e
00000020: 8897 a83d 79be 163c 6905 92bc 9e89 fd3c
00000030: 043c 5dbc e0b9 e8bb f1f1 3fbd ed2d 0cbd
00000040: e417 b7bd 6c05 87bd 31a9 ffbc 73bf 89bd
00000050: 1124 4abd 412a 78bd fc12 f0bd 6c33 b2bd
00000060: 5297 fdbd 98c1 07be 8632 09be 2041 6bbc
00000070: c7df 2b3d 5e52 ce3d 2abf b43c 0777 f43c
00000080: 89b4 b63c 4b4b a83c a3ea e23c 4ec8 273d
00000090: f143 9ebb d227 313c 6090 94bd 8a07 5cbd
000000a0: 8a8b 10bd dee6 00be 66fc f1bd 97d5 0fbe
000000b0: 7cd8 22be 4781 593d ca22 9b3d c30c 463d
000000c0: de56 363d f841 3f3d 2199 e13d 212c 053e
000000d0: 56fa 093e d38a 743d 6968 01bd cc8b 89bd
000000e0: f33b 10bd e59e 55bd 7859 2cbd 5769 aabd
000000f0: 470c d1bd 610c b2bd f361 efbd f5d5 df3d
00000100: dd44 af3d 6657 8f3d 158c d4bc ec4a 9c3c
00000110: 26d7 983c 027a a1bd af22 78bd 3234 ffbc
00000120: 28ab a6bb a5f0 303c 39b6 dd3d 45bc aabb
00000130: f038 f73c d586 333d a08d 91bc f23d cf3b
00000140: 1368 19bc 397d e93d 3212 073e d9fa 003e
00000150: 8468 cb3d ffec 0e3e 30f2 8a3d f653 843d
00000160: 413f e13d 18c6 693d eebc e53c b888 a33d
00000170: eae1 9e3d 8014 ac3d 6bcd a73d b135 6e3d
00000180: 3900 8e3d ffb9 ab3d 11be 923d f07f 8b3d
00000190: e1ab af3d 1187 7f3d e515 963b 2fb7 87bb
000001a0: 4f0e d53d 283a ffbc 0cdf 67bd fcdb c53d
000001b0: 60b6 b73d 6c2e 323d a919 853d d29f de3d
000001c0: a641 b83d 6b2d 9f3d f2f0 243d 1cac e93d
000001d0: b438 593d 1535 223e 0e71 083e 4e17 2e3e
000001e0: 8874 5f3d 012d dd3d 6dd6 843d d4f8 323d
000001f0: 88ab 933b fcfb 9f3d 76c0 f53d 1fe5 8a3d
00000200: fb5d c63d 130f 0d3d 33e7 433d 0888 13bc
00000210: 3fac 6a3d 2072 133c 7a10 3a3b b978 9abb
00000220: 8f18 cebc 04ba 093d 2615 e2bc 374a 213d
00000230: 31d9 9c3c c3bb 29bd bd0c eb3c a776 0f3d
00000240: a009 a1bd 9643 13bd 89be b1bc 84dc e5bd
00000250: 38d9 3cbd 35ab 6fbd 673e 19be 29f1 dfbd
00000260: bb0c 14be b461 b63d f87e 843c 2662 a03d
00000270: f1e1 0a3e 24a6 063e 0ef6 e03d a6fd 013e
00000280: cf3a dc3d 1d95 a73d c1f6 463d 55ac 9f3d
00000290: cde2 2f3d cfc4 ee3d 9078 903d 9b2f a63d
000002a0: daf7 ea3d 1db8 9e3d 22b8 043e 7cf2 393d
000002b0: 9a79 7a3d 33bc 873d 10b0 6f3d 60c8 433d
000002c0: 22d3 1d3d bf4c db3d 78fd 3d3d 67c9 fa3d
000002d0: 295c 933d 5f3d 7e3d ac71 e23d 9f37 133d
000002e0: 0f96 8e3d 3d03 9c3d 3e64 463d b6bf c83c
000002f0: c156 503d 9ec9 393d 8f63 9e3d 95c8 a03d
00000300: 8e41 743d b8f7 fe3d 0157 f33d 3281 ed3d
00000310: c5f3 743d e174 f03d 811a 8c3d 64d7 573d
00000320: 7b83 54bc a365 b9bc ac49 47bd 3146 02bd
00000330: 8864 36bb 10d7 2f3c c420 45bd f883 f13d
00000340: 465a 9d3d f3bf d43d 4e07 143e 2165 333e
00000350: 3a9c b63d 80dc 0b3e cf87 063e 966a 853d
00000360: ce73 59bd ee74 abbd 75d9 d3bd 89df 9abc
00000370: d5fa 84bd 9860 97bd 66e2 b6bd a855 9cbb
00000380: 5d3c f7bd 3407 283c 4a8b 283d 2351 7f3d
00000390: 9fdf 8c3d 5a98 833c e1d5 e03c bce1 17bc
000003a0: cd16 8e3d fca9 a93d 6b86 3c3c f165 0e3d
000003b0: 58c3 03bd c692 f1bc cb61 03bd ced9 d4bd
000003c0: d0cf ebbd 7c01 01be 62db 57be b426 a63d
000003d0: f446 c73d 39f8 433d b8cf c73d 5657 f43d
000003e0: c7ee 4a3d 6692 a53d 2804 0a3e 8d56 873d
000003f0: c2d4 56bd c0ed 61bb f286 b2bc 8201 adbd
0.036714517 0.07717703 0.05719037 0.07238716 0.045909055 0.09086537 0.11323066 0.13416351
0.08232027 0.009200686 -0.017824845 0.03094941 -0.013503078 -0.007102236 -0.046861593 -0.034223486
-0.08940104 -0.06592831 -0.031208606 -0.06725969 -0.0493508 -0.06058717 -0.11722371 -0.08701214
-0.12382378 -0.13257444 -0.1339818 -0.014358789 0.041961458 0.10074304 0.02206381 0.029841913
0.022302883 0.020543715 0.027699774 0.04096251 -0.0048298766 0.010812717 -0.072541 -0.053718127
-0.035289325 -0.12588069 -0.11815719 -0.14046322 -0.15902895 0.053101804 0.07574995 0.048352014
0.044516437 0.046693772 0.11015535 0.13005115 0.13474402 0.059702706 -0.031593714 -0.06716117
-0.035213422 -0.052153487 -0.04207751 -0.08320873 -0.1020742 -0.08693767 -0.11688604 0.10929481
0.085580565 0.06999092 -0.025945703 0.019078694 0.018657278 -0.07884599 -0.06057995 -0.031152818
-0.0050863214 0.010799562 0.10825772 -0.0052104318 0.030178517 0.043829758 -0.017767727 0.006324523
-0.009363192 0.114008375 0.13190535 0.12595691 0.09932044 0.13957594 0.06784475 0.06461327
0.10998393 0.057073683 0.02804419 0.079850614 0.077579334 0.084023476 0.08193477 0.058156673
0.06933636 0.08385085 0.071651585 0.068115115 0.08577705 0.06238467 0.0045802468 -0.0041417102
0.1040312 -0.03115566 -0.0566092 0.09661099 0.08970332 0.043501303 0.06499035 0.10870327
0.089968964 0.07772335 0.040268846 0.114097804 0.053032592 0.15840562 0.13324377 0.17001078
0.054554492 0.107995994 0.06486211 0.043694332 0.004506532 0.07811734 0.119996 0.06781983
0.09685894 0.034438204 0.04782791 -0.0090046 0.057293173 0.0089993775 0.0028391168 -0.0047140983
-0.025158195 0.033624664 -0.027597975 0.039377417 0.019146534 -0.04143883 0.028692598 0.035025265
-0.07863164 -0.035953127 -0.0216973 -0.11223701 -0.046105593 -0.058512885 -0.14965211 -0.109346695
-0.14457981 0.08905354 0.016173825 0.0783122 0.13562752 0.13149315 0.10984431 0.12694415
0.10753404 0.08182738 0.048575167 0.077965416 0.042940903 0.11658632 0.070542455 0.08114549
0.11473055 0.077499606 0.12960866 0.045397267 0.061151125 0.06627693 0.058517516 0.047798514
0.03853143 0.107079975 0.046384305 0.12245446 0.071953125 0.062070247 0.110568374 0.035941716
0.06962215 0.07617805 0.048435442 0.024505477 0.050863985 0.045358293 0.07733833 0.07850758
0.05963283 0.12449592 0.11881829 0.11596908 0.05980279 0.11741043 0.06840993 0.052695647
-0.0129708005 -0.022631472 -0.048654243 -0.03180522 -0.0027830917 0.010732427 -0.04812695 0.11792749
0.07683234 0.10388174 0.14455912 0.17519046 0.089165166 0.13658333 0.13137744 0.0651447
-0.053088956 -0.08371912 -0.10344211 -0.018905418 -0.06493155 -0.07391471 -0.08929901 -0.004770953
-0.1207206 0.010255624 0.04114846 0.062333237 0.0687859 0.016063858 0.027445735 -0.009270128
0.06937943 0.08284375 0.011506657 0.034765188 -0.032168716 -0.029488932 -0.032075685 -0.103931054
-0.115142465 -0.12598222 -0.21079782 0.08112851 0.0973033 0.047844145 0.09756416 0.119307205
0.049544122 0.08084564 0.13478148 0.06608305 -0.052448995 -0.0034473985 -0.021792863 -0.08447553

convnet.6.bias f4 [64]
00000000: 8de0 8abd ed28 553e 3b2d 7dbd 4c1e 903d
00000010: 8875 17bd f293 a63b 7daf 8abd edb5 e13d
00000020: 2df9 05be 029a 48bd c46a d2bd c4c0 c3bd
00000030: 0756 7c3f 0713 ca3f e834 10bd 02b2 35bd
00000040: 2fb6 8fbd 865f 7fbd 6a85 9bbd 7c90 9d3e
00000050: d9ed cfbd fe2e f6bd f141 b3bc cbb9 bcbd
00000060: a039 d2bd 34ac 85bc 53a4 f7bd 7399 273f
00000070: f059 cbbc 7d33 6b3c 3109 693e f0ff 20bd
00000080: c474 83bd 51dc 48bd 5d8a 37bd 6dde a1bd
00000090: e1df af3d c1b0 60bd 8be6 89bd b3cc bbbd
000000a0: 5c43 49bd 5d88 1dbd d775 ffbc f1ff aebc
000000b0: 3df2 acbd 82ad 07bd 57f0 8dbd da7a 9fbd
000000c0: ba4a 8f3d 6875 87bd eda8 e2bc 7834 3dbd
000000d0: c8b0 15bd e829 e4bc 5810 8cbd c886 14bd
000000e0: 75de 47bd ebd1 6ebd c537 1fbd 6b0a 96bd
000000f0: a29a 3ebd a51d cd3c 6346 183f d546 a7bb
-0.06781111 0.20816393 -0.061810713 0.07037029 -0.03697732 0.0050835544 -0.06771753 0.11021028
-0.13083334 -0.048975 -0.1027427 -0.095582515 0.9856877 1.5787057 -0.035206705 -0.044359215
-0.07017171 -0.062346958 -0.07593806 0.30774295 -0.10152788 -0.12020682 -0.02188203 -0.09215125
-0.10264897 -0.016317464 -0.12091889 0.6546852 -0.024823159 0.0143555375 0.22757412 -0.03930658
-0.06418756 -0.049038235 -0.044809688 -0.079037525 0.085876234 -0.054856066 -0.06733426 -0.09169903
-0.049136505 -0.038460124 -0.03118412 -0.021362277 -0.08444641 -0.033124454 -0.06930607 -0.07787104
0.06996675 -0.0661419 -0.02766844 -0.046192616 -0.036545545 -0.027852014 -0.06839055 -0.03626135
-0.048796136 -0.058305662 -0.038871545 -0.07326206 -0.046534188 0.02503855 0.594824 -0.0051048794

convnet.8.weight f4 [32, 64, 3, 3]
00000000: df0f a1bc 1a84 0b3d 83ec 9b3c 65c0 cfbc
00000010: 0f73 d73c c6ac 743b 219d 7cbc 69db 923c
00000020: db50 3a3d 8e33 3abe 0c5e fbbd 8914 06be
00000030: e611 0abe ede5 d0bd 3642 08be 95d2 2fbd
00000040: bbee a2bd 09ac ccbd 2fec 483d 2aed f83c
00000050: 15a8 bebb 4e25 f9bc f574 e3bc 1e07 0ebd
00000060: b499 ba39 eed7 a7bc 1154 1e3d 4fb9 c3bd
00000070: 0cbc 92bd 0fa2 b4bd db25 d4bd 2730 93bd
00000080: fcb0 92bd 5ae6 a6bd 5d54 a3bd f61c debd
00000090: a3d7 e2b9 dbb1 e13c e284 583d 9631 f3bb
000000a0: f873 d4bc dd3d 0b3d 40cd 9fba 4d14 0c3c
000000b0: 32b9 0b3d 3848 22bd 4d12 a8bd f879 53bd
000000c0: bb30 23bc 4167 95bd f541 5cbd 2794 f8ba
000000d0: f9af 91bd 63f7 37bd 9826 99bd dd47 573c
000000e0: 48d7 8bbc bdb9 52bd 919a 8cbc bc6f b0bc
000000f0: 6ade 9a3b 378d 6b3a 3042 09bd c9a0 f9bd
00000100: 3daa cdbd b9be cebd 82cb 51bd 3a57 8bbd
00000110: c96b 8ebd 902c d2bd a302 17bc cf19 4bbd
00000120: 8ade ffbc f8c7 a6bb 0ab0 b3bb 4287 11bc
00000130: ac01 76bb 5210 5cbd 7af3 04bc 736b 4039
00000140: 802b 6c3c 2f71 03bd 9a2e 0a3d 649e e7bc
00000150: 8cfc 363c 8bee bd3b 5be3 8f39 a9d4 343d
00000160: 80d2 1ebc 3bec 1e3d 138a b9bb d3e2 32bc
00000170: cac6 c73c 80b1 363d 5104 61bc 6fbe 25bd
00000180: 5eda e03c fc8b 23bd 1ec7 cabc c2c0 18bd
00000190: 5f14 00bd 94ee 3a3c 61cd 14bd 3716 88bc
000001a0: 5cff 17bc c628 6e3c d054 00bc eeae e1bc
000001b0: d3d1 04be 07ea 15bd 1640 89bd 10fe f8bd
000001c0: 3019 54bd 7d60 8cbd e9c7 aebd 3478 d0bd
000001d0: 686a edbd fe19 16be 6f0d 54bd dcff 00be
000001e0: 9dc5 0abe 2805 8e3b e70c 60bd 3a0e b7bd
000001f0: c6c9 bbbc abb2 38bd 06b9 913c 035d e93c
00000200: 80e0 473d 61a1 04bc eb4e 0bbd 2408 5d3d
00000210: f16f 183d 56f4 dc3c 5e82 2ebc ebe1 0e3c
00000220: 5f88 1b3c 7233 51bd 7cc8 b4bd 3a84 d3bc
00000230: 88a8 96bc ccd1 47bd f9ea c6bd 8b47 55bc
00000240: e7bf e63c d48f a2bb b27d d93a 3c11 15bd
00000250: aa56 e43c e164 b1bb b5a5 123d aaa3 ab3c
00000260: 3a89 9fbc 3b7e 343b 6127 f7ba 6b2c edbb
00000270: 2da6 c5ba 8be5 a0bc 66dc 02bb 430b a43c
00000280: f9a9 e1bc 9b69 41bd 72ff 233d 307e 803d
00000290: 7590 a4bb 2212 993c 0f7b 463c 9d2e a6ba
000002a0: 265b bb3c 8025 cbbc 23ed 80ba 8e6d 36bd
000002b0: 4e56 9bbd fbb2 58bd f64c dabd 6aa6 31bc
000002c0: dc24 bebc b362 77bd 7562 fabc f8a3 f6bd
000002d0: 9ab0 273d 303a 133d 0792 96bc 90bf 07bd
000002e0: ea32 3dbc 03ca c9bc aeb3 e2bb 89a9 bcbc
000002f0: 5372 0f3d c383 91bc af00 02bc 47e3 dcbc
00000300: 3793 463d 531d 4d3c 2539 dbbb c3c4 a2bc
00000310: 4ba7 4ebc 2714 95bc 0729 6bbc 4535 d8bc
00000320: a470 e7bc df30 d6bc 7b5a 2bbd a001 6d3a
00000330: 333f 4cbc 8d06 f63c a9f6 103d 8624 babb
00000340: 997e d83c 6885 8f3c 5b38 d1bc 70b2 b3bc
00000350: 21c0 983c 3e31 473d 4267 debc e5b3 11bd
00000360: 28d2 6ebc 96e9 253d 6e9b ccbc 161b bd3b
00000370: a53c 4e3c ab56 c83c 042f 443c b4b7 c53c
00000380: 0b99 c43c f199 2ebc 0894 afbc 0581 2f3c
00000390: e610 963c 8bd5 103d 5136 cabc 65c0 903c
000003a0: e659 3dbb 58de 26bd 2d6b 36bd d93c 443b
000003b0: f24b d03c 8d81 ed3c 2e52 9f3b 46ee 2b3d
000003c0: 3f23 a1bc dfe2 893c 128b 1f3c 31ab 5cbd
000003d0: 8b98 35bd 66b9 7fbd 69e7 51bc 85fa 70bd
000003e0: b7d8 8dbd 0c6f 21bd c7a7 f2bc c010 b1bd
000003f0: ff9e edba 4c0b a23b 7343 e43c c430 17bd
-0.019660888 0.03406153 0.019033676 -0.025360296 0.026299981 0.0037334426 -0.015418322 0.017926889
0.045487266 -0.18183729 -0.122737974 -0.13093771 -0.1348339 -0.10200105 -0.13306507 -0.042925436
-0.079556905 -0.099937506 0.049053367 0.030386526 -0.005818377 -0.030413296 -0.02776573 -0.034674756
0.00035591202 -0.020488705 0.03865439 -0.09556829 -0.07164773 -0.08819973 -0.10358783 -0.07186919
-0.07162663 -0.08149405 -0.079750754 -0.108453676 -0.0004326674 0.027550628 0.052861102 -0.0074216826
-0.025934204 0.033994544 -0.0012191907 0.008549762 0.034112163 -0.039619654 -0.082066156 -0.05162999
-0.009960349 -0.07295085 -0.05377384 -0.0018965051 -0.07113642 -0.04491366 -0.07478064 0.013139692
-0.017070428 -0.051446665 -0.017163547 -0.021537654 0.004726221 0.0008985581 -0.033510387 -0.121888705
-0.10042236 -0.10094971 -0.05121947 -0.068037465 -0.06954152 -0.10262406 -0.009216937 -0.04958516
-0.031234045 -0.005089756 -0.005483632 -0.008882346 -0.0037537618 -0.0537265 -0.00811469 0.00018350575
0.014414668 -0.032090362 0.03373585 -0.028273769 0.01116861 0.005796259 0.00027444478 0.04414812
-0.009693742 0.038799506 -0.0056622117 -0.010918337 0.024386782 0.04460287 -0.013733939 -0.040464815
0.027447876 -0.03992842 -0.02475315 -0.037293203 -0.031269427 0.0114094205 -0.036328677 -0.016612155
-0.009277191 0.014536088 -0.007832721 -0.027549233 -0.12970667 -0.03660014 -0.067016765 -0.121578336
-0.051781833 -0.06854341 -0.085342236 -0.10179177 -0.11592561 -0.14658353 -0.051770624 -0.12597603
-0.13551946 0.0043341108 -0.054699805 -0.089382604 -0.022923362 -0.045092266 0.017788421 0.028486734
0.048798084 -0.008095116 -0.03401081 0.05396284 0.03721613 0.026971977 -0.010651199 0.008720855
0.009492963 -0.051074453 -0.08827302 -0.025819886 -0.018390909 -0.048784062 -0.09712786 -0.013017545
0.028167678 -0.0049609933 0.0016593246 -0.03639339 0.027873356 -0.005413637 0.03580256 0.020952065
-0.019474614 0.002754106 -0.001885634 -0.007237961 -0.0015079431 -0.019640705 -0.0019967793 0.020024901
-0.02754687 -0.047219854 0.040038534 0.06274068 -0.0050221034 0.018685404 0.0121143 -0.0012678687
0.022870611 -0.024798155 -0.0009836297 -0.044538073 -0.07584821 -0.052905064 -0.106592104 -0.010842899
-0.023210935 -0.06039686 -0.030564526 -0.12042993 0.040939905 0.035944164 -0.018380178 -0.033141673
-0.011547783 -0.02463246 -0.006918392 -0.02303006 0.035021137 -0.017763024 -0.007934733 -0.026963843
0.04848024 0.0125191985 -0.006690162 -0.019869214 -0.012613128 -0.018198086 -0.014353043 -0.026392588
-0.028251953 -0.02614635 -0.041834336 0.00090410747 -0.01246624 0.03003242 0.035391483 -0.0056806235
0.026427554 0.017519668 -0.025539568 -0.021935672 0.018646302 0.048630945 -0.027148847 -0.03557195
-0.014576472 0.040505968 -0.024976458 0.005771051 0.012587701 0.024455389 0.0119741 0.024135448
0.023998758 -0.01065682 -0.021432891 0.010711913 0.018318605 0.0353599 -0.024684103 0.017669866
-0.0028892695 -0.040739387 -0.044535805 0.0029943495 0.025426839 0.028992439 0.0048620915 0.041975282
-0.019670127 0.016831813 0.009737747 -0.0538742 -0.04433493 -0.06243267 -0.01281152 -0.058832664
-0.06926101 -0.039412543 -0.029621018 -0.08645773 -0.001812905 0.0049451943 0.027864194 -0.03691174

convnet.8.bias f4 [32]
00000000: 57a9 e0bc a5b8 9e3c 46cb 4fbd 27a2 cf39
00000010: 6d2e fb3e 543c e93d 4bbf fcbc 9d79 b4bd
00000020: 7ec7 31bd 4d2d 123d aac8 30bc 84c7 8ebe
00000030: 93df 4cbd ecf2 26be 25eb a5bb 1f04 6dbe
00000040: 058e 7a3d e776 c33c 3616 1c3d 0eb4 3cbd
00000050: 7fe5 143b 2072 bb3d 4e18 05bd a60d f0bc
00000060: 8f2d 523e dfba 97bd b98a 16be 62c1 88bd
00000070: c404 2cbd 3d44 e1be ff22 243e 6c7f 323f
-0.027424498 0.019375155 -0.050730966 0.0003960293 0.49058858 0.1138846 -0.030852934 -0.088122584
-0.04340314 0.035687733 -0.01079003 -0.27886593 -0.050017904 -0.16303605 -0.005063432 -0.23146103
0.061170597 0.023860408 0.03810712 -0.04607015 0.0022719798 0.09152627 -0.032493882 -0.029303383
0.20525192 -0.0740869 -0.14701356 -0.0667751 -0.041996732 -0.43997374 0.16028975 0.6972568

convnet.10.weight f4 [32, 32, 3, 3]
00000000: 2b6b 273c 7446 44b8 4026 0fbd abee 8f3c
00000010: 978e 80ba 32e1 ba3b 188d a7bd c195 d63c
00000020: 2d23 04bd 9bb2 8c3d 8e78 8c3d 1e89 2bbb
00000030: fbd3 ee3d 9127 233d 8310 833a b219 103e
00000040: ac3f 5a3d a296 1c3b d57f 763b dff9 4bbd
00000050: 5674 103c 5aef 65bd c9e9 1f3d 4c56 e43c
00000060: 8d7d 2cbd a7b6 f4bc c0f4 343d de72 cd3a
00000070: 8223 99bd 19c0 ba3b 41fa 753c 6671 a5bc
00000080: c8b4 54bd abc4 dbbc f8d8 a63b 3399 ae3d
00000090: 9c51 6cbd 4bad 143c 1003 d8bd 24fa 5c3b
000000a0: 8004 13bc 7169 07bc c5fe 0d3b aed1 abbc
000000b0: 3613 adbd 81fb d33d 97d1 4f3d 583c 283d
000000c0: 0493 da3d e977 c33d 1e61 863d 1426 913d
000000d0: e544 6b3d 8942 f43d 4ad7 6c3d c221 7dbc
000000e0: c222 8abe 9786 63bd a631 0bbe 2cfb 30be
000000f0: fa55 66be 9637 48bd d9a3 20be 35de ca3c
00000100: 04b8 343d a1a5 71b9 38de e2bc 80a4 b2bc
00000110: 26cd e23b 9a7b cb3b 3bae 493d dce3 11bc
00000120: 0249 c53a 1dfe a73b 3452 2d3c 8cbf 13bd
00000130: 26e5 003d 6a8d 953d 52d9 77bb 0314 8a3d
00000140: a75f 1a3c 0933 c43d 004c 26bc 039d 063e
00000150: d500 9d3d 7c26 9b3a 0327 b43d e738 513d
00000160: e35d a13b c7a3 bfbc 7230 bb3b 6f47 453d
00000170: 828e 7dbc 1ee9 feba ff56 b83b cda7 673c
00000180: d4ce 163d c706 5e3d 5d64 033d 5f08 213e
00000190: 105c 313e 9ef2 4f3e a409 003e d9be 143e
000001a0: 6d22 453e b142 803e 2e67 ac3e 8bb7 943e
000001b0: 452e 55bd 1be6 6ebc 6827 c5bc e896 00bd
000001c0: a170 98bc b41a 6c3c acb0 883d f813 893c
000001d0: 48ec 92bc a073 813d 6d67 f23c 6598 4a3d
000001e0: d91d 7a3d c498 2b3b ec1f d53d 34ec 653e
000001f0: d7d6 443e c9a4 1f3e 0d5e 4cbd b307 36bc
00000200: dc5c b23d 616b 3ebd c701 413d 13e5 ba3c
00000210: 3036 59bd 666d 84bd 943a 433d 9c8f 4b3e
00000220: 6373 2c3e 0bf0 1fbd 6547 953e bf7a dd3d
00000230: a31e 413d 4712 113e cb68 053e 80c0 8a3d
00000240: 3cb1 f83c 3c20 13bd 36ee 0bbd 87df 9ebd
00000250: ae08 48bd c1a0 b2bd 89e0 993d bd9e bebb
00000260: 9fbe 243d af79 f23c f15e 41bd fcbc ec3b
00000270: 67dd 043c 2aec c1bd abe1 1abb 3dbe 693e
00000280: 08c2 ae3c 418f c6bc 4a13 dc3c 3fa5 ee3d
00000290: fff3 a83d 06e0 563d 9f7b 9a3d cda9 a43d
000002a0: ce27 2b3e 045a b83d e21a b93d be33 c83c
000002b0: c23b cfbc 6ff4 0f3d f71e 2a3c 0e82 7cbc
000002c0: 3be2 a0bb ef2d 783c 7bfb 213d 2711 90bc
000002d0: c63e 35bd 740b 8b3c 487b 8abd 4836 94bb
000002e0: fafd 22bd 38a1 8bbc a0c0 98bd ffdc 14bc
000002f0: f7d4 1c3c e3e1 a83d 8178 5ebd 5058 023e
00000300: d57a 113d 34fa 47bd 43d9 4d3d d96b 92bd
00000310: 6df2 d0bb 3d28 f33c 8640 f5bc 016d 6bbc
00000320: e252 50bc b493 24bc 4099 00bd f94c a73c
00000330: 94a8 aa3a 887a 393d 23e6 83bd 9411 213d
00000340: b1f3 833d d0da 27bd adc2 57bb 4088 163d
00000350: 0bdf ef3c 51fd 20bd 539f 68bc 0eb3 0bbd
00000360: c283 0a3d 21f8 913d 5641 573c e3ee cb3d
00000370: ebfd 323d 7f4c 40bd 1796 283d aaa1 163d
00000380: 28f5 85bc c0c1 a03e aa06 bb3e 5f34 b63e
00000390: f932 bf3e 08b0 db3e 8f88 bf3e 55b8 5c3e
000003a0: 14e4 eb3e 5052 d23e 1d81 733e 681c 2c3e
000003b0: 57b7 97bc 17a4 6a3e fd18 473e feef df3d
000003c0: ac3d 403e 2415 563e 7c89 333e 27be ec3c
000003d0: 91c2 c03d ed21 20bd b6c2 403d dce8 623d
000003e0: df99 b93d 7052 e43c 1f5f 7c3d ba32 ea3d
000003f0: e713 6bbd 1b38 97bd 1092 9ebd d6c9 e03b
0.010218422 -4.6795656e-05 -0.034948587 0.01756986 -0.000980812 0.005703115 -0.08181208 0.026194455
-0.03226011 0.06870004 0.068589315 -0.0026174258 0.11661526 0.039832655 0.0009999428 0.14072302
0.05328338 0.0023893495 0.0037612815 -0.049798843 0.008816799 -0.056136467 0.039041314 0.02787318
-0.042111922 -0.029872252 0.044178724 0.0015674492 -0.07477476 0.0056991694 0.015013278 -0.020195674
-0.05193022 -0.026827177 0.0050917827 0.08525314 -0.057695016 0.009074519 -0.10547459 0.0033718431
-0.008973241 -0.008264885 0.0021666747 -0.020974007 -0.0845093 0.10350705 0.05073699 0.041073173
0.10672572 0.095443554 0.065614924 0.07087341 0.05743875 0.11926753 0.057822503 -0.015449943
-0.26979643 -0.055548277 -0.13593158 -0.17283314 -0.22493735 -0.048881136 -0.15687503 0.02476416
0.044120803 -0.00023045253 -0.027693853 -0.021806955 0.0069214283 0.006209803 0.049238425 -0.008904424
0.0015051665 0.005126728 0.010578681 -0.036071345 0.031468533 0.07302363 -0.0037818742 0.06742098
0.009422219 0.09580047 -0.010149956 0.13145833 0.07666174 0.0011837031 0.087965034 0.051079657
0.0049245222 -0.023393525 0.0057125622 0.048163828 -0.015475871 -0.0019448136 0.005625605 0.014139128
0.03681834 0.054205682 0.032078136 0.1572585 0.17320275 0.20307395 0.12503678 0.14525928
0.19251414 0.25050882 0.3367247 0.29046282 -0.05204608 -0.014581229 -0.024066642 -0.031393915
-0.018608393 0.014410663 0.066743225 0.016733155 -0.017934933 0.06320882 0.029590333 0.04946174
0.06106362 0.0026183585 0.10406479 0.22453386 0.1922258 0.15590204 -0.04989438 -0.011110234
0.08709118 -0.046489123 0.047120836 0.02281431 -0.053030193 -0.064661786 0.047663286 0.19879001
0.16840892 -0.039047282 0.29156032 0.108144276 0.047148358 0.14167129 0.13028257 0.06774998
0.03035795 -0.035919413 -0.034162723 -0.07757478 -0.048836403 -0.087220676 0.0751353 -0.005817263
0.040220853 0.029599039 -0.047209684 0.007224677 0.008109427 -0.09468873 -0.0023633044 0.22826476
0.021332756 -0.02423823 0.026864666 0.11652612 0.082496636 0.05245974 0.0754311 0.080401994
0.16714403 0.09001544 0.090383306 0.024438735 -0.02529705 0.03514522 0.010383359 -0.015411867
-0.0049097813 0.01514767 0.03954647 -0.017586304 -0.04424932 0.016973235 -0.06761795 -0.0045230724
-0.039792992 -0.017044649 -0.07458615 -0.009085893 0.009572259 0.082462095 -0.05431414 0.12729001
0.035517532 -0.048822597 0.050256025 -0.071494766 -0.0063765557 0.029682273 -0.029937994 -0.01436925
-0.012715073 -0.010044981 -0.03139615 0.020422446 0.0013020211 0.04528287 -0.064403795 0.039323404
0.06442965 -0.04098016 -0.0032922432 0.036751032 0.02928116 -0.03930408 -0.014198142 -0.034106307
0.03381706 0.07127405 0.013138136 0.099576734 0.043699186 -0.046947952 0.04115876 0.03677527
-0.016352251 0.3139782 0.36528522 0.3558683 0.37343577 0.4290774 0.37408873 0.21554692
0.46072447 0.41078424 0.23779722 0.16807711 -0.01852004 0.22914158 0.19443126 0.10934447
0.18773526 0.20906502 0.17532915 0.028899265 0.094121106 -0.039094854 0.04706069 0.055397853
0.09062552 0.02787134 0.061614152 0.114354566 -0.057392027 -0.07383748 -0.07742703 0.006859998

convnet.10.bias f4 [32]
00000000: 2720 ddbe 63a8 d23d dd7e 8abe 20a3 23bd
00000010: c77b 09be b972 843e 5de7 f3bd 82a1 e4bd
00000020: 3442 8b3d c739 c1bd 707a 9d3d 9b3f b43c
00000030: 3aa5 37be a8ac 1f3e 9209 1cbe 2087 02be
00000040: c0cb 12be f083 bcbd 5b08 1cbe 9021 2140
00000050: 02fd 02c0 fabd 14be dc4a 8dbc de62 86be
00000060: 0cf4 08c0 4db4 56be 2157 0abd 0456 23bd
00000070: 54af 30bf a69c 5dbd 5bdc 873e 0658 c13c
-0.43188593 0.102860235 -0.27049914 -0.03995049 -0.13426124 0.25868776 -0.119093634 -0.11163618
0.067997366 -0.09434848 0.07689369 0.022002986 -0.17934123 0.15593207 -0.15238026 -0.12746859
-0.14335537 -0.092048526 -0.15237562 2.5176735 -2.0466924 -0.14525595 -0.01724761 -0.26247305
-2.1398954 -0.20967217 -0.0337745 -0.039876953 -0.6901753 -0.05410447 0.26535305 0.023601543
