weights/LocalAR_adversarial_p=15x15_LoDoPab.pt (torch, 713572 bytes, 13 tensors)

convnet.0.weight f4 [128, 1, 3, 3]
000000 68 26 34 3f eb 9c 2b bf f8 70 79 bf ff c1 10 bd
       0.70371103 -0.6703631 -0.97438 -0.03534126
000010 31 fc b4 3e 6c b1 42 3e 7f 03 3e 3f 7d 02 50 bf
       0.35348657 0.19012994 0.74224085 -0.81253797
000020 c7 6a f4 3e 0d 4e 3f be 52 c8 c6 39 a7 fd 61 3e
       0.47737715 -0.18682118 0.00037914753 0.22069417
000030 39 8b 10 be d3 b5 a9 3e a3 fc f3 bd 0d c5 22 3f
       -0.14115609 0.33146533 -0.11913421 0.63581926
000040 9d af bb be 70 a7 be be 94 50 3e bf 63 16 7a 3e
       -0.3665742 -0.3723712 -0.743417 0.24422602
000050 3e 67 98 bd c9 c1 aa 3e 94 36 33 3e 85 83 68 bd
       -0.07441567 0.3335097 0.17501289 -0.05676605
000060 b2 35 39 3c 3d 37 8d be 54 5b c8 3e 22 24 c3 bd
       0.011304306 -0.27581206 0.39132178 -0.09528376
000070 fb 7a e7 be c5 f7 b7 be 66 38 9d 3e 36 3f bd 3c
       -0.45211014 -0.3593122 0.3070709 0.02310143
000080 e0 16 32 bf 36 45 1b bf 21 f6 3b 3e 3d 85 d7 3f
       -0.69566154 -0.6065248 0.1835561 1.6837536
000090 5f a8 0f bf 4f da ef bd aa 1e a6 3e 09 43 e3 bd
       -0.5611629 -0.11711561 0.3244527 -0.1109677
0000a0 d4 2b 8a 3e 54 18 9b 3e a5 d2 ae bd e2 d4 bc 3e
       0.26986563 0.30291998 -0.08536271 0.36881167
0000b0 9f 29 cd be f4 bd 06 3e f9 93 c0 3e 68 5b a4 be
       -0.40070817 0.13158399 0.37612894 -0.32100987
0000c0 0c cc 44 be 5a 10 bf 3e d5 eb 1a bf 99 1b 93 be
       -0.19218463 0.37317163 -0.605161 -0.28731993
0000d0 c9 c8 a4 be 2b 84 5b 3f 62 0e 8c bf bc 86 31 3f
       -0.32184437 0.8574855 -1.0941889 0.69346213
0000e0 42 6b 86 bf 0f 32 7a 3e c8 5a 46 3f a2 97 9d 3d
       -1.0501482 0.24433158 0.7748227 0.07694937
0000f0 43 df da 3e 4f ea 2e 3e 4d cd 6d be d5 f0 ef be
       0.4274846 0.17081569 -0.23222847 -0.46863428
000100 24 14 94 3d 19 41 3c 3f 4e 49 99 be f7 5b 26 3e
       0.07230404 0.7353683 -0.2993874 0.1624602
000110 ed 48 03 bf 70 45 13 3e 8b 75 cf 3e 70 65 7b be
       -0.5128315 0.14381957 0.40519366 -0.24550414
000120 ca 6f c0 3e 58 07 9b 3e 8a ac ad 3e 35 67 70 3c
       0.37585288 0.3027904 0.339207 0.014673044
000130 4a 78 9e 3e 15 5d 06 bf 9a 74 1c bf 9d 64 49 be
       0.30951148 -0.5248578 -0.6111542 -0.19667287
000140 0a 18 a2 3c fe 77 27 3f 02 85 40 bf b0 fa 67 be
       0.019786853 0.6541747 -0.75202954 -0.22654223
000150 0b 84 3c bf 08 b1 a6 3e 61 5a 12 3f f0 d5 e8 3e
       -0.7363898 0.3255694 0.5716916 0.4547572
000160 bd d2 3c 3f ea af 7f bf e5 b4 54 bf c4 cb dc 3e
       0.7375906 -0.998778 -0.83088523 0.4312421
000170 8d cc ee 3e 3a 72 1e 3f cf 5a 4e 3e 65 09 34 bf
       0.46640435 0.61893046 0.20151828 -0.70326835
000180 62 a1 4f bf 07 7e 16 bf 5f d8 96 3f 16 47 e9 be
       -0.81105626 -0.5878605 1.1784781 -0.45562047
000190 5b 85 e8 be 97 ea 93 3e 1b 7c bf 3e b9 2b 87 bd
       -0.45414242 0.28889915 0.37399372 -0.06600136
0001a0 5f 67 b7 be 66 91 4b 3e e8 da 9d 3e e7 ac 2c 3e
       -0.35821053 0.19879684 0.30831075 0.16862832
0001b0 bc 60 62 3e 28 d4 1d 3f c2 04 fb be 8f 48 89 bf
       0.22107214 0.6165185 -0.49027067 -1.0725268
0001c0 f2 69 8b be 27 f8 e8 3e 46 0b 70 3f 44 25 cc be
       -0.27229267 0.45501825 0.937672 -0.3987218
0001d0 50 95 02 bb 2f 42 4d 3f dc 0a 0c 3f 09 73 15 be
       -0.0019925423 0.80179113 0.5470407 -0.14594664
0001e0 06 eb 1a bf 82 89 2b bf 19 89 4f bf b6 27 8e be
       -0.6051487 -0.67006695 -0.8106857 -0.27764672
0001f0 a6 da 23 3f ef 3c 06 3f 38 62 18 3f 73 78 1e 3d
       0.64005506 0.5243673 0.5952487 0.038689088
000200 a2 3d 56 bf 8f 0c 5c bf 4a 0b 36 3e f9 97 1d 3f
       -0.83687794 -0.8595666 0.17777744 0.61560017
000210 ea 5a 29 3f 4b da 8d be 7f f8 cf bd 86 60 61 3f
       0.6615435 -0.27705607 -0.10154819 0.8803791
000220 68 15 3b 3f 28 a5 ac bf b0 3b 66 bf e7 42 e1 3e
       0.7307954 -1.3487902 -0.89934826 0.43996355
000230 98 47 c8 3f 47 15 a4 3e cf cb 63 bf 31 13 44 bf
       1.5646849 0.32047483 -0.8898286 -0.76591784
000240 58 ea 38 be cb 4c 0a 3f bc 96 44 3f 37 4b 12 3f
       -0.18058145 0.54023427 0.767925 0.5714602
000250 26 37 4e 3e 65 a0 d1 be 16 a5 0f 3b 94 51 24 bf
       0.20138225 -0.40942684 0.0021918467 -0.6418698
000260 7f 5c 58 bf c0 27 ab 3f 80 d6 09 3e 79 27 0e bf
       -0.8451614 1.3371506 0.13460732 -0.5552898
000270 92 d4 3a bf 1c 97 b4 be fa 7a 16 3f fa f1 d8 be
       -0.72980607 -0.35271537 0.587814 -0.42372113
000280 6d 05 15 3f e6 b6 12 bf a7 7a 65 3d b5 2d d0 3e
       0.58211404 -0.5731033 0.056025174 0.40659872
000290 be a5 d9 be 21 77 a9 be 1a 42 c7 be c3 d0 0b be
       -0.42509264 -0.330987 -0.3891762 -0.13653855
0002a0 50 1e ce 3e 5b da 81 3c ee e4 d6 3e 7c 94 78 3f
       0.40257502 0.01585119 0.41971534 0.9710157
0002b0 00 f1 bf 3d 3d fb 55 bf 7c ce b9 3d b5 d4 a1 be
       0.09372139 -0.83586484 0.09072587 -0.31607595
0002c0 ac 4d cd 3e d0 c6 6c be d0 c7 e2 be 2e ec 73 3e
       0.4009832 -0.23122716 -0.4429307 0.23820564
0002d0 39 03 18 3f 23 cb d6 3e 1f 43 0e 3f 1f fa 19 bf
       0.5937992 0.41951856 0.5557117 -0.6014728
0002e0 50 62 c3 be a0 34 09 bf 3a 6f 0b 3f 7c b1 23 bf
       -0.38160944 -0.53595924 0.54466593 -0.63942695
0002f0 01 f8 84 3d b8 08 77 be 66 31 1e 3e f2 45 01 be
       0.064926155 -0.2412442 0.15448532 -0.12624338
000300 68 39 16 bf d7 bc 05 be f5 b6 25 3f 99 54 85 3f
       -0.58681345 -0.13060318 0.64732295 1.0416442
000310 bc 99 15 be ad 51 1c bf dc 99 8a bf b9 c5 6e 3f
       -0.14609426 -0.6106213 -1.0828204 0.9327045
000320 75 69 83 be e0 24 4b 3f 0d df 4a 3e ad 27 47 bf
       -0.25666395 0.7935314 0.1981165 -0.77794915
000330 c4 af 09 be 89 00 cb 3e 8a 99 72 bd f6 23 2f 3e
       -0.13445956 0.39648846 -0.059228458 0.17103562
000340 e0 68 4b bd b1 28 6c 3e e5 16 9c 3e 1d 23 8f be
       -0.049660563 0.23062398 0.30486217 -0.27956477
000350 a2 ba a8 3e ea f2 d7 be 89 4a 92 3e 9f 06 15 bf
       0.3295489 -0.42177516 0.2857249 -0.5821323
000360 4a 60 3f 3b 6c 15 ab 3e e3 4a fc be b9 a7 46 3f
       0.002920168 0.3341478 -0.49275884 0.77599674
000370 6c 51 bf be bd 1e 40 be 07 b7 12 bf 0e bf 9a be
       -0.37366807 -0.18761726 -0.5731053 -0.30223888
000380 b3 29 51 3f 2e 36 a0 be 24 d3 d8 be 34 26 11 3f
       0.8170425 -0.31291336 -0.42348588 0.5669892
000390 fb 13 95 be 7d f2 47 3e da ee d3 be 12 ac 03 3e
       -0.29116806 0.19526096 -0.41393167 0.12858608
0003a0 19 9c 8f 3e f7 d7 8d 3e 86 d4 fe bd f6 13 ae 3e
       0.2804878 0.2770383 -0.124428794 0.33999604
0003b0 eb a0 d4 3e f6 87 14 3e 0d ea d4 3e 14 f9 95 be
       0.4152902 0.1450499 0.41584817 -0.29291594
0003c0 4f 82 cf be e6 ce 1e 3e 61 fb 24 bf 45 41 5d bf
       -0.40529105 0.15508613 -0.64446074 -0.8642772
0003d0 6a 17 2a 3f 11 c6 94 3e ad 30 97 bd cf 38 f1 be
       0.6644198 0.29057363 -0.07382331 -0.47113654
0003e0 b4 ed 9f 3d e9 63 58 3f 80 ab 4e be c9 97 88 be
       0.0780901 0.8452745 -0.2018261 -0.26678303
0003f0 d3 64 a3 3e e0 4a 3e 3c d8 46 37 3e 67 05 2d bf
       0.3191286 0.011614531 0.17898118 -0.6758637

convnet.0.bias f4 [128]
000000 98 f8 1a 3b 5b 86 8d ba d0 68 51 ba e0 74 45 bb
       0.0023646709 -0.0010797487 -0.00079883356 -0.0030129477
000010 ce 4e 8b b9 2d 49 cd b9 2b 9c 21 bb e5 60 22 3a
       -0.0002657086 -0.00039155167 -0.0024659734 0.0006194248
000020 ef d6 22 bb b0 a4 48 bb 63 8d e8 ba e3 93 b5 ba
       -0.0024847349 -0.003061574 -0.0017742332 -0.0013853278
000030 1e b8 a3 3a 43 c8 e3 38 8f 70 c8 ba 56 d3 fa ba
       0.0012490784 0.00010861505 -0.0015292334 -0.0019136469
000040 eb ca fa ba 2d 71 e6 39 95 65 88 ba 48 2c 81 3b
       -0.0019133961 0.0004395334 -0.001040625 0.0039420463
000050 2e a6 e7 ba a7 7a ee 38 e1 b1 4e ba 1c 4e 60 3a
       -0.0017673427 0.0001137157 -0.00078847824 0.0008556561
000060 37 ed 27 3a f9 e9 d4 ba 47 1a 82 ba 7c 41 72 b9
       0.0006405892 -0.0016244046 -0.0009926044 -0.00023103313
000070 f0 eb 94 ba a1 30 e5 b9 68 10 08 bb 5d 9f 59 bb
       -0.0011361819 -0.00043714515 -0.0020761732 -0.003320656
000080 64 c3 ec 37 37 a7 57 3d 1d 83 6b bb 68 cb b3 ba
       2.8224378e-05 0.052649703 -0.0035936304 -0.0013717236
000090 e8 6b 6b 3a 11 97 0d 38 e0 4a 2b 38 c2 c8 db ba
       0.0008980618 3.375771e-05 4.083931e-05 -0.0016768205
0000a0 10 65 be ba e5 ac 51 3a ac ea 29 3a 46 2a 07 bb
       -0.0014525969 0.00079984806 0.0006481807 -0.0020624562
0000b0 c6 9d e8 b9 0f 16 56 bb 38 39 2a ba 7c 4a a7 ba
       -0.0004436804 -0.0032666957 -0.00064935116 -0.0012763287
0000c0 3f 92 bb ba 54 2f 4c bb 65 d5 9c ba af b9 82 b8
       -0.0014310553 -0.003115614 -0.0011965452 -6.233469e-05
0000d0 cd f8 49 bb df fb 1e bb bc 42 f6 ba ab 6c e3 39
       -0.0030818463 -0.0024259014 -0.0018788199 0.00043377778
0000e0 ca b2 d1 38 f1 92 86 ba 36 6a c1 b9 3c f9 28 3b
       9.999199e-05 -0.0010267181 -0.00036890962 0.002578332
0000f0 7a a6 1b bb 63 a9 83 ba a5 df 2a 3a 2c 7c 1d 3a
       -0.002375035 -0.0010044988 0.0006518311 0.0006007578
000100 e0 b0 48 ba f0 f3 99 bb cc 6a cf ba 4e a0 39 39
       -0.0007655751 -0.004698269 -0.0015824675 0.00017702693
000110 42 59 1c bb 1d 58 55 3b 0a 9e 05 bb 45 12 25 bc
       -0.0023856913 0.003255374 -0.0020388388 -0.010075157
000120 53 a7 a6 ba 5b 4a 18 b9 9e 23 e2 b9 64 7b dc 38
       -0.0012714661 -0.00014523549 -0.00043132616 0.00010513401
000130 86 db 0c b9 ef 03 0f bb 05 7d c1 ba bd 73 82 bb
       -0.0001343322 -0.0021822413 -0.001476199 -0.0039810822
000140 62 01 90 38 cf c5 73 ba 78 fd 96 ba 37 76 34 bb
       6.866713e-05 -0.000929919 -0.0011519631 -0.0027536282
000150 ac 93 7a 39 28 04 7f 3a 6d 92 7a ba 54 a3 04 bb
       0.0002389687 0.00097280974 -0.00095585623 -0.0020238953
000160 86 17 44 bb a2 83 d2 ba 6c 04 8e 39 4a 36 86 ba
       -0.0029921248 -0.0016060958 0.00027087645 -0.0010239568
000170 c4 e2 b2 bb 46 b6 62 b9 49 75 e3 ba 44 08 14 bb
       -0.0054591615 -0.00021620942 -0.0017353679 -0.0022587935
000180 74 e7 da ba 0b b0 9a b9 5b a1 92 ba 92 70 3c bb
       -0.0016701058 -0.0002950433 -0.0011187004 -0.002875362
000190 ce ba 06 bb d9 57 b3 bc cf 8a 21 ba 2c 8d 79 ba
       -0.0020558122 -0.021892475 -0.00061623467 -0.00095196324
0001a0 3a c6 8a bb 65 17 9a ba fa b1 ed b9 21 5b a9 38
       -0.004235056 -0.001175624 -0.00045336765 8.075522e-05
0001b0 03 59 18 bb ec 49 63 3a 32 74 41 bb a1 95 e2 ba
       -0.0023246414 0.0008670378 -0.002951872 -0.0017287025
0001c0 94 4b 8c ba e2 93 80 ba f4 a0 20 3a 57 66 02 bb
       -0.0010703676 -0.0009809698 0.00061274995 -0.0019897425
0001d0 cc ce fe ba 3d 0a d9 ba c0 11 18 39 2a c1 54 bb
       -0.0019440292 -0.0016558837 0.00014502462 -0.0032463768
0001e0 d6 4e 2a b9 ba e3 ac ba ff 43 1a 3b b8 7e 54 bb
       -0.00016241832 -0.0013190426 0.0023539064 -0.0032424163
0001f0 93 90 54 bb 0b b8 7d ba 5a 26 bd ba 90 a2 eb b9
       -0.0032434806 -0.00096786086 -0.0014430985 -0.0004494381

convnet.2.weight f4 [64, 128, 3, 3]
000000 55 ef 7a 3e bd fd a5 bf f0 f4 12 3f 09 6b 06 3f
       0.2450536 -1.296806 0.57404995 0.5250707
000010 d8 d0 37 3f f8 14 89 be ea 77 e3 be 93 a7 25 bf
       0.71803045 -0.2677381 -0.44427425 -0.6470882
000020 33 bf db 3e 98 70 1b 3e a7 b8 49 be 81 ef 0a 3c
       0.4291931 0.1517967 -0.19699346 0.008479954
000030 61 1c 6e 3d ca 60 5c 3e 8f 79 63 be b8 3d d7 3c
       0.058132533 0.21521297 -0.2221434 0.026274547
000040 6f 1f 8c bd d9 13 d2 bc e3 48 10 3e 34 b0 8d be
       -0.06841933 -0.02564423 0.14090304 -0.27673495
000050 c3 a3 94 bc 46 c3 dd bd 7c c2 04 bd 9e e4 45 3e
       -0.018144494 -0.10828261 -0.032412037 0.19325492
000060 6a 2a 9d bd 70 85 ca 3d 81 07 89 be 31 ba 65 3f
       -0.076741055 0.098887324 -0.26763538 0.8973723
000070 bd 82 80 be 25 aa b0 be bd b4 5e bf 8e 01 1b bd
       -0.25099745 -0.3450481 -0.86994535 -0.03784328
000080 a2 62 cc 3e b5 22 2f 3e e4 83 35 3e 21 e6 69 3d
       0.39919 0.17103083 0.17726094 0.057104234
000090 18 b6 e3 bd ed 49 d3 bc b9 2b dd bd 82 02 e3 bc
       -0.11118716 -0.025792086 -0.10799355 -0.027711157
0000a0 9f f1 9d 3c 34 19 25 3b 39 73 81 bd f7 8b b2 bd
       0.019280253 0.0025192024 -0.06320805 -0.087181024
0000b0 c2 73 3f 3d 74 fb 99 3e b6 42 33 be ab 6c 44 3e
       0.046741255 0.30074656 -0.17505917 0.19182079
0000c0 72 db cf be c7 ff 49 3e 55 aa f3 bd 36 98 c0 bb
       -0.4059711 0.19726478 -0.11897723 -0.00587752
0000d0 51 55 6f 3e a8 c6 9c be 71 42 2a be 75 68 d8 bd
       0.2337239 -0.30620313 -0.16626908 -0.105667986
0000e0 23 9c 88 3d 37 55 26 3c 06 61 89 3e 35 d4 10 bb
       0.06670406 0.010152153 0.26831836 -0.0022099141
0000f0 5b 01 0b bf d1 d0 e4 3e 9c 03 1f bf 97 04 6b 3d
       -0.54298943 0.44690564 -0.6211488 0.057377424
000100 13 2b 9e 3c 6a fa 1c be f4 89 ab be 5d ed 8e bc
       0.019307649 -0.153299 -0.33503687 -0.017447168
000110 24 62 be bd 12 2f 9d 3d e0 09 b4 3c a5 89 14 3e
       -0.092960626 0.076749936 0.021977365 0.14505632
000120 59 84 70 3d 0f fb 54 3d ca 58 8e be f5 3d 57 be
       0.058719967 0.05199724 -0.27802116 -0.21019728
000130 aa d5 43 3e ba 2a 55 3c 98 88 6b 3d 54 6f 03 3d
       0.19124475 0.013010675 0.057503313 0.032088593
000140 00 a4 dd bb 9e d1 dc bf 35 9e 29 3f 9c 44 53 3e
       -0.006763935 -1.725147 0.6625703 0.20631641
000150 63 94 8f 3f 24 54 5a 3f e7 5b ec bf 54 f9 7c bd
       1.1217159 0.8528464 -1.8465546 -0.061761215
000160 ef 21 8f bf 68 15 a0 3f 2d 9a 77 3f d5 bf 22 bf
       -1.1182231 1.2506533 0.9671963 -0.6357396
000170 67 8b f3 be ad 1c b5 bf 1a 19 64 3e 5e 9f 92 3f
       -0.47567293 -1.4149376 0.222752 1.1454885
000180 b9 ca 52 3e c3 d3 13 3f 32 f7 6d bf f2 90 f6 3c
       0.20585145 0.57745 -0.92955315 0.030098412
000190 97 a7 85 bd 50 c7 26 be ea a4 fe bd c3 e5 8a bd
       -0.06526106 -0.16286969 -0.124337986 -0.06782105
0001a0 c3 41 66 3d 0e 98 2b 3e 41 7c 7f 3d 6c 00 d6 3c
       0.05621506 0.16757223 0.062374357 0.026123248
0001b0 18 01 aa bd ca 00 78 be bd 5a 4a 3f 02 2f 66 3e
       -0.0830099 -0.24219051 0.79044706 0.2247887
0001c0 e0 4b 86 be 37 4c 3e bf e2 34 ca be a6 77 db 3e
       -0.26229763 -0.74335045 -0.3949347 0.42864722
0001d0 57 ce 56 3e a6 a9 d5 3e 88 d8 4e 3f 28 75 f9 bd
       0.2097715 0.41730994 0.8079915 -0.12180549
0001e0 68 25 09 bf 4a e4 3e bf ef 33 2b bf 18 b4 57 3e
       -0.535727 -0.7456709 -0.6687612 0.21064794
0001f0 90 e6 24 3f 36 fd cb 3e 8d 88 9a be 3f 78 9c be
       0.6441431 0.39841622 -0.30182305 -0.3056049
000200 27 71 ed 3e aa fa f1 3e 27 6e d8 3d 96 d7 40 bf
       0.4637539 0.47261554 0.10567885 -0.7532896
000210 bd d3 bc be 05 06 68 3b 55 14 8e 3e b2 4d cb be
       -0.36880293 0.0035403979 0.27749887 -0.39707714
000220 a4 cd 81 be fb ca d1 3e 89 83 29 3f c2 ee 96 3e
       -0.25352204 0.40975174 0.6621633 0.29479033
000230 3a 1b da be 6e b6 53 bf 32 08 88 3d 38 c5 1d 3e
       -0.42598897 -0.8270024 0.06642188 0.15407264
000240 7d 42 8a bc 80 68 a2 be d9 65 7f bd e7 be b4 be
       -0.016877407 -0.31720352 -0.06235299 -0.35301897
000250 3a 92 81 3e 64 95 9b 3e ae e6 88 3e 25 d2 e5 3d
       0.25306875 0.30387414 0.26738495 0.112217225
000260 76 5c 85 be b5 d9 00 bf 1e 72 29 3f d5 87 0c bd
       -0.26047105 -0.50332195 0.66189754 -0.034309227
000270 f2 2e 05 3f 2b 7e d5 be 10 1c 4b bf 13 37 df be
       0.5202476 -0.4169782 -0.79339695 -0.43596706
000280 87 a2 a2 be 09 f1 75 3f e0 70 ec 3d aa 0e a3 bc
       -0.31764624 0.96070915 0.11544967 -0.019904453
000290 e9 9c 3b 3e f3 a6 72 bd 97 f8 99 be 8b e0 78 be
       0.18321575 -0.059241246 -0.30072471 -0.24304406
0002a0 29 9c b7 bd 02 65 a8 3e 02 08 09 3c 5f 4d 12 3f
       -0.08965332 0.32889563 0.008363726 0.5714931
0002b0 46 93 da be c4 43 99 bd 38 3e 94 3f 9a 0b 23 bf
       -0.42690486 -0.074836284 1.1581488 -0.6368958
0002c0 5a 86 83 be 3c 82 68 bf 4d c2 83 bd fc e0 24 3f
       -0.2568844 -0.9082372 -0.06433544 0.644058
0002d0 a4 74 ea 3e 8e f4 3e bd a1 91 f1 3e 9a cc 66 be
       0.45792115 -0.046619944 0.4718142 -0.22538987
0002e0 10 db 43 be 12 36 d8 be c5 f2 21 3e 34 28 9e 3d
       -0.19126534 -0.42228752 0.15815265 0.07722512
0002f0 19 b1 0e 3e 07 2b 9f be 49 a2 7a be 91 84 0f 3f
       0.13934745 -0.31087515 -0.2447597 0.56061655
000300 49 41 c5 3e 34 7d 09 be 0f ae 0b bf 04 8d 82 be
       0.3852637 -0.13426667 -0.5456247 -0.2549821
000310 5d b4 53 3e 33 84 63 3e d0 95 71 3e 03 dc 17 3e
       0.20674272 0.22218399 0.23592305 0.14830022
000320 60 c2 96 be 22 c3 05 bf dd 62 8a bd 13 ba 89 3e
       -0.2944517 -0.52250874 -0.06757138 0.26899776
000330 df fe 4e bd 02 82 11 3f 20 95 21 bf 0a 3d 18 be
       -0.050536033 0.56839 -0.6311817 -0.14867035
000340 9c 40 c4 3d 2f cb 18 be 7c 57 ce 3d ba 1b bf bd
       0.09582636 -0.14921258 0.1007528 -0.0933146
000350 07 bf f0 3d 95 92 23 3d 8b 0d c3 bd 03 53 b3 3d
       0.117551856 0.039934713 -0.095240675 0.087560676
000360 4f 99 8d 3e c5 6d 83 bd 84 c1 6e bd 38 3f ff 39
       0.27656028 -0.06417421 -0.05829002 0.00048684492
000370 33 bc 97 be 63 43 e3 3e f3 d6 7d bb bd 71 7f 3e
       -0.29635772 0.4438735 -0.0038732856 0.24945731
000380 c8 01 fe be ef e2 bb 3d 9a d6 b0 3d 18 3b d4 3c
       -0.49610734 0.091741435 0.08634682 0.025907084
000390 31 07 d2 be 38 1b 0b 3e c6 e6 ac be 45 6c af 3e
       -0.41021112 0.13584602 -0.33769816 0.3426229
0003a0 b8 fe 87 be 5a 04 09 be 2c 9f df be 87 95 81 3e
       -0.26561522 -0.13380566 -0.43676126 0.25309393
0003b0 cc 6e d6 be aa 9b 3c be e4 38 97 3e 10 7b 29 3d
       -0.41881406 -0.18418756 0.29535592 0.041377127
0003c0 d4 9d 6b 3d 41 c8 88 3c 06 60 ca bd 20 7f 44 3e
       0.057523564 0.016697051 -0.09881596 0.1918912
0003d0 6a cc 38 be 2c fc 69 3e 9c e3 7e 3c ce ae 10 bf
       -0.18046728 0.22850102 0.015557196 -0.5651673
0003e0 eb 6f 30 3c cb cc a9 bd 24 02 14 3f bc 85 41 be
       0.010768871 -0.08291014 0.57815766 -0.18898672
0003f0 36 cd 14 be a5 67 49 3e 0d 27 7f 3e 3f 25 c4 3d
       -0.14531407 0.19668444 0.2491724 0.09577417

convnet.2.bias f4 [64]
000000 3f 29 a4 3b 19 50 b0 bf 90 3a 50 bd ab a0 5a bd
       0.0050097997 -1.3774444 -0.0508371 -0.05337588
000010 ed 40 0c bd 3a 6e d7 bc 72 70 b6 bc 7d b7 00 3d
       -0.034241606 -0.026297677 -0.022270415 0.031424988
000020 94 6c 48 3b d5 e1 4e be c7 9e 4a bd 13 40 54 bb
       0.0030582296 -0.20203336 -0.049467828 -0.0032386824
000030 a3 d4 63 bc 47 a5 90 bc 7e 09 ad be f6 0e 01 bd
       -0.013905677 -0.017656935 -0.33796304 -0.03150841
000040 47 d9 6e bc 9e ee ee be cb 6e fc bc 5b a9 17 bf
       -0.01457817 -0.46666425 -0.030814549 -0.5924279
000050 9e 64 b1 bc 5b e9 13 3d 8f 86 17 bd 49 8b 46 bd
       -0.021654423 0.036111217 -0.03699356 -0.048472676
000060 74 8e 3e bf bd f8 31 bd 55 b3 94 bc fb 1e 5e 3d
       -0.74436116 -0.043450106 -0.018151918 0.054228764
000070 5f 70 88 bc 28 b2 1c bf 04 fe 1b bf d8 db 35 3c
       -0.016655145 -0.61209345 -0.6093447 0.011099778
000080 38 cf 67 3c fe df 20 3c 89 33 36 3d de 23 d0 bc
       0.014148526 0.009819029 0.04448274 -0.025407728
000090 6e 7c 12 3d 3d 5b ad bc ed 56 85 bd 11 1d e0 bc
       0.035763197 -0.02116167 -0.065107204 -0.02735761
0000a0 d1 bf bf bc a7 fe 0d bc 74 90 5e bd a7 f8 93 3b
       -0.023406895 -0.008666671 -0.05433698 0.0045157257
0000b0 88 90 21 bc ed 43 ca bc 9e 55 63 bc bd 8e 0d be
       -0.009861119 -0.024690593 -0.013875393 -0.13823982
0000c0 56 83 26 bc 1a 07 89 be 9f 2d f6 bc ac 72 92 bc
       -0.010163149 -0.2676323 -0.03005105 -0.017876945
0000d0 dd c2 ba be 3a 0c b5 be 3a 45 2b bd e2 5b ce 3b
       -0.36476794 -0.3536089 -0.041814066 0.0062975744
0000e0 9d c6 67 bc ad f2 4f bd 37 51 9f 3b 6f 22 97 bd
       -0.014146474 -0.050768543 0.0048619765 -0.073796146
0000f0 2a 20 ba bc b6 89 04 bd fa 14 17 bd 97 fd 2e bd
       -0.022720415 -0.032357894 -0.03688524 -0.04272231

convnet.4.weight f4 [64, 64, 3, 3]
000000 65 26 87 3c 50 e1 72 b8 b4 9a e9 3b 3b 21 19 bb
       0.0164978 -5.7907135e-05 0.0071290378 -0.0023365754
000010 93 4b 29 bc ae a1 9d b9 9b 65 ef 3b 46 79 f6 39
       -0.01033296 -0.00030065834 0.0073058135 0.00047011132
000020 5e d4 e1 3a ed b1 86 3d 26 58 ef 3d 90 35 b1 3d
       0.0017229428 0.065769054 0.11686735 0.08652794
000030 d3 6b bb 3d 70 a9 0b 3d 3a 3b cb 3d 15 fe be 3d
       0.09151425 0.034097135 0.09923406 0.09325806
000040 89 1e 20 3d 73 30 c8 3d 9f e7 dc bc f3 ce 03 3c
       0.03909162 0.09774866 -0.026965914 0.008044946
000050 8b 4c da 3b 16 51 c5 3c e8 b5 85 bb aa e4 b2 3c
       0.0066619567 0.024086516 -0.004080523 0.021837551
000060 c5 cc 65 3d f0 17 30 3c 63 94 fa 3b 22 50 1e be
       0.056103487 0.010747895 0.0076470836 -0.15460256
000070 59 ed b4 be e5 6f a4 be 1c c4 f4 bd 0b f7 91 bd
       -0.35337332 -0.3211662 -0.119514674 -0.07127198
000080 bc 6a e9 bc 4f c5 40 3d 15 43 e4 3d ad a8 17 3d
       -0.028493278 0.04706317 0.111456074 0.037026096
000090 a5 98 af bc 29 b9 81 bb 8b 31 6a bc 13 53 9f bc
       -0.021435091 -0.0039588404 -0.0142940385 -0.019448793
0000a0 50 09 03 bb e9 c7 bc 3c 8c 35 8a 3b 4b 16 a2 3b
       -0.0019994564 0.023044543 0.004217809 0.004946505
0000b0 fa 87 89 3b 71 2e a2 3e f5 1b f4 3d be 6e 68 bd
       0.004197118 0.31676057 0.11919395 -0.056746237
0000c0 aa 6e b0 bd 6b c4 a5 3c a6 90 ba 3d a1 dd 08 be
       -0.086148575 0.020235261 0.09109621 -0.13365795
0000d0 c4 1d 41 3d 23 2b 10 3e af e9 b3 bc 78 87 3c 3d
       0.047147527 0.14078955 -0.021962015 0.04602763
0000e0 fc 50 95 3c 74 30 b6 bd f3 66 9b bc f2 b0 e9 bc
       0.018227093 -0.088959605 -0.018969988 -0.028526757
0000f0 40 63 ab bd b5 c7 f3 3a 55 1d ce bd 4e 22 8f 3b
       -0.0836854 0.0018598946 -0.100641884 0.004368103
000100 32 76 69 bd 38 e1 c6 bd 05 51 9c bc 24 a7 6e bd
       -0.056997485 -0.09710926 -0.019081602 -0.058264866
000110 5a 78 32 be 5f 58 18 be 1b 29 f2 be 13 f3 c1 be
       -0.17428723 -0.14877461 -0.47296986 -0.37880763
000120 a5 53 ba bd 05 ed 0c 3e ec 25 a0 3d 7d 99 f1 3c
       -0.09097985 0.13762291 0.07819733 0.029492134
000130 e8 de 2f bb e4 41 95 3d 26 7b a8 bd ef a4 04 be
       -0.0026835743 0.07287958 -0.08226614 -0.12953542
000140 90 af 95 bc f3 8b 9e bd d4 34 91 b9 91 2c ce bc
       -0.018272191 -0.07741537 -0.00027695915 -0.025167735
000150 73 ad 6b bd 80 fc 9c bc 93 7c 91 bd 2b 10 ef bd
       -0.05753846 -0.01916337 -0.07103839 -0.11673006
000160 7c c8 f9 bd eb db 48 bd e1 19 a1 bd de fc 02 be
       -0.121964425 -0.049037855 -0.07866264 -0.12791774
000170 7a 0f 2c be 77 9c 91 bb e9 5c 02 bc 3b 81 13 3d
       -0.16802779 -0.004443701 -0.007956722 0.036011916
000180 46 34 ce 3d 07 4f 59 bc a8 78 82 bd a1 d4 69 3e
       0.10068564 -0.0132634705 -0.063706696 0.22835018
000190 20 a1 28 3e e9 af 5a 3e 78 04 69 bd 9e b6 c4 bd
       0.16467714 0.21356167 -0.056889027 -0.09605144
0001a0 61 b7 32 3e 23 e5 18 be ef b3 cc bd c5 5e bc 3d
       0.17452766 -0.14931159 -0.09995257 0.09197763
0001b0 80 9b e1 bc 9a de f3 bb f7 4b a8 3c d1 85 6e bd
       -0.027539968 -0.0074423077 0.020544035 -0.058233086
0001c0 ac 85 72 3d c9 69 19 3d ec a3 5d be 52 47 6d 3d
       0.05920951 0.0374544 -0.21644562 0.057929344
0001d0 f0 ed d0 3c 1a d7 09 be 63 1b f4 bc 02 dc b7 bd
       0.025504082 -0.13460961 -0.029798215 -0.0897751
0001e0 3d be 73 bc 91 10 c6 bd 2e a6 a2 bd af 93 c6 be
       -0.014876899 -0.096711285 -0.079418525 -0.3878455
0001f0 6d 3a 84 be c4 a5 52 bd 19 4a f4 bc 42 6c 99 bd
       -0.25825825 -0.051427618 -0.029820489 -0.07491352
000200 83 e3 f8 bc d7 44 4e bd d6 17 c0 bd 46 c8 8f ba
       -0.030381924 -0.05035862 -0.09379546 -0.001096972
000210 7d 44 ac 3d 80 8c 43 3b 87 fc 03 3c 30 ad 3a be
       0.084115006 0.0029838383 0.008055813 -0.18230128
000220 5c 96 54 be 33 73 95 be 84 5a 95 be a6 f1 4a be
       -0.20760483 -0.29189453 -0.2917062 -0.19818744
000230 6b 52 7d be 51 ea be be a7 78 4a be 7a b1 01 be
       -0.24738471 -0.37288144 -0.19772588 -0.12665358
000240 d9 23 1c 3d ea 44 e9 bb 30 0b 0a bd 7c 9e 13 3d
       0.038120124 -0.007118811 -0.033702075 0.036039814
000250 e4 4a f2 ba b9 fa f8 bc 16 48 f4 bc 39 55 00 bd
       -0.0018485454 -0.030392991 -0.02981953 -0.031331275
000260 03 be b1 bc d8 61 26 bd 92 b3 14 3c 6b 98 07 3d
       -0.02169705 -0.040620655 0.009076016 0.03310434
000270 2f aa 00 bd 8d 4e a5 bc 35 ee a9 ba 29 6e c6 bc
       -0.0314123 -0.020179057 -0.0012964668 -0.02422245
000280 63 18 4d 3d d5 59 98 3b 70 5d 47 3c ed 74 1c 3d
       0.050072085 0.0046493807 0.012168273 0.038197447
000290 34 ab c7 bb 65 2a 76 bd bf 07 26 bd f9 bc 96 bd
       -0.006093407 -0.060099024 -0.04053473 -0.073602624
0002a0 25 72 d0 bd 0d dc 6e bc 3d 1c 94 bc 59 80 be 3c
       -0.10178021 -0.014578831 -0.018079871 0.02325456
0002b0 c6 0a 89 3d 62 8d d0 3b 7b f6 e5 3c 00 e1 1b 3d
       0.06691508 0.0063645104 0.028071633 0.038056374
0002c0 39 ef 36 3d ec 50 6c bb 0c 4e 70 3d 76 eb 53 3d
       0.044661734 -0.0036058975 0.05866818 0.051738225
0002d0 b2 c9 49 bc 2c f5 54 3d cd 4d 39 bd 97 69 dd bc
       -0.012316154 0.051991627 -0.045240212 -0.027027888
0002e0 b2 c0 0b bd f9 17 e4 3c 83 71 a4 bd 47 06 b4 ba
       -0.034119315 0.027843462 -0.08029463 -0.0013734781
0002f0 ee 93 9b 3d bb 3a 45 3e 71 20 07 3e 7d 07 4d 3e
       0.07596575 0.19260685 0.13195969 0.20022388
000300 69 ac bf bd f0 95 30 3d e9 65 98 bd d9 cf 90 be
       -0.093590565 0.04311174 -0.07441313 -0.28283575
000310 48 8d c5 be 03 5f 7d be 2f 83 2f 3e 7f e7 ad bd
       -0.38584352 -0.24743275 0.17139886 -0.0849142
000320 9f fa 2f 3d a1 d1 c3 3d d1 c7 45 bd 34 fb f6 bb
       0.04296362 0.09561468 -0.048286263 -0.00753727
000330 e9 de 88 be c0 15 a1 3c 3a d1 b7 3d f0 4e 9d 3e
       -0.26732567 0.019663692 0.08975454 0.30724287
000340 5c 4b b6 bd c7 86 ff bc 05 91 d7 bd 09 c4 db bd
       -0.089010924 -0.031192197 -0.10525707 -0.1073075
000350 2a f2 86 3d 54 8d b7 3b 11 7b 44 3e 0c ee ef 3c
       0.06589158 0.0056015644 0.19187571 0.029288314
000360 6f 7a 7b 3d e2 ed e1 3c 38 52 aa 3d 40 29 82 bc
       0.06139606 0.027579252 0.08316463 -0.01588881
000370 43 d1 54 3d 8e 63 02 bc 9d 9f 81 bc 91 53 32 3c
       0.05195738 -0.007958306 -0.01582318 0.010884182
000380 47 12 84 3d 97 0c fa bc 24 5c 4f 3d 9a 70 d3 bc
       0.064487986 -0.030523581 0.05062498 -0.025810529
000390 dd ee 29 bc 87 43 88 bc ae f2 1e bd c4 83 24 bd
       -0.010371891 -0.016633762 -0.038805656 -0.040164724
0003a0 c0 31 d8 bc ac 53 6a bc fb f4 94 bc 4a d9 a6 bc
       -0.02639091 -0.0143021755 -0.018183222 -0.020367283
0003b0 5a bd 58 bb 64 e9 c0 bc d3 f4 61 bb 3a 24 97 3c
       -0.0033071847 -0.02354879 -0.0034478202 0.018449891
0003c0 62 65 3e bc 31 96 ba 3b 27 63 b1 3c 01 40 e3 bd
       -0.011620851 0.0056941737 0.021653725 -0.11096192
0003d0 a2 c3 cb bd a1 82 fe 3c 91 88 a6 3e c8 1d 0c 3d
       -0.099494234 0.031068148 0.32526067 0.03420809
0003e0 68 11 4d 3e 0b 3c ff 3e 28 7a c9 3d 10 2e 0d 3e
       0.20026171 0.49850497 0.098377526 0.13787103
0003f0 8c f3 e6 3a 7b c6 da bd 1d e4 f9 bd a6 f4 87 3d
       0.001762019 -0.106823884 -0.12201712 0.0663846

convnet.4.bias f4 [64]
000000 bb 2b 0b be 28 84 6a 3b 74 1c d6 3c 3b 89 c6 bb
       -0.135909 0.0035784338 0.026136614 -0.0060588396
000010 57 cb 56 bc 1a f9 8d be b2 e8 26 3d da 22 4f 3d
       -0.013110003 -0.27729112 0.04074926 0.050570346
000020 18 f5 7f 3f a2 7f d7 bd a5 3f 86 be d8 e8 9c 3d
       0.9998336 -0.10522391 -0.26220432 0.07661599
000030 08 d0 da bd 97 18 b5 be 52 ed 50 b9 c0 b7 88 bd
       -0.1068421 -0.35370323 -0.00019924834 -0.066756725
000040 5e a1 49 be 68 d0 45 3c 80 80 8c be 8e cf 67 be
       -0.19690463 0.012073614 -0.27441788 -0.2263777
000050 c1 2c 92 3d ee 54 f8 bc 1a 8c 3a be fc 3f c1 bc
       0.071374424 -0.030313935 -0.18217507 -0.02359008
000060 42 95 b3 bd 5e 7b a0 be 37 f7 5e be 6e 32 8c 3e
       -0.08768703 -0.31344122 -0.21773992 0.27382225
000070 bf a5 9a 3d 2a 55 66 bd 4d a3 95 bc c0 26 7a bd
       0.07551145 -0.056233563 -0.018266344 -0.06107211
000080 ea 83 d9 bd 5e 89 95 be f0 36 51 be f3 bc 05 bd
       -0.10620864 -0.29206365 -0.20431113 -0.0326509
000090 e3 4b df bc 50 9b 3d 3d 57 2f 86 bd 16 e2 82 bd
       -0.027257865 0.046290696 -0.06551998 -0.06390779
0000a0 09 41 63 bc ed 09 64 bc 47 1c 36 3d 4b 79 b2 bc
       -0.013870486 -0.013918382 0.04446056 -0.021786353
0000b0 d8 18 2a bd 81 f5 82 3e 2e 50 a9 bd 04 43 24 be
       -0.0415276 0.2557793 -0.08267246 -0.1604119
0000c0 40 bc 98 3c 29 9d f3 bc d0 c2 89 3b 46 7e 1d be
       0.018644452 -0.029738026 0.0042041317 -0.153802
0000d0 96 a9 9c be 89 5e ae be 43 b0 29 be 59 2d c7 bd
       -0.30598134 -0.340565 -0.16571145 -0.09725446
0000e0 ba 4d 0f be 8d 3b e7 3d 49 b7 a3 3c de 84 7f 3c
       -0.13994494 0.11290655 0.019984858 0.015595643
0000f0 1a 1b 26 bd ee d8 0d be e4 be 9b bd 8e 8e 61 be
       -0.04055319 -0.13852283 -0.07604769 -0.22027037

convnet.6.weight f4 [64, 64, 3, 3]
000000 93 31 87 bb 7a b6 b3 bc 3c 66 a2 3d 04 ac ba bc
       -0.0041257828 -0.021937598 0.07929656 -0.022787102
000010 1c 76 13 bd b7 45 3e 3d 6f 52 5a 3c 6f bc ed bc
       -0.03600131 0.046453204 0.013325318 -0.029020516
000020 87 19 b3 3c 00 5a 3c bd e0 c7 f6 bd 43 2b c0 be
       0.021862758 -0.04598427 -0.12049842 -0.37533006
000030 75 2a a8 3d f9 92 9e bd d1 b8 3f be 8c ee 53 3d
       0.08211223 -0.077428766 -0.18722846 0.051741168
000040 f5 66 10 be 1b 5d e3 be 3f b3 8e bb ec 18 ce bb
       -0.14101775 -0.4440697 -0.004354864 -0.006289592
000050 45 7e d1 bc 1b 8d 2b bd 60 fd ce bc 5a 4b 9d bb
       -0.025572905 -0.041882616 -0.025267303 -0.0048002424
000060 12 39 86 bd 26 c9 23 3d e0 0f d2 bd 15 e3 5b bc
       -0.06553854 0.039986752 -0.10256934 -0.01342084
000070 d0 c6 50 bd 38 c8 4d be 59 04 53 bc e0 cf 27 bd
       -0.050970852 -0.20095909 -0.0128794545 -0.04096973
000080 b1 ba f5 bd 11 b6 f5 bd af 31 95 bd c3 a7 c0 be
       -0.11998499 -0.11997617 -0.07284867 -0.37627992
000090 ce 30 8d bd 0e 2f 89 be 9e 52 3a bf 10 9a f2 3c
       -0.068940744 -0.26793712 -0.72782314 0.029614478
0000a0 c8 f7 35 be 4d 6b ec be 22 1a f6 bc 90 5e 6d be
       -0.17770302 -0.46175614 -0.030041758 -0.23180604
0000b0 cf 02 f7 be fe 5e d1 3b 1a 96 b1 bd b5 6f 20 3e
       -0.4824433 0.006389498 -0.08671208 0.15667613
0000c0 d4 8e 37 bc 32 b6 51 bd a3 ae 4a 3d 2e 87 32 3d
       -0.0112034865 -0.051199146 0.049482953 0.04358595
0000d0 5f a6 b5 bd 61 8a 29 3e 96 b5 8c 3d e0 97 24 3d
       -0.088696234 0.16556694 0.06870572 0.0401839
0000e0 a5 f4 ed 3d a2 65 42 3c ac b2 a1 3b c7 c4 f5 3c
       0.11618928 0.011865051 0.0049346294 0.030001057
0000f0 ea f1 20 3b a0 85 42 bd c9 d8 98 bd ae d3 59 bd
       0.0024558255 -0.047490716 -0.074632235 -0.05318039
000100 9a a5 07 bd 84 1d d7 3b c4 a0 83 bc 09 ae 64 bc
       -0.033116914 0.006564798 -0.01606787 -0.013957509
000110 c4 fb 86 3c d4 0c bd ba 00 55 71 bc 7a d3 ed 3c
       0.016477473 -0.0014423379 -0.014729738 0.029031504
000120 60 b8 95 3c fa aa fd bc 24 96 99 3c f6 aa dc bc
       0.018276393 -0.030965317 0.01874835 -0.02693699
000130 6e ed 28 bd cb ac 69 bc b3 d6 30 3b 2d 14 aa bd
       -0.041242056 -0.014262388 0.002698344 -0.083046295
000140 ce af c4 bd c0 30 5d 3d 22 05 37 bd c8 cc 1d 3e
       -0.096038446 0.05400157 -0.04468263 0.15410149
000150 b9 e4 45 bd 3f ac 48 bd 44 e4 b6 3d a1 26 37 3c
       -0.04831383 -0.04899239 0.08930257 0.011178643
000160 d7 99 4b bc 63 1c b9 3c 77 61 ad bb 7d b6 c3 bd
       -0.012426815 0.022596544 -0.0052911597 -0.09556291
000170 06 0f d1 3d 63 c8 84 bd e0 2c 1a be 0b f9 b9 3d
       0.102079436 -0.06483533 -0.15056181 0.09080704
000180 09 6c ab bd 43 94 68 be ab d5 9f bd 4e 99 91 3d
       -0.083702154 -0.22712807 -0.07804426 0.07109319
000190 65 a5 d2 3c a9 0a 71 be ac 60 79 3d c7 6b a2 3d
       0.025713632 -0.23539223 0.06088321 0.07930713
0001a0 79 d6 db bd b2 24 77 bc 5d 7c 68 bc 29 b1 5e bc
       -0.10734267 -0.015084432 -0.014189807 -0.013592043
0001b0 da 8b 5e bd 52 4e c7 bb e6 df 07 bf 36 1b ab bd
       -0.05433259 -0.0060823346 -0.53076017 -0.083547994
0001c0 e5 84 12 3b 4d f8 bc be f8 e3 3b bd 08 e4 04 bd
       0.0022357043 -0.36908188 -0.045871705 -0.03244403
0001d0 6e e1 17 bf 80 fa 84 be a3 b7 69 bd 6a 03 11 3e
       -0.59328353 -0.25972366 -0.057059895 0.14161459
0001e0 60 06 7d be d0 a6 ce bd 2e 3c 31 3d e4 75 fb bd
       -0.24709463 -0.10090411 0.043270282 -0.12278345
0001f0 f8 fd c5 bd 1f de aa bd 9b d8 0c bd b6 cc 9e bb
       -0.09667581 -0.083431475 -0.03438626 -0.004846181
000200 3e 18 e4 bd 42 f5 99 bd ba fc a1 3c 71 d3 b7 3b
       -0.11137436 -0.07517482 0.01977383 0.0056099226
000210 a2 f2 0d be 41 c7 18 3e 38 e0 9b 3b c9 c3 ca bd
       -0.13862088 0.1491976 0.0047569536 -0.09900624
000220 2c ff 9f bd 62 40 ed 3e 10 8d 24 be d0 92 0b bd
       -0.07812342 0.46338183 -0.16069436 -0.03407556
000230 35 42 1a 3f 2a 3f a6 bd ab 71 42 3d b7 98 88 3e
       0.60257274 -0.08117516 0.047471683 0.26679012
000240 9d ff 0c 3e 88 38 0d 3e 4c 85 c5 3e d0 b2 15 be
       0.13769384 0.13791096 0.3857826 -0.14618993
000250 f3 21 ed bd fe ca 80 3d 7d 2c 6c be 8d 36 44 bd
       -0.11578741 0.06288718 -0.23063846 -0.047903586
000260 64 28 75 bc 02 62 bb 3d 0e 6b 01 be 1f 3f a5 be
       -0.014963243 0.09149553 -0.12638494 -0.3227472
000270 a8 d3 fc 3c 6d 97 30 be 98 12 1d be ce 86 9b bd
       0.030862644 -0.17245264 -0.15339124 -0.07594071
000280 ff 06 b7 bd e4 45 23 be 59 69 ca 3d 7f 79 3c be
       -0.08936881 -0.1594463 0.09883375 -0.18405722
000290 60 70 43 be 23 a2 cd 3d 88 20 a0 be 73 40 ba be
       -0.19085836 0.10040691 -0.3127482 -0.36377296
0002a0 85 44 83 3c a0 5c a3 be 86 7d 43 bf 75 b8 35 3e
       0.016023884 -0.31906605 -0.7636341 0.17746146
0002b0 9c 35 c5 3d fb da 62 bd ad 4b 9c 3d 01 2a c3 bd
       0.09629366 -0.055384617 0.076316215 -0.09529496
0002c0 01 f3 94 be fe d3 2e be 60 de 96 be fd 5a fc be
       -0.29091647 -0.17073056 -0.29466534 -0.4928817
0002d0 fd 99 f5 3b 93 b2 4d 3d d1 23 11 bd 99 60 89 bc
       0.0074951635 0.05021913 -0.035434548 -0.016769694
0002e0 b4 9c 03 3d 84 77 43 bd 22 63 ba bc 8d 54 69 bc
       0.032131866 -0.0477214 -0.022752348 -0.01424135
0002f0 08 6e 34 be 6e 39 0e 3a 52 58 66 3d 6c 89 83 3d
       -0.17620099 0.0005425428 0.056236573 0.064226955
000300 14 8b c0 bc 19 b7 87 3b 2c 60 fa 3c 6a 13 69 bd
       -0.023503818 0.0041417 0.030563436 -0.05690328
000310 98 fe 05 3d 19 6b ca 3d 24 7f 7d 3e 32 08 96 3e
       0.032713503 0.098837085 0.24755532 0.29303128
000320 71 fe 28 3e d1 32 fc 3d 8c bb fa 3c 10 eb 6a bd
       0.16503312 0.1231438 0.030607007 -0.05735308
000330 17 f3 82 3e b6 80 00 3e ec be f9 be 8b a6 d9 3c
       0.25576088 0.125491 -0.48778474 0.026568672
000340 9e 1b 38 bd b0 22 a4 bd 2f 74 25 3d 5b 17 af ba
       -0.044948213 -0.080144286 0.040394004 -0.0013358401
000350 dc 51 b2 3c f1 ee 75 3d 15 62 d6 3b 89 5b 62 bd
       0.02176755 0.060042325 0.006542454 -0.055263076
000360 ef e3 94 bc 7c ef 98 bb c6 c4 59 3d a0 98 c2 bb
       -0.018175093 -0.0046672206 0.053166173 -0.0059386045
000370 1c ff 5c bc 2f 25 c9 bc 8d 9a be 3c 07 98 aa bb
       -0.013488557 -0.024553863 0.023267055 -0.0052061114
000380 22 05 8b bc a7 02 7c be 3b e8 1b 3d 59 7c 2e 3e
       -0.016970221 -0.24610387 0.03806327 0.17039622
000390 fc 14 dd bd cb 41 66 3d 41 1e 7d 3e 33 11 25 bc
       -0.10795018 0.05621509 0.24718572 -0.010074901
0003a0 f0 2d f7 3d f6 e4 60 3e fd 7e e9 bc 23 2e 66 3d
       0.12069309 0.21962342 -0.028502936 0.056196343
0003b0 ec 99 4a bc 9a 07 88 be 71 a0 ee 3d a2 3b 39 3e
       -0.012365799 -0.265683 0.116516955 0.18089154
0003c0 c0 75 e9 be 57 f4 d1 3c 74 48 d8 3e 7b 26 a0 bb
       -0.4559765 0.025629206 0.42242777 -0.0048873997
0003d0 3c 96 f1 3b 27 ac fa bb 6b 92 0e bd c1 f0 f0 bc
       0.0073726457 -0.0076499167 -0.034807604 -0.029411675
0003e0 3e 1a fe bc 6d 0a 22 bd 05 c1 05 bc 7c 13 21 bd
       -0.031018373 -0.039560724 -0.008163695 -0.039325222
0003f0 87 9b 2a 3d 6b 18 95 be 79 cf 0a bf 65 10 2d 3e
       0.04165223 -0.29120192 -0.5422283 0.16900785

convnet.6.bias f4 [64]
000000 2c b0 00 3d f4 ea 22 3e 64 ce a2 bd 41 e7 db 3f
       0.03141801 0.1590994 -0.07949522 1.7179948
000010 f4 0a 84 3f fa c8 8e bd d1 b6 e8 bd 1a e9 19 be
       1.0315843 -0.06971927 -0.113629945 -0.15030327
000020 02 b3 d4 bd 6d ff 05 40 8c 90 c0 bd ab 0e c6 bd
       -0.103857055 2.093715 -0.0940257 -0.096707664
000030 71 2b 34 be 4d 45 60 3f 6f 24 7e 3d 99 29 f5 bd
       -0.17594697 0.87605745 0.062046465 -0.11970825
000040 4c a7 8d bd 0e 6d 93 3c 09 c3 0e bd 77 fb b1 bd
       -0.06916675 0.017996337 -0.03485397 -0.08690541
000050 76 a4 c8 bc c7 a1 1c be 7a eb f2 bd d5 c5 08 3d
       -0.024492484 -0.15296088 -0.1186132 0.033391792
000060 6a d3 f5 ba 77 04 8f 3d 87 44 bc 3f 6c f7 23 be
       -0.0018755023 0.069832735 1.4708413 -0.16012353
000070 e0 5a 2c bc cf 74 dc bc 7b 38 3f 40 c5 b4 ff 3a
       -0.010519713 -0.026911167 2.9878223 0.001950883
000080 5b 92 84 3f bf 4b db 3d 78 b5 35 bd 76 75 2f be
       1.0357164 0.10707807 -0.044362515 -0.17134652
000090 33 a4 70 3d 48 78 95 be 61 51 93 3f 4c 5d 6b 3f
       0.058750343 -0.2919333 1.150921 0.91939235
0000a0 12 46 68 be e8 3c e5 3c 01 e7 9f bd 65 1f 0b bc
       -0.2268298 0.027983144 -0.078077324 -0.008491372
0000b0 ae fd e1 3f 17 9e 3f 3d dc ce a6 bd b5 10 3d be
       1.7655542 0.046781626 -0.08144924 -0.18463404
0000c0 a3 99 0e 3d 96 2e e1 3f 3c fe 05 be 11 bd d2 3c
       0.03481449 1.7592342 -0.13085264 0.02572492
0000d0 c7 8d 10 be b9 04 8f 3d 44 ea c6 bd 2d 63 45 bd
       -0.14116584 0.06983323 -0.09712651 -0.048190285
0000e0 c5 6b 1d be 18 84 0d bc fe b2 d4 bd 6d 85 20 bc
       -0.15373142 -0.008637451 -0.103857026 -0.009797436
0000f0 5b 24 3d be 91 e5 c2 bd 7a 23 0a be ed 73 6d be
       -0.184709 -0.095164426 -0.13490096 -0.23188753

convnet.8.weight f4 [32, 64, 3, 3]
000000 dd 92 f5 3c ff d9 3e 3c 51 5e 1d 3d 6f 7e 24 3d
       0.029977256 0.011648654 0.038420025 0.04015964
000010 51 f9 f2 bc 4f c0 85 3c f9 15 2f bc f3 95 e3 3c
       -0.029659899 0.016327051 -0.010686391 0.027781462
000020 e9 12 5d bc c6 19 9b bc 6a 86 2f bc e3 dd 26 bd
       -0.013493278 -0.018933188 -0.010713199 -0.04073895
000030 9d 65 35 3a a4 e3 c5 3b 97 4c 6e 3b 40 65 28 bb
       0.00069197436 0.0060391 0.003636157 -0.0025695115
000040 af a9 b7 bc b8 9a 3b 3c 3b 77 e3 3c 9f 64 64 3c
       -0.022419779 0.011450462 0.027766814 0.013940006
000050 a5 06 72 3c 53 50 b8 bc cc b3 b2 3b 25 ca cf 3c
       0.014772092 -0.02249924 0.0054535624 0.025364945
000060 dd 83 4e 3c 23 70 94 ba 47 53 bb bc 5c c9 b0 bd
       0.012604681 -0.0011324923 -0.022866858 -0.08632156
000070 b9 c4 e9 bd 71 96 ac bd c4 0b 01 be 03 94 ce bd
       -0.11414475 -0.08427132 -0.12602144 -0.10086825
000080 fe 87 08 bd ce 11 bc bd f5 46 e9 bc e7 a4 55 bd
       -0.033332817 -0.091830835 -0.028476218 -0.052159216
000090 bc 34 92 bc e6 7e b8 bd f7 7f cc bd 53 11 24 bd
       -0.017847411 -0.09008579 -0.09985345 -0.040055584
0000a0 50 45 ce bc 63 4b 3c bd 4b d4 b3 bd d0 f2 d2 bd
       -0.025179535 -0.045970332 -0.08780726 -0.10300219
0000b0 cf a9 87 bd 93 2d 34 3d 83 45 d3 bb 81 f5 3a bd
       -0.06624185 0.043988775 -0.0064474954 -0.045644287
0000c0 37 5d 1f 3d 77 9c 45 bc 9f 1d f5 bb 4c f4 1e 3d
       0.038907256 -0.01206123 -0.0074803378 0.0388072
0000d0 91 a2 5c 3c 50 84 d8 3c bc 91 df 3c f0 07 47 bc
       0.013466493 0.026430279 0.027291171 -0.012147889
0000e0 74 25 11 bc ec 3e 22 3d 35 76 06 bd 3c 13 ff bc
       -0.008859027 0.03961079 -0.032827575 -0.031137101
0000f0 e3 7d 1f 3c e9 d6 c0 3b 38 da 30 bd e7 dc 0f 3d
       0.009734604 0.0058849943 -0.04317686 0.03512278
000100 fc d5 15 3a 00 75 31 bd a4 03 c5 3b 58 75 0c 3d
       0.0005715785 -0.04332447 0.006012397 0.034291595
000110 a0 f7 e4 bc 59 63 37 bd a3 af 4f bd 7c af 0f 3c
       -0.027950108 -0.04477248 -0.05070461 0.008769866
000120 2e 4f a5 bc df bf bd bc 1b 60 13 3d 25 64 33 ba
       -0.020179357 -0.02316278 0.035980325 -0.0006843231
000130 25 6e 82 3b 42 63 e7 bc 44 b1 26 3d 1f f8 9f bb
       0.0039804154 -0.028245572 0.040696397 -0.0048818733
000140 1e 84 b6 bc 85 ea a5 bd 14 8e cf bd 98 73 a1 bd
       -0.022279795 -0.08101372 -0.10134521 -0.07883376
000150 cd d8 bb bd 3a 7c 47 bd 1c ef 37 bd 63 6c 8d bd
       -0.09172211 -0.048702456 -0.044905767 -0.06905439
000160 20 83 12 bd e1 09 c1 bd 82 37 d3 bb cd fe 4e ba
       -0.03576958 -0.094257124 -0.006445826 -0.00078962446
000170 70 82 d4 3b e5 54 de bc 4f e5 a4 bc ba b9 13 bd
       0.006485276 -0.02714009 -0.020128874 -0.036065795
000180 ec 6a 9f 3c c2 ba df 3c 73 9a b9 3b d1 c1 ed bb
       0.019460164 0.027310733 0.0056641637 -0.0072557707
000190 ce 46 79 ba c9 4f 07 bd 6b af b9 bb 01 57 36 bd
       -0.0009509147 -0.033035073 -0.0056666634 -0.044516567
0001a0 bd a4 0b bd c5 1e e1 bc 8f 01 b1 bc 87 db 28 bb
       -0.034092654 -0.027480492 -0.021607189 -0.0025765614
0001b0 8a 2d 7a bd c7 b9 54 bd 88 5f ae 3b a2 9d c0 bb
       -0.061078586 -0.051934984 0.005321447 -0.0058781663
0001c0 b6 2a 28 3d 4a 54 57 3c 26 84 6e bc ba 4f 4b bc
       0.041056357 0.013142655 -0.014557874 -0.012409145
0001d0 26 99 f9 bc 74 8f 19 bd e1 84 89 bb 59 b1 82 bd
       -0.030468535 -0.037490323 -0.0041967486 -0.06381483
0001e0 04 a8 d6 bb 29 fc 33 bd 7f fe 45 bc 9e 15 34 bd
       -0.0065507907 -0.04394165 -0.012084602 -0.04396593
0001f0 82 4e 02 ba bd 21 6a bd 83 35 c9 b8 04 d6 bc 3c
       -0.0004970805 -0.05716108 -9.594394e-05 0.02305127
000200 92 c0 4e bd e1 88 4c bd d7 d0 1d bc 5d 49 06 3c
       -0.050476618 -0.049935225 -0.009632311 0.008196202
000210 05 eb fe 39 fe 4c 1f bd 3f a2 a0 3c 2e 6c 47 bc
       0.00048621758 -0.038891785 0.019608615 -0.012171788
000220 9c 9a 6a bc 02 ee ea bb 8d aa 11 bd 47 75 66 bc
       -0.014319088 -0.007169486 -0.03556304 -0.014066047
000230 9a 85 ce 3c f2 09 5d bb a7 3f 31 38 aa 46 07 bd
       0.02521019 -0.0033727852 4.225937e-05 -0.033026375
000240 4b a5 13 bc 29 59 9f 3c e7 74 65 bc bf 09 15 bd
       -0.009011577 0.019451695 -0.0140049225 -0.036386248
000250 e3 5f 93 3c 49 7f 5d 3c 2e d7 98 3c b6 3e 7b bc
       0.017990058 0.013519117 0.018657293 -0.015334776
000260 51 28 1b bd 1a 9e 32 bd c2 34 94 3c cb 02 34 bb
       -0.037880246 -0.04360781 0.018091563 -0.0027467485
000270 2c 9a 02 bd 60 fd 2e bd 73 4b 66 bc a4 4c 46 bd
       -0.03188531 -0.042722106 -0.014056074 -0.048412934
000280 c6 64 ea bc 35 b1 9e ba 9d 46 7c 3b 9e af 36 3d
       -0.028612506 -0.0012107255 0.0038494237 0.044601075
000290 4b ae fa 3c 0c 43 3e 3d 58 ad 3d 3d 18 ac 95 bc
       0.030600687 0.04645066 0.04630789 -0.018270537
0002a0 d1 07 d5 3c 84 3f c2 3c eb 07 a1 3a 64 04 71 bd
       0.026004704 0.023711927 0.0012285685 -0.058842078
0002b0 2c 9a f1 bc 8c cc 09 3c 0e 55 74 bd 1b 9d 51 bb
       -0.02949246 0.008410584 -0.059651427 -0.0031984511
0002c0 26 35 07 bd b4 74 9b bc b1 58 ac bc f0 30 83 bd
       -0.03300967 -0.018976547 -0.021038385 -0.064058185
0002d0 e1 36 16 bd 0a bf 85 bc aa 12 8a bc 93 e9 05 bd
       -0.03667343 -0.016326446 -0.016854603 -0.032693457
0002e0 00 8d aa bb 62 43 c3 bb 80 a5 fa 39 fc 14 95 39
       -0.005204797 -0.0059589604 0.00047807023 0.0002843513
0002f0 8d 73 e8 bc 4b 81 31 3c 68 bc 00 3c ae dd 86 3a
       -0.028375411 0.0108340485 0.00785742 0.0010289454
000300 73 bd 22 3d 38 3b 80 3d 05 a1 83 bb 8f 31 ae 3c
       0.039731454 0.06261295 -0.0040169978 0.021263866
000310 91 95 86 3d b4 54 ab bc 96 0a 3c bc db 37 bf 3c
       0.06571496 -0.020914413 -0.011477133 0.023342064
000320 1b 2b c2 39 16 89 55 3c 49 53 89 bd 7f e8 ec bc
       0.0003703468 0.013033172 -0.067053385 -0.028919457
000330 8d 94 16 bc 04 06 9a bd 4d e9 0d bd cc 4f 8d 3d
       -0.009190691 -0.07520679 -0.03464632 0.06899986
000340 40 5c 1f 3d 4e 0c 98 3d 58 25 d8 3d 3e ed 80 3d
       0.038906336 0.07424222 0.10553998 0.0629525
000350 66 0b c2 3d 4c 42 18 3d 27 cd bd 3d 12 01 ca 3d
       0.0947483 0.0371726 0.09267645 0.098634854
000360 be 82 b4 3c e4 a9 c8 ba ed 56 e1 3b b1 7e 4b 3b
       0.022034999 -0.001530942 0.0068768174 0.0031050856
000370 91 d0 3c bd 2c 54 d7 3c c6 44 86 3c 20 c3 4a bd
       -0.046097342 0.026285253 0.016390216 -0.049502492
000380 b9 ae b0 ba 49 43 c4 bc 31 ed fb 3a 16 f9 15 3d
       -0.0013479806 -0.023957865 0.0019220469 0.0366145
000390 e5 7b a3 b9 fe dd 5e 3b a5 d2 ee bc a0 ce 83 3c
       -0.0003118209 0.003400683 -0.029153178 0.016089737
0003a0 0d 3f 1a 3d b0 5d 92 3c b7 ca b2 bd 4b 95 a0 bd
       0.037657786 0.01786694 -0.08730071 -0.078409754
0003b0 b6 d0 99 bd ae d6 01 bd ec 9a 24 bd 1a fd 85 bd
       -0.075105116 -0.031698875 -0.040186808 -0.06542416
0003c0 2c b2 d1 bd 58 7e a3 bc 91 97 c2 bc 43 1e 32 3d
       -0.10239062 -0.019957706 -0.023753913 0.04348589
0003d0 88 3c 8d 3c 82 d2 ef 3c 5f ad 77 3d 3c 18 59 3d
       0.017240778 0.029275183 0.060468074 0.053001627
0003e0 7d 4a 4b 3d cf a0 04 3d 44 5e cf bb a9 15 5f 3d
       0.049631584 0.03237992 -0.006328376 0.054464016
0003f0 f0 15 12 bc d3 7c 76 bd 9a 2d b8 bc 26 cd a7 bd
       -0.008916363 -0.060177635 -0.022482682 -0.08193426

convnet.8.bias f4 [32]
000000 89 15 b9 bc e3 3d 0d bd c3 8d 22 bc 39 ee 5f bd
       -0.022593277 -0.034482848 -0.009921494 -0.054670546
000010 5b 77 8c bc 8f 5b c6 3f a6 0a a2 bc 97 2b 7f bd
       -0.017146757 1.5496691 -0.019780468 -0.06229743
000020 12 60 d0 bd 4f 5a bf bb a1 ce 99 bd 8e 27 df bc
       -0.10174574 -0.005839623 -0.075101145 -0.02724054
000030 c3 fd 24 bc 6f a3 06 bd 2d 43 b7 3f 30 94 80 bb
       -0.010070267 -0.032870706 1.4317375 -0.0039239153
000040 65 79 bb bc 44 81 92 bb e6 30 df bc 57 ea 1a bd
       -0.022885034 -0.004470976 -0.027244996 -0.03782114
000050 a8 90 28 bd 13 df 83 bd fd 19 9b bc 2b e9 6b bd
       -0.04115358 -0.064390324 -0.01893329 -0.057595413
000060 18 ea c4 bc 29 27 90 3f eb 9d a6 3f a2 40 9a bc
       -0.024037406 1.1261951 1.3016943 -0.018829647
000070 e5 16 03 bd c0 86 a0 bd 17 3f a2 bc 0f 02 c4 bc
       -0.032004256 -0.078382015 -0.019805474 -0.023926763
