weights/simple_ICNNPrior_ar.pt (torch, 161694 bytes, 48 tensors)

icnn.wz.0.weight f4 [16, 16, 5, 5]
000000 c0 9d 2b 3a 96 94 2b 3a 6e 97 2b 3a 3c 9f 2b 3a
       0.0006546639 0.00065452734 0.0006545697 0.000654686
000010 ee a2 2b 3a bf a1 2b 3a fb 50 39 3c 91 a3 2b 3a
       0.0006547411 0.00065472344 0.011310811 0.00065475056
000020 dc 8f 2b 3a 83 a4 2b 3a 53 a0 2b 3a 03 a9 2b 3a
       0.0006544569 0.00065476465 0.00065470225 0.0006548317
000030 52 af 2b 3a 10 a7 2b 3a 05 b2 a2 3c b5 bf 2b 3a
       0.0006549257 0.00065480266 0.019860277 0.0006551699
000040 85 b4 2b 3a 48 7b 8a 3c 6d 32 ea 3c 9a ad 2b 3a
       0.0006550032 0.016904488 0.028588498 0.0006549001
000050 e3 ad 2b 3a 23 bb 2b 3a 72 bc 2b 3a 45 a6 2b 3a
       0.00065490435 0.0006551018 0.0006551213 0.00065479084
000060 81 af 2b 3a df 89 8c 39 78 8b 8c 39 f8 1c 95 3a
       0.00065492844 0.00026805603 0.00026806793 0.0011376431
000070 2e 89 8c 39 b2 20 d6 3c 58 81 8c 39 0a ba c6 3c
       0.00026805088 0.026138637 0.0002679925 0.024258632
000080 5e 62 7d 3c e9 8d 8c 39 ee 8b 8c 39 45 7c 8c 39
       0.015465347 0.00026808612 0.00026807137 0.0002679547
000090 e5 79 8c 39 a0 2f ac 3b 09 85 8c 39 37 8a 8c 39
       0.000267937 0.005254701 0.00026802 0.0002680586
0000a0 ec 76 8c 39 5a 7d 8c 39 8d 7c 8c 39 c1 ac 44 3c
       0.00026791485 0.00026796275 0.00026795678 0.012004078
0000b0 60 17 f7 3c 67 7b 8c 39 cf 7a 8c 39 ec 82 8c 39
       0.030162513 0.00026794823 0.0002679438 0.00026800425
0000c0 bb 87 8c 39 03 8b 8c 39 dc dd ad 37 f7 0a ae 37
       0.00026804008 0.00026806453 2.0726518e-05 2.0747522e-05
0000d0 42 21 ae 37 0d 00 ae 37 b1 cb ad 37 30 0e ae 37
       2.0757903e-05 2.074244e-05 2.0718058e-05 2.0749023e-05
0000e0 5e 17 ae 37 47 27 ae 37 27 73 89 3c 99 b3 ad 37
       2.0753298e-05 2.0760706e-05 0.016778542 2.0706839e-05
0000f0 6f e9 ad 37 d3 4c 89 3c 6a c2 ad 37 6e b1 ad 37
       2.0731908e-05 0.016760265 2.0713738e-05 2.070583e-05
000100 87 23 04 3d ac 76 0c 3d a8 89 ad 37 c9 75 ad 37
       0.032260444 0.03429286 2.0687308e-05 2.0678055e-05
000110 cf 48 ad 37 52 43 ad 37 75 28 f2 3c 85 52 ad 37
       2.0657111e-05 2.0654556e-05 0.029560307 2.0661633e-05
000120 d6 68 06 3c f0 24 ad 37 7c 30 ad 37 68 15 28 3a
       0.008203706 2.0640407e-05 2.0645784e-05 0.0006411881
000130 c3 1a 28 3a ae 2a 28 3a 0e aa 05 3d 48 7a 04 3d
       0.0006412679 0.0006415051 0.03263288 0.03234318
000140 e6 4e 79 3c 84 1e 28 3a 95 ca bb 3b 31 53 9d 3c
       0.015216565 0.00064132386 0.005730937 0.019204708
000150 66 28 28 3a e6 12 28 3a 8a 1d 28 3a 3a d5 33 3c
       0.0006414711 0.00064115075 0.0006413093 0.01097613
000160 49 70 e6 3c 8b 15 28 3a bc f1 a7 3c d0 19 33 3b
       0.028129714 0.00064119016 0.02050101 0.0027328618
000170 52 1b 28 3a b2 90 c2 3c 91 22 28 3a 39 0a 28 3a
       0.00064127625 0.023750637 0.0006413842 0.00064102147
000180 af 09 28 3a b6 13 28 3a 60 1b 28 3a e5 27 28 3a
       0.00064101344 0.00064116286 0.00064127706 0.0006414636
000190 d4 cf 7f 3c cd 33 af 3b 82 38 af 3b ec 34 af 3b
       0.015613515 0.0053467513 0.0053473124 0.005346885
0001a0 56 2a af 3b ff e4 e4 3c 18 35 af 3b 0e 37 af 3b
       0.005345623 0.027941225 0.0053469054 0.005347139
0001b0 f8 ca 21 3d 10 3d af 3b 60 32 0b 3d da 97 f5 3c
       0.039500207 0.0053478554 0.03398359 0.029979635
0001c0 b7 4f 99 3c d4 36 af 3b 4f 42 af 3b 69 42 af 3b
       0.018714769 0.005347112 0.005348481 0.005348493
0001d0 94 12 0a 3c 36 48 af 3b 95 40 af 3b da 3d af 3b
       0.008427281 0.0053491844 0.005348275 0.0053479495
0001e0 62 51 af 3b c6 48 af 3b 61 43 af 3b 80 f1 e6 3c
       0.0053502778 0.0053492514 0.0053486084 0.028191328
0001f0 dd 41 af 3b 3c 7a 42 3c c8 14 b3 38 71 e4 b2 38
       0.0053484277 0.011869963 8.539256e-05 8.530252e-05
000200 11 9c b3 38 2e 28 98 3c f5 f5 b3 38 e7 10 b5 3c
       8.564455e-05 0.018573847 8.581198e-05 0.022102786
000210 62 86 7f 3c ae df b2 38 0a d3 b2 38 a0 db 6a 3c
       0.015596004 8.529365e-05 8.5270105e-05 0.014334589
000220 5c 39 b4 38 0b 28 af 3c a9 d9 03 3d 9a d9 b2 38
       8.593753e-05 0.021381399 0.03219 8.528233e-05
000230 2d 77 0e 3c 52 ee b2 38 45 68 b3 38 e1 0d b3 38
       0.008695406 8.532092e-05 8.554807e-05 8.53797e-05
000240 21 13 b2 38 28 4a b3 38 c7 1e b4 38 8f d6 b2 38
       8.4912645e-05 8.549198e-05 8.5888016e-05 8.527666e-05
000250 ef b4 b2 38 75 92 b2 38 03 38 07 3c 74 d9 99 3c
       8.521403e-05 8.514981e-05 0.0082531 0.018780448
000260 e3 4e 07 3c a5 81 aa 3c 07 58 07 3c 0e 40 07 3c
       0.008258554 0.020813772 0.008260733 0.008255018
000270 c7 47 07 3c ef 3d 07 3c f3 4d 07 3c 35 41 07 3c
       0.008256859 0.008254512 0.008258331 0.008255293
000280 0b 2a 07 3c a6 2f 07 3c 79 4c 07 3c 62 31 07 3c
       0.00824977 0.008251106 0.008257979 0.00825152
000290 31 40 07 3c 0a 20 07 3c 4d 1c 07 3c db 0b 07 3c
       0.0082550505 0.008247385 0.0082464935 0.008242573
0002a0 72 bc 82 3c b8 19 07 3c ce 23 07 3c dd 17 07 3c
       0.015958998 0.008245878 0.008248283 0.008245436
0002b0 dd 35 0f 3c 23 07 07 3c 38 19 07 3c 75 f7 48 39
       0.008740869 0.008241448 0.008245759 0.00019165671
0002c0 51 e4 48 39 84 d2 48 39 97 f7 48 39 0e 18 49 39
       0.00019158541 0.0001915191 0.00019165721 0.00019177815
0002d0 5f a7 48 39 0d a7 48 39 43 c4 48 39 12 de 48 39
       0.00019135837 0.00019135718 0.000191466 0.00019156214
0002e0 18 0f 49 39 44 7b 48 39 e7 93 48 39 eb ba 48 39
       0.00019174477 0.00019119406 0.00019128584 0.00019143119
0002f0 21 fc 48 39 72 22 49 39 9e 6b 48 39 2a a4 48 39
       0.00019167412 0.00019181686 0.00019113577 0.00019134642
000300 02 df 48 39 62 17 49 39 8c 30 49 39 07 87 48 39
       0.00019156563 0.00019177565 0.00019186939 0.00019123788
000310 f6 c7 48 39 8a 18 49 39 f6 34 49 39 57 44 49 39
       0.00019147978 0.00019177995 0.00019188583 0.00019194312
000320 88 b7 2b 38 44 ad 2b 38 5e a4 2b 38 c3 c9 c1 3c
       4.0940504e-05 4.0930943e-05 4.0922656e-05 0.023655778
000330 2e ed 15 3c dc 9f 2b 38 b1 92 2b 38 a2 45 44 3b
       0.009150786 4.0918458e-05 4.0906194e-05 0.002994873
000340 b1 8e 2b 38 fc 93 2b 38 df 0f 44 3a 83 2c f5 3c
       4.090247e-05 4.09074e-05 0.00074791716 0.029928451
000350 17 23 9f 3c f5 27 1e 3d 55 a3 2b 38 13 9b 2b 38
       0.019425912 0.038612325 4.0921692e-05 4.0914e-05
000360 94 a4 2b 38 9a 9c 2b 38 d5 ad 2b 38 a9 c2 2b 38
       4.0922852e-05 4.0915424e-05 4.093147e-05 4.095087e-05
000370 61 7f 19 3d 3c ba 2b 38 e3 cb 2b 38 ef aa a0 3c
       0.037474994 4.094302e-05 4.095946e-05 0.019612757
000380 09 a1 e9 3c 53 56 50 39 8a 45 50 39 ac 56 50 39
       0.02851917 0.00019868584 0.00019862331 0.00019868714
000390 a5 fa 80 3c 66 69 50 39 e3 b1 8c 3c 2e 7d 1e 3d
       0.015744517 0.0001987569 0.017174667 0.0386936
0003a0 66 a6 50 39 a3 6c 50 39 22 67 07 3d cb fc 1d 3d
       0.00019898414 0.00019876896 0.03305734 0.03857116
0003b0 37 7c 50 39 b9 53 50 39 d0 c8 5a 3c 30 20 50 39
       0.000198827 0.00019867615 0.0133535415 0.00019848417
0003c0 b9 85 c9 3c 38 e4 f3 3c 33 82 50 39 12 3b 50 39
       0.024599897 0.02977191 0.00019884929 0.00019858431
0003d0 8f 28 50 39 fe 35 50 39 1e 09 18 3d cb 54 20 3a
       0.00019851535 0.0001985654 0.03711807 0.0006116151
0003e0 ce 8f ee 3c 7e db 4f 39 e5 fa d0 3c 9c a0 3a 3c
       0.029121306 0.00019822826 0.02551026 0.011390831
0003f0 21 ff 1b 3b 9a af 15 b8 71 b1 15 b8 f3 a3 15 b8
       0.0023803192 -3.568791e-05 -3.5689623e-05 -3.5677058e-05

icnn.wz.1.weight f4 [16, 16, 5, 5]
000000 71 e9 10 3b 52 e2 82 3c 34 7d cb 3c 30 55 c6 37
       0.0022111798 0.015977059 0.024839975 2.3643108e-05
000010 6d 55 c6 37 5a 5a 15 3c f3 45 0c 3c ca 54 c6 37
       2.3643219e-05 0.00911578 0.008561599 2.3642922e-05
000020 f9 54 c6 37 f7 54 c6 37 44 ec e1 3c 88 2b ca 3c
       2.3643008e-05 2.3643004e-05 0.02757848 0.02467896
000030 3b 55 c6 37 8b b2 a8 3c 53 55 c6 37 78 46 8d 3c
       2.3643128e-05 0.020592948 2.3643172e-05 0.017245516
000040 23 55 c6 37 05 55 c6 37 5d 55 c6 37 84 f5 b6 3b
       2.3643084e-05 2.364303e-05 2.364319e-05 0.005583467
000050 6e 55 c6 37 22 55 c6 37 73 55 c6 37 62 55 c6 37
       2.364322e-05 2.3643082e-05 2.364323e-05 2.3643199e-05
000060 7e 55 c6 37 83 77 ab 39 53 0e c0 3c 9f 68 a1 3c
       2.364325e-05 0.00032704705 0.02344433 0.019703208
000070 e0 f3 04 3c 9d 7b 92 3b 89 77 ab 39 8c 77 ab 39
       0.008114785 0.0044703023 0.00032704722 0.0003270473
000080 9b 4d fa 3c 3f c0 07 3d 8e 77 ab 39 84 77 ab 39
       0.030554583 0.033142325 0.00032704737 0.00032704708
000090 86 77 ab 39 a0 19 89 3c 90 6d 8d 3c 83 95 64 3b
       0.00032704714 0.016735852 0.017264158 0.0034879155
0000a0 86 77 ab 39 8a 77 ab 39 8b 77 ab 39 88 77 ab 39
       0.00032704714 0.00032704725 0.00032704728 0.0003270472
0000b0 8d 77 ab 39 85 77 ab 39 e5 cf d3 3c 8b 77 ab 39
       0.00032704734 0.0003270471 0.025855968 0.00032704728
0000c0 8b 77 ab 39 4f d6 a5 3c 61 28 b0 37 8d 28 b0 37
       0.00032704728 0.020243792 2.0999638e-05 2.0999718e-05
0000d0 d6 28 b0 37 90 28 b0 37 c2 28 b0 37 66 28 b0 37
       2.099985e-05 2.0999723e-05 2.0999814e-05 2.0999647e-05
0000e0 98 28 b0 37 8b 28 b0 37 b6 1e c3 3c 4b 63 4e 3b
       2.0999738e-05 2.0999714e-05 0.023818355 0.0031492289
0000f0 fc 9b 86 3c 0a 04 11 3d 9f 28 b0 37 7e 14 c3 3c
       0.016431801 0.035404243 2.099975e-05 0.023813482
000100 8d 28 b0 37 ad e9 be 3c bb 28 b0 37 99 28 b0 37
       2.0999718e-05 0.023304785 2.0999802e-05 2.099974e-05
000110 7d 28 b0 37 93 28 b0 37 ee 7f db 3c ec f0 4d 3c
       2.0999689e-05 2.0999729e-05 0.0267944 0.012569647
000120 80 28 b0 37 bf 77 ad 3c 81 28 b0 37 26 b7 83 3c
       2.0999694e-05 0.021175263 2.0999696e-05 0.016078543
000130 d2 8b eb 3c b0 a0 fd 3b 39 c4 25 38 3a c4 25 38
       0.028753195 0.0077401027 3.9521812e-05 3.9521816e-05
000140 2f c4 25 38 31 c4 25 38 31 c4 25 38 36 c4 25 38
       3.9521776e-05 3.9521783e-05 3.9521783e-05 3.95218e-05
000150 31 c4 25 38 e0 c4 67 3c 28 c4 25 38 2a c4 25 38
       3.9521783e-05 0.01414606 3.952175e-05 3.9521758e-05
000160 25 c4 25 38 30 c4 25 38 30 c4 25 38 29 c4 25 38
       3.952174e-05 3.952178e-05 3.952178e-05 3.9521754e-05
000170 28 c4 25 38 34 c4 25 38 4c 7b f4 3b 3c 36 09 3d
       3.952175e-05 3.9521794e-05 0.007460987 0.033498988
000180 ba d3 9a 3c 32 c4 25 38 34 c4 25 38 37 c4 25 38
       0.018899787 3.9521787e-05 3.9521794e-05 3.9521805e-05
000190 ba 25 91 3c 0b 78 bb 3c 51 e9 8e 3c 9a 89 e3 36
       0.017718185 0.02288439 0.017445238 6.781146e-06
0001a0 5e 89 e3 36 cf 08 f1 3c 59 15 08 3d c9 ac c0 3c
       6.781119e-06 0.029423146 0.033223484 0.02351989
0001b0 b0 8a e3 36 c6 8a e3 36 e9 8a e3 36 1c 48 07 3c
       6.7812725e-06 6.7812825e-06 6.7812985e-06 0.008256938
0001c0 bd 8a e3 36 2a 8b e3 36 0e 8b e3 36 ff 8a e3 36
       6.7812784e-06 6.781328e-06 6.7813153e-06 6.7813085e-06
0001d0 6b 8b e3 36 6c 8b e3 36 e3 9e 71 3c 84 8b e3 36
       6.7813576e-06 6.781358e-06 0.014747354 6.781369e-06
0001e0 97 1d d9 3c 32 42 f6 3b 4e 8b e3 36 ee 00 c4 3c
       0.026503367 0.0075152153 6.7813444e-06 0.023926225
0001f0 8c 8b e3 36 b9 f3 5d 38 c3 f3 5d 38 0a 17 aa 3c
       6.7813726e-06 5.291749e-05 5.2917527e-05 0.020762939
000200 cc 57 01 3d b0 8b b7 3c 62 39 02 3d dd f3 5d 38
       0.03157787 0.022405475 0.031793006 5.291762e-05
000210 cb f3 5d 38 ad cc b9 3c 05 d8 e3 3c 3f b7 ae 3c
       5.2917556e-05 0.022680605 0.027812967 0.021327613
000220 c9 f3 5d 38 c7 f3 5d 38 c7 f3 5d 38 ce f3 5d 38
       5.291755e-05 5.291754e-05 5.291754e-05 5.2917567e-05
000230 c0 f3 5d 38 41 47 d6 3c 68 af 9e 3b ec f3 5d 38
       5.2917516e-05 0.026157023 0.0048426874 5.2917676e-05
000240 f4 f3 5d 38 37 57 d9 3c d4 f3 5d 38 51 d1 bd 3b
       5.2917705e-05 0.026530845 5.291759e-05 0.0057927747
000250 1a 07 47 3c e0 f3 5d 38 a8 99 8f 39 b2 99 8f 39
       0.012147689 5.2917632e-05 0.00027389568 0.00027389597
000260 b7 99 8f 39 d1 b2 dc 3c e8 c1 04 3c 31 84 c2 3c
       0.00027389612 0.026940735 0.0081028715 0.023744674
000270 b2 99 8f 39 c7 dc 4a 3c 9b 04 47 3c 43 25 c9 3c
       0.00027389597 0.012381739 0.012147094 0.0245539
000280 ab 99 8f 39 b5 ef b8 3c b4 99 8f 39 b6 99 8f 39
       0.00027389577 0.022575239 0.00027389603 0.0002738961
000290 f4 91 95 3b a1 99 8f 39 aa 99 8f 39 aa 99 8f 39
       0.004564518 0.00027389548 0.00027389574 0.00027389574
0002a0 ad 99 8f 39 ee f1 9d 3b a1 99 8f 39 a5 99 8f 39
       0.00027389583 0.0048201 0.00027389548 0.0002738956
0002b0 a3 99 8f 39 a7 99 8f 39 a4 99 8f 39 a9 d1 59 3c
       0.00027389554 0.00027389565 0.00027389557 0.013294616
0002c0 8b 69 43 3c 30 f8 7c 37 5b f7 7c 37 57 3c fa 3c
       0.011927019 1.5078156e-05 1.5077962e-05 0.03054635
0002d0 08 f7 7c 37 f2 f5 ea 3c 26 a5 01 3d 6b 73 51 3c
       1.5077887e-05 0.028681729 0.03165164 0.012783865
0002e0 8b a9 2b 3b d2 60 13 3d 69 00 ac 3b 65 a4 ec 3b
       0.0026193585 0.035981007 0.0052490723 0.007221746
0002f0 57 f7 7c 37 ae 1c 3d 3c a4 f7 7c 37 fc f6 7c 37
       1.5077959e-05 0.011542482 1.5078029e-05 1.5077876e-05
000300 05 6a 07 3b c6 f6 7c 37 6f 09 04 3d 34 f7 7c 37
       0.0020662558 1.5077827e-05 0.03223556 1.5077927e-05
000310 76 f6 02 3d c5 f8 7c 37 ac f7 7c 37 2e f8 7c 37
       0.031973325 1.5078292e-05 1.5078036e-05 1.5078154e-05
000320 00 fd 3c 39 13 fd 3c 39 10 fd 3c 39 09 c6 fd 3c
       0.00018023327 0.00018023355 0.0001802335 0.03097822
000330 15 fd 3c 39 a3 2a ad 3b 38 ac bf 3a 4d f6 3b 3c
       0.00018023358 0.0052846237 0.0014623469 0.011472297
000340 26 fd 3c 39 20 fd 3c 39 fc fc 3c 39 40 b6 91 3b
       0.00018023382 0.00018023374 0.00018023321 0.0044467747
000350 0f fd 3c 39 70 c4 fb 3c 0e fd 3c 39 0a fd 3c 39
       0.00018023349 0.030733317 0.00018023347 0.00018023342
000360 c3 f4 75 3b 20 fd 3c 39 b5 1b e8 3c 27 fd 3c 39
       0.0037529923 0.00018023374 0.028333524 0.00018023384
000370 1e b3 88 3c 2a fd 3c 39 2e fd 3c 39 2f fd 3c 39
       0.016686972 0.00018023388 0.00018023394 0.00018023395
000380 36 fd 3c 39 1a 5b 10 3d 9f 22 01 38 a0 22 01 38
       0.00018023406 0.03524313 3.078824e-05 3.0788244e-05
000390 a4 22 01 38 9f 22 01 38 af 22 01 38 a9 22 01 38
       3.078826e-05 3.078824e-05 3.07883e-05 3.0788276e-05
0003a0 aa 22 01 38 a6 22 01 38 e5 ab 7f 3c f3 d7 e3 3c
       3.078828e-05 3.0788266e-05 0.015604948 0.027812934
0003b0 a0 22 01 38 a6 22 01 38 9e 22 01 38 a5 22 01 38
       3.0788244e-05 3.0788266e-05 3.0788236e-05 3.0788262e-05
0003c0 b8 22 01 38 b9 22 01 38 03 a6 e7 3c b6 22 01 38
       3.078833e-05 3.0788335e-05 0.028277403 3.0788324e-05
0003d0 bb 22 01 38 ba 22 01 38 b5 22 01 38 b6 22 01 38
       3.0788342e-05 3.078834e-05 3.078832e-05 3.0788324e-05
0003e0 63 f6 2b 3c 88 b8 b6 3b 05 5c e4 3c 49 bf 15 39
       0.010495755 0.005576197 0.02787591 0.00014281007
0003f0 69 80 d4 3b 5e bf 15 39 64 bf 15 39 f9 95 29 3c
       0.0064850342 0.00014281037 0.00014281046 0.010350698

icnn.wz.2.weight f4 [16, 16, 5, 5]
000000 f5 da 20 38 ec 3e 64 3c 0e db 20 38 09 db 20 38
       3.8350892e-05 0.013931017 3.8350983e-05 3.8350965e-05
000010 15 db 20 38 06 db 20 38 2a e9 ec 3a 45 1a a8 3c
       3.835101e-05 3.8350954e-05 0.0018074859 0.020520339
000020 ee da 20 38 a3 9e 0f 3d 09 db 20 38 10 db 20 38
       3.8350867e-05 0.035063397 3.8350965e-05 3.835099e-05
000030 e3 f8 db 3c 1f db 20 38 20 db 20 38 65 e4 c7 3b
       0.026852077 3.8351045e-05 3.835105e-05 0.006100225
000040 c1 e5 ac 3b 14 db 20 38 f0 1b 13 3c 69 8c 1e 3c
       0.0052764122 3.8351005e-05 0.008978829 0.009677031
000050 20 db 20 38 d0 03 b1 3c 1c db 20 38 27 db 20 38
       3.835105e-05 0.021608263 3.8351034e-05 3.8351074e-05
000060 6c 58 c1 3c 4b 48 5d 38 53 48 5d 38 74 48 5d 38
       0.023601733 5.2757834e-05 5.2757863e-05 5.2757983e-05
000070 e4 0c e9 3c 7b 48 5d 38 3f 48 5d 38 e3 23 54 3c
       0.02844853 5.275801e-05 5.275779e-05 0.012948009
000080 92 48 2f 3c 48 48 5d 38 58 48 5d 38 25 e9 90 3c
       0.010698454 5.2757823e-05 5.275788e-05 0.017689297
000090 3f 48 5d 38 44 48 5d 38 48 48 5d 38 45 48 5d 38
       5.275779e-05 5.275781e-05 5.2757823e-05 5.2757812e-05
0000a0 2b b8 d1 3c 55 48 5d 38 4d 48 5d 38 a7 56 c3 3b
       0.025600513 5.275787e-05 5.275784e-05 0.0059612575
0000b0 63 42 10 3d 0a 48 5d 38 10 48 5d 38 11 48 5d 38
       0.03521956 5.2757598e-05 5.275762e-05 5.2757623e-05
0000c0 18 48 5d 38 a1 88 b4 3c 0d 22 c6 3a 32 ab 1b 38
       5.275765e-05 0.022037806 0.0015116349 3.7114318e-05
0000d0 66 19 e4 3c 29 ab 1b 38 28 ab 1b 38 28 ab 1b 38
       0.027844142 3.7114285e-05 3.711428e-05 3.711428e-05
0000e0 21 ab 1b 38 4f 2f c2 3c 2c ab 1b 38 22 ab 1b 38
       3.7114256e-05 0.0237042 3.7114296e-05 3.711426e-05
0000f0 d8 df a4 3c 36 a3 50 3c 19 ab 1b 38 24 d4 0b 3d
       0.020126268 0.012734225 3.7114227e-05 0.03413786
000100 1a ab 1b 38 27 ab 1b 38 16 ab 1b 38 5f be 8e 3b
       3.711423e-05 3.7114278e-05 3.7114216e-05 0.00435619
000110 94 66 b7 3c f1 84 de 3b 21 ab 1b 38 9f 13 fb 3c
       0.02238778 0.00679075 3.7114256e-05 0.030649005
000120 1d ab 1b 38 48 5d f4 3c 1c 3d 87 3b a7 c0 e3 3c
       3.711424e-05 0.029829636 0.004127158 0.027801825
000130 6a 82 25 38 55 82 25 38 8a b5 ec 3b 61 82 25 38
       3.9460523e-05 3.9460447e-05 0.0072237896 3.946049e-05
000140 44 82 25 38 65 82 25 38 51 82 25 38 60 82 25 38
       3.9460385e-05 3.9460505e-05 3.9460432e-05 3.9460487e-05
000150 76 2e 73 3c 93 05 08 3d ce 35 e2 3b fb 3d ef 3a
       0.01484262 0.03320844 0.0069033867 0.0018252725
000160 8a c2 85 3c b0 67 8c 3b 41 26 e6 3c 59 82 25 38
       0.016328115 0.0042848215 0.028094413 3.946046e-05
000170 aa 65 9d 3c 74 13 09 3d 4e b8 d8 39 5d 82 25 38
       0.019213516 0.033465818 0.00041336048 3.9460476e-05
000180 68 82 25 38 de f4 fc 3c 6a 82 25 38 70 82 25 38
       3.9460516e-05 0.03087848 3.9460523e-05 3.9460545e-05
000190 d2 dd 2c 38 36 c3 01 3d db dd 2c 38 d1 dd 2c 38
       4.1214582e-05 0.03168031 4.1214615e-05 4.121458e-05
0001a0 de dd 2c 38 d2 dd 2c 38 00 de 2c 38 f9 dd 2c 38
       4.1214626e-05 4.1214582e-05 4.121475e-05 4.1214724e-05
0001b0 0f 3e 27 3c 26 dd 0b 3d bf dd 2c 38 68 65 c5 3b
       0.010207667 0.03414645 4.1214513e-05 0.0060240515
0001c0 e6 dd 2c 38 d9 dd 2c 38 e6 dd 2c 38 db dd 2c 38
       4.1214655e-05 4.1214607e-05 4.1214655e-05 4.1214615e-05
0001d0 e6 dd 2c 38 e8 dd 2c 38 e1 1e 9e 3b c7 4b 9f 3a
       4.1214655e-05 4.1214662e-05 0.0048254584 0.0012153321
0001e0 e0 dd 2c 38 06 de 2c 38 dd dd 2c 38 f6 0d 03 3d
       4.1214633e-05 4.121477e-05 4.1214622e-05 0.031995736
0001f0 ee dd 2c 38 6b 40 04 38 56 40 04 38 ba 3c 0e 3d
       4.1214684e-05 3.1531246e-05 3.153117e-05 0.034725882
000200 c1 95 90 3c 0b 50 ca 3c 1d a1 03 3b 77 40 04 38
       0.017649533 0.02469637 0.0020085045 3.153129e-05
000210 89 40 04 38 88 40 04 38 83 40 04 38 21 86 a8 3c
       3.1531355e-05 3.1531352e-05 3.1531334e-05 0.02057177
000220 6b 40 04 38 c5 93 04 3d 90 ab fa 3c 80 40 04 38
       3.1531246e-05 0.032367487 0.030599385 3.1531323e-05
000230 97 40 04 38 72 40 04 38 61 77 e7 3c fc b5 67 3c
       3.1531406e-05 3.153127e-05 0.028255166 0.01414251
000240 81 40 04 38 7b 40 04 38 78 40 04 38 87 40 04 38
       3.1531326e-05 3.1531305e-05 3.1531294e-05 3.153135e-05
000250 87 40 04 38 7f 40 04 38 79 0e c0 37 62 0e c0 37
       3.153135e-05 3.153132e-05 2.2894923e-05 2.2894881e-05
000260 63 0e c0 37 72 0e c0 37 7f 0e c0 37 e1 ae a7 3b
       2.2894883e-05 2.289491e-05 2.2894934e-05 0.0051172827
000270 8a 0e c0 37 ab 6f df 3c a5 0e c0 37 8e 3f c4 3c
       2.2894954e-05 0.027274927 2.2895003e-05 0.023956086
000280 a5 0e c0 37 82 0e c0 37 ee 2a 0b 3d af 0e c0 37
       2.2895003e-05 2.289494e-05 0.033976488 2.2895021e-05
000290 be 71 30 3a 9e 0e c0 37 85 0e c0 37 97 cd fc 3c
       0.0006730816 2.289499e-05 2.2894945e-05 0.030859752
0002a0 b5 0e c0 37 ae 0e c0 37 ca 0e c0 37 3e cf fb 3b
       2.2895032e-05 2.289502e-05 2.289507e-05 0.0076846173
0002b0 90 0e c0 37 bf 0e c0 37 b9 d3 bc 3b 69 c9 8d 38
       2.2894965e-05 2.289505e-05 0.005762544 6.7609195e-05
0002c0 62 c9 8d 38 6d c9 8d 38 6a c9 8d 38 71 c9 8d 38
       6.7609144e-05 6.7609224e-05 6.76092e-05 6.760925e-05
0002d0 68 c9 8d 38 fa 46 a6 3c 3f 4e 7f 3c 6a c9 8d 38
       6.760919e-05 0.020297516 0.01558262 6.76092e-05
0002e0 71 7f 03 3d 60 c9 8d 38 62 c9 8d 38 6a c9 8d 38
       0.03210396 6.760913e-05 6.7609144e-05 6.76092e-05
0002f0 67 c9 8d 38 6c c9 8d 38 b9 0b ab 3c 58 c9 8d 38
       6.760918e-05 6.760922e-05 0.020879613 6.760907e-05
000300 59 c9 8d 38 60 c9 8d 38 60 c9 8d 38 54 c9 8d 38
       6.760908e-05 6.760913e-05 6.760913e-05 6.760904e-05
000310 54 c9 8d 38 c2 e2 9e 3a e2 68 46 3c 51 c9 8d 38
       6.760904e-05 0.0012122022 0.012109967 6.760902e-05
000320 c0 a7 2d 38 de a7 2d 38 d5 a7 2d 38 d9 a7 2d 38
       4.1402644e-05 4.1402753e-05 4.140272e-05 4.1402734e-05
000330 cc a7 2d 38 d3 a7 2d 38 da a7 2d 38 d6 a7 2d 38
       4.1402687e-05 4.1402713e-05 4.1402738e-05 4.1402724e-05
000340 dd a7 2d 38 47 50 c7 3c d2 a7 2d 38 c8 0c b6 3c
       4.140275e-05 0.024330271 4.140271e-05 0.022222891
000350 d2 a7 2d 38 d2 a7 2d 38 d1 a7 2d 38 b5 a7 2d 38
       4.140271e-05 4.140271e-05 4.1402705e-05 4.1402604e-05
000360 d6 a7 2d 38 d8 a7 2d 38 d5 a7 2d 38 3d 9c 5e 3a
       4.1402724e-05 4.140273e-05 4.140272e-05 0.0008491909
000370 b6 a7 2d 38 c7 a7 2d 38 cd a7 2d 38 72 72 c6 3c
       4.1402607e-05 4.140267e-05 4.140269e-05 0.024224494
000380 32 df ec 3b ec 4a 56 38 d6 a2 c1 3c 00 4b 56 38
       0.0072287554 5.1091352e-05 0.023637217 5.1091425e-05
000390 2c 8c d2 3c 05 4b 56 38 cd 4a 56 38 4d 3f a4 3a
       0.025701605 5.1091443e-05 5.109124e-05 0.0012531072
0003a0 e9 4a 56 38 c6 28 8f 3c cf 4d 86 3c fd 6d 30 3c
       5.109134e-05 0.017475497 0.016394524 0.010768411
0003b0 e6 4a 56 38 e2 4a 56 38 e7 4a 56 38 ec 4a 56 38
       5.109133e-05 5.1091316e-05 5.1091334e-05 5.1091352e-05
0003c0 32 44 87 3c 61 a1 e3 3c e3 4a 56 38 e7 58 b3 3c
       0.01651201 0.027786912 5.109132e-05 0.021892978
0003d0 f7 4a 56 38 eb 4a 56 38 11 4b 56 38 f5 95 0d 3d
       5.1091392e-05 5.109135e-05 5.1091487e-05 0.03456684
0003e0 1c 4b 56 38 90 c8 61 3c 2e 3c 2a 38 32 3c 2a 38
       5.1091527e-05 0.013780728 4.0587205e-05 4.058722e-05
0003f0 75 e1 8c 3b 31 c8 be 3c bf e0 f1 3c 34 3c 2a 38
       0.0042993375 0.023288818 0.029526113 4.0587227e-05

icnn.wz.3.weight f4 [16, 16, 5, 5]
000000 39 54 19 38 d0 a2 96 3c 54 54 19 38 8d de 92 3c
       3.655648e-05 0.018388182 3.655658e-05 0.017928386
000010 bc 4a ef 3b b7 f4 b7 3c 57 54 19 38 58 54 19 38
       0.00730261 0.022455556 3.655659e-05 3.6556594e-05
000020 4b 54 19 38 55 54 19 38 2f 54 19 38 98 ac f8 3c
       3.6556547e-05 3.6556583e-05 3.6556445e-05 0.030355737
000030 51 54 19 38 ce 25 7d 3c 4e 54 19 38 25 54 19 38
       3.655657e-05 0.015450908 3.6556557e-05 3.655641e-05
000040 43 54 19 38 31 54 19 38 29 54 19 38 c4 a2 0a 3d
       3.6556517e-05 3.6556452e-05 3.6556423e-05 0.03384663
000050 1f 54 19 38 7b b7 83 3c 44 54 19 38 33 3a aa 3b
       3.6556386e-05 0.016078701 3.655652e-05 0.005194926
000060 45 54 19 38 1e 16 0f 3d bf 59 ed 3c 06 2e c9 3c
       3.6556525e-05 0.034933202 0.028973458 0.024558078
000070 c8 de 1c 38 c9 de 1c 38 ab de 1c 38 b6 de 1c 38
       3.740078e-05 3.7400783e-05 3.7400674e-05 3.7400714e-05
000080 be de 1c 38 c7 de 1c 38 05 87 82 38 ae de 1c 38
       3.7400743e-05 3.7400776e-05 6.2240324e-05 3.7400685e-05
000090 ad de 1c 38 b4 de 1c 38 02 fd ac 3b c5 de 1c 38
       3.740068e-05 3.7400707e-05 0.0052791843 3.740077e-05
0000a0 b8 de 1c 38 3b 49 0b 3b b1 de 1c 38 c3 de 1c 38
       3.740072e-05 0.0021253366 3.7400696e-05 3.740076e-05
0000b0 b1 55 05 3d b2 de 1c 38 11 d8 a0 3b 13 87 f5 3c
       0.032552425 3.74007e-05 0.0049085696 0.029971635
0000c0 ba de 1c 38 b6 de 1c 38 dc ac 24 38 c8 d1 c7 3c
       3.740073e-05 3.7400714e-05 3.9261635e-05 0.024392024
0000d0 db ac 24 38 ea ac 24 38 d5 ac 24 38 d7 46 7a 3c
       3.926163e-05 3.9261686e-05 3.926161e-05 0.015275679
0000e0 e9 ac 24 38 d8 ac 24 38 de ac 24 38 d1 ac 24 38
       3.9261682e-05 3.926162e-05 3.9261642e-05 3.9261595e-05
0000f0 0a 90 f0 3c d0 ac 24 38 ca ac 24 38 2e a8 f9 3c
       0.029365558 3.926159e-05 3.926157e-05 0.030475702
000100 91 fe a8 3c 77 88 a9 3b ca ac 24 38 c2 ac 24 38
       0.0206292 0.0051737386 3.926157e-05 3.926154e-05
000110 1b d9 c5 3c bb 8c a8 3b d5 ac 24 38 f9 b2 7f 3c
       0.024151376 0.0051437295 3.926161e-05 0.015606635
000120 bd ac 24 38 b5 1c 12 3d f8 13 05 3d 6b e8 05 3c
       3.9261522e-05 0.03567191 0.032489747 0.008173089
000130 fd a0 1c 38 d7 9a 94 3b 97 bf 63 3c 3a 11 48 3c
       3.734323e-05 0.00453506 0.013900659 0.012211138
000140 e4 a0 1c 38 ee a0 1c 38 5e 53 be 3c e7 a0 1c 38
       3.734314e-05 3.7343176e-05 0.023233112 3.734315e-05
000150 1a 7e 6f 3b d8 a0 1c 38 ee a0 1c 38 26 0e 83 3c
       0.0036543668 3.7343096e-05 3.7343176e-05 0.015997957
000160 32 c3 b1 3b de a0 1c 38 0c 07 cb 3c f9 a0 1c 38
       0.0054248804 3.7343118e-05 0.024783634 3.7343216e-05
000170 d1 a0 1c 38 f5 a0 1c 38 3e a2 b6 3c f1 a0 1c 38
       3.734307e-05 3.73432e-05 0.02229416 3.7343187e-05
000180 f3 a0 1c 38 fc a0 1c 38 f7 a0 1c 38 28 ff aa 3c
       3.7343194e-05 3.7343227e-05 3.734321e-05 0.020873621
000190 b2 79 10 3d 11 2f e0 3c 63 d4 18 38 80 dd e1 3c
       0.035272308 0.027366193 3.6437425e-05 0.02757144
0001a0 60 d4 18 38 72 d4 18 38 72 d4 18 38 82 d4 18 38
       3.6437414e-05 3.643748e-05 3.643748e-05 3.6437537e-05
0001b0 98 d4 18 38 8d d4 18 38 5e d4 18 38 68 d4 18 38
       3.6437617e-05 3.6437577e-05 3.6437406e-05 3.6437443e-05
0001c0 50 d4 18 38 68 d4 18 38 57 ca d1 3c 57 d4 18 38
       3.6437355e-05 3.6437443e-05 0.025609178 3.643738e-05
0001d0 5b d4 18 38 53 51 45 3b 70 d4 18 38 64 d4 18 38
       3.6437395e-05 0.0030108287 3.6437472e-05 3.643743e-05
0001e0 e7 a0 0a 3d 58 6b 80 3c 88 d4 18 38 a7 fe 9b 3b
       0.033844855 0.015676185 3.643756e-05 0.0047605815
0001f0 73 d4 18 38 3e 76 7c 3c 73 84 29 38 e5 19 43 3c
       3.6437483e-05 0.0154090505 4.0416093e-05 0.011908029
000200 7e 84 29 38 8f 84 29 38 97 84 29 38 98 84 29 38
       4.0416133e-05 4.0416195e-05 4.0416224e-05 4.0416227e-05
000210 d4 f8 48 3c 93 84 29 38 a4 84 29 38 a2 84 29 38
       0.0122663565 4.041621e-05 4.041627e-05 4.0416264e-05
000220 a2 84 29 38 9d 84 29 38 96 84 29 38 a5 84 29 38
       4.0416264e-05 4.0416246e-05 4.041622e-05 4.0416275e-05
000230 96 84 29 38 28 e6 0e 3d 9a 84 29 38 1a d7 5b 3c
       4.041622e-05 0.034887463 4.0416235e-05 0.013417983
000240 b0 84 29 38 fc d3 79 3c a6 84 29 38 d8 70 c0 3b
       4.0416315e-05 0.015248295 4.041628e-05 0.005872827
000250 96 84 29 38 ab 84 29 38 2d c6 1a 38 3b c6 1a 38
       4.041622e-05 4.0416297e-05 3.6901027e-05 3.6901078e-05
000260 49 c6 1a 38 64 20 64 3c 94 87 84 3b 11 c6 1a 38
       3.690113e-05 0.013923738 0.0040444825 3.6900925e-05
000270 1e c6 1a 38 3f c6 1a 38 47 c6 1a 38 35 c6 1a 38
       3.6900972e-05 3.6901092e-05 3.690112e-05 3.6901056e-05
000280 7a 8b 29 3b 09 c6 1a 38 23 c6 1a 38 21 c6 1a 38
       0.0025870488 3.6900896e-05 3.690099e-05 3.6900983e-05
000290 40 01 3f 3c fd c5 1a 38 06 c6 1a 38 13 c6 1a 38
       0.011658013 3.6900852e-05 3.6900885e-05 3.6900932e-05
0002a0 18 c6 1a 38 51 fd c4 3c f4 c5 1a 38 76 71 cd 3c
       3.690095e-05 0.024046572 3.690082e-05 0.025078516
0002b0 11 c6 1a 38 18 c6 1a 38 11 c6 1a 38 d2 79 c1 3c
       3.6900925e-05 3.690095e-05 3.6900925e-05 0.023617659
0002c0 ee 53 17 38 4f 59 7d 3c 75 c4 ef 3c 21 6a ce 3a
       3.607937e-05 0.015463187 0.029268483 0.0015748182
0002d0 eb 53 17 38 5b 2e 08 3d fc 53 17 38 00 54 17 38
       3.607936e-05 0.033247333 3.6079422e-05 3.6079437e-05
0002e0 bb 8f 49 3c 00 54 17 38 0a 54 17 38 12 c6 14 3c
       0.012302334 3.6079437e-05 3.6079473e-05 0.009080427
0002f0 16 54 17 38 26 66 0f 3c ef 53 17 38 03 54 17 38
       3.6079517e-05 0.008752381 3.6079375e-05 3.6079447e-05
000300 11 54 17 38 06 54 17 38 fb 53 17 38 97 73 fb 3c
       3.60795e-05 3.607946e-05 3.607942e-05 0.030694766
000310 ff da 38 3c 0b 54 17 38 0f 54 17 38 18 54 17 38
       0.0112826815 3.6079477e-05 3.607949e-05 3.6079524e-05
000320 01 ce 1f 38 17 ce 1f 38 20 06 06 3d 8e 5e 13 3b
       3.810041e-05 3.810049e-05 0.032720685 0.002248678
000330 06 ce 1f 38 f2 cd 1f 38 a5 58 b5 3b 26 ce 1f 38
       3.810043e-05 3.8100356e-05 0.005534249 3.8100545e-05
000340 1c ce 1f 38 5b 3f d4 3c 95 2c 09 3c 12 ce 1f 38
       3.810051e-05 0.025909116 0.008372446 3.8100472e-05
000350 6a 1b 18 3c 0c 50 d1 3b fc cd 1f 38 43 f3 fc 3c
       0.00928388 0.006387716 3.8100392e-05 0.030877715
000360 14 ce 1f 38 5d 76 b0 3c 5c 2f 5e 3c 0e ce 1f 38
       3.810048e-05 0.021540815 0.013561096 3.8100457e-05
000370 fc cd 1f 38 5d 5c aa 3c 3b c2 8b 3c 46 cd 38 3c
       3.8100392e-05 0.020795995 0.01706039 0.01127941
000380 11 ce 1f 38 e8 71 1c 38 d0 71 1c 38 cd 71 1c 38
       3.810047e-05 3.729938e-05 3.7299294e-05 3.7299284e-05
000390 91 97 38 3b cb 0a 05 3d e0 71 1c 38 cd 71 1c 38
       0.0028166512 0.032480996 3.7299353e-05 3.7299284e-05
0003a0 c4 71 1c 38 d9 71 1c 38 d6 71 1c 38 df 71 1c 38
       3.729925e-05 3.7299327e-05 3.7299316e-05 3.729935e-05
0003b0 da 71 1c 38 d4 71 1c 38 df fe f2 3c 9d fd 09 3d
       3.729933e-05 3.729931e-05 0.029662548 0.03368913
0003c0 e8 71 1c 38 da 88 db 3c ce 71 1c 38 e0 71 1c 38
       3.729938e-05 0.026798654 3.7299287e-05 3.7299353e-05
0003d0 86 33 66 3c ee 71 1c 38 dd 71 1c 38 50 df 92 3c
       0.01405037 3.7299404e-05 3.729934e-05 0.01792875
0003e0 db 71 1c 38 d8 71 1c 38 57 fa 21 38 c5 51 37 3c
       3.7299335e-05 3.7299324e-05 3.861854e-05 0.011188929
0003f0 76 fa 21 38 61 fa 21 38 26 43 8c 3c 9c 0b d8 3b
       3.861865e-05 3.8618575e-05 0.017121863 0.006593181

icnn.wz.4.weight f4 [16, 16, 5, 5]
000000 28 2f 3b 38 2c 2f 3b 38 49 2f 3b 38 34 2f 3b 38
       4.4628192e-05 4.4628207e-05 4.4628312e-05 4.4628236e-05
000010 5b 2f 3b 38 5c 4c c4 3c 3e 2f 3b 38 d2 c9 be 3b
       4.4628378e-05 0.023962192 4.4628272e-05 0.0058223987
000020 14 5a f9 3c 39 2f 3b 38 36 2f 3b 38 4a 2f 3b 38
       0.03043846 4.4628254e-05 4.4628243e-05 4.4628316e-05
000030 3e 2f 3b 38 31 35 b0 3c 63 2f 3b 38 1b 2f 3b 38
       4.4628272e-05 0.021509739 4.4628407e-05 4.4628145e-05
000040 42 2f 3b 38 41 2f 3b 38 cb 3d 44 3c 9a 53 e3 3c
       4.4628287e-05 4.4628283e-05 0.011977623 0.027749825
000050 2e 2f 3b 38 4f 2f 3b 38 40 2f 3b 38 5b 2f 3b 38
       4.4628214e-05 4.4628334e-05 4.462828e-05 4.4628378e-05
000060 43 2f 3b 38 4e ef 36 38 67 ef 36 38 e0 27 98 3c
       4.462829e-05 4.361505e-05 4.3615142e-05 0.018573701
000070 71 ef 36 38 84 ef 36 38 43 34 82 3b 75 ed e0 3c
       4.361518e-05 4.3615248e-05 0.0039735152 0.027456978
000080 85 ef 36 38 20 87 82 3c 8a ef 36 38 32 ef 36 38
       4.361525e-05 0.015933573 4.361527e-05 4.361495e-05
000090 54 ef 36 38 55 ef 36 38 e5 b8 f4 3c 62 ef 36 38
       4.3615073e-05 4.3615077e-05 0.02987332 4.3615124e-05
0000a0 4c ef 36 38 7a 7b 13 3c 72 ef 36 38 45 93 d3 3c
       4.3615044e-05 0.009001607 4.3615182e-05 0.02582706
0000b0 6e ef 36 38 47 ef 36 38 62 ef 36 38 55 ef 36 38
       4.3615168e-05 4.3615026e-05 4.3615124e-05 4.3615077e-05
0000c0 84 34 5e 3b 99 ee 05 3d 56 7d d6 3a c9 2a 30 38
       0.0033905813 0.032698248 0.0016364257 4.2001517e-05
0000d0 b8 09 93 3a c8 2a 30 38 09 0d f2 3c 09 c8 a1 3c
       0.0011218106 4.2001513e-05 0.029547231 0.019748705
0000e0 d5 2a 30 38 d2 2a 30 38 40 4d ad 3c d0 2a 30 38
       4.200156e-05 4.200155e-05 0.021155 4.2001542e-05
0000f0 da 2a 30 38 2c f7 ac 3c cb 2a 30 38 da 2a 30 38
       4.200158e-05 0.021113954 4.2001524e-05 4.200158e-05
000100 ca 2a 30 38 0f 6c 10 3d ed 2a 30 38 e6 2a 30 38
       4.200152e-05 0.035259303 4.2001648e-05 4.2001622e-05
000110 b0 1c e9 3c 52 31 1c 3c 01 0b c1 3a e4 2a 30 38
       0.028456062 0.009533243 0.0014728011 4.2001615e-05
000120 de 2a 30 38 ea 2a 30 38 b1 40 fa 3c af 19 40 38
       4.2001593e-05 4.2001637e-05 0.030548425 4.5800287e-05
000130 b8 19 40 38 d6 19 40 38 6e fe e4 3c ef 10 31 3b
       4.580032e-05 4.580043e-05 0.027953353 0.002701815
000140 a4 19 40 38 d9 19 40 38 e3 19 40 38 8b 0d 06 3c
       4.5800247e-05 4.580044e-05 4.5800476e-05 0.00818194
000150 3a 56 03 3d b4 19 40 38 c5 19 40 38 e9 29 36 3c
       0.032064654 4.5800305e-05 4.5800367e-05 0.011118391
000160 95 da 0c 3d ab 19 40 38 a1 19 40 38 02 68 22 3c
       0.034388144 4.5800272e-05 4.5800236e-05 0.009912493
000170 2f e5 a1 3c b8 6e 95 3c b1 19 40 38 c0 19 40 38
       0.019762604 0.018241271 4.5800294e-05 4.580035e-05
000180 bd 19 40 38 b8 19 40 38 c5 19 40 38 70 27 5b 3c
       4.5800338e-05 4.580032e-05 4.5800367e-05 0.013376102
000190 33 cb e9 3b b1 11 36 38 aa 11 36 38 b1 11 36 38
       0.007134819 4.3408658e-05 4.3408632e-05 4.3408658e-05
0001a0 de ca 4a 3c a5 11 36 38 9e 11 36 38 83 45 9b 3c
       0.012377469 4.3408614e-05 4.340859e-05 0.018954044
0001b0 9a 11 36 38 9a 11 36 38 e9 ff 2f 3a fd 94 ea 3b
       4.3408574e-05 4.3408574e-05 0.0006713854 0.007158874
0001c0 a1 30 87 3c 8e 11 36 38 87 11 36 38 66 70 d4 3c
       0.01650268 4.340853e-05 4.3408505e-05 0.025932502
0001d0 98 11 36 38 96 11 36 38 95 11 36 38 98 11 36 38
       4.3408567e-05 4.340856e-05 4.3408556e-05 4.3408567e-05
0001e0 b2 11 36 38 ab 11 36 38 9f 11 36 38 f8 f9 09 3d
       4.340866e-05 4.3408636e-05 4.3408592e-05 0.033685654
0001f0 3c d8 03 3d d0 39 37 38 ff 39 37 38 08 3a 37 38
       0.03218864 4.3684442e-05 4.3684613e-05 4.3684646e-05
000200 b1 b9 0f 3d 03 3a 37 38 ca 39 37 38 e0 39 37 38
       0.0350892 4.3684628e-05 4.368442e-05 4.36845e-05
000210 10 5b cb 3c e0 bd 3d 3c 04 3a 37 38 be 39 37 38
       0.024823695 0.011580914 4.368463e-05 4.3684377e-05
000220 95 c8 a1 3c f1 94 3a 3c e2 39 37 38 ef 39 37 38
       0.019748965 0.011388049 4.3684508e-05 4.3684555e-05
000230 c3 39 37 38 12 09 e4 3c 0d 3a 37 38 6b f1 4e 3c
       4.3684395e-05 0.027836356 4.3684664e-05 0.012630801
000240 06 3a 37 38 8e 81 cb 3c 93 f9 e7 3c f5 39 37 38
       4.368464e-05 0.02484205 0.028317248 4.3684577e-05
000250 32 28 34 3c ea 39 37 38 06 08 3c 38 fa 83 c7 3c
       0.010995911 4.3684537e-05 4.4830165e-05 0.024354924
000260 ed 07 3c 38 00 08 3c 38 12 08 3c 38 de c9 4e 3c
       4.4830074e-05 4.4830143e-05 4.483021e-05 0.012621371
000270 1f 07 af 3b 2a 02 9e 3b a3 b8 ef 3c 1f 08 3c 38
       0.005341425 0.0048220353 0.029262846 4.4830256e-05
000280 93 bc 66 3c d8 cb 0f 3d 06 08 3c 38 ff 07 3c 38
       0.014083046 0.03510651 4.4830165e-05 4.483014e-05
000290 fe 07 3c 38 f4 07 3c 38 8e 13 e9 3c 1c d2 a1 3c
       4.4830136e-05 4.48301e-05 0.028451707 0.019753508
0002a0 f6 07 3c 38 ef 07 3c 38 eb 4e 75 3c e4 07 3c 38
       4.4830107e-05 4.483008e-05 0.014972429 4.483004e-05
0002b0 ba c4 76 3a a0 6e db 3b f8 07 3c 38 3a 44 3a 38
       0.000941347 0.006696537 4.4830114e-05 4.4409397e-05
0002c0 6d 44 3a 38 68 44 3a 38 71 44 3a 38 66 44 3a 38
       4.4409582e-05 4.4409564e-05 4.4409597e-05 4.4409557e-05
0002d0 a1 ba e6 3c 40 d1 be 3b 74 44 3a 38 6e 44 3a 38
       0.028165163 0.0058232844 4.4409608e-05 4.4409586e-05
0002e0 ad b0 ad 3c 53 44 3a 38 50 0b f6 3c 51 44 3a 38
       0.02120241 4.4409488e-05 0.030034691 4.440948e-05
0002f0 54 44 3a 38 be 5b 1c 3c 80 2e 03 3b 32 0d 9e 3c
       4.440949e-05 0.009543357 0.002001673 0.019293401
000300 64 44 3a 38 42 ce d4 3b 56 44 3a 38 3d 44 3a 38
       4.440955e-05 0.0064943144 4.44095e-05 4.4409408e-05
000310 5f 44 3a 38 6b ca 32 3c 5a 44 3a 38 55 44 3a 38
       4.440953e-05 0.010912518 4.4409513e-05 4.4409495e-05
000320 99 1d 8c 3b 3d ac 48 38 42 ac 48 38 61 ac 48 38
       0.0042759893 4.7844125e-05 4.7844143e-05 4.7844256e-05
000330 49 ac 48 38 dc 5d 72 3c 7e b0 4e 3c 57 ac 48 38
       4.784417e-05 0.014792886 0.012615321 4.784422e-05
000340 41 ac 48 38 4e ac 48 38 5d ac 48 38 67 ac 48 38
       4.784414e-05 4.7844187e-05 4.784424e-05 4.7844278e-05
000350 73 0e a5 3c 54 5f 05 3d 7b 24 0c 3d 4c ac 48 38
       0.020148491 0.032561615 0.034214478 4.784418e-05
000360 43 1c 3b 3b b3 a5 03 3d 57 ac 48 38 29 e3 de 3b
       0.002855078 0.032140445 4.784422e-05 0.006801982
000370 6f ac 48 38 7d 3c 96 3c 6f ac 48 38 65 ac 48 38
       4.7844307e-05 0.01833939 4.7844307e-05 4.784427e-05
000380 f6 b0 61 3a e5 63 ca 3b e4 a9 a2 3b 6d 64 f4 38
       0.0008609438 0.006176459 0.0049641 0.000116535324
000390 af 2b fd 3c 6b 9f 3d 38 48 9f 3d 38 54 5a be 3c
       0.030904619 4.520958e-05 4.5209454e-05 0.023236431
0003a0 1d c5 47 3c 5d 9f 3d 38 bf a5 96 3c 45 53 84 3b
       0.012192992 4.520953e-05 0.01838958 0.004038247
0003b0 ed 4a 00 3d 8d 51 0f 3d 51 9f 3d 38 2c 36 e5 3c
       0.031321455 0.034989882 4.5209486e-05 0.027979933
0003c0 47 9f 3d 38 7b a6 eb 3b 98 b8 12 3c c4 de a1 3c
       4.520945e-05 0.007191477 0.008955143 0.019759543
0003d0 4d 9f 3d 38 47 9f 3d 38 5b 9f 3d 38 6f 0b 9c 3c
       4.5209472e-05 4.520945e-05 4.5209523e-05 0.01904842
0003e0 6b 9f 3d 38 6c 9f 3d 38 f3 6e 00 3c d7 ca 3e 38
       4.520958e-05 4.5209585e-05 0.007838952 4.548844e-05
0003f0 eb ca 3e 38 d4 ca 3e 38 ed ca 3e 38 9f d1 9b 3c
       4.5488512e-05 4.548843e-05 4.548852e-05 0.019020854

icnn.wx_quad.0.weight f4 [16, 1, 5, 5]
000000 3b d9 9c 3d 35 50 b5 3c 34 bb 98 3d 7b 13 0c bc
       0.07658621 0.022132972 0.07457581 -0.008549566
000010 07 ac cd 3d 4d b6 3f be 67 65 28 3e 46 3d 32 3e
       0.10042577 -0.18721886 0.16444932 0.17406186
000020 96 20 bc bb cd 6e af 3d ac c7 09 3e c8 31 09 3e
       -0.0057411892 0.085660554 0.13455075 0.13397896
000030 57 13 2e 3e 0b ea 39 bd 43 df 45 be f0 88 35 3e
       0.16999565 -0.045389216 -0.19323449 0.17728019
000040 d1 a6 2d bd b7 70 40 be d8 91 c7 bc 77 5f e2 3d
       -0.042395417 -0.18792997 -0.024361536 0.11053365
000050 e7 73 0a bd 91 8d ab bc 1c 55 9c bd 01 f5 ba 3d
       -0.03380194 -0.020941528 -0.07633421 0.09128762
000060 47 59 99 bd 5f e2 b7 bd c0 c9 ea 3d 17 ef e3 bd
       -0.074877314 -0.08978724 0.11464262 -0.11129587
000070 b0 e5 22 3e 12 a7 40 3b f5 d6 2d 3c f5 ea da bd
       0.15907931 0.0029396457 0.010610332 -0.10689346
000080 ca 11 d0 3c 7c 0f 39 bd 97 02 37 3d d0 a9 eb 3d
       0.025399107 -0.045180783 0.044680204 0.115069985
000090 a5 a2 35 be 3f 15 d7 bb 1d d8 d9 bd d9 7e 29 3e
       -0.17737825 -0.006563812 -0.106369235 0.16552295
0000a0 0f 53 14 3e 5c a7 1e be ee 37 36 3c 6d 4b 4f 3d
       0.1448481 -0.1549353 0.011121733 0.05060904
0000b0 80 03 1b be 68 29 37 3d 6d 88 48 3d b3 6e 0d 3e
       -0.15138054 0.044717222 0.04895823 0.1381176
0000c0 35 b3 8a bd 14 fe 8e bc 78 b4 45 3e 4d bc 1e be
       -0.06772462 -0.017455138 0.19307125 -0.15501519
0000d0 dc 35 3d be f1 a7 23 be e2 42 09 3d 50 4a 3c 3e
       -0.18477577 -0.15982033 0.03351105 0.18387723
0000e0 2f f2 69 bc c0 e5 14 be 8a 4b e6 bd b4 3e 03 bc
       -0.0142789325 -0.14540768 -0.11244877 -0.008010555
0000f0 b6 ed 2a be c8 17 22 3e 1f 03 92 3d f0 7f 22 bc
       -0.16692242 0.15829384 0.071295016 -0.009918198
000100 f5 0b e2 bd 71 66 d4 bd 48 a2 34 be ae 7b f1 bc
       -0.11037437 -0.10371102 -0.1764003 -0.02947792
000110 2f 4f c4 3d c1 a2 4c 3e 83 2a 15 be 78 ba 4c bc
       0.095854156 0.1998396 -0.14566998 -0.0124956295
000120 61 83 c5 bd ad 85 2f be 3c bf 1c 3e 00 3e 3d be
       -0.09644199 -0.17140837 0.15307325 -0.18480682
000130 57 60 da bc 5e cd dc 3d 8d 58 dd bd d9 0c a8 3d
       -0.026657267 0.10781358 -0.10807905 0.082055755
000140 b1 a2 13 3e 95 f0 92 3b ea 44 5d bd 0d ea be 3d
       0.1441753 0.004484246 -0.0540208 0.093219854
000150 fb 1c a9 bd 21 98 31 3e 0d 2e af 3d 2f cd d5 bd
       -0.08257481 0.17343189 0.08553705 -0.10439526
000160 48 88 30 3e 47 0f 22 3d 62 0e f3 bd 7d 37 37 be
       0.17239487 0.03956535 -0.11867978 -0.17892261
000170 5d f7 34 be 6c bf b3 bd bd a9 d1 bc 06 cd ba bc
       -0.17672487 -0.08776745 -0.025593633 -0.02280284
000180 ea 48 40 3e 8f 77 fa bd e5 1a 95 3d f4 71 e6 bd
       0.18777815 -0.12229835 0.0728052 -0.112522036
000190 a5 1a 4a bd aa e0 d3 3d 6e ca 0c 3e a4 46 17 3e
       -0.049341816 0.10345586 0.13749096 0.14773041
0001a0 7d d7 43 be 40 ea 01 bd a6 ff 98 bd 45 30 08 be
       -0.19125171 -0.03171754 -0.07470636 -0.13299663
0001b0 c1 b2 ff 3d 17 1d a5 3d 10 41 a9 3d e1 20 17 be
       0.124852665 0.08062189 0.08264363 -0.14758636
0001c0 89 a2 19 be 05 bb 3f be b7 09 3f 3e 55 b0 97 bd
       -0.15003408 -0.18723686 0.1865605 -0.074066795
0001d0 aa f3 c6 bc 3e 9d 08 3e 23 6c ef 3d 9d 6f 1c 3e
       -0.02428611 0.13341233 0.11690547 0.15276952
0001e0 26 3d 65 bd a2 3f 8d 3d f5 1e ed 3d 91 78 ca bd
       -0.05596652 0.068969026 0.1157817 -0.098862775
0001f0 9d f3 09 be b6 6f 67 bd ca 00 33 be 59 33 30 be
       -0.13471837 -0.05650302 -0.1748077 -0.17207088
000200 99 50 33 bd 87 55 bf 3d 71 bd 15 3e a4 47 3c 3e
       -0.043778036 0.09342485 0.14623047 0.18386704
000210 eb 1c 82 3c 21 32 07 3e cc a9 d2 bc 47 63 9f bd
       0.01588293 0.13202716 -0.025715731 -0.077826075
000220 f0 29 46 3e 89 b6 22 be 0b 3c 2f 3e e9 14 1f 3e
       0.19351935 -0.15889944 0.17112748 0.1553532
000230 4d 2a d8 bd 49 36 17 3d af 2f b5 bd e3 f1 1e 3d
       -0.10554943 0.036917005 -0.088469855 0.0388049
000240 6d 9e 85 bd 6d 04 2b bc 8e aa f2 bd f3 4f ab bd
       -0.06524358 -0.010438067 -0.11848937 -0.083648585
000250 0f 7b 2c 3d a1 63 fb 3c 50 93 75 bd d9 e5 7e bd
       0.042109545 0.030687155 -0.05995494 -0.06223092
000260 aa 73 7a bc 05 6a 4e bb 91 e8 45 3e 11 16 04 3c
       -0.0152863655 -0.0031496298 0.19326998 0.008061902
000270 c9 cd 1a 3d ba ea 10 3e 70 51 00 bc ce b8 19 be
       0.03779391 0.14152041 -0.007831916 -0.15011904
000280 0d ac a0 bd 87 50 21 3e 95 27 16 3d 2e 2a 48 3d
       -0.07845316 0.15753375 0.036658842 0.04886835
000290 e9 a8 58 3d 7f dc fb bd 7c 78 bc bd 62 72 dc bb
       0.05289546 -0.12297916 -0.09202668 -0.0067275027
0002a0 b1 7c 05 be a9 7e 39 3c e1 2a 17 3d 92 f1 dc bd
       -0.13035847 0.011321702 0.036906127 -0.107882634
0002b0 37 34 b5 bc ab c1 48 3e ff fe 40 3e bd 45 f4 bd
       -0.022119625 0.19605128 0.18847273 -0.11927364
0002c0 e7 5c 06 3d a6 db fb 3c 64 7b d3 3d de 4b db bb
       0.032803442 0.030744385 0.10326269 -0.0066923937
0002d0 e9 dc 2a 3e f8 64 82 3c cb 80 25 3e 70 38 d8 bd
       0.16685833 0.015917286 0.16162412 -0.105576396
0002e0 80 71 23 be 87 07 f6 bd ac 9e e5 bd 4b 70 eb bc
       -0.15961266 -0.120131545 -0.11211905 -0.028740069
0002f0 b5 57 00 3d a2 d8 b3 3a 01 9c 6b 3d 04 27 7f bd
       0.031333644 0.0013721178 0.057521824 -0.062293068
000300 e2 95 e7 bd ec c3 8c bd 95 ce 88 3d a8 67 b8 bd
       -0.11307885 -0.06873307 0.066800274 -0.09004146
000310 ea 09 0c be f6 c2 36 be 23 7e f3 3d 98 7d b6 3b
       -0.13675657 -0.17847809 0.11889293 0.005569171
000320 bb e8 b3 bd 79 c6 78 bd b9 d0 ce 3d f8 c0 e6 bd
       -0.08784624 -0.060736153 0.100984044 -0.112672746
000330 ca f8 61 3d 5a 22 a6 bd 4a 79 34 3e 86 9c 70 3d
       0.055168904 -0.08112021 0.17624393 0.058743022
000340 32 11 94 3d 84 2f 66 3d 20 35 1b be 45 6d 1f 3e
       0.07229842 0.05619766 -0.15156984 0.15569027
000350 24 72 85 bc 6a 12 f5 bd 57 0e 89 3d 20 0d d5 3d
       -0.016289778 -0.11966403 0.06692188 0.10402894
000360 4b 10 6c 3c e6 da 42 be b7 93 ce 3d af 42 3d 3e
       0.014408181 -0.19028816 0.10086768 0.18482469
000370 5e 1e 50 bd e8 2a 05 be d6 34 9d bd 00 14 21 be
       -0.05081021 -0.13004649 -0.07676093 -0.15730286
000380 78 23 2d 3b 70 81 2f bd a2 c4 c3 3d ae 61 86 3d
       0.0026418846 -0.04284805 0.09558989 0.065616
000390 1d fb 06 be 1c e2 a2 3c eb 66 12 be ad 64 22 3e
       -0.1318173 0.019883208 -0.14297073 0.15858717
0003a0 bc ae 31 be 11 5a 8d 3d 2d 56 af 3d 04 51 80 3d
       -0.17351812 0.069019444 0.085613586 0.062654525
0003b0 8e ab 16 3d 41 b9 52 be b2 51 88 bd 4f 8e 59 3d
       0.0367847 -0.20578481 -0.06656207 0.05311423
0003c0 a3 16 3a be 5d 9a be bd 05 9c f6 3d 86 cf 05 3e
       -0.18172698 -0.09306786 0.12041477 0.13067445
0003d0 28 53 7a 3d f3 e5 1b 3e f0 de 0c bc ba 80 7d 3d
       0.06111446 0.15224437 -0.008598074 0.06189034
0003e0 99 80 25 be 7d de 30 3e a7 99 f1 bc c3 7a 2d 3e
       -0.16162337 0.17272373 -0.029492212 0.16941361
0003f0 38 9f 18 3e c3 60 4e 3d 9b 5d eb bd a3 9f b4 bc
       0.14904487 0.050385248 -0.11492463 -0.022048777
