weights/simple_ICNN_unrolling.pt (torch, 100030 bytes, 32 tensors)

icnn.wz.0.weight f4 [16, 16, 5, 5]
0	0x3c82be2a	0.015959818
1	0x3d1c5d0c	0.038174674
2	0x3d816501	0.06318093
3	0x3c964980	0.018345594
4	0x3cbdce70	0.023169726
5	0x3c477be4	0.012175534
6	0x3c57a961	0.013162942
7	0x3d0d4bba	0.034496047
8	0x3cc1a82f	0.023639766
9	0x3d136492	0.035984583
10	0x3cd357fa	0.025798786
11	0x3d5f6efd	0.054549206
12	0x3d1bccb8	0.038037032
13	0x3d6b3bf4	0.057430223
14	0x3d7177a8	0.058952004
15	0x3ca1db92	0.01975802
16	0x3ca4748a	0.020075101
17	0x3d841d87	0.064509444
18	0x3c9aa70a	0.018878479
19	0x3cc976a4	0.024592705
20	0x3c9b5640	0.018962026
21	0x3ca20969	0.019779878
22	0x3c9a90bb	0.018867841
23	0x3ca082f4	0.019593693
24	0x3cb75f62	0.02238435
25	0x3d6a9119	0.057267282
26	0x3d85ade5	0.065273084
27	0x3cbdc026	0.023162913
28	0x3c72035a	0.014771307
29	0x3d8c3fec	0.0684813
30	0x3c299b3b	0.010351951
31	0x3d34b93a	0.04412196
32	0x3ce4915f	0.02790135
33	0x3c615dc9	0.01375527
34	0x3cdae413	0.026720082
35	0x3d1df583	0.038564216
36	0x3cf76206	0.030198108
37	0x3d379f93	0.044829916
38	0x3c409fe5	0.011756872
39	0x3c8ba8af	0.017048208
40	0x3b25e888	0.0025315601
41	0x3c8945c2	0.016756896
42	0x3c7e2e3f	0.015513956
43	0x3b24b724	0.0025133574
44	0x3cd3ab31	0.025838466
45	0x3c42f874	0.011900056
46	0x3d152297	0.03640994
47	0x3c99a75e	0.018756565
48	0x3d07e266	0.033174895
49	0x3cde7dbf	0.02715957
50	0x3d1631a1	0.036668424
51	0x3d79ed5d	0.061017383
52	0x3d277ec9	0.040892396
53	0x3c8fcd4a	0.017553944
54	0x3ce1bc94	0.027555741
55	0x3c6ecf58	0.014575802
56	0x00000000	0.0
57	0x00000000	0.0
58	0x3ca69447	0.020334376
59	0x00000000	0.0
60	0x00000000	0.0
61	0x00000000	0.0
62	0x00000000	0.0
63	0x3ae6fbf5	0.0017622696
64	0x3d44ed38	0.048077792
65	0x3d8e7484	0.06955817
66	0x3c8a4855	0.016880194
67	0x3ca9fd8d	0.020750785
68	0x3d003390	0.031299174
69	0x3da4edc3	0.08053162
70	0x3cd40f36	0.02588616
71	0x3c8f96b7	0.017527921
72	0x3ca391dd	0.019967014
73	0x3ce86320	0.028367579
74	0x3cd29aab	0.025708517
75	0x3d0a5cf4	0.033780053
76	0x3bc71cd7	0.006076436
77	0x3cc2a220	0.023758948
78	0x3c0af974	0.008482326
79	0x3c52c0ae	0.012863321
80	0x3b869f84	0.004108371
81	0x3cfeccd7	0.031103535
82	0x00000000	0.0
83	0x3bd65877	0.0065413075
84	0x3c348ca0	0.011019856
85	0x3c24baa7	0.010054267
86	0x00000000	0.0
87	0x00000000	0.0
88	0x3c1d7d93	0.009612459
89	0x3c4fb811	0.012678162
90	0x00000000	0.0
91	0x00000000	0.0
92	0x00000000	0.0
93	0x3ab85da5	0.0014065994
94	0x3c2a6f21	0.010402472
95	0x3bd16a0b	0.006390815
96	0x3984bfe7	0.0002531998
97	0x3d00340d	0.03129964
98	0x3bd74a1f	0.006570115
99	0x3d0f5502	0.03499318
100	0x3cbdb7bc	0.0231589
101	0x3c57b562	0.013165804
102	0x3bca986a	0.00618272
103	0x3cac82ab	0.021058401
104	0x3cd557ec	0.026042901
105	0x3cedd7b1	0.029033514
106	0x3c32eb55	0.010920365
107	0x3bcb9e6b	0.0062139533
108	0x3ccaa8c4	0.024738677
109	0x3c87e671	0.016589375
110	0x3d34b763	0.044120204
111	0x3c6d4705	0.014482264
112	0x3a748eb4	0.0009329126
113	0x3c75f32a	0.015011588
114	0x3c695313	0.014240998
115	0x3ca4808e	0.02008083
116	0x3d1b9904	0.037987724
117	0x3c7f8d0a	0.015597591
118	0x3d3c4a7e	0.04596948
119	0x3c708c85	0.01468194
120	0x3d5af83b	0.053459387
121	0x3bf5d8a3	0.0075026317
122	0x3c13663a	0.008996541
123	0x3d0d42e6	0.034487627
124	0x3c90634b	0.017625472
125	0x00000000	0.0
126	0x00000000	0.0
127	0x00000000	0.0
128	0x3b94c56b	0.0045401356
129	0x00000000	0.0
130	0x3d247c37	0.040157523
131	0x3b110bb7	0.0022132227
132	0x00000000	0.0
133	0x3d1e74e5	0.038685698
134	0x3b70f47c	0.0036766818
135	0x3b03a845	0.002008931
136	0x3b9827d5	0.00464342
137	0x00000000	0.0
138	0x00000000	0.0
139	0x3c3460d7	0.011009417
140	0x3caf256c	0.021380149
141	0x3b445a28	0.0029960964
142	0x00000000	0.0
143	0x3d17cbc8	0.037059575
144	0x3d246a98	0.04014072
145	0x3cb36521	0.021898808
146	0x3cfc5825	0.03080375
147	0x00000000	0.0
148	0x3c850d2a	0.016241629
149	0x3d45da8a	0.04830412
150	0x00000000	0.0
151	0x00000000	0.0
152	0x00000000	0.0
153	0x00000000	0.0
154	0x00000000	0.0
155	0x00000000	0.0
156	0x00000000	0.0
157	0x00000000	0.0
158	0x00000000	0.0
159	0x00000000	0.0
160	0x00000000	0.0
161	0x00000000	0.0
162	0x00000000	0.0
163	0x00000000	0.0
164	0x00000000	0.0
165	0x00000000	0.0
166	0x00000000	0.0
167	0x00000000	0.0
168	0x00000000	0.0
169	0x00000000	0.0
170	0x00000000	0.0
171	0x00000000	0.0
172	0x00000000	0.0
173	0x00000000	0.0
174	0x00000000	0.0
175	0x3d1429a2	0.036172517
176	0x3d45e7c6	0.04831674
177	0x3d594a29	0.05304924
178	0x3c9877de	0.018611845
179	0x3cdc651b	0.02690368
180	0x3cdc001f	0.026855526
181	0x3cc28b11	0.023747953
182	0x3d27cd76	0.040967427
183	0x3c5a523f	0.013325273
184	0x3c6603f6	0.01403903
185	0x3d098ee1	0.033583526
186	0x3d9cdcf4	0.07659331
187	0x3c8a8f01	0.016913893
188	0x3cb9c9b7	0.022679193
189	0x3c93246b	0.017961701
190	0x3d9b77d6	0.07591216
191	0x3d6e9efc	0.058257088
192	0x3cb14681	0.021640064
193	0x3cdc5d43	0.02689994
194	0x3d6b8c9b	0.05750714
195	0x3d1fe8a8	0.039040238
196	0x3d86fcbf	0.06591176
197	0x3d0ec79a	0.034858324
198	0x3cdab1b8	0.026696071
199	0x3cba92b4	0.022775032
200	0x3bc3162c	0.005953571
201	0x3d462c72	0.04838223
202	0x3ce1efc4	0.02758015
203	0x3d8048c3	0.06263878
204	0x3d8fc4f3	0.07019987
205	0x00000000	0.0
206	0x3d046426	0.03232207
207	0x3c960c3b	0.018316379
208	0x3cd7b63e	0.026332017
209	0x3cde67b1	0.027149053
210	0x3c87c205	0.016572008
211	0x3c10b0fe	0.008831261
212	0x3d587427	0.052845147
213	0x3d84bd8c	0.06481466
214	0x3cfdb4dd	0.030970031
215	0x3c1be4a8	0.009514965
216	0x3c0ae2d2	0.00847693
217	0x3d669f12	0.056304045
218	0x3d4d03f5	0.0500526
219	0x3d6dcc4e	0.05805617
220	0x3bddafb1	0.006765329
221	0x3a89ccb1	0.0010513273
222	0x3ce89602	0.028391842
223	0x3cec88d6	0.028873842
224	0x3d81d4d9	0.063394256
225	0x00000000	0.0
226	0x338f1a21	6.663709e-08
227	0x341cdccc	1.4608958e-07
228	0x3c683fd1	0.014175371
229	0x3c21e206	0.009880548
230	0x00000000	0.0
231	0x349fc8f1	2.9762262e-07
232	0x00000000	0.0
233	0x32e67e42	2.683294e-08
234	0x00000000	0.0
235	0x00000000	0.0
236	0x00000000	0.0
237	0x00000000	0.0
238	0x00000000	0.0
239	0x00000000	0.0
240	0x00000000	0.0
241	0x00000000	0.0
242	0x00000000	0.0
243	0x00000000	0.0
244	0x00000000	0.0
245	0x00000000	0.0
246	0x00000000	0.0
247	0x00000000	0.0
248	0x35091eb1	5.108114e-07
249	0x00000000	0.0
250	0x00000000	0.0
251	0x00000000	0.0
252	0x00000000	0.0
253	0x00000000	0.0
254	0x00000000	0.0
255	0x00000000	0.0

icnn.wz.1.weight f4 [16, 16, 5, 5]
0	0x00000000	0.0
1	0x00000000	0.0
2	0x00000000	0.0
3	0x00000000	0.0
4	0x00000000	0.0
5	0x00000000	0.0
6	0x00000000	0.0
7	0x00000000	0.0
8	0x00000000	0.0
9	0x00000000	0.0
10	0x00000000	0.0
11	0x00000000	0.0
12	0x00000000	0.0
13	0x00000000	0.0
14	0x00000000	0.0
15	0x00000000	0.0
16	0x00000000	0.0
17	0x00000000	0.0
18	0x00000000	0.0
19	0x00000000	0.0
20	0x00000000	0.0
21	0x00000000	0.0
22	0x00000000	0.0
23	0x00000000	0.0
24	0x00000000	0.0
25	0x00000000	0.0
26	0x00000000	0.0
27	0x00000000	0.0
28	0x00000000	0.0
29	0x00000000	0.0
30	0x00000000	0.0
31	0x00000000	0.0
32	0x00000000	0.0
33	0x00000000	0.0
34	0x00000000	0.0
35	0x00000000	0.0
36	0x00000000	0.0
37	0x00000000	0.0
38	0x00000000	0.0
39	0x00000000	0.0
40	0x00000000	0.0
41	0x00000000	0.0
42	0x00000000	0.0
43	0x00000000	0.0
44	0x00000000	0.0
45	0x00000000	0.0
46	0x00000000	0.0
47	0x00000000	0.0
48	0x00000000	0.0
49	0x00000000	0.0
50	0x00000000	0.0
51	0x00000000	0.0
52	0x00000000	0.0
53	0x00000000	0.0
54	0x00000000	0.0
55	0x00000000	0.0
56	0x00000000	0.0
57	0x00000000	0.0
58	0x00000000	0.0
59	0x00000000	0.0
60	0x00000000	0.0
61	0x00000000	0.0
62	0x00000000	0.0
63	0x00000000	0.0
64	0x00000000	0.0
65	0x00000000	0.0
66	0x00000000	0.0
67	0x00000000	0.0
68	0x00000000	0.0
69	0x00000000	0.0
70	0x00000000	0.0
71	0x00000000	0.0
72	0x00000000	0.0
73	0x00000000	0.0
74	0x00000000	0.0
75	0x3cf0b8c6	0.029384982
76	0x3ce91cfa	0.0284562
77	0x3d0ab69e	0.033865564
78	0x3ce50136	0.027954679
79	0x3cea04ee	0.028566804
80	0x3d20a593	0.039220404
81	0x3d3be204	0.045869842
82	0x3cdad978	0.026715025
83	0x3cdc7844	0.026912816
84	0x3d302b5f	0.043010112
85	0x3d741cd2	0.059597798
86	0x3cdd94a0	0.027048409
87	0x3d01f52c	0.031727955
88	0x3cf65a7f	0.030072449
89	0x3cdaba4f	0.026700167
90	0x3ce34afa	0.027745713
91	0x3cdbd209	0.026833551
92	0x3cd604de	0.026125368
93	0x3d5d9c53	0.05410416
94	0x3cd85931	0.026409717
95	0x3d1b0720	0.03784859
96	0x3d9015ee	0.07035433
97	0x3d774375	0.060367066
98	0x3cf80229	0.030274468
99	0x3cdf0eb5	0.027228693
100	0x3da7dbbd	0.081962086
101	0x3d5f8ed1	0.05457956
102	0x3d5e9d72	0.05434937
103	0x3d686f8f	0.056747016
104	0x3d61e88e	0.055153422
105	0x3da9dec8	0.08294445
106	0x3dd1d2c8	0.102452815
107	0x3d5c621a	0.053804494
108	0x3d7b8b1f	0.061411973
109	0x3d5ff763	0.054679286
110	0x3d749a8c	0.0597177
111	0x3d5cccd7	0.053906288
112	0x3d5c6a68	0.053812414
113	0x3d5ca5c5	0.053869028
114	0x3d5ed07d	0.05439805
115	0x3d6096f3	0.054831456
116	0x3dc0b9cc	0.09410438
117	0x3d5cbde9	0.05389205
118	0x3dc0d5b6	0.09415762
119	0x3db70600	0.08936691
120	0x3da8a1d4	0.08233991
121	0x3d68e5ce	0.056859784
122	0x3d5e6ac8	0.054301053
123	0x3d734ecb	0.059401315
124	0x3da0b7a6	0.07847528
125	0x00000000	0.0
126	0x00000000	0.0
127	0x00000000	0.0
128	0x3cc1777e	0.023616549
129	0x00000000	0.0
130	0x00000000	0.0
131	0x00000000	0.0
132	0x00000000	0.0
133	0x00000000	0.0
134	0x00000000	0.0
135	0x00000000	0.0
136	0x3bb1ca8c	0.005425757
137	0x00000000	0.0
138	0x00000000	0.0
139	0x3ca244c1	0.019808175
140	0x00000000	0.0
141	0x00000000	0.0
142	0x00000000	0.0
143	0x00000000	0.0
144	0x3c01476a	0.007890562
145	0x00000000	0.0
146	0x00000000	0.0
147	0x3c48a86f	0.012247189
148	0x00000000	0.0
149	0x00000000	0.0
150	0x00000000	0.0
151	0x00000000	0.0
152	0x00000000	0.0
153	0x00000000	0.0
154	0x00000000	0.0
155	0x00000000	0.0
156	0x00000000	0.0
157	0x00000000	0.0
158	0x00000000	0.0
159	0x00000000	0.0
160	0x00000000	0.0
161	0x00000000	0.0
162	0x00000000	0.0
163	0x00000000	0.0
164	0x00000000	0.0
165	0x00000000	0.0
166	0x00000000	0.0
167	0x00000000	0.0
168	0x00000000	0.0
169	0x00000000	0.0
170	0x00000000	0.0
171	0x00000000	0.0
172	0x00000000	0.0
173	0x00000000	0.0
174	0x00000000	0.0
175	0x3db7ec86	0.0898066
176	0x3d6195b0	0.055074394
177	0x3dbf7f9f	0.09350514
178	0x3d971b70	0.0737828
179	0x3dc3e6e9	0.09565527
180	0x3db934de	0.09043287
181	0x3d9e492f	0.077288024
182	0x3d9fc037	0.07800334
183	0x3d600c75	0.05469938
184	0x3db63d7f	0.08898448
185	0x3dcb799f	0.09935307
186	0x3dbff96d	0.09373746
187	0x3d5de86c	0.054176733
188	0x3d5efead	0.054442097
189	0x3d61c947	0.055123594
190	0x3d611c4a	0.05495862
191	0x3d5f0579	0.05444858
192	0x3d8bb541	0.06821681
193	0x3dc44c42	0.095848575
194	0x3d62f395	0.05540808
195	0x3dcaa9d2	0.09895672
196	0x3d617c1c	0.05505
197	0x3d85e309	0.06537444
198	0x3d62a531	0.05533332
199	0x3d64b5ef	0.055837568
200	0x3dfabbaf	0.12242829
201	0x3da15b55	0.07878748
202	0x3de6a347	0.112616114
203	0x3dc7e775	0.09760944
204	0x3da2cdfd	0.079494454
205	0x3da182ef	0.07886302
206	0x3dedd51b	0.11612912
207	0x3db5808e	0.088624105
208	0x3dd1f6c8	0.10252148
209	0x3da22d3f	0.07918786
210	0x3e010808	0.1260072
211	0x3da02588	0.078196585
212	0x3dca1abe	0.09868382
213	0x3dca76b8	0.09885925
214	0x3da10942	0.07863094
215	0x3da1d60c	0.07902154
216	0x3df2fa12	0.118641034
217	0x3da0a36f	0.078436725
218	0x3da0bf03	0.078489326
219	0x3da38289	0.07983882
220	0x3da3f872	0.080063716
221	0x3db3658d	0.08759604
222	0x3db74baf	0.089499824
223	0x3da2cbf8	0.0794906
224	0x3ddee847	0.10884147
225	0x00000000	0.0
226	0x00000000	0.0
227	0x00000000	0.0
228	0x00000000	0.0
229	0x00000000	0.0
230	0x00000000	0.0
231	0x00000000	0.0
232	0x00000000	0.0
233	0x00000000	0.0
234	0x00000000	0.0
235	0x00000000	0.0
236	0x00000000	0.0
237	0x00000000	0.0
238	0x00000000	0.0
239	0x00000000	0.0
240	0x00000000	0.0
241	0x00000000	0.0
242	0x00000000	0.0
243	0x00000000	0.0
244	0x00000000	0.0
245	0x00000000	0.0
246	0x00000000	0.0
247	0x00000000	0.0
248	0x00000000	0.0
249	0x00000000	0.0
250	0x3c95ac3c	0.018270604
251	0x3d127fa6	0.035766266
252	0x3c915c09	0.017744081
253	0x3cdaf27e	0.026726957
254	0x3c9aaebe	0.018882152
255	0x3d6fcd56	0.058545433

icnn.wz.2.weight f4 [16, 16, 5, 5]
0	0x3cd3464a	0.025790352
1	0x3cd1538c	0.025552534
2	0x3cd0d4bd	0.025492067
3	0x3d695f71	0.056975786
4	0x3cd2e9b1	0.025746198
5	0x3d9a42a4	0.07532242
6	0x3ccffb4d	0.025388384
7	0x3d2659e6	0.040613078
8	0x3d84092b	0.06447061
9	0x3d41af84	0.047286525
10	0x3d41508f	0.047195967
11	0x3ccf9f43	0.025344497
12	0x3ccf3ea3	0.025298422
13	0x3ccf98e6	0.025341462
14	0x3d37c1ce	0.04486256
15	0x3cdd79c1	0.027035596
16	0x3ccfd53f	0.025370238
17	0x3ccf7624	0.025324889
18	0x3d730096	0.05932673
19	0x3cd106b9	0.0255159
20	0x3d3244b0	0.043522537
21	0x3cd0fd96	0.025511544
22	0x3cd06a16	0.02544121
23	0x3cd0c7cc	0.025485896
24	0x3d9a0dce	0.07522164
25	0x3d7e35d2	0.062063046
26	0x3cde3bd2	0.027128134
27	0x3cddda60	0.027081668
28	0x3cde7012	0.027153049
29	0x3d482277	0.048860993
30	0x3d5273a7	0.051379826
31	0x3cdd0f7a	0.026984919
32	0x3cdc9bfc	0.026929848
33	0x3cdcf8b7	0.026974065
34	0x3d20f071	0.039291803
35	0x3cddb9dd	0.027066166
36	0x3cdc66af	0.026904432
37	0x3cdbe47d	0.02684235
38	0x3d80f338	0.0629639
39	0x3cf05e20	0.029341757
40	0x3d8c96c0	0.06864691
41	0x3d85f478	0.06540769
42	0x3cdc0f72	0.026862834
43	0x3d8d4460	0.06897807
44	0x3d822dbb	0.06356379
45	0x3cdf3ae1	0.027249755
46	0x3cdd8e2f	0.027045337
47	0x3d63f22d	0.05565088
48	0x3d650523	0.055913102
49	0x3cdee09c	0.027206711
50	0x3cec4c73	0.028845048
51	0x3d3f2ee8	0.046675593
52	0x3d802524	0.06257084
53	0x3cea259b	0.028582385
54	0x3d3ff1e4	0.046861544
55	0x3d7e58e0	0.062096477
56	0x3ce956f3	0.028483843
57	0x3d473877	0.048637833
58	0x3ce94b2f	0.028478233
59	0x3d9981ef	0.07495486
60	0x3ceaa2a1	0.028642
61	0x3ce907d6	0.02844612
62	0x3d2caac1	0.04215503
63	0x3d5e2ed0	0.054243863
64	0x3d46eb6e	0.048564367
65	0x3d7d7a32	0.061884113
66	0x3d033ac8	0.03203848
67	0x3d4ba481	0.04971743
68	0x3ce91caa	0.02845605
69	0x3d5537e4	0.052055255
70	0x3d13b3a0	0.036059976
71	0x3cea1131	0.02857265
72	0x3ce99f65	0.028518388
73	0x3ce9e373	0.028550839
74	0x3d28778e	0.04112964
75	0x3d5d60ef	0.05404752
76	0x3cd1b86f	0.02560064
77	0x3cd12f77	0.025535328
78	0x3cd1651a	0.025560904
79	0x3d44371a	0.04790411
80	0x3cd234c3	0.025659924
81	0x3d82036f	0.06348311
82	0x3cd03040	0.025413632
83	0x3cd05b8a	0.025434274
84	0x3cd17a04	0.025570877
85	0x3cf1764f	0.02947536
86	0x3d1785a9	0.036992703
87	0x3d40ae24	0.047041073
88	0x3cd02396	0.025407594
89	0x3cd11588	0.025522962
90	0x3d869e4a	0.0657316
91	0x3cfd9376	0.030954104
92	0x3cd01d12	0.025404487
93	0x3cd04219	0.025422143
94	0x3d214d0f	0.03938013
95	0x3d63994c	0.055566117
96	0x3cd15bc7	0.025556458
97	0x3cd0d7eb	0.025493583
98	0x3d4c2c5b	0.04984699
99	0x3cd269cf	0.02568522
100	0x3ce2d551	0.027689608
101	0x3d5b936c	0.05360739
102	0x3ce0bbfb	0.027433386
103	0x3ce107a3	0.027469462
104	0x3d913ae6	0.07091312
105	0x3d9943d8	0.07483643
106	0x3d317151	0.043320958
107	0x3cdfdf91	0.027328284
108	0x3cdff254	0.02733723
109	0x3ce160f3	0.02751205
110	0x3ce13804	0.02749253
111	0x3cdffa6f	0.027341096
112	0x3d9df677	0.07713025
113	0x3ceb4a91	0.02872208
114	0x3ce0d8dc	0.027447157
115	0x3ce123b1	0.02748284
116	0x3cdfd806	0.027324688
117	0x3cdf79f5	0.027279833
118	0x3d582d72	0.052777715
119	0x3ce0de24	0.027449675
120	0x3ce24c60	0.027624309
121	0x3ce08817	0.027408643
122	0x3ce023e5	0.027360866
123	0x3d873a6c	0.0660294
124	0x3d9a0c6b	0.075219
125	0x3cc590bf	0.024116872
126	0x3d76ce9f	0.060255643
127	0x3cc3c83c	0.02389919
128	0x3cc41d51	0.02393976
129	0x3cc5c233	0.024140453
130	0x3cc48593	0.023989474
131	0x3cc35994	0.023846425
132	0x3cc654b9	0.02421032
133	0x3d711dcd	0.05886631
134	0x3d4ae6eb	0.049536627
135	0x3d78a029	0.060699616
136	0x3cc3120b	0.023812314
137	0x3cc2c903	0.02377749
138	0x3d962a64	0.07332304
139	0x3cc41c60	0.023939312
140	0x3cc44908	0.023960605
141	0x3d42d645	0.047567625
142	0x3d9072d2	0.0705315
143	0x3d85fa36	0.065418646
144	0x3cc44991	0.02396086
145	0x3cc5749e	0.024103459
146	0x3d6d3442	0.057911165
147	0x3cc39398	0.02387409
148	0x3cc3e2e4	0.0239119
149	0x3cc55db8	0.02409254
150	0x3d7e6a7d	0.062113274
151	0x3d7aa452	0.061191864
152	0x3cd6ed47	0.02623619
153	0x3cd785fb	0.026309004
154	0x3cd8e475	0.026476124
155	0x3cf18ad4	0.029485144
156	0x3cd681be	0.026184913
157	0x3cd631a1	0.026146712
158	0x3cff9648	0.03119959
159	0x3cd77054	0.02629868
160	0x3cd77555	0.026301065
161	0x3cd5e0bf	0.026108144
162	0x3d49a029	0.049225006
163	0x3d98e563	0.07465627
164	0x3d6c4c59	0.05769
165	0x3cd7a27a	0.026322592
166	0x3cd646cc	0.026156805
167	0x3d2665c3	0.04062439
168	0x3d914967	0.070940785
169	0x3d64f894	0.055901125
170	0x3cd87feb	0.026428184
171	0x3cd71c7e	0.026258703
172	0x3cd6ac39	0.026205169
173	0x3d410279	0.0471215
174	0x3d8d47e0	0.06898475
175	0x3d0c248b	0.034214538
176	0x3d030283	0.031984817
177	0x3cd114cc	0.025522612
178	0x3d8d2df5	0.06893531
179	0x3cd2f869	0.025753217
180	0x3d6559e5	0.055993933
181	0x3d769d49	0.060208593
182	0x3d8b6295	0.068059124
183	0x3cd04a3c	0.025426023
184	0x3d0e61e7	0.034761336
185	0x3d3c7133	0.046006393
186	0x3d910ac6	0.07082133
187	0x3ccfad05	0.025351057
188	0x3d696efd	0.056990612
189	0x3cd1085c	0.025516681
190	0x3cd19e38	0.02558814
191	0x3d729aa5	0.05922951
192	0x3cf0f725	0.029414723
193	0x3cd0199f	0.025402842
194	0x3cd13c30	0.025541395
195	0x3d20563a	0.039144732
196	0x3cd136cc	0.025538824
197	0x3d179c18	0.037014097
198	0x3cd11eaf	0.025527326
199	0x3d3334ff	0.043751713
200	0x3d902596	0.07038419
201	0x3ce9aa7a	0.028523672
202	0x3ce943bb	0.02847468
203	0x3ce9ad34	0.028524972
204	0x3ceaf08c	0.028679155
205	0x3d924e31	0.0714382
206	0x3ce86e19	0.028372811
207	0x3d3bf214	0.04588516
208	0x3d467cc2	0.048458822
209	0x3d890837	0.0669102
210	0x3d8e2b23	0.069418214
211	0x3d3925d3	0.045202088
212	0x3ce801e4	0.028321214
213	0x3cfa6e4c	0.030570172
214	0x3ce8eac6	0.028432261
215	0x3ce92e63	0.028464502
216	0x3d7fad06	0.062420867
217	0x3ce7ccf1	0.028295966
218	0x3ce805ac	0.028323017
219	0x3d4b0147	0.049561765
220	0x3d957b6d	0.07298932
221	0x3d291246	0.041277193
222	0x3ce8a377	0.028398259
223	0x3ce8b6eb	0.028407535
224	0x3d020df8	0.031751603
225	0x3d012717	0.03153142
226	0x3d69322d	0.056932617
227	0x3d69a747	0.057044294
228	0x3cff86b9	0.03119217
229	0x3d37e176	0.04489275
230	0x3cfff8cc	0.031246565
231	0x3cfd1ed8	0.030898497
232	0x3cfbec09	0.030752199
233	0x3d9eb725	0.07749776
234	0x3d235b4e	0.039881997
235	0x3cff1e42	0.031142358
236	0x3d8725d8	0.06599015
237	0x3d48aa64	0.048990622
238	0x3cfb9637	0.030711276
239	0x3d773aba	0.06035874
240	0x3d39ef47	0.04539421
241	0x3d226b80	0.0396533
242	0x3cfb609d	0.030685717
243	0x3cfc3123	0.030785149
244	0x3cfebee5	0.031096885
245	0x3d7888c0	0.06067729
246	0x3d6d4f44	0.05793692
247	0x3d47de75	0.048796136
248	0x3cfe618b	0.031052371
249	0x3da287a6	0.07936029
250	0x3d2f8dea	0.04285995
251	0x3ce7b446	0.028284203
252	0x3d0e3387	0.03471711
253	0x3d9923b6	0.074775144
254	0x3d9213ec	0.07132706
255	0x3d5e7392	0.054309435

icnn.wx_quad.0.weight f4 [16, 1, 5, 5]
0	0x3e8baca7	0.2728016
1	0x3e7cdb95	0.24693139
2	0xbea8d860	-0.3297758
3	0xbe764e18	-0.24053228
4	0x3d8cfbeb	0.06883987
5	0xbe384332	-0.17994383
6	0xbcb69b15	-0.022290746
7	0x3e35dc45	0.17759807
8	0xbe39d7fb	-0.18148796
9	0x3e4a07e6	0.19729576
10	0xbd8f2317	-0.06989115
11	0x3e88fabd	0.26753798
12	0xbdfb7fb6	-0.12280218
13	0x3e584b58	0.21122491
14	0x3cb57570	0.022150725
15	0xbd3657de	-0.04451739
16	0xbe44e254	-0.19226962
17	0xbe323df4	-0.17406446
18	0x3d1ef145	0.03880431
19	0xbd7f7d4e	-0.06237536
20	0xbe28e244	-0.16492563
21	0x3e18a2a4	0.14905792
22	0x3eb2b7e6	0.34905928
23	0xbeb00b67	-0.343837
24	0x3e0647e2	0.13113359
25	0xbddccf1d	-0.10781691
26	0x3da8f51f	0.08249878
27	0x3dab1f60	0.08355594
28	0x3d697421	0.056995515
29	0x3d3e7ce4	0.046505824
30	0x3dd5ffd8	0.10449189
31	0xbd800810	-0.06251538
32	0xbe66c86b	-0.22537391
33	0x3e7ff3d1	0.24995352
34	0xbe84f9c0	-0.25971794
35	0xbd2abbff	-0.041683193
36	0xbe248f17	-0.1607021
37	0x3d20e4d5	0.03928073
38	0xbbd5cc4a	-0.0065245973
39	0x3e06f7d7	0.13180481
40	0x3e48f61d	0.19625135
41	0xbe51402e	-0.20434639
42	0x3a8b63f3	0.0010634646
43	0x3e41e132	0.18933561
44	0xbe61d97b	-0.22055618
45	0x3cfb1a55	0.030652205
46	0x3e156936	0.14590916
47	0xbda544ce	-0.08069764
48	0xbd7a3afb	-0.061091404
49	0x3d8d0053	0.068848275
50	0x3e172a5a	0.1476225
51	0xbe3d83f1	-0.18507363
52	0x3d889efb	0.06670948
53	0x3e3552bf	0.17707346
54	0x3d24c780	0.04022932
55	0xbe807d08	-0.2509539
56	0xbe20caa0	-0.15702295
57	0xbd336f23	-0.04380716
58	0x3cae8d45	0.021307597
59	0xbd1c983c	-0.03823112
60	0x3e7fa689	0.24965872
61	0x3de7abfc	0.113121
62	0x3e85047a	0.25979978
63	0xbea758ff	-0.32685086
64	0x3c091045	0.008365695
65	0xbeb45147	-0.3521826
66	0x3e81b8f7	0.2533643
67	0xbe9fcecc	-0.3121246
68	0x3eb43a64	0.352008
69	0xbe1f2848	-0.1554271
70	0x3e5d978e	0.21639845
71	0x3c8aadf0	0.016928643
72	0xbe38c3a6	-0.18043384
73	0xbd00dcb7	-0.03146049
74	0x3dfbfeda	0.123044685
75	0xbe6d44e8	-0.23170817
76	0x3d6ba71c	0.057532415
77	0x3dd58b35	0.10426942
78	0x3cd943d9	0.02652161
79	0x3e0a5908	0.13510525
80	0x3df750dd	0.1207597
81	0x3b49217d	0.0030690127
82	0x3d4eebd4	0.050517872
83	0xbd16b11d	-0.036790002
84	0xbe705dd0	-0.23473287
85	0xbe095d6e	-0.13414547
86	0x3e310734	0.17287904
87	0xbde6998f	-0.11259758
88	0xbe137883	-0.1440144
89	0x3e305b81	0.17222406
90	0xbd4cd54d	-0.050008107
91	0xbd8277e0	-0.063705206
92	0x3dce8662	0.10084225
93	0x3e136254	0.14392978
94	0xbd510520	-0.05103028
95	0x3e2e2cef	0.17009328
96	0x3e437a0a	0.19089523
97	0xbe85a83e	-0.2610492
98	0xbe41909a	-0.18902817
99	0x3e030aab	0.12797038
100	0xbd006f2a	-0.031356014
101	0xbe841962	-0.25800616
102	0x3e58f6cb	0.21187894
103	0x3e371810	0.17880273
104	0x3d3afcc2	0.045651205
105	0x3e40c4d1	0.1882508
106	0x3d384518	0.044987768
107	0xbdd8fcd4	-0.10595098
108	0xbea62fe9	-0.32458428
109	0xbdbe479b	-0.092910014
110	0x3e0010f8	0.12506473
111	0xbec22a1c	-0.37922752
112	0x3e7ee3fd	0.24891658
113	0x3b59098f	0.003311727
114	0x3e1a7101	0.1508217
115	0xbb89d0ba	-0.0042057903
116	0x3e607245	0.2191859
117	0xbe5e1659	-0.21688212
118	0x3e75e3e0	0.24012709
119	0xbe321b99	-0.1739334
120	0xbe863a0c	-0.2621616
121	0x3e871137	0.2638032
122	0x3a0dfadd	0.00054161047
123	0xbe1bf473	-0.15229969
124	0x3da22491	0.07917131
125	0x3dbef750	0.09324515
126	0xbe863607	-0.26213095
127	0x3e1c3ead	0.15258284
128	0xbdab0ba5	-0.083518304
129	0xbd0718f0	-0.032982767
130	0xbdaeefda	-0.08541842
131	0x3eb96373	0.36208686
132	0x3db033f7	0.086036615
133	0xbe0424dd	-0.12904687
134	0x3df71b14	0.120657116
135	0xbe26d0da	-0.16290608
136	0xbdda58f7	-0.106615
137	0x3eb6e864	0.35724175
138	0xbe8f8243	-0.2802907
139	0x3e281e05	0.16417702
140	0xbe504753	-0.20339708
141	0xbe00bfae	-0.1257312
142	0xbe8495ef	-0.2589564
143	0x3de79bf6	0.11309044
144	0x3dd70a32	0.104999915
145	0x3e9a39d6	0.3012225
146	0x3c85bfae	0.016326752
147	0x3e5d79cb	0.21628492
148	0xbe6927ae	-0.22769043
149	0xbdf19f81	-0.11798001
150	0x3da1f503	0.079080604
151	0x3e09afc8	0.13445961
152	0xbe357e01	-0.17723848
153	0x3dea38e4	0.11436632
154	0x3dd3551c	0.10318968
155	0xbe0b382d	-0.13595648
156	0xbe05c240	-0.13062382
157	0x3e4f6f14	0.20257217
158	0x3a232475	0.0006223389
159	0x3d3d3c21	0.04619992
160	0x3b4293b0	0.002969008
161	0xbdb59314	-0.088659436
162	0xbe1aaabc	-0.15104192
163	0x3d083742	0.033255823
164	0xbe03b5be	-0.12862298
165	0xbd1d8495	-0.03845652
166	0xbd316e05	-0.043317813
167	0x3e5ab4f9	0.21358098
168	0x3e40a160	0.1881156
169	0xbe2b4f5b	-0.1672949
170	0x3e278f20	0.16363192
171	0x3cd498b1	0.025951715
172	0x3db173ac	0.08664641
173	0xbe7b48dc	-0.24539512
174	0xbd016d1b	-0.03159819
175	0x3dff5da3	0.12469032
176	0xbe0d487e	-0.13797185
177	0xbd4416a7	-0.047873165
178	0xbde170f9	-0.11007876
179	0x3d1d3f7d	0.038390625
180	0xbd9a0dba	-0.075221494
181	0x3d3d9093	0.046280455
182	0x3e0e7e27	0.13915311
183	0x3c89f018	0.016838118
184	0x3d8c62a0	0.06854749
185	0x3c1c34a9	0.00953404
186	0x3d490796	0.0490795
187	0xbe5bf2ba	-0.21479312
188	0x3e845c64	0.25851738
189	0xbe2c5594	-0.1682952
190	0xbe405d9d	-0.1878571
191	0x3d46a950	0.048501313
192	0x3e3c87b5	0.18411143
193	0xbe651524	-0.22371346
194	0xbdb54a88	-0.08852106
195	0x3dc1ec3a	0.09468885
196	0xbcef953f	-0.02924597
197	0x3d6cd20f	0.057817515
198	0x3a612d9c	0.0008589865
199	0x3e04bebb	0.12963383
200	0xbe3f057c	-0.18654436
201	0xbe0e306d	-0.1388566
202	0x3e1c5860	0.15268087
203	0x3d0eff5e	0.034911506
204	0xbddd2594	-0.10798183
205	0x3c080c27	0.008303679
206	0x3e49ff9d	0.19726415
207	0x3e064dc2	0.131156
208	0xbd6525ef	-0.05594438
209	0x3e032cab	0.12810008
210	0x3ea7daaa	0.32784015
211	0xbeb9d20a	-0.3629306
212	0xbea2f049	-0.31823948
213	0x3de9cef5	0.11416427
214	0xbd656100	-0.05600071
215	0xbea9ea9b	-0.33186802
216	0x3e3d1f51	0.18468978
217	0x3edf84ff	0.43656155
218	0xbe93fda5	-0.28904453
219	0x3d500377	0.050784554
220	0x3ea34e62	0.3189574
221	0xbdfbaa8a	-0.12288387
222	0xbe88e373	-0.2673603
223	0x3e5657b0	0.20931888
224	0xbd8dea54	-0.0692946
225	0x3daf4529	0.08558113
226	0xbdcef575	-0.10105411
227	0xbd225a5f	-0.039636966
228	0xbd6f962e	-0.058492832
229	0xbd9e53f1	-0.07730854
230	0xbe24ab7b	-0.1608104
231	0x3e34b1e6	0.17645988
232	0x3e1cb776	0.1530436
233	0xbaec094e	-0.0018008144
234	0x3dfb1071	0.12258995
235	0x3d8833ef	0.066505305
236	0x3d2c44d5	0.04205783
237	0x3e2b693a	0.1673936
238	0xbd751aed	-0.05984013
239	0xbe006209	-0.12537397
240	0xbd70f313	-0.058825564
241	0xbdd01470	-0.10160148
242	0xbd6b0fac	-0.057387993
243	0xbd27e50b	-0.040989917
244	0x3e179281	0.1480198
245	0x392f63a2	0.00016726417
246	0xbe07a906	-0.13248071
247	0x3e32faee	0.17478535
248	0xbe20d2a9	-0.1570536
249	0x3c087a30	0.008329913
250	0x3e11292c	0.14175862
251	0xba7e3ce7	-0.0009698406
252	0xbd98bad2	-0.07457508
253	0xbdb298c7	-0.08720546
254	0xbe088cc5	-0.1333495
255	0x3c99a8c4	0.018757232

icnn.wx_quad.1.weight f4 [16, 1, 5, 5]
0	0xbc238708	-0.009980924
1	0xbe02c280	-0.12769508
2	0xbe09a475	-0.13441642
3	0xbdf1251b	-0.117746554
4	0x3bd52529	0.006504674
5	0x3dc6514a	0.096834734
6	0x3d3f9e7b	0.046781998
7	0xbbe980e7	-0.007125962
8	0xbe2228a0	-0.1583581
9	0x3e15e4f0	0.14638114
10	0x3d48cf57	0.04902586
11	0x3df69101	0.12039376
12	0xbc30319a	-0.010754013
13	0x3da3d059	0.079987235
14	0x3db9201f	0.0903933
15	0xbe4dd65e	-0.20101306
16	0x3e258bba	0.16166583
17	0xbd7025ca	-0.05862979
18	0x3d16fe7e	0.036863796
19	0x3dfbc7f3	0.12293997
20	0xba09c6f2	-0.00052557804
21	0xbe72f1c5	-0.2372504
22	0x3e19f64d	0.15035363
23	0x3d2cd676	0.042196713
24	0xbde59c9a	-0.1121151
25	0xbe51a756	-0.2047399
26	0x3e3b2ca8	0.18278754
27	0xbe770f1c	-0.24126858
28	0xbe5e1f77	-0.2169169
29	0x3e4fee41	0.2030573
30	0x3d36361a	0.04448519
31	0x3e6cee34	0.23137742
32	0x3e8212c1	0.25404933
33	0x3c77e202	0.015129568
34	0x3cea4816	0.028598826
35	0xbe1f1c9f	-0.15538262
36	0xbe2b8490	-0.16749787
37	0xbe47212d	-0.1944625
38	0x3db2eac1	0.08736182
39	0xbe874752	-0.264216
40	0x3e4fbde1	0.20287277
41	0x3d995767	0.07487374
42	0x3e1d94e8	0.15388834
43	0x3d9e926c	0.077427715
44	0x3d5ba5be	0.05362486
45	0xbe1dbb50	-0.15403485
46	0xbe2f916d	-0.1714532
47	0x3db234f1	0.08701504
48	0xbddf78bb	-0.109116994
49	0x3dfce154	0.123476654
50	0x3e03760a	0.12837997
51	0xbdbf99d3	-0.093555115
52	0xbe34aa58	-0.17643106
53	0x3e6d47c0	0.23171902
54	0xbe39f0b4	-0.18158227
55	0xbe5a4c90	-0.21318269
56	0xbb6388db	-0.0034719023
57	0x3e058b5d	0.13041444
58	0x3e39930a	0.18122497
59	0x3db0cabe	0.0863242
60	0x3e557f1c	0.2084927
61	0x3dfe28fd	0.12410162
62	0xbe43a315	-0.1910518
63	0xbe15b99a	-0.14621583
64	0x3d186e99	0.03721485
65	0xbc4205b0	-0.011842176
66	0xbde68ce5	-0.11257342
67	0xbdbacaa8	-0.09120685
68	0x3e70121d	0.2344441
69	0xbe534c32	-0.20634535
70	0xbe0f2910	-0.13980508
71	0x3e75aefc	0.23992532
72	0x3d0e1dd5	0.03469642
73	0x3cbf5be1	0.023359241
74	0x3c583c08	0.013197906
75	0x3d4b4a8a	0.049631633
76	0x3dae5740	0.08512735
77	0xbd3a4d38	-0.045483798
78	0xbdd6766d	-0.10471807
79	0xbdc41899	-0.09575004
80	0x3dc7d769	0.09757883
81	0x3e90c2cc	0.28273618
82	0xbd7bd8e3	-0.061486136
83	0x3e106ae0	0.1410327
84	0xbe1ca99d	-0.15299077
85	0xbd8c56a5	-0.06852464
86	0xbe9618d0	-0.29315805
87	0xbe442157	-0.19153343
88	0x3e81920e	0.25306743
89	0x3e14ba06	0.14524087
90	0xbe580053	-0.21093874
91	0x3eaabc0f	0.33346602
92	0xbe687ef4	-0.22704679
93	0x3d0b6305	0.03402998
94	0x3d83aef0	0.06429851
95	0xbd5a7316	-0.05333241
96	0x3d76291a	0.06009779
97	0x3e485b2f	0.19566034
98	0xbcfa24b1	-0.030535074
99	0xbe5229f1	-0.20523812
100	0xbb786af9	-0.0037905558
101	0x3c06cd22	0.008227618
102	0xbe529239	-0.20563592
103	0x3e1c72ec	0.15278214
104	0x3d5c0ef7	0.05372521
105	0xbbe8fec4	-0.0071104486
106	0xbdbfcdb0	-0.09365404
107	0x3e537a9e	0.20652243
108	0xbdb45fae	-0.08807312
109	0xbd748264	-0.059694663
110	0xbdc4a53e	-0.0960183
111	0x3e5076dc	0.20357841
112	0xbe6da458	-0.23207223
113	0x3d8bc2b1	0.06824244
114	0x3dee8299	0.11646003
115	0x3dcbb3ea	0.09946425
116	0x3de27a23	0.11058452
117	0xbe908594	-0.28226912
118	0x3e6b222a	0.22962251
119	0xbeaf882d	-0.3428358
120	0x3c92fce7	0.017942859
121	0xbe367dcb	-0.17821424
122	0x3e35cafa	0.1775321
123	0x3c979491	0.01850346
124	0x3dfbbed7	0.12292259
125	0xbda646b4	-0.08118954
126	0x3e3f84a9	0.1870295
127	0x3e0a4e53	0.13506441
128	0xbdf48065	-0.11938552
129	0x3da3ef06	0.080045745
130	0xbddd0323	-0.10791614
131	0xbe485dc2	-0.19567016
132	0x3e13e78e	0.144438
133	0x3de82fae	0.11337219
134	0xbe2a77eb	-0.16647308
135	0xbdcfd6bd	-0.1014838
136	0x3e453e3c	0.19262022
137	0xbd9b6ef6	-0.075895235
138	0xbe286906	-0.16446313
139	0x3e829e8b	0.25511584
140	0xbe12b3a2	-0.14326337
141	0x3e4189c3	0.18900208
142	0xbe429919	-0.19003715
143	0xbd3c445b	-0.045963626
144	0xbcd63970	-0.026150435
145	0x3e4fc0e9	0.20288433
146	0xbd854f2a	-0.0650924
147	0x3da9773b	0.082746945
148	0x3b8dd2c1	0.0043281023
149	0xbde14fc6	-0.11001544
150	0xbe34ac8e	-0.1764395
151	0xbda339d6	-0.07970016
152	0xbc81137c	-0.015756361
153	0x3df54356	0.11975734
154	0xbd403acb	-0.04693107
155	0x3e6cdee0	0.23131895
156	0xbd8865a9	-0.06660015
157	0xbe443411	-0.19160487
158	0x3e462f28	0.19353926
159	0xbdba8627	-0.09107619
160	0x3e31f42f	0.17378305
161	0xbe7e0128	-0.24805129
162	0x3e198bdb	0.14994757
163	0x3e3446f9	0.17605199
164	0xbe721fff	-0.23645018
165	0xbe29eed1	-0.16595007
166	0x3e60bc2f	0.21946786
167	0xbea55c4a	-0.32296973
168	0x3e28edce	0.16496965
169	0x3e2efee6	0.17089424
170	0x3d8db8d1	0.069200166
171	0x3e06e22b	0.13172214
172	0x3df524ed	0.11969934
173	0xbea1c1c0	-0.31593132
174	0x3c98efc8	0.018669024
175	0xbe69ff34	-0.22851259
176	0xbe23fc87	-0.160143
177	0x3ea81578	0.3282888
178	0x3d029cf4	0.031887963
179	0xbca6ad60	-0.020346344
180	0x3f0c0891	0.5470057
181	0xbe37b36c	-0.17939538
182	0x3d184f8f	0.037185248
183	0xbea6db75	-0.32589307
184	0x3d5d3f77	0.054015603
185	0xbeab854e	-0.3350014
186	0x3dce8bef	0.10085284
187	0x3e5c677c	0.21523851
188	0xbe35db68	-0.17759478
189	0x3e20a512	0.1568797
190	0x3da1ad51	0.078943856
191	0x3e098715	0.13430436
192	0xbed33fbf	-0.41259572
193	0xbe29554e	-0.16536447
194	0x3ee5e057	0.4489772
195	0xbe3bac13	-0.1832736
196	0x3cc65bda	0.02421372
197	0x3eaae302	0.33376318
198	0x3da3c8ce	0.07997285
199	0xbece6f07	-0.40319082
200	0xbe3b97fe	-0.18319699
201	0xbdd93a36	-0.10606806
202	0x3ea84e00	0.3287201
203	0x3d97189a	0.07377739
204	0xbda70e59	-0.081570335
205	0x3e1e7a99	0.15476455
206	0xbd04401e	-0.03228771
207	0xbea54007	-0.3227541
208	0xbe1f7ce9	-0.15574993
209	0xbdb98592	-0.0905868
210	0x3e80686c	0.25079668
211	0xbd9603ab	-0.07324918
212	0x3ed66be3	0.41879186
213	0xbe9adc31	-0.30246118
214	0x3e6e6de3	0.23284106
215	0xbe778e06	-0.24175271
216	0x3e0c6731	0.1371124
217	0xbe364a6f	-0.17801832
218	0xbe4913ca	-0.19636455
219	0x3ea89ed5	0.3293368
220	0x3e7c5f07	0.24645625
221	0xbe4522f0	-0.19251609
222	0x3d954242	0.07288028
223	0x3e9f2112	0.31079918
224	0xbeb2d845	-0.34930626
225	0x3d290670	0.041265905
226	0x3d7546dd	0.059882034
227	0xbe0ad186	-0.1355649
228	0xbe0ec745	-0.13943203
229	0xbda88996	-0.082293674
230	0xbe0f0bc1	-0.13969328
231	0xbdb03635	-0.08604089
232	0x3b9bc1f8	0.0047533475
233	0x3d81cf5c	0.06338379
234	0x3ddeb58e	0.108744726
235	0x3e0c6463	0.1371017
236	0x3e68f12a	0.22748247
237	0x3e07ba5a	0.13254681
238	0xbe131ab2	-0.14365652
239	0xbd484b47	-0.048899915
240	0x3e5d15b6	0.21590313
241	0x3cf58eb8	0.02997528
242	0xbd7babbf	-0.061443087
243	0xbc86d8df	-0.016460834
244	0xbbd8d37f	-0.006617009
245	0xbdc9f9b4	-0.0986208
246	0xbe0814ab	-0.13289134
247	0xbd80fac5	-0.062978305
248	0x3e564dc0	0.20928097
249	0xbc9f4f9f	-0.019447146
250	0x3e0944fb	0.1340522
251	0xbe83f85e	-0.25775427
252	0x3e0a090c	0.13480014
253	0x3de7206b	0.1128548
254	0xbb6cb98b	-0.0036121334
255	0xbd67a3da	-0.056552745

icnn.wx_quad.2.weight f4 [16, 1, 5, 5]
0	0xbd9e4826	-0.07728605
1	0x3d5ccd0b	0.05390648
2	0xbd808413	-0.06275191
3	0x3df17d31	0.117914565
4	0x3dd16512	0.10224356
5	0x3c117661	0.008878321
6	0x3e00cb25	0.12577493
7	0xbe77917f	-0.24176596
8	0x3e0e6f7f	0.1390972
9	0xbd281c92	-0.04104287
10	0xbe2716c9	-0.16317286
11	0xbe47582c	-0.19467229
12	0x3e47dd45	0.19518001
13	0x3dfbc2d6	0.122930214
14	0x3e0851a0	0.13312387
15	0xbe08af22	-0.13348058
16	0x3e9f0808	0.31060815
17	0xbdf1bfd6	-0.11804168
18	0x3dc9d604	0.09855273
19	0xbdd2edfa	-0.10299297
20	0x3d92613c	0.07147452
21	0xbd90a700	-0.07063103
22	0xbdd97697	-0.10618322
23	0xbdb27ebd	-0.0871558
24	0xbdcb8931	-0.099382766
25	0x3e819ba8	0.2531407
26	0xbe2ce69e	-0.16884848
27	0x3ca3e611	0.020007165
28	0x3d8f319a	0.069918826
29	0xbd7c0d16	-0.061535917
30	0xbe3310fe	-0.17486951
31	0xbd64160a	-0.05568508
32	0xbd962fb9	-0.07333321
33	0xbe01da29	-0.12680878
34	0x3e7ed8ff	0.24887465
35	0x3e3d3387	0.18476687
36	0x3cea60ea	0.028610665
37	0xbc280271	-0.010254488
38	0x3e1d8292	0.1538184
39	0xbe106123	-0.14099555
40	0x3dd08aec	0.10182747
41	0xbdab083d	-0.08351181
42	0xbe079a1a	-0.13242379
43	0xbdf59409	-0.11991126
44	0x3d5e6a70	0.054300725
45	0x3d499cf0	0.049221933
46	0x3db8ee71	0.09029854
47	0xbd6f7b3e	-0.058467142
48	0x3b385dfe	0.0028132196
49	0xbd42531a	-0.047442533
50	0x3e65cd53	0.22441606
51	0xbe322f90	-0.17400956
52	0xbdf57cb9	-0.119866796
53	0x3e89bda7	0.26902506
54	0xbdb4c5e7	-0.088268094
55	0xbe122ef2	-0.1427572
56	0x3dd9b615	0.106304325
57	0x3dc2eb8e	0.09517585
58	0xbe00afa4	-0.12567002
59	0xbe937a63	-0.2880431
60	0x3cef6e06	0.029227268
61	0x3e97d111	0.29651693
62	0xbe9ff893	-0.31244335
63	0x3e648cf3	0.22319393
64	0x3e866651	0.26249936
65	0xbe7491a8	-0.23883688
66	0xbe449c62	-0.1920028
67	0x3e9194ba	0.28433782
68	0x3dc5b54c	0.0965372
69	0xbeb151df	-0.34632775
70	0x3e12e0b8	0.14343536
71	0xbe0ab181	-0.13544275
72	0x3d9ff805	0.07810978
73	0xbe58e925	-0.21182688
74	0x3e8cf10c	0.27527654
75	0x3db3a389	0.08771426
76	0xbe70daba	-0.23520938
77	0x3e5b5c2c	0.2142188
78	0x3e80c6ea	0.2515176
79	0xbeae9222	-0.34095865
80	0x3db86cd6	0.09005134
81	0x3e09aed6	0.13445601
82	0xbe724a6f	-0.23661207
83	0xbe351457	-0.1768354
84	0x3e792e3b	0.24334042
85	0xbe104751	-0.14089705
86	0xbe51eca4	-0.20500427
87	0x3e6b5942	0.22983268
88	0x3d9fe1d3	0.078067444
89	0x3cb5eacb	0.022206685
90	0x3e973013	0.29528865
91	0xbd7a86d0	-0.061163723
92	0xbe4556d6	-0.19271407
93	0x3e2467f9	0.16055287
94	0xbe684416	-0.22682223
95	0xbe3d5dda	-0.18492833
96	0x3e1392cf	0.14411472
97	0xbd227923	-0.039666306
98	0xbe369e8a	-0.17833915
99	0x3e8b7da2	0.27244288
100	0x3e0bf449	0.13667406
101	0xbe96a0fb	-0.29419693
102	0x3e5a86dc	0.21340507
103	0x3dc77302	0.09738733
104	0xbe14ee64	-0.14544064
105	0xbe542944	-0.20718867
106	0x3e9be72f	0.30449817
107	0xbe3ade21	-0.18248798
108	0xbd274ea7	-0.040846493
109	0x3e1ec335	0.15504153
110	0xbe24c1e5	-0.1608959
111	0x3e4b790a	0.19870391
112	0xbe8193bc	-0.25308025
113	0x3e42c456	0.19020209
114	0xbe03ab44	-0.12858301
115	0x3e922445	0.28543296
116	0xbe55ca44	-0.2087794
117	0x3ee612c0	0.4493618
118	0xbec5e009	-0.38647488
119	0xbe0a533f	-0.13508318
120	0xbd4b041c	-0.049564466
121	0xbd59dac3	-0.053187143
122	0xbe82cc81	-0.2554665
123	0x3ec0a003	0.3762208
124	0x3dbd077f	0.092299454
125	0xbde28933	-0.11061325
126	0x3ea501c3	0.32227907
127	0x3d69fe7b	0.057127457
128	0xbe1fa837	-0.15591513
129	0xbe0f9147	-0.14020263
130	0x3e1aec5b	0.15129225
131	0xbe858e8f	-0.26085326
132	0xbe87abd9	-0.26498297
133	0x3ed4b639	0.41545275
134	0xbdf6a570	-0.120432734
135	0x3e0c241f	0.13685654
136	0x3e29312a	0.16522661
137	0xbe7b3211	-0.24530818
138	0xbe7c96a4	-0.2466684
139	0x3e7ad563	0.24495463
140	0x3e26db1e	0.16294524
141	0xbe456254	-0.1927579
142	0x3e9a0613	0.3008276
143	0x3dbb2153	0.091372155
144	0xbe2e4ea8	-0.17022192
145	0xbe4cc419	-0.1999668
146	0xbd8cc28c	-0.06873044
147	0xbe5769c0	-0.21036434
148	0x3eb7c615	0.35893312
149	0xbc95b397	-0.018274112
150	0xbd557e3e	-0.052122347
151	0x3ca01b9b	0.019544413
152	0xbc82b05b	-0.015953233
153	0xbe257ec7	-0.16161643
154	0x3db66137	0.08905261
155	0x3b809416	0.003923903
156	0x3e3e6b51	0.18595625
157	0x3d50472e	0.050849132
158	0xbdd7c532	-0.10535659
159	0x3e1314c7	0.14363395
160	0xbdfb456d	-0.12269101
161	0xbc801379	-0.015634285
162	0xbdf9e36a	-0.12201579
163	0xbd99d8b1	-0.07512034
164	0xbe04a059	-0.12951793
165	0x3e5a44b3	0.21315269
166	0xbdb8c844	-0.09022573
167	0xbe266c05	-0.16252144
168	0xbd222291	-0.039583746
169	0x3e1422eb	0.14466445
170	0xbdb75ca2	-0.08953215
171	0x3d5e3bfc	0.054256424
172	0x3e6ab1f8	0.22919452
173	0x3e0efdac	0.13963956
174	0xbdb184c3	-0.086679004
175	0x3e1c8f61	0.1528907
176	0x3d8d5717	0.06901377
177	0x3d36ee59	0.0446609
178	0xbdda6b67	-0.106650166
179	0xbe06779d	-0.13131566
180	0xbd96457d	-0.073374726
181	0x3d4ae905	0.04953863
182	0xbe074f7c	-0.13213915
183	0xbde77c0f	-0.11302959
184	0x3e2e273c	0.17007154
185	0x3d6dc919	0.05805311
186	0x3cfa37c0	0.030544162
187	0xbe07a8b6	-0.13247952
188	0x3e21d4fe	0.15803906
189	0xbbdd6b6b	-0.00675719
190	0xbe33349f	-0.17500542
191	0x3e0c877e	0.13723561
192	0xbe1fd344	-0.15607935
193	0x3daeeaa3	0.08540847
194	0x3a283b08	0.0006417488
195	0x3ddce63e	0.10786103
196	0xbde710fa	-0.11282535
197	0xbde6faf6	-0.11278336
198	0x3e13770a	0.14400879
199	0x3d836b4d	0.064169504
200	0x3ebcc8b5	0.36871877
201	0xbea1b465	-0.31582943
202	0xbcef8bd4	-0.02924148
203	0x3d6ebc17	0.058284845
204	0xbba297c2	-0.0049619386
205	0xbe9af323	-0.30263624
206	0x3e4e8385	0.20167358
207	0x3e88a431	0.26687768
208	0xbeb71c4c	-0.35763776
209	0x3eb761df	0.35816857
210	0xbeae93cf	-0.34097144
211	0x3e285b5f	0.16441105
212	0x3e30da81	0.17270853
213	0xbe4fae5f	-0.20281361
214	0x3c84af86	0.016196977
215	0x3dcfd2ec	0.10147652
216	0xbdb7398a	-0.089465216
217	0xbd9b09dc	-0.0757024
218	0x3e84901b	0.25891194
219	0xbe8aff87	-0.27148077
220	0xba659064	-0.00087571726
221	0x3e5bc20c	0.21460742
222	0xbe92952d	-0.28629437
223	0x3e8bd87c	0.27313602
224	0xbe3c9d5c	-0.18419403
225	0xbe9840df	-0.29736993
226	0x3eb47235	0.35243383
227	0xbdfddd21	-0.123956926
228	0xbd32bd46	-0.043637536
229	0x3dcf9b5a	0.10137053
230	0x3e185b91	0.1487868
231	0x3c30d3bf	0.010792672
232	0xbe94a1e3	-0.2902976
233	0x3e4bb7eb	0.19894378
234	0x3af1a63f	0.0018436386
235	0xbdad7fdb	-0.08471652
236	0x3e44e113	0.19226484
237	0x3cdf468d	0.02725532
238	0xbda01200	-0.07815933
239	0xbbccffb0	-0.0062560663
240	0xbdf3ada4	-0.11898354
241	0xbe4db01c	-0.20086712
242	0xbc89b4db	-0.016809871
243	0x3ea4c31f	0.32180116
244	0xbe3dd5b0	-0.18538547
245	0xbb97d3c2	-0.004633398
246	0x3e884e24	0.26622117
247	0xbe4e1333	-0.20124511
248	0x3ec6c2d4	0.38820517
249	0xbebc141b	-0.3673409
250	0xbeba542d	-0.36392346
251	0x3e4e4843	0.20144753
252	0x3de285c4	0.1106067
253	0x3e3a4f75	0.18194373
254	0xbcb21ac6	-0.021741282
255	0xbe649623	-0.22322898

icnn.wx_quad.3.weight f4 [16, 1, 5, 5]
0	0xbd0fe13b	-0.035126906
1	0xbe5e8a23	-0.21732382
2	0xbe35b729	-0.17745651
3	0x3e911e54	0.2834345
4	0x3e7c124c	0.24616355
5	0xbc90c7bc	-0.017673366
6	0x3e705399	0.2346939
7	0xbd5654be	-0.05232691
8	0xbe8eeea7	-0.27916452
9	0xbe151216	-0.1455768
10	0xbe5b0daa	-0.21391931
11	0x3e1d160c	0.15340441
12	0x3e150db0	0.14556003
13	0x3de6cc43	0.112694286
14	0x3d4118bf	0.04714274
15	0xbe1f80c8	-0.1557647
16	0xbc70d15f	-0.014698355
17	0x3cd139d7	0.025540275
18	0x3e774060	0.24145651
19	0xbe91e4b7	-0.28494808
20	0x3eae4142	0.34034163
21	0xbe187902	-0.14889911
22	0x3e5f0acf	0.21781467
23	0xbe94710f	-0.28992507
24	0xbd215f5e	-0.03939759
25	0xbe7d7b81	-0.24754144
26	0x3e216c1a	0.15763894
27	0xbdd39074	-0.103302866
28	0x3e9aab28	0.30208707
29	0xbe637d1d	-0.22215696
30	0x3eb28b6a	0.3487199
31	0xbe2aaa4f	-0.1666653
32	0xbeaa1c45	-0.33224693
33	0x3e1c719f	0.15277718
34	0x3df2e104	0.118593246
35	0xbd0ce2fa	-0.03439615
36	0xbe534087	-0.20630084
37	0x3e9151d6	0.28382748
38	0x3dd4084c	0.10353145
39	0x3e0fe384	0.14051634
40	0xbe93f395	-0.28896776
41	0x3ea49764	0.32146752
42	0xbe7ebba0	-0.24876261
43	0x3c645225	0.0139356
44	0xbe2329e2	-0.15933946
45	0xbd91b4a9	-0.07114536
46	0x3e943f21	0.28954414
47	0xbdaf1b5d	-0.08550141
48	0x3e298140	0.16553211
49	0xbe79e13a	-0.24402323
50	0xbc31846b	-0.010834794
51	0x3dee7848	0.116440356
52	0xbdf6e13d	-0.120546795
53	0x3d297607	0.041372325
54	0xbce8b7fc	-0.028408043
55	0xbcb9445c	-0.022615604
56	0xbccf98f7	-0.025341494
57	0xbda83900	-0.08213997
58	0xbd9b6505	-0.07587627
59	0x3c28b3c8	0.010296769
60	0x3ded245c	0.115792006
61	0xbcc39db9	-0.023878919
62	0x3dd48c32	0.10378303
63	0x3cfd0d2a	0.030890066
64	0xbdc1fd1b	-0.09472104
65	0x3d7039da	0.05864892
66	0xbe3b82d5	-0.18311627
67	0x3e1438db	0.14474814
68	0xbe4e2119	-0.20129813
69	0x3e617547	0.22017394
70	0x3de0eb90	0.1098243
71	0xbdb6e7d6	-0.08930938
72	0xbd339f92	-0.04385335
73	0xbe0150e2	-0.1262851
74	0x3e421807	0.18954478
75	0xbd9d2506	-0.07673077
76	0x3d92c68a	0.071667746
77	0xbdb1e8cb	-0.0868698
78	0xbe8020c4	-0.25024998
79	0x3e7eaac9	0.24869837
80	0xbdc82948	-0.09773499
81	0x3e29aa4f	0.16568874
82	0xbd46d20d	-0.048540164
83	0x3e067ff1	0.13134743
84	0xbe3ee0ab	-0.18640392
85	0x3e092d21	0.13396122
86	0x3dd27bcd	0.102775194
87	0x3cf9dcc4	0.030500777
88	0xbe7fdbaf	-0.24986146
89	0x3e039bef	0.12852453
90	0xbdc6bded	-0.09704194
91	0xbc889277	-0.016671402
92	0x3e61d8e8	0.220554
93	0x3d47e855	0.048805553
94	0xbdc42dd5	-0.09579054
95	0xbb459185	-0.003014655
96	0xbd7b24a5	-0.061314244
97	0xbe95816e	-0.2920031
98	0x3e60124b	0.21881978
99	0x3d7fd3d0	0.06245786
100	0x3e76ffba	0.2412099
101	0xbdf5441f	-0.11975884
102	0x3e4f296d	0.20230646
103	0xbe18b9ed	-0.14914675
104	0xbe39c139	-0.18140115
105	0xbdafecdb	-0.085900985
106	0xbe63f55a	-0.22261563
107	0x3e156606	0.145897
108	0x3e16bc27	0.14720212
109	0x3eb62804	0.35577404
110	0xbda443c1	-0.080207355
111	0xbe124d49	-0.14287294
112	0x3e02f9f9	0.1279067
113	0x3ca5e2f1	0.020249816
114	0xbe9eb18f	-0.3099484
115	0x3e023b0c	0.12717837
116	0x3d5f27d0	0.054481328
117	0xbe2fddac	-0.17174405
118	0x3ead1a5e	0.3380918
119	0xbe93c7e5	-0.28863445
120	0xbe398cf3	-0.18120174
121	0x3dee0b1e	0.11623214
122	0xbe789ac3	-0.24277787
123	0x3e69edda	0.2284464
124	0x3d92c8ed	0.0716723
125	0xbe2296a7	-0.15877782
126	0x3e393d6b	0.18089835
127	0x3e431b91	0.19053484
128	0x3bbd9fbc	0.005786864
129	0xbe1a6d4b	-0.15080754
130	0x3e75ffbb	0.24023335
131	0xbe5eff95	-0.21777184
132	0x3cabdce9	0.020979362
133	0xbe9426cb	-0.28935847
134	0x3e86b85b	0.26312527
135	0x3e112d9c	0.14177555
136	0xbd0f99b5	-0.035058696
137	0xbe2af7bf	-0.1669607
138	0x3d2d64ea	0.042332567
139	0xbde9e307	-0.11420255
140	0xbe3d42f6	-0.18482575
141	0xbd36a65c	-0.044592246
142	0x3e861d77	0.26194355
143	0xbe1d29ff	-0.15348051
144	0x3e9853fa	0.2975157
145	0x3df881e0	0.12134147
146	0xbdc606d9	-0.09669275
147	0xbe277217	-0.16352116
148	0xbce80d03	-0.028326517
149	0x3d42f4b9	0.047596667
150	0x3eb059d4	0.34443533
151	0x3e680550	0.22658277
152	0xbe8b1132	-0.27161556
153	0xbeb85a53	-0.36006412
154	0x3df40a28	0.11916
155	0xbd86fa7c	-0.06590745
156	0xbeb2cc42	-0.3492146
157	0x3eb69841	0.35663036
158	0x3e1837ea	0.1486508
159	0x3e416652	0.18886688
160	0xbe738903	-0.23782735
161	0x3d456261	0.048189525
162	0xbeaaa908	-0.33332086
163	0x3db1cab8	0.08681244
164	0x3dd96549	0.10615022
165	0x3e8e6438	0.27810836
166	0xbe5602f0	-0.20899558
167	0x3e87c7c0	0.26519585
168	0x3e68efab	0.22747676
169	0xbea68899	-0.3252609
170	0xbe0dcc3c	-0.1384744
171	0x3bfba71d	0.0076798336
172	0x3cc7a2d5	0.024369637
173	0xbea0d31a	-0.31411058
174	0x3e37bd8b	0.17943399
175	0x3db8fe3f	0.090328686
176	0x3e7f6621	0.24941303
177	0xbe4a0c6e	-0.19731304
178	0xbdf34f0b	-0.118803106
179	0x3e5ca83d	0.21548553
180	0x3e0c6771	0.13711335
181	0xbe2f7ea9	-0.17138161
182	0xbe530d54	-0.20610553
183	0xbe6e2d87	-0.23259555
184	0x3ea4badf	0.3217382
185	0xbea7a355	-0.327418
186	0x3dba28aa	0.09089787
187	0x3e383707	0.17989741
188	0x3eae3c7f	0.3403053
189	0xbea106ac	-0.31450403
190	0x3ddafbdf	0.10692572
191	0xbe2ac701	-0.16677476
192	0xbe80b023	-0.25134382
193	0x3eb8a523	0.3606349
194	0xbe953376	-0.29140824
195	0x3e97c755	0.29644266
196	0xbe614437	-0.21998678
197	0x3e2543c0	0.16139126
198	0xbcfe0c1a	-0.03101163
199	0xbcd4bc96	-0.025968831
200	0x3e8b3629	0.27189758
201	0xbdf4620d	-0.11932764
202	0x3e0c25f5	0.13686354
203	0x3ccbdae3	0.024884647
204	0xbdfbf3df	-0.12302374
205	0xbe13a420	-0.14418077
206	0x3e8e66a5	0.27812687
207	0xbd6f4ad8	-0.058420986
208	0xbdb25e30	-0.08709371
209	0x3e6cfa34	0.2314232
210	0xbddf769f	-0.10911297
211	0xbe10d675	-0.14144309
212	0x3dd46774	0.103712946
213	0xbd871d4a	-0.06597383
214	0xbdefb74a	-0.117048815
215	0xbd719ae0	-0.05898559
216	0xbe01ab3b	-0.12662975
217	0x3e5612db	0.2090563
218	0x3db60f75	0.08889667
219	0xbde95c8c	-0.11394605
220	0xbcd23151	-0.025658282
221	0x3c67aba3	0.0141400425
222	0xbd943484	-0.07236579
223	0x3dcf5aa2	0.10124709
224	0xbdc052cf	-0.093907945
225	0xbe8be53d	-0.27323332
226	0xbdb516fb	-0.08842274
227	0x3e82416c	0.25440538
228	0xbe773557	-0.24141441
229	0x3c4a2ddf	0.012340038
230	0x3cf21c1a	0.029554415
231	0x3e8d409e	0.27588362
232	0xbd5bc598	-0.053655237
233	0x3ea4284a	0.32061988
234	0xbe1208f8	-0.14261234
235	0xbdccf851	-0.100083
236	0xbe37a148	-0.17932618
237	0x3ea2b8cb	0.3178161
238	0xbe6b2cd8	-0.22966325
239	0xbdfa4c69	-0.12221605
240	0x3e78eb70	0.24308562
241	0xbe87491c	-0.26422966
242	0x3e283bd1	0.16429068
243	0xbe6edccd	-0.23326416
244	0x3e4ef1bc	0.20209402
245	0x3e7fb57e	0.24971578
246	0xbe9d5f89	-0.3073695
247	0xbcfa04a1	-0.030519785
248	0x3eb57d15	0.35446993
249	0xbe2b0d34	-0.16704255
250	0x3e5159d3	0.20444421
251	0x3df40210	0.11914456
252	0x3c2fe2a7	0.0107351905
253	0x3cb9b949	0.022671359
254	0xbe84a42a	-0.25906497
255	0xbe1a98c7	-0.15097342
