weights/simple_linearIDCNNPrior_ar_CT.pt (torch, 7378 bytes, 16 tensors)

icnn1.wz.0.weight f4 [1, 1, 5, 5]
0.03324161 0.20835406 0.38065088 0.38086385 0.33796787 0.13948391 0.33187765 0.48719764
0.49008137 0.45618337 0.25960857 0.44729662 0.5747095 0.57768065 0.5534449 0.14480326
0.33973166 0.49412474 0.49645707 0.46432796 0.05372229 0.23461688 0.4068719 0.4081182
0.3683212
00000000: 5b28 083d c45a 553e ace4 c23e 9600 c33e
00000010: 200a ad3e dfd4 0e3e deeb a93e f871 f93e
00000020: f2eb fa3e de90 e93e 6aeb 843e 1004 e53e
00000030: 2920 133f e1e2 133f 91ae 0d3f 4e47 143e
00000040: 4ff1 ad3e ebfd fc3e 9f2f fe3e 65bc ed3e
00000050: e70b 5c3d 683f 703e 8451 d03e def4 d03e
00000060: 9994 bc3e

icnn1.wx_lin.0.weight f4 [1, 1, 5, 5]
-0.26746896 0.034519453 0.5339253 0.51911145 0.37688124 0.011674437 -0.11422884 0.29668382
0.46575078 0.34424213 -0.06884708 0.31143457 0.6297635 0.60467535 0.71823114 -0.12207708
0.15582088 0.40239814 0.72516346 0.39582613 -0.24924062 -0.20298253 0.3855523 0.52899456
0.54151326
00000000: b1f1 88be 4564 0d3d 54af 083f 7de4 043f
00000010: 94f6 c03e 2346 3f3c cff0 e9bd f1e6 973e
00000020: e376 ee3e 8140 b03e b3ff 8cbd 5a74 9f3e
00000030: 2e38 213f 01cc 1a3f ffdd 373f 8c03 fabd
00000040: 828f 1f3e 2107 ce3e 50a4 393f b9a9 ca3e
00000050: ef38 7fbe a7da 4fbe 1c67 c53e 306c 073f
00000060: 9da0 0a3f

icnn1.wx_lin.1.weight f4 [1, 1, 5, 5]
0.026831182 0.107773736 0.43502492 0.35522175 0.61622816 -0.20860167 0.0632273 0.425139
0.41702372 0.613307 0.1992261 0.34677443 0.42066395 0.49758878 0.58551264 -0.19218898
-0.027165938 0.47428417 0.35905856 0.48407063 0.020734401 0.116995774 0.20760629 0.29959303
0.2935602
00000000: 11cd db3c 7ab8 dc3d 96bb de3e a0df b53e
00000010: 21c1 1d3f ad9b 55be 517d 813d d2ab d93e
00000020: 2284 d53e b001 1d3f ed01 4c3e 6b8c b13e
00000030: 4461 d73e f5c3 fe3e 28e4 153f 30cd 44be
00000040: 1a8b debc 60d5 f23e 86d6 b73e 1bd8 f73e
00000050: 31db a93c 7b9b ef3d be96 543e 4264 993e
00000060: 864d 963e

icnn1.final_conv2d.weight f4 [1, 1, 5, 5]
0.15275851 0.27110675 0.37305233 0.3390924 0.30865777 0.2544238 0.3730385 0.46407852
0.43431714 0.40671954 0.3595754 0.46635532 0.5432831 0.51843244 0.49414143 0.25774843
0.37633944 0.46648112 0.43666184 0.409306 0.15794739 0.2775263 0.37822208 0.34466085
0.31481045
00000000: ba6c 1c3e 81ce 8a3e b700 bf3e 859d ad3e
00000010: 6408 9e3e d643 823e e7fe be3e b39b ed3e
00000020: d15e de3e 8b3d d03e 441a b83e 20c6 ee3e
00000030: 9a14 0b3f fdb7 043f 1b00 fd3e 9af7 833e
00000040: 90af c03e 9dd6 ee3e 2492 df3e 8e90 d13e
00000050: f6bc 213e ed17 8e3e 53a6 c13e 6377 b03e
00000060: d62e a13e

icnn2.wz.0.weight f4 [1, 1, 5, 5]
0.0 0.0 0.0 0.0 0.0 0.0 0.0 0.0
0.0 0.0 0.0 0.0 0.0 0.0 0.0 0.0
0.0 0.0 0.0 0.0 0.0 0.0 0.0 0.0
0.0
00000000: 0000 0000 0000 0000 0000 0000 0000 0000
00000010: 0000 0000 0000 0000 0000 0000 0000 0000
00000020: 0000 0000 0000 0000 0000 0000 0000 0000
00000030: 0000 0000 0000 0000 0000 0000 0000 0000
00000040: 0000 0000 0000 0000 0000 0000 0000 0000
00000050: 0000 0000 0000 0000 0000 0000 0000 0000
00000060: 0000 0000

icnn2.wx_lin.0.weight f4 [1, 1, 5, 5]
0.09660736 0.09169322 0.02035755 -0.06915936 0.12335776 0.1744151 -0.14561146 -0.14361383
-0.11030945 -0.11480127 0.09060635 0.065833725 0.124368496 -0.009951614 -0.017847128 0.17331292
-0.10280496 -0.15475285 -0.0344553 0.18258896 -0.16341472 -0.17154615 0.0589604 -0.08777743
-0.05469962
00000000: 14da c53d a8c9 bb3d e0c4 a63c 6ca3 8dbd
00000010: fea2 fc3d df99 323e 2c1b 15be 810f 13be
00000020: ece9 e1bd ee1c ebbd d28f b93d d5d3 863d
00000030: e9b4 fe3d 180c 23bc 2434 92bc f178 313e
00000040: 688b d2bd 8877 1ebe 0021 0dbd 9af8 3a3e
00000050: 3056 27be cba9 2fbe 7680 713d a7c4 b3bd
00000060: b50c 60bd

icnn2.wx_lin.1.weight f4 [1, 1, 5, 5]
0.9647458 0.8693835 0.41407982 0.60120076 -0.07790731 0.88637763 1.2577345 0.8283447
0.95453733 0.60195017 0.80070335 0.917926 0.123880565 0.25290027 -0.61500657 1.0544249
1.108523 0.74318606 1.0256557 0.23899212 0.9652588 1.0799093 0.40821013 0.6136509
-0.36299264
00000000: 95f9 763f eb8f 5e3f 4502 d43e 4be8 193f
00000010: de8d 9fbd a5e9 623f 72fd a03f 660e 543f
00000020: 8f5c 743f 6819 1a3f e5fa 4c3f 33fd 6a3f
00000030: 18b5 fd3d 257c 813e 1271 1dbf 65f7 863f
00000040: 15e4 8d3f 7141 3e3f b048 833f 5aba 743e
00000050: 331b 773f 783a 8a3f eb00 d13e 3a18 1d3f
00000060: 2cda b9be

icnn2.final_conv2d.weight f4 [1, 1, 5, 5]
0.86452705 0.77239954 0.69578594 0.72266644 0.7795035 0.791921 0.614814 0.43716714
0.5024328 0.6314975 0.7419166 0.506394 0.27437174 0.35680452 0.52911407 0.79017556
0.61331624 0.435447 0.50093603 0.6298604 0.8843185 0.79986113 0.7369955 0.7585362
0.8076481
00000000: a551 5d3f fabb 453f 071f 323f ab00 393f
00000010: 8b8d 473f 56bb 4a3f 7364 1d3f 5fd4 df3e
00000020: 709f 003f d2a9 213f 3fee 3d3f 0aa3 013f
00000030: 747a 8c3e 15af b63e 0574 073f f248 4a3f
00000040: 4b02 1d3f e9f2 de3e 583d 003f 883e 213f
00000050: b262 623f b3c3 4c3f bdab 3c3f 6e2f 423f
00000060: 07c2 4e3f

ICNN1.wz.0.weight f4 [1, 1, 5, 5]
0.03324161 0.20835406 0.38065088 0.38086385 0.33796787 0.13948391 0.33187765 0.48719764
0.49008137 0.45618337 0.25960857 0.44729662 0.5747095 0.57768065 0.5534449 0.14480326
0.33973166 0.49412474 0.49645707 0.46432796 0.05372229 0.23461688 0.4068719 0.4081182
0.3683212
00000000: 5b28 083d c45a 553e ace4 c23e 9600 c33e
00000010: 200a ad3e dfd4 0e3e deeb a93e f871 f93e
00000020: f2eb fa3e de90 e93e 6aeb 843e 1004 e53e
00000030: 2920 133f e1e2 133f 91ae 0d3f 4e47 143e
00000040: 4ff1 ad3e ebfd fc3e 9f2f fe3e 65bc ed3e
00000050: e70b 5c3d 683f 703e 8451 d03e def4 d03e
00000060: 9994 bc3e

ICNN1.wx_lin.0.weight f4 [1, 1, 5, 5]
-0.26746896 0.034519453 0.5339253 0.51911145 0.37688124 0.011674437 -0.11422884 0.29668382
0.46575078 0.34424213 -0.06884708 0.31143457 0.6297635 0.60467535 0.71823114 -0.12207708
0.15582088 0.40239814 0.72516346 0.39582613 -0.24924062 -0.20298253 0.3855523 0.52899456
0.54151326
00000000: b1f1 88be 4564 0d3d 54af 083f 7de4 043f
00000010: 94f6 c03e 2346 3f3c cff0 e9bd f1e6 973e
00000020: e376 ee3e 8140 b03e b3ff 8cbd 5a74 9f3e
00000030: 2e38 213f 01cc 1a3f ffdd 373f 8c03 fabd
00000040: 828f 1f3e 2107 ce3e 50a4 393f b9a9 ca3e
00000050: ef38 7fbe a7da 4fbe 1c67 c53e 306c 073f
00000060: 9da0 0a3f

ICNN1.wx_lin.1.weight f4 [1, 1, 5, 5]
0.026831182 0.107773736 0.43502492 0.35522175 0.61622816 -0.20860167 0.0632273 0.425139
0.41702372 0.613307 0.1992261 0.34677443 0.42066395 0.49758878 0.58551264 -0.19218898
-0.027165938 0.47428417 0.35905856 0.48407063 0.020734401 0.116995774 0.20760629 0.29959303
0.2935602
00000000: 11cd db3c 7ab8 dc3d 96bb de3e a0df b53e
00000010: 21c1 1d3f ad9b 55be 517d 813d d2ab d93e
00000020: 2284 d53e b001 1d3f ed01 4c3e 6b8c b13e
00000030: 4461 d73e f5c3 fe3e 28e4 153f 30cd 44be
00000040: 1a8b debc 60d5 f23e 86d6 b73e 1bd8 f73e
00000050: 31db a93c 7b9b ef3d be96 543e 4264 993e
00000060: 864d 963e

ICNN1.final_conv2d.weight f4 [1, 1, 5, 5]
0.15275851 0.27110675 0.37305233 0.3390924 0.30865777 0.2544238 0.3730385 0.46407852
0.43431714 0.40671954 0.3595754 0.46635532 0.5432831 0.51843244 0.49414143 0.25774843
0.37633944 0.46648112 0.43666184 0.409306 0.15794739 0.2775263 0.37822208 0.34466085
0.31481045
00000000: ba6c 1c3e 81ce 8a3e b700 bf3e 859d ad3e
00000010: 6408 9e3e d643 823e e7fe be3e b39b ed3e
00000020: d15e de3e 8b3d d03e 441a b83e 20c6 ee3e
00000030: 9a14 0b3f fdb7 043f 1b00 fd3e 9af7 833e
00000040: 90af c03e 9dd6 ee3e 2492 df3e 8e90 d13e
00000050: f6bc 213e ed17 8e3e 53a6 c13e 6377 b03e
00000060: d62e a13e

ICNN2.wz.0.weight f4 [1, 1, 5, 5]
0.0 0.0 0.0 0.0 0.0 0.0 0.0 0.0
0.0 0.0 0.0 0.0 0.0 0.0 0.0 0.0
0.0 0.0 0.0 0.0 0.0 0.0 0.0 0.0
0.0
00000000: 0000 0000 0000 0000 0000 0000 0000 0000
00000010: 0000 0000 0000 0000 0000 0000 0000 0000
00000020: 0000 0000 0000 0000 0000 0000 0000 0000
00000030: 0000 0000 0000 0000 0000 0000 0000 0000
00000040: 0000 0000 0000 0000 0000 0000 0000 0000
00000050: 0000 0000 0000 0000 0000 0000 0000 0000
00000060: 0000 0000

ICNN2.wx_lin.0.weight f4 [1, 1, 5, 5]
0.09660736 0.09169322 0.02035755 -0.06915936 0.12335776 0.1744151 -0.14561146 -0.14361383
-0.11030945 -0.11480127 0.09060635 0.065833725 0.124368496 -0.009951614 -0.017847128 0.17331292
-0.10280496 -0.15475285 -0.0344553 0.18258896 -0.16341472 -0.17154615 0.0589604 -0.08777743
-0.05469962
00000000: 14da c53d a8c9 bb3d e0c4 a63c 6ca3 8dbd
00000010: fea2 fc3d df99 323e 2c1b 15be 810f 13be
00000020: ece9 e1bd ee1c ebbd d28f b93d d5d3 863d
00000030: e9b4 fe3d 180c 23bc 2434 92bc f178 313e
00000040: 688b d2bd 8877 1ebe 0021 0dbd 9af8 3a3e
00000050: 3056 27be cba9 2fbe 7680 713d a7c4 b3bd
00000060: b50c 60bd

ICNN2.wx_lin.1.weight f4 [1, 1, 5, 5]
0.9647458 0.8693835 0.41407982 0.60120076 -0.07790731 0.88637763 1.2577345 0.8283447
0.95453733 0.60195017 0.80070335 0.917926 0.123880565 0.25290027 -0.61500657 1.0544249
1.108523 0.74318606 1.0256557 0.23899212 0.9652588 1.0799093 0.40821013 0.6136509
-0.36299264
00000000: 95f9 763f eb8f 5e3f 4502 d43e 4be8 193f
00000010: de8d 9fbd a5e9 623f 72fd a03f 660e 543f
00000020: 8f5c 743f 6819 1a3f e5fa 4c3f 33fd 6a3f
00000030: 18b5 fd3d 257c 813e 1271 1dbf 65f7 863f
00000040: 15e4 8d3f 7141 3e3f b048 833f 5aba 743e
00000050: 331b 773f 783a 8a3f eb00 d13e 3a18 1d3f
00000060: 2cda b9be

ICNN2.final_conv2d.weight f4 [1, 1, 5, 5]
0.86452705 0.77239954 0.69578594 0.72266644 0.7795035 0.791921 0.614814 0.43716714
0.5024328 0.6314975 0.7419166 0.506394 0.27437174 0.35680452 0.52911407 0.79017556
0.61331624 0.435447 0.50093603 0.6298604 0.8843185 0.79986113 0.7369955 0.7585362
0.8076481
00000000: a551 5d3f fabb 453f 071f 323f ab00 393f
00000010: 8b8d 473f 56bb 4a3f 7364 1d3f 5fd4 df3e
00000020: 709f 003f d2a9 213f 3fee 3d3f 0aa3 013f
00000030: 747a 8c3e 15af b63e 0574 073f f248 4a3f
00000040: 4b02 1d3f e9f2 de3e 583d 003f 883e 213f
00000050: b262 623f b3c3 4c3f bdab 3c3f 6e2f 423f
00000060: 07c2 4e3f
