weights/simple_simple_ICNNPrior_ar.pt (torch, 109126 bytes, 5 tensors)

icnn.scaling f4 [1, 32, 1, 1]
-7.0098615 -7.009699 -7.0052147 -7.026048 -7.009821 -7.018787 -7.007923 -7.0052114
-7.005224 -7.009635 -7.0052233 -7.007602 -6.9077554 -6.9077554 -7.009851 -7.0052185
-7.0052247 -6.9077554 -7.005223 -6.9077554 -7.005221 -6.9077554 -6.9077554 -6.9077554
-7.0052223 -7.00522 -6.9077554 -6.9077554 -6.9077554 -6.9077554 -7.005218 -6.9077554
00000000: c950 e0c0 744f e0c0 b82a e0c0 63d5 e0c0
00000010: 7450 e0c0 e799 e0c0 e840 e0c0 b12a e0c0
00000020: cc2a e0c0 ee4e e0c0 ca2a e0c0 473e e0c0
00000030: 550c ddc0 550c ddc0 b350 e0c0 c02a e0c0
00000040: cd2a e0c0 550c ddc0 c92a e0c0 550c ddc0
00000050: c52a e0c0 550c ddc0 550c ddc0 550c ddc0
00000060: c82a e0c0 c32a e0c0 550c ddc0 550c ddc0
00000070: 550c ddc0 550c ddc0 bf2a e0c0 550c ddc0

icnn.wx.bias f4 [32]
0.0050613284 0.0061506703 -0.16233048 -0.2277838 0.34608626 -0.22612506 0.0056193764 -0.14108987
-0.23094088 0.21411036 0.16981114 0.22329095 0.17897685 -0.23675177 -0.19888084 -0.07940439
0.2763012 -0.16012476 0.0052474304 0.21612483 -0.26797712 -0.23347078 0.16770577 0.0069059553
0.27952248 -0.18060705 0.0068340176 -0.22775625 -0.11878425 -0.19682826 -0.25241205 -0.2351265
00000000: 80d9 a53b 908b c93b f639 26be 2840 69be
00000010: 3832 b13e 548d 67be bf22 b83b dd79 10be
00000020: c47b 6cbe bf3f 5b3e f9e2 2d3e 62a6 643e
00000030: b545 373e 0e6f 72be 6ba7 4bbe c59e a2bd
00000040: 5a77 8d3e bff7 23be a3f2 ab3b d44f 5d3e
00000050: 4c34 89be f712 6fbe 10bb 2b3e 5a4b e23b
00000060: 921d 8f3e 0ef1 38be e5ef df3b ef38 69be
00000070: 2845 f3bd 598d 49be 273c 81be 00c5 70be

icnn.wx.parametrizations.weight.original f4 [32, 1, 5, 5]
-0.022163419 0.006021552 8.104747e-05 0.011422043 0.012444394 0.05463881 0.004859333 -0.14247864
0.1297717 -0.03454876 -0.062436234 0.109822154 -0.1516425 0.17131981 -0.056151386 0.057752553
-0.0076452866 -0.12706459 0.0998513 -0.0077785407 -0.02124412 0.006173686 0.020522095 -0.0061035696
0.010044678 -0.019393565 -0.035173606 -0.0035112067 -0.0012800012 -0.08666242 -0.051060867 -0.081862345
0.04278596 -0.17402008 0.11134733 -0.03752058 0.121519886 -0.16906741 0.08937743 -0.15155788
-0.021527082 -0.09710593 -0.06509651 0.0041639386 0.03294426 -0.022263326 -0.049218427 0.044810146
-0.067698345 -0.0560979 -0.08016593 -0.0048401006 -0.0290948 0.054485027 -0.08036468 0.0666829
0.09094156 -0.112117894 -0.019650964 0.007889716 -0.042265467 -0.037745584 0.016480869 -0.01239085
-0.029604487 0.0387262 0.00927741 -0.0024976982 -0.0074219424 -0.045357622 0.013133831 -0.012862558
0.025963426 -0.004383075 -0.0008062389 0.035957552 -0.0927636 -0.06971907 -0.018335864 -0.04363453
-0.093698 0.009838798 -0.06957945 0.09375592 -0.055070143 -0.011286854 -0.06311426 -0.023868795
-0.09612256 -0.063767016 -0.061932832 -0.07859149 0.03289343 -0.08212433 -0.011049393 0.031132244
-0.04232822 -0.10133923 0.06952822 -0.029983392 0.0934866 0.021034593 0.095718615 0.0066847536
-0.06338117 0.039918464 0.048002806 0.18297334 0.007854567 0.18573698 0.041234143 0.050005578
-0.12643501 -0.014024462 -0.18952122 0.033656362 -0.048855107 0.047953613 -0.0182336 0.06924386
0.024431644 0.00047036356 0.13613515 -0.020111425 0.037933074 -0.018802315 -0.1084588 0.10537122
-0.12111814 0.03465019 0.13414788 0.0492689 0.031637028 0.080543146 -0.021535642 0.020882111
-0.07416315 -0.0065823444 -0.037724875 0.12439927 -0.11134634 0.040479068 0.07390902 -0.011787315
-0.014333038 0.091638096 -0.024479305 0.0938653 -0.0551784 0.002816449 -0.056183495 0.013383701
-0.052369233 -0.03575636 -0.046924554 -0.01157107 -0.031022212 -0.07084457 -0.029314851 -0.02402093
-0.13150112 -0.18394804 -0.049307056 -0.024479473 -0.046442013 0.06656045 0.20088534 0.0897879
-0.046690505 -0.017829243 -0.040191207 -0.18340902 -0.09727845 -0.04135279 -0.038608823 -0.00091102836
0.016595034 -0.0156017905 0.010191394 0.02739349 -0.0026145484 0.040716518 -0.058469944 0.08558941
-0.12343064 0.08471081 -0.121819116 0.18952498 -0.19727121 0.205487 -0.06933427 0.007804917
-0.06943782 0.03148699 -0.11881797 -0.021235796 -0.0065944004 -0.0068436405 -0.028383292 -0.0024444398
0.028646203 0.014127379 -0.0400259 0.02323212 0.010134392 -0.057889603 -0.0061784447 0.083871596
-0.037909944 -0.001797319 0.14452316 -0.06578402 -0.123251855 0.10876699 0.024762189 -0.009310583
-0.049149685 0.055528145 -0.03359778 -0.06905042 0.0065170135 -0.021790983 -0.07220835 0.053329214
-0.00011018006 -0.0101461755 0.025349773 -0.047591783 0.04295006 -0.07792046 -0.10219422 0.083779074
-0.08034426 -0.040780406 0.07436622 0.040772393 -0.03977108 0.028339824 0.011411886 -0.13146482
0.011903384 -0.06371251 -0.029042907 -0.09723329 0.10937524 -0.026192613 -0.04066501 0.0153553365
0.038901825 -0.07173968 -0.028768161 -0.01363009 0.03699774 -0.14553332 0.06201576 -0.013046783
00000000: 0f90 b5bc 7050 c53b 07f8 a938 8523 3b3c
00000010: 92e3 4b3c f2cc 5f3d 0a3b 9f3b ece5 11be
00000020: dfe2 043e 0083 0dbd 23bd 7fbd 70ea e03d
00000030: 2c48 1bbe 766e 2f3e fffe 65bd f18d 6c3d
00000040: 5085 fabb 381d 02be d77e cc3d 21e3 febb
00000050: 2608 aebc a24c ca3b f41d a83c 7400 c8bb
00000060: 6f92 243c 41df 9ebc 3312 10bd 461c 66bb
00000070: b7c5 a7ba 117c b1bd 3325 51bd 72a7 a7bd
00000080: 5540 2f3d 5232 32be 120a e43d 2eaf 19bd
00000090: 6bdf f83d 0220 2dbe 840b b73d fd31 1bbe
000000a0: 9059 b0bc 79df c6bd 5251 85bd a671 883b
000000b0: 8ff0 063d 9461 b6bc 4399 49bd d88a 373d
000000c0: 6ea5 8abd e9c6 65bd 092e a4bd b599 9ebb
000000d0: 3858 eebc b12b 5f3d 3d96 a4bd 0b91 883d
000000e0: 923f ba3d 119e e5bd 0ffb a0bc de43 013c
000000f0: 8e1e 2dbd 1d9b 1abd e302 873c fe02 4bbc
00000100: 1c85 f2bc 5d9f 1e3d 4700 183c 6cb0 23bb
00000110: c433 f3bb eac8 39bd 482f 573c 7abd 52bc
00000120: 40b1 d43c e69f 8fbb c759 53ba 3a48 133d
00000130: d8fa bdbd dfc8 8ebd 1835 96bc 1fba 32bd
00000140: bde4 bfbd e932 213c ac7f 8ebd 1b03 c03d
00000150: 3b91 61bd 7fec 38bc 0d42 81bd 7e88 c3bc
00000160: e8db c4bd 4898 82bd 48ad 7dbd 93f4 a0bd
00000170: 43bb 063d cd30 a8bd 8308 35bc 0c09 ff3c
00000180: 5b60 2dbd f18a cfbd d064 8e3d bb9f f5bc
00000190: e775 bf3d bd50 ac3c 1f08 c43d c70b db3b
000001a0: fdcd 81bd 8b81 233d 979e 443d 5d5d 3b3e
000001b0: 71b0 003c d631 3e3e 22e5 283d a6d2 4c3d
000001c0: 2e78 01be dbc6 65bc da11 42be 41db 093d
000001d0: 4b1c 48bd 026b 443d a15e 95bc bacf 8d3d
000001e0: df24 c83c 219b f639 0367 0b3e b7c0 a4bc
000001f0: b65f 1b3d 5007 9abc a61f debd decc d73d
00000200: ca0c f8bd 5ced 0d3d 105e 093e 30ce 493d
00000210: d495 013d cef3 a43d 846b b0bc f610 ab3c
00000220: d9e2 97bd b5b0 d7bb 6685 1abd 0bc5 fe3d
00000230: 8d09 e4bd 61cd 253d 9d5d 973d 951f 41bc
00000240: 1ed5 6abc c1ac bb3d d388 c8bc 733c c03d
00000250: bf02 62bd 2c94 383b aa20 66bd 5047 5b3c
00000260: 1f81 56bd 4375 12bd f633 40bd 9694 3dbc
00000270: 4b22 febc f516 91bd b325 f0bc 8bc7 c4bc
00000280: 3ba8 06be e05c 3cbe 32f6 49bd 2d89 c8bc
00000290: fb39 3ebd d850 883d e3b4 4d3e b8e2 b73d
000002a0: 8b3e 3fbd a20e 92bc 899f 24bd 93cf 3bbe
000002b0: ed39 c7bd 8b61 29bd 4924 1ebd 14d2 6eba
000002c0: 4ff2 873c a79e 7fbc cef9 263c 5068 e03c
000002d0: d858 2bbb 5dc6 263d 2e7e 6fbd 8049 af3d
000002e0: 34c9 fcbd dc7c ad3d 4d7c f9bd d612 423e
000002f0: 7701 4abe 2f6b 523e 20ff 8dbd 64c0 ff3b
00000300: 6a35 8ebd 81f8 003d d656 f3bd b1f6 adbc
00000310: d715 d8bb 9e40 e0bb 1484 e8bc e532 20bb
00000320: 71ab ea3c 8676 673c 33f2 23bd 4951 be3c
00000330: b90a 263c a61d 6dbd 8d74 cabb dfc4 ab3d
00000340: 7547 1bbd 0594 ebba e1fd 133e c6b9 86bd
00000350: 786b fcbd 3ac1 de3d 13da ca3c 6a8b 18bc
00000360: 2e51 49bd 7b71 633d d39d 09bd 4e6a 8dbd
00000370: ac8c d53b 0183 b2bc f9e1 93bd bc6f 5a3d
00000380: 7810 e7b8 253c 26bc 54aa cf3c 9aef 42bd
00000390: 67ec 2f3d c394 9fbd 344b d1bd 5d94 ab3d
000003a0: 888b a4bd 5b09 27bd 514d 983d f400 273d
000003b0: 00e7 22bd eb28 e83c ebf8 3a3c b79e 06be
000003c0: 6906 433c b47b 82bd 64eb edbc 3f22 c7bd
000003d0: 2000 e03d e491 d6bc 5b90 26bd f394 7b3c
000003e0: 8557 1f3d 41ec 92bd 35ab ebbc be50 5fbc
000003f0: f18a 173d b006 15be 3d04 7e3d 2dc2 55bc

icnn.wz.weight f4 [32, 32, 5, 5]
0.00558277 0.007573191 0.009059507 0.003458549 0.001062106 0.020087754 0.022081405 0.023564275
0.017956305 0.0041330336 0.040176697 0.042174585 0.043655496 0.038059946 0.02427838 0.022038061
0.024093432 0.025566835 0.019969871 0.0061380123 0.0071191015 0.009227819 0.010701264 0.0050918045
0.0011849039 0.0017067669 0.0070953975 0.023221057 0.011213376 0.0018109821 0.0032980496 0.017950593
0.034068994 0.02206217 0.0116325645 0.022823684 0.03747963 0.053586133 0.041601922 0.031235093
0.008672578 0.023381881 0.03948471 0.027472066 0.017075974 0.0019300521 0.011037636 0.027164068
0.01515112 0.0047593596 0.0108525725 0.010919059 0.010945429 0.010929021 0.010847071 0.010602221
0.010668747 0.010695089 0.010678712 0.010596859 0.010657587 0.0107238935 0.010750213 0.010733841
0.010652055 0.0106601445 0.010726443 0.010752754 0.010733945 0.01065216 0.002148866 0.0021479153
0.0021478496 0.0021475456 0.0021476655 0.0 0.0 0.0 0.0 0.0
0.0 0.0 0.0 0.0 0.0 0.0 0.0 0.0
0.0 0.0 0.0 0.0 0.0 0.0 0.0 0.0
0.0 0.0 0.0 0.0 0.008495295 0.02810216 0.006090435 0.0077533005
0.0034036445 0.0129425945 0.029217139 0.011479001 0.010695869 0.006840303 0.006280324 0.053442277
0.0035416323 0.004268544 0.0022544956 0.02121636 0.12933086 0.027314996 0.04600026 0.0061570583
0.003255858 0.0034444768 0.0034401487 0.004199311 0.0025387069 0.0002788939 0.0002788939 0.0003550424
0.00035480974 0.00035480974 0.0002788939 0.0002788939 0.0003550424 0.00035480974 0.00035480974 0.0002788939
0.0002788939 0.0003550424 0.00035480974 0.00035480974 0.0002788939 0.0002788939 0.0003550424 0.00035480974
0.00035480974 0.00021323722 0.00021323722 0.00031824643 0.00031817972 0.00031817972 0.006851682 0.017636638
0.042224344 0.0341509 0.01937249 0.008540962 0.019302594 0.043915402 0.035844035 0.021145228
0.01029544 0.021071065 0.045673527 0.03760368 0.022890018 0.0011893079 0.0012855768 0.023913288
0.015774451 0.0012857527 0.0011442094 0.0012086952 0.015000337 0.0068757837 0.0012089853 0.001693289
0.0016925557 0.0016942272 0.0016961237 0.0016902953 0.001710811 0.0017100706 0.0017117439 0.0017136248
0.0017078279 0.014346799 0.014666856 0.014835536 0.013881243 0.012229068 0.013870317 0.01419195
0.014360966 0.01345979 0.011804801 0.0138427075 0.014164499 0.014333535 0.013435733 0.011780999
0.0009589038 0.00095888285 0.00095888285 0.00095888285 0.00095888285 0.00095888245 0.000958861 0.000958861
0.000958861 0.000958861 0.0014657846 0.0017887445 0.0017891105 0.0016638542 0.0016670114 0.0014228589
0.001745809 0.0017461759 0.0016209425 0.0016241285 0.0013601178 0.0016833119 0.0016836732 0.0015584156
0.0015615855 0.0015773228 0.001082493 0.001612221 0.000605643 0.003432171 0.0022968396 0.0021683052
0.002441826 0.0011965336 0.0036305734 0.0017658198 0.00071270444 0.0018540947 0.0010962102 0.003181573
0.0010620212 0.00050299073 0.0016215843 0.00095322076 0.0021339864 0.0019051976 0.00047944346 0.001875768
0.0012709872 0.0046196235 0.0 0.023764031 0.0038522535 0.04511935 0.008206427 0.0
00000000: abef b63b 8828 f83b 546e 143c d3a8 623b
00000010: 5d36 8b3a 138f a43c 10e4 b43c de09 c13c
00000020: 1a19 933c 666e 873b 5290 243d 42bf 2c3d
00000030: 1bd0 323d bfe4 1b3d 74e3 c63c 2a89 b43c
00000040: 975f c53c 8a71 d13c db97 a33c 6121 c93b
00000050: 5a47 e93b 4730 173c 5b54 2f3c 27d9 a63b
00000060: c74e 9b3a 98b5 df3a 8280 e83b 163a be3c
00000070: 4fb8 373c 7a5e ed3a 1724 583b 1f0d 933c
00000080: ee8b 0b3d b9bb b43c 8396 3e3c bcf8 ba3c
00000090: 3e84 193d 227d 5b3d c766 2a3d bde0 ff3c
000000a0: 6e17 0e3c 5c8b bf3c b8ba 213d 190d e13c
000000b0: eae2 8b3c cdf9 fc3a 33d7 343c 2e87 de3c
000000c0: 673c 783c 67f4 9b3b fdce 313c dae5 323c
000000d0: 7554 333c a30f 333c eab7 313c f0b4 2d3c
000000e0: f8cb 2e3c 743a 2f3c c4f5 2e3c 739e 2d3c
000000f0: 299d 2e3c 45b3 2f3c a921 303c fedc 2f3c
00000100: f585 2e3c e3a7 2e3c f6bd 2f3c 522c 303c
00000110: 6edd 2f3c 6686 2e3c fdd3 0c3b 0ac4 0c3b
00000120: f0c2 0c3b d6bd 0c3b d9bf 0c3b 0000 0000
00000130: 0000 0000 0000 0000 0000 0000 0000 0000
00000140: 0000 0000 0000 0000 0000 0000 0000 0000
00000150: 0000 0000 0000 0000 0000 0000 0000 0000
00000160: 0000 0000 0000 0000 0000 0000 0000 0000
00000170: 0000 0000 0000 0000 0000 0000 0000 0000
00000180: 0000 0000 0000 0000 0000 0000 0000 0000
00000190: da2f 0b3c 8036 e63c 4692 c73b 660f fe3b
000001a0: ae0f 5f3b 2d0d 543c c858 ef3c 6b12 3c3c
000001b0: ba3d 2f3c 9f24 e03b 2dcb cd3b 4ae6 5a3d
000001c0: bb1a 683b 24df 8b3b 29c0 133b efcd ad3c
000001d0: 4f6f 043e b3c3 df3c c56a 3c3d 26c1 c93b
000001e0: 3c60 553b bbbc 613b 1e74 613b 609a 893b
000001f0: 6f60 263b 8138 9239 8138 9239 fc24 ba39
00000200: c205 ba39 c205 ba39 8138 9239 8138 9239
00000210: fc24 ba39 c205 ba39 c205 ba39 8138 9239
00000220: 8138 9239 fc24 ba39 c205 ba39 c205 ba39
00000230: 8138 9239 8138 9239 fc24 ba39 c205 ba39
00000240: c205 ba39 6e98 5f39 6e98 5f39 50da a639
00000250: 5cd1 a639 5cd1 a639 1384 e03b b67a 903c
00000260: 6ff3 2c3d d0e1 0b3d 0eb3 9e3c 64ef 0b3c
00000270: 7920 9e3c a3e0 333d 32d1 123d c238 ad3c
00000280: 35ae 283c 3a9d ac3c 2a14 3b3d 5106 1a3d
00000290: d983 bb3c 8de2 9b3a cd80 a83a cde5 c33c
000002a0: 6c39 813c b486 a83a 4cf9 953a 156d 9e3a
000002b0: f9c3 753c 414e e13b d176 9e3a 5af1 dd3a
000002c0: bfd8 dd3a d510 de3a 7850 de3a e68c dd3a
000002d0: 4b3d e03a 7324 e03a 985c e03a b59b e03a
000002e0: 32d9 df3a d60e 6b3c 414d 703c bf10 733c
000002f0: 276e 633c 6e5c 483c 5340 633c 5a85 683c
00000300: 424a 6b3c 7386 5c3c ed68 413c 86cc 623c
00000310: 3712 683c 34d7 6a3c 8c21 5c3c 1705 413c
00000320: f25e 7b3a 8a5d 7b3a 8a5d 7b3a 8a5d 7b3a
00000330: 8a5d 7b3a 835d 7b3a 135c 7b3a 135c 7b3a
00000340: 135c 7b3a 135c 7b3a 921f c03a 4e74 ea3a
00000350: 9680 ea3a af15 da3a 9f7f da3a 397f ba3a
00000360: a1d3 e43a f1df e43a ce75 d43a b6e0 d43a
00000370: fb45 b23a 93a2 dc3a b3ae dc3a c043 cc3a
00000380: 1dae cc3a 2cbe ce3a 70e2 8d3a 2951 d33a
00000390: 04c4 1e3a 46ee 603b 9386 163b 201a 0e3b
000003a0: 0b07 203b 01d5 9c3a eaee 6d3b 1573 e73a
000003b0: c9d4 3a3a 1805 f33a b6ae 8f3a f081 503b
000003c0: 8533 8b3a 23db 033a 578b d43a 90e1 793a
000003d0: 5ada 0b3b d3b7 f93a d05d fb39 54dc f53a
000003e0: 4197 a63a 3660 973b 0000 0000 c9ac c23c
000003f0: 1776 7c3b 11cf 383d 4074 063c 0000 0000

icnn.wz.bias f4 [32]
0.00888468 0.009758819 0.02104417 0.01595039 0.008458025 0.017204013 0.013563891 0.026996301
0.033820193 0.010073356 0.013491574 0.0141226025 -0.02088725 -0.034673695 0.008580244 0.01057196
0.009898209 -0.005129567 0.0110134985 -0.027853293 0.009811222 -0.02310608 -0.024197623 -0.016407583
0.014273983 0.020615272 -0.0106024705 -0.015478528 -0.030891934 -0.012157507 0.025047882 -0.013722509
00000000: 0d91 113c 74e3 1f3c d364 ac3c 64aa 823c
00000010: 8793 0a3c 6eef 8c3c 153b 5e3c 5927 dd3c
00000020: 0b87 0a3d b80a 253c c30b 5d3c 7d62 673c
00000030: bd1b abbc 0106 0ebd 2794 0c3c 0436 2d3c
00000040: 192c 223c ed15 a8bb f671 343c 972c e4bc
00000050: 3fbf 203c f648 bdbc 183a c6bc 3269 86bc
00000060: 6ddd 693c 5ce1 a83c fcb5 2dbc a799 7dbc
00000070: 1511 fdbc 4830 47bc 3731 cd3c 60d4 60bc
