weights/WCRR_bilevel.pt (torch, 57721 bytes, 4 tensors)

scaling f4 [1, 64, 1, 1]
0	0x40458160	3.0860214
1	0x406ea4a0	3.728798
2	0x405599f4	3.3375216
3	0x40761f57	3.8456628
4	0x40509be0	3.2595139
5	0x405a806f	3.414089
6	0x405de0e6	3.4668517
7	0x404c206f	3.1894796
8	0x40736a7b	3.803374
9	0x40571f21	3.361275
10	0x40706455	3.7561238
11	0x4052678c	3.28757
12	0x404be587	3.1858842
13	0x40635e5f	3.552635
14	0x40728a0a	3.7896752
15	0x404facd8	3.2449245
16	0x405ebc07	3.4802263
17	0x406b6f39	3.6786635
18	0x404d7019	3.209967
19	0x404c59cf	3.1929815
20	0x4077f4c5	3.8743145
21	0x406aa2e5	3.6661923
22	0x40609556	3.5091147
23	0x4058d38e	3.3879123
24	0x405a32a8	3.4093418
25	0x4049c90b	3.1528957
26	0x406dd77b	3.716277
27	0x4072a8fa	3.7915635
28	0x405b0070	3.4219017
29	0x4057735b	3.3664157
30	0x405592d2	3.3370862
31	0x4063e3b3	3.5607727
32	0x40490fe5	3.1415951
33	0x4042a862	3.0415273
34	0x405733a0	3.362526
35	0x404e51df	3.223747
36	0x404fc449	3.2463553
37	0x405ff617	3.4993951
38	0x4072492a	3.7857156
39	0x404e4648	3.2230396
40	0x40540f81	3.3134463
41	0x40504da2	3.2547383
42	0x4059d164	3.4034052
43	0x405095d0	3.2591438
44	0x405c41e3	3.4415214
45	0x40679c3d	3.618911
46	0x406338ba	3.5503373
47	0x40447cdb	3.0701206
48	0x40506000	3.2558594
49	0x4055c589	3.3401816
50	0x405c45cf	3.4417608
51	0x4074f816	3.827642
52	0x406948c9	3.6450675
53	0x40521dfe	3.2830806
54	0x407ad816	3.9194388
55	0x404eec85	3.233186
56	0x4078808b	3.8828456
57	0x406a5186	3.6612258
58	0x40516e72	3.272366
59	0x405d2cf6	3.4558692
60	0x4063d1dd	3.559684
61	0x4059b754	3.4018145
62	0x4059745a	3.3977265
63	0x4054f9af	3.3277395

filters.0.parametrizations.weight.original f4 [4, 1, 5, 5]
0	0xbcaa6826	-0.020801615
1	0xbd8fc7bc	-0.07020518
2	0xbd686bcd	-0.05674343
3	0xbde35567	-0.111002736
4	0x3de94311	0.11389745
5	0x3dcad4bd	0.09903858
6	0xbbd4d12b	-0.0064946613
7	0x3e87e912	0.26545006
8	0xbdb2125e	-0.086949095
9	0x3db6f6bd	0.0893378
10	0xbe24d67c	-0.16097444
11	0x3e134042	0.14379981
12	0xbecacf93	-0.39611492
13	0xbd95b688	-0.07310206
14	0xbe4db562	-0.20088723
15	0x3dae245c	0.08503029
16	0xbc4fcc55	-0.012682994
17	0xbcb3c3b8	-0.021943912
18	0xbda344f7	-0.079721384
19	0x3e3a51f4	0.18195325
20	0xbca5eb37	-0.02025376
21	0xbd3e04f4	-0.046391442
22	0x3dc879da	0.09788866
23	0x3e171280	0.14753151
24	0x3dd6664f	0.104687326
25	0x3c278d22	0.01022652
26	0x3d4cdebb	0.0500171
27	0x3d3507a2	0.044196732
28	0xbe0f5289	-0.13996328
29	0x3d60bc76	0.05486723
30	0x3d92fa01	0.07176591
31	0xbc8b8079	-0.017029034
32	0xbe192446	-0.14955243
33	0xbdadd651	-0.08488143
34	0x3c3d1f73	0.011543143
35	0xbe1730dd	-0.14764734
36	0xbcbc9132	-0.023018453
37	0x3ee6d6e5	0.45085827
38	0xbe9a1a4e	-0.30098194
39	0xbddfd7fb	-0.10929867
40	0x3e520681	0.20510294
41	0xbe67fa0c	-0.22653979
42	0x3d2817a8	0.041038185
43	0xbe6428cd	-0.2228119
44	0xbdd269d6	-0.10274093
45	0xbda321ff	-0.079654686
46	0xbd836ea7	-0.0641759
47	0x3c530431	0.012879417
48	0x3e35a89d	0.17740102
49	0xbd832a5c	-0.06404564
50	0x3c6a0ce5	0.014285301
51	0xbe3a9ff9	-0.18225087
52	0x3e5bc85e	0.21463153
53	0x3d74943f	0.05971169
54	0x3da851da	0.08218737
55	0x3e20d5d8	0.15706575
56	0x3e031cad	0.12803908
57	0x3e35f031	0.17767407
58	0x3e3f78cc	0.18698424
59	0xbe087e71	-0.13329484
60	0x3de628c3	0.112382434
61	0x3d0180e7	0.03161707
62	0x3ea2e9d3	0.3181902
63	0x3e4307a3	0.19045882
64	0xbdf44e12	-0.11928953
65	0xbdf7b6ad	-0.120953895
66	0xbdfd6ec4	-0.123746425
67	0xbd60b4bd	-0.054859865
68	0xbdaa7e32	-0.08324851
69	0x3e2e8da7	0.17046224
70	0x3dcaf3e1	0.099097975
71	0xbcc69826	-0.024242472
72	0xbe0c4934	-0.136998
73	0x3d87f37f	0.0663824
74	0x3d79f3e7	0.06102362
75	0x3dd33da1	0.10314489
76	0x3b4623dc	0.0030233776
77	0xbc9e130f	-0.019296197
78	0x3c07b2f0	0.008282408
79	0xba82c7d9	-0.0009977772
80	0xbdc2488c	-0.094864935
81	0xbd9f1b22	-0.07768847
82	0xbe14563b	-0.1448602
83	0x3dd66135	0.104677595
84	0x3d784ace	0.060618214
85	0x3e2a2c5c	0.16618484
86	0xbe97f6e1	-0.2968054
87	0xbe980489	-0.2969096
88	0x3e687724	0.22701699
89	0x3e389394	0.18025047
90	0xbbeb5998	-0.0071823113
91	0xbd21a145	-0.03946044
92	0x3e83d44e	0.25747913
93	0xbe7f1c79	-0.24913205
94	0xbdea1a8c	-0.11430845
95	0xbccbec6b	-0.024893006
96	0xbddb716b	-0.10714992
97	0x3db90bf7	0.09035485
98	0xbc6161c3	-0.013756218
99	0x3da84943	0.082170986

filters.1.weight f4 [8, 4, 5, 5]
0	0x3c50c091	0.012741224
1	0xbd825126	-0.06363134
2	0xbb0ea4f3	-0.0021765798
3	0xbcd9f657	-0.026606722
4	0x3d5aa48e	0.053379588
5	0xbd9644dd	-0.073373534
6	0xbd49b3d6	-0.04924377
7	0x3d866083	0.06561377
8	0x3def55cd	0.11686287
9	0xbb9776bf	-0.00462231
10	0x3d601756	0.054709755
11	0x3db8dee8	0.09026891
12	0xbdbfdd7b	-0.09368416
13	0xbe303b91	-0.17210223
14	0x3cdcb490	0.026941568
15	0xbd8d6343	-0.06903698
16	0xbdbcf5a4	-0.0922654
17	0xbd0db9f1	-0.034601156
18	0xbd2d6c1c	-0.04233943
19	0xbd8ff629	-0.07029373
20	0x3bdf25fc	0.006809948
21	0x3dc22f6f	0.094817035
22	0xbe085a59	-0.13315715
23	0x3d08764a	0.033315934
24	0xbd53296c	-0.051553175
25	0xba849bac	-0.0010117195
26	0xbc15fa89	-0.0091539705
27	0xbcc0999a	-0.023510743
28	0x3d6570b0	0.05601567
29	0x3d785769	0.060630236
30	0xbcefc4d5	-0.029268662
31	0x3d5db3a8	0.05412641
32	0x3e4b2e6b	0.19841926
33	0xbdca4943	-0.09877255
34	0x3d06201b	0.032745462
35	0x3cca612f	0.024704544
36	0xbe059f7e	-0.13049123
37	0x3d08298e	0.033242755
38	0x3da5dacd	0.080983736
39	0xbd7c4ee4	-0.061598673
40	0xbb91a4ff	-0.004444718
41	0xbdf94bdc	-0.12172672
42	0xbdfa570e	-0.122236356
43	0xbad99aa6	-0.0016601875
44	0xbcad1380	-0.021127462
45	0xbcacc601	-0.02109051
46	0xbd6f8944	-0.058480516
47	0xbda68fb1	-0.08132876
48	0x3c8299f9	0.01594256
49	0xbda50f25	-0.08059529
50	0x3cb656bc	0.022258155
51	0xbc9518c2	-0.018200282
52	0xbd91a270	-0.071110606
53	0xbd6445f6	-0.055730782
54	0x3d1ebc9f	0.0387541
55	0x3c2348b0	0.0099660605
56	0x3d0005da	0.03125558
57	0xbdac3e80	-0.084103584
58	0xbe1e8dbd	-0.15483756
59	0x3c7e1d3f	0.0155099025
60	0xbd5c0f8a	-0.053725757
61	0x3d0cdc57	0.03438982
62	0xbd58eb90	-0.052959025
63	0x3cb7b52b	0.022425255
64	0x3dac564e	0.08414899
65	0x3d2028d7	0.039101448
66	0xbe7737fb	-0.24142449
67	0x3d1a1365	0.037616152
68	0x3cbe93ec	0.023263894
69	0xbdd8c6c5	-0.10584787
70	0xbd7b9b59	-0.061427448
71	0xbd3f2aa4	-0.046671525
72	0x3d4eeac8	0.050516874
73	0xbdb5eca7	-0.088830285
74	0xbc680de9	-0.014163473
75	0x3c89fc69	0.016843991
76	0xbc69aebc	-0.014262851
77	0xbd67bf9a	-0.05657921
78	0xbe104701	-0.14089586
79	0x3d97262c	0.073803276
80	0x3b8fc3de	0.004387363
81	0x3d618a96	0.055063806
82	0x3d1d4320	0.038394094
83	0xbdcdcb98	-0.10048598
84	0x3ce77f45	0.028258929
85	0x3d083620	0.033254743
86	0x3ddb833d	0.10718391
87	0xbe325f9c	-0.17419285
88	0x3d48597b	0.04891346
89	0x3dd2c88e	0.10292159
90	0xbdc87d6e	-0.09789549
91	0x3dc50d21	0.09621645
92	0x3e2a123a	0.16608515
93	0xbdd1267f	-0.10212421
94	0xbd7507f6	-0.059822045
95	0x3d8d7cc4	0.06908563
96	0x3d195119	0.037430856
97	0x3d742ded	0.05961411
98	0x3e09d606	0.1346055
99	0xbda4625d	-0.08026574
100	0x3cda7780	0.02666831
101	0xbdfad55a	-0.12247725
102	0x3dfcdf2f	0.123472564
103	0xbcf08bc4	-0.02936352
104	0x3d894d92	0.067042485
105	0x3ccf5283	0.0253079
106	0x3d1d4841	0.038398985
107	0x3d468092	0.048462458
108	0xbe108339	-0.14112557
109	0xbdd22606	-0.10261159
110	0xbd928eed	-0.07156167
111	0x3d9390a2	0.07205321
112	0x3d19b300	0.037524223
113	0xbd3652ea	-0.044512667
114	0x3dfdec4b	0.12398585
115	0xbc39b86d	-0.011335474
116	0x3ce11834	0.027477361
117	0x3dc90ef2	0.09817304
118	0xbda85bb3	-0.08220615
119	0xbd49731a	-0.049182035
120	0xbd5289b1	-0.051400844
121	0x3d9cce26	0.07656507
122	0xbcaeacb2	-0.021322582
123	0xbbbee9b2	-0.0058261985
124	0x3c4bdec9	0.012443253
125	0xbd31bafc	-0.043391213
126	0x3dfbe0a9	0.1229871
127	0xbccc05da	-0.024905134
128	0x3d4612d1	0.04835779
129	0xbdc54009	-0.09631354
130	0xbcb02a2f	-0.02150449
131	0x3d7708e9	0.06031123
132	0xbdc45660	-0.09586787
133	0xbd57bc1b	-0.052669626
134	0xbc19825d	-0.00936946
135	0xbc65b2c3	-0.014019671
136	0xbc81bd72	-0.015837405
137	0xbe26a7c3	-0.16274934
138	0x3e6fd975	0.23422797
139	0xbe101517	-0.14070545
140	0xbd8b3148	-0.06796509
141	0x3dc54351	0.0963198
142	0xbdec176c	-0.11527905
143	0xbd1dffa5	-0.03857388
144	0xbd9e6236	-0.07733576
145	0x3d44de2a	0.048063435
146	0xbc592bbd	-0.013255057
147	0xbceb0e08	-0.028693214
148	0x3dad863f	0.08472871
149	0xbdaa2f53	-0.08309808
150	0xbbcaeaf7	-0.006192561
151	0x3d584c95	0.05280741
152	0x3bb537c9	0.0055303317
153	0x3bf3155a	0.007418317
154	0xbd98fa52	-0.0746962
155	0x3c887e73	0.016661858
156	0xbd40e86e	-0.047096662
157	0x3db301c4	0.08740571
158	0x3e3d5987	0.18491183
159	0x3d2b7674	0.041861013
160	0x3da22ebe	0.079190716
161	0xbdf39041	-0.118927486
162	0xbc6b7518	-0.014371179
163	0x3d006270	0.031343877
164	0xbd21893c	-0.039437518
165	0xbdaa1f99	-0.08306808
166	0x3ca74595	0.020418921
167	0x3dba2981	0.090899475
168	0x3d7a74c8	0.061146528
169	0xbd1e2793	-0.03861196
170	0xbcfbc5cd	-0.030733967
171	0x3cd350f6	0.025795441
172	0x3cb44c67	0.022009088
173	0xbca493e8	-0.020090058
174	0xbc93f26d	-0.018059934
175	0xbcaa74f2	-0.020807717
176	0xbc2d94fc	-0.010594603
177	0xbd1aea4b	-0.037821095
178	0x3da701a8	0.08154613
179	0x3ceaa989	0.028645294
180	0x3c9e44ac	0.019319855
181	0x3c101184	0.008793239
182	0xbe1f1f61	-0.15539314
183	0x3e456da2	0.19280103
184	0xbde0cdcc	-0.10976753
185	0x3cdf0594	0.02722434
186	0xbd7f6881	-0.062355522
187	0xbc25b4a0	-0.010113865
188	0xbcc69abe	-0.024243709
189	0x3cfb030c	0.030641101
190	0x3dd613e6	0.10453014
191	0xbbcaee21	-0.006192938
192	0x3e2ee1bf	0.17078303
193	0x3def1768	0.11674386
194	0xbe425d6b	-0.18980949
195	0xbd15c718	-0.036566824
196	0xbc98d6ff	-0.018657206
197	0x3e132b17	0.14371906
198	0xbdff6278	-0.12469953
199	0xbd91d0fb	-0.07119938
200	0xbd06e61f	-0.032934304
201	0xbe30dec3	-0.17272477
202	0xbb1650b4	-0.0022936286
203	0xbe0699c7	-0.13144599
204	0x3caab941	0.02084029
205	0x3dde04bb	0.10840746
206	0xbe0a351c	-0.13496822
207	0xbe2ac6ba	-0.1667737
208	0xbb8ffcbe	-0.004394143
209	0xbe3589d6	-0.17728361
210	0xbcf6082e	-0.030033197
211	0xbd0116e4	-0.03151597
212	0x3e36809f	0.17822503
213	0xbb920cca	-0.004457091
214	0x3cee2ecb	0.029075047
215	0x3cabe58e	0.020983484
216	0x3e43c0ed	0.19116564
217	0xbda79877	-0.08183377
218	0x3def63a9	0.116889305
219	0x3cd03812	0.025417361
220	0x3b728cde	0.0037010233
221	0xbcf5a19b	-0.029984286
222	0xba27ebc3	-0.00064056757
223	0xbd9a1167	-0.075228505
224	0xbbd09535	-0.006365443
225	0x3cb0b8b2	0.021572445
226	0xbd601a9c	-0.054712877
227	0xbe011b5e	-0.12608096
228	0x3c3e84cd	0.011628342
229	0xbe059f68	-0.1304909
230	0xbcd25f83	-0.02568031
231	0x3d6979a7	0.057000782
232	0xbdf24aa3	-0.11830642
233	0x3e150e43	0.14556222
234	0x3c8f4615	0.017489472
235	0x3dd78d8d	0.105250455
236	0xbd8d5601	-0.069011696
237	0x3d9c7dcd	0.07641182
238	0xbe1e69aa	-0.15469995
239	0xbe652e86	-0.22381029
240	0xbdb672ed	-0.08908639
241	0xbe04e8e5	-0.12979467
242	0x3d9d08b6	0.07667677
243	0x3e19489f	0.14969109
244	0x3e10c954	0.141393
245	0x3c54de53	0.012992459
246	0x3d72f349	0.059314046
247	0x3cf054b2	0.02933726
248	0x3da77ce2	0.081781164
249	0x3d8e22bf	0.06940221
250	0x3cea0c4d	0.028570319
251	0x3b4991a2	0.003075697
252	0x3d6c8595	0.05774458
253	0x3d8eae73	0.06966867
254	0xbdc889a6	-0.09791879
255	0xbd522ccc	-0.051312253

filters.2.weight f4 [64, 8, 5, 5]
0	0xb9e0dbac	-0.00042888278
1	0xbdb70a6f	-0.08937537
2	0xbd14e668	-0.036352545
3	0xbc3330cb	-0.010936926
4	0x3d4fb0ae	0.050705604
5	0xbd37d871	-0.04488415
6	0xbc720e7c	-0.014773961
7	0x3d376a7f	0.044779297
8	0x3ca77bb1	0.020444723
9	0xbd83e81b	-0.06440755
10	0x3db593c8	0.08866078
11	0x3d1907dd	0.037361015
12	0x3d127eec	0.035765573
13	0xbc079e5a	-0.0082775
14	0x3c86fd64	0.016478248
15	0x3b7c4670	0.0038494132
16	0x3b861fb2	0.004093134
17	0xbd46321b	-0.048387628
18	0x3ce5f4e2	0.02807087
19	0x3c7b2e5a	0.015330875
20	0xbd28169b	-0.041037183
21	0x3cc35f6b	0.02384921
22	0xbcb42548	-0.021990433
23	0xbc243297	-0.010021827
24	0xbb1fb68a	-0.0024370276
25	0xbd6316f2	-0.055441804
26	0xbdddc32b	-0.10828241
27	0x3b0431dd	0.0020171322
28	0x3d017cad	0.03161304
29	0xbb945981	-0.0045272713
30	0xbd10d046	-0.035354875
31	0x3d1dc982	0.03852225
32	0xbd358dda	-0.044324733
33	0xbda8c57e	-0.08240794
34	0xbd0bf549	-0.03416947
35	0x3e1bd3b8	0.15217483
36	0x3c82bcab	0.015959105
37	0xbc85ad66	-0.016318034
38	0xbcc343bf	-0.023836015
39	0xbbae1d1a	-0.005313528
40	0xbd88f2e5	-0.066869535
41	0x3d7f4c77	0.062328782
42	0x3c4fa7e5	0.0126743065
43	0x3db6bc6f	0.089226596
44	0xbd0ce991	-0.034402434
45	0x3d1e56f4	0.038657144
46	0xbc07c478	-0.008286588
47	0x3daf35ff	0.08555221
48	0xbc828363	-0.01593179
49	0x3d885efb	0.06658741
50	0x3c63173e	0.013860522
51	0xbdafd407	-0.08585363
52	0x3a8ed17c	0.0010896171
53	0x3a83e585	0.0010062909
54	0xbd792d1f	-0.060834046
55	0xbdb0b76f	-0.08628737
56	0x3d6ffd53	0.0585912
57	0xbd920eec	-0.07131752
58	0x3d301f25	0.04299845
59	0x3d8e848f	0.06958877
60	0x3da404d8	0.08008736
61	0x3d0c88b6	0.034310065
62	0x3e6c414c	0.23071784
63	0x3df1d1c9	0.118075915
64	0xbc952c81	-0.018209698
65	0xbe33db76	-0.17564186
66	0xbd0eae4a	-0.034834184
67	0xbdc889f2	-0.09791936
68	0xbcb9b60b	-0.022669813
69	0x3c39b7ba	0.011335308
70	0x3c3ff2fe	0.011715649
71	0xbdb996bf	-0.09061956
72	0x3dd11111	0.10208333
73	0xbd2810b0	-0.04103154
74	0x3d33eca0	0.043926835
75	0xbcb282a1	-0.021790804
76	0xbd27de38	-0.04098341
77	0x3c869d99	0.01643257
78	0x3d522ee1	0.05131424
79	0xbc6e71f6	-0.014553538
80	0x3c0155d0	0.007893994
81	0xbce6c032	-0.028167818
82	0x3c8f4844	0.017490514
83	0x3d267361	0.040637378
84	0x3d514ea5	0.051100392
85	0x3d45292c	0.048134968
86	0x3c685536	0.014180472
87	0xbd964612	-0.073375836
88	0xbe256cef	-0.16154836
89	0xbe1831aa	-0.14862695
90	0xbb0f0ca0	-0.0021827593
91	0x3cfd7b54	0.030942596
92	0x3deb9c6a	0.11504443
93	0x3d0a3c07	0.033748653
94	0x3dbea499	0.09308738
95	0x3af11248	0.0018392289
96	0x3d382ba7	0.044963505
97	0xbc934c4a	-0.017980713
98	0xbcddf4d0	-0.027094275
99	0xbc931e96	-0.01795892
100	0x3e18ee6c	0.149347
101	0x3e232401	0.15931703
102	0xbb4d47c4	-0.0031323293
103	0x3db889f6	0.09010689
104	0xbbfc0c7f	-0.0076919193
105	0xbdcf03d6	-0.101081535
106	0xbd86ff14	-0.06591621
107	0xbc8842a5	-0.016633341
108	0x3c37c8d7	0.011217318
109	0xbd1dca7c	-0.038523182
110	0x3dd66420	0.10468316
111	0x3dd1d2da	0.10245295
112	0xbd96af48	-0.07357651
113	0xbe0cfa75	-0.13767417
114	0xbd73e6a2	-0.05954612
115	0xbc681a77	-0.014166466
116	0xbd5edd10	-0.05441004
117	0x3d9fd8ad	0.078049995
118	0xbc3688b1	-0.011140988
119	0x3c52671c	0.012841966
120	0x3a0ffe53	0.00054929144
121	0xbcc8e3a5	-0.024522612
122	0x3cd4ca41	0.025975348
123	0xbd75ea1c	-0.060037717
124	0x3c1db9fa	0.00962686
125	0xbc8da2bb	-0.01728951
126	0x3cd6f4eb	0.026239833
127	0xbb5d5fff	-0.0033779142
128	0x3d0aafc6	0.033859037
129	0x3cbdae48	0.023154393
130	0x3c55c2ed	0.013046962
131	0xbcabe0ef	-0.02098128
132	0x3d46f0fc	0.048569664
133	0x3cba34ed	0.022730315
134	0xbd14fd64	-0.036374465
135	0xbc81622b	-0.01579388
136	0xbd22c664	-0.03973998
137	0x3d9fdd31	0.07805861
138	0x3cc65ed1	0.024215134
139	0x3e0d4ca4	0.13798767
140	0x3d946bb5	0.07247106
141	0x3dc47e42	0.09594394
142	0xbe0afe92	-0.13573673
143	0xbdd405ab	-0.103526436
144	0xbdfa2bcd	-0.122153856
145	0xbd2b9bc0	-0.04189658
146	0x3b67e677	0.003538517
147	0x3cfadcfa	0.030622948
148	0x3b0ac830	0.002117645
149	0x3d553082	0.052048214
150	0x3c0c6a50	0.008570269
151	0x3d2a7bd5	0.041622
152	0xbd21a7c3	-0.03946663
153	0x3d7b2121	0.06131089
154	0xbc4ea0a1	-0.012611539
155	0x3c5a1c83	0.013312462
156	0x3c4ddd10	0.012564912
157	0xbbfa31d5	-0.007635335
158	0xbd23b425	-0.03996672
159	0x3d9a55fa	0.0753593
160	0xbb7c206e	-0.0038471478
161	0xbdb4613c	-0.088076085
162	0xbb4f54d4	-0.0031636255
163	0x3db45afc	0.088064164
164	0x3d276840	0.040870905
165	0x3bc36ead	0.0059641213
166	0x3d9154c5	0.07096247
167	0xbe162cb9	-0.14665498
168	0xbd23cc68	-0.03998986
169	0xbe03ccb5	-0.12871058
170	0x3bd5ccc3	0.0065246536
171	0xbd58d4ce	-0.05293732
172	0x3cbeb249	0.023278372
173	0xbd51a5a7	-0.05118337
174	0x3d1d1c03	0.038356792
175	0xbda7d841	-0.08195544
176	0xbd4c8b12	-0.049937315
177	0x3b0a8203	0.0021134622
178	0xbd44778e	-0.04796558
179	0x3d57f6b8	0.052725524
180	0x3d2f997e	0.04287099
181	0x3d147971	0.036248628
182	0xbc30253b	-0.010751064
183	0xbd029f65	-0.03189029
184	0xbd95d74b	-0.073164545
185	0xbd357266	-0.044298552
186	0xbc4d12d8	-0.0125167
187	0x3d7e340d	0.06206136
188	0x3c65ff0d	0.01403786
189	0x3ddf8b28	0.10915214
190	0x3e0d3166	0.13788375
191	0x3e0cb613	0.13741331
192	0x3c1f253b	0.009713466
193	0x3d52551e	0.051350705
194	0xbd5d1563	-0.053975474
195	0xbce2f53b	-0.027704826
196	0x3c30e50d	0.010796797
197	0xbd9205ae	-0.071299896
198	0xbd818862	-0.06324841
199	0xbcb99a5b	-0.02265661
200	0x3cbdf17c	0.023186438
201	0xb9e12e48	-0.00042949826
202	0x3c7a3c59	0.015273177
203	0xbdbac44f	-0.09119474
204	0xbda09966	-0.078417584
205	0xbc6d70a3	-0.014492187
206	0x3d713235	0.05888577
207	0xbc9dccdf	-0.01926273
208	0xbda77f03	-0.081785224
209	0xbdd955d3	-0.10612073
210	0xbc387bed	-0.011260015
211	0xbda2f359	-0.07956571
212	0x3c8be781	0.017078163
213	0x3dc66fc7	0.096892886
214	0x3cdb2250	0.02674976
215	0x3cca5024	0.024696417
216	0xbc05f997	-0.008177183
217	0x3c2659cd	0.010153246
218	0x3d9ed5a3	0.07755592
219	0x3dc85793	0.097823285
220	0xbde16f99	-0.11007614
221	0xbd86aff5	-0.0657653
222	0xbdda781f	-0.106674425
223	0xbd15d17b	-0.03657673
224	0x3c61b93b	0.013777073
225	0x3c702a47	0.014658517
226	0xbd58dc82	-0.052944668
227	0xbd991b53	-0.07475915
228	0xbd237c83	-0.039913666
229	0x3d629021	0.055313233
230	0x3dc88ca0	0.09792447
231	0x3dd4d9e6	0.10393123
232	0x3d83205d	0.06402657
233	0x3d3bc60f	0.04584318
234	0xbc7cd0ae	-0.0154306125
235	0xbdecf30a	-0.115697935
236	0xbd987e42	-0.07445957
237	0x3baf3265	0.0053465837
238	0x3dda2565	0.10651664
239	0x3d8b89c5	0.06813387
240	0xbd927a31	-0.071522124
241	0xbd5c90cc	-0.053849027
242	0x3a2ea9bf	0.00066628674
243	0xbe3d4c33	-0.18486099
244	0xbdd7c2e7	-0.105352215
245	0x3d82c372	0.063849345
246	0x3c056f91	0.008144275
247	0xbc20ba88	-0.0098100975
248	0x3d2061a6	0.039155625
249	0x3db37ba0	0.08763814
250	0x3ce983df	0.028505264
251	0xbce31a37	-0.027722461
252	0x3d98234b	0.074286066
253	0x3ccf57c3	0.025310403
254	0x3c893f06	0.016753685
255	0x3c492171	0.012276039
