weights/WCRR_jfb.pt (torch, 57685 bytes, 4 tensors)

scaling f4 [1, 64, 1, 1]
3.2600336 3.6819193 3.2142532 3.3223858 3.119392 3.500757 3.1333337 3.4980164
3.5638263 3.1467485 3.2582388 3.3217793 3.7968304 3.4499347 3.402912 3.1564248
3.386087 3.3199866 3.4947832 3.8844314 3.257319 3.6021929 3.5917094 3.1770895
3.1016505 3.4341273 3.217816 3.4926035 3.504618 3.3954937 3.9387813 3.502329
3.5795412 3.542682 3.268318 3.8189073 3.762029 3.5445063 3.367249 3.4584098
3.706399 3.7039511 3.352369 3.6672785 3.5192223 3.6475518 3.438973 3.4385397
3.5370483 3.6006997 3.2548633 3.70498 3.642383 3.8590047 3.4745748 3.3511324
3.6699233 3.7414916 3.7996697 3.3464775 3.5835032 3.3099334 3.2826316 3.181753
00000000: 64a4 5040 91a4 6b40 53b6 4d40 f8a1 5440
00000010: 1ea4 4740 670c 6040 8a88 4840 80df 5f40
00000020: bb15 6440 5464 4940 fc86 5040 0898 5440
00000030: 45ff 7240 bbcb 5c40 4fc9 5940 dd02 4a40
00000040: a6b5 5840 a97a 5440 87aa 5f40 869a 7840
00000050: ea77 5040 548a 6640 91de 6540 6f55 4b40
00000060: 7181 4640 bec8 5b40 b3f0 4d40 d186 5f40
00000070: a94b 6040 c54f 5940 fe14 7c40 2926 6040
00000080: 3417 6540 4dbb 6240 1f2c 5140 fa68 7440
00000090: 15c5 7040 31d9 6240 0281 5740 9656 5d40
000000a0: a435 6d40 890d 6d40 378d 5640 b1b4 6a40
000000b0: f03a 6140 7d71 6940 2218 5c40 0911 5c40
000000c0: 005f 6240 dd71 6640 ae4f 5040 641e 6d40
000000d0: ce1c 6940 eff9 7640 6f5f 5e40 f478 5640
000000e0: 06e0 6a40 9974 6f40 ca2d 7340 b02c 5640
000000f0: 1e58 6540 f3d5 5340 a316 5240 d7a1 4b40

filters.0.parametrizations.weight.original f4 [4, 1, 5, 5]
0.099127315 0.17254917 0.137684 -0.04981103 0.02426723 -0.010098626 0.083261125 -0.1829654
0.14248888 0.094633594 0.067021914 -0.07446921 0.3060818 0.038989075 0.121611774 -0.04557675
-0.15783736 -0.16354313 0.21930544 -0.078285724 -0.062070798 0.16825067 0.042031325 0.0038496691
0.044320792 -0.015249126 -0.12636855 0.074717246 0.050936945 -0.043638382 0.060145397 -0.10361705
0.117409825 -0.1289144 -0.07784279 -0.0176938 -0.27788818 0.030665554 -0.2424608 0.13973351
0.00453451 -0.15220085 0.08569831 0.26040113 -0.12377954 0.012615446 0.115935005 -0.010537722
0.06474399 0.054377843 0.09700008 -0.024645105 0.16311543 -0.08439868 -0.04233308 -0.08844238
-0.1484353 -0.033786193 -0.020507727 0.108116746 0.032963805 0.26724598 0.08103021 -0.2763373
-0.05218842 -0.102487855 0.027539168 0.05770123 -0.24720147 0.048839394 -0.05217966 0.11062468
0.022172645 0.16414905 0.029240126 -0.020703316 -0.11611021 -0.03436246 -0.0003062843 -0.037842568
0.041831315 0.045807876 0.33516645 0.10147778 0.07461738 -0.02072045 0.1630673 -0.24637102
0.13274506 0.085748404 0.03511922 -0.08479956 -0.10237867 0.023729984 -0.063571125 -0.03768218
0.0812592 0.10471886 0.08412727 -0.022665052
00000000: 4303 cb3d bbb0 303e 09fd 0c3e a706 4cbd
00000010: 12cc c63c b574 25bc cf84 aa3d 485b 3bbe
00000020: 9be8 113e 42cf c13d c942 893d 5083 98bd
00000030: c1b6 9c3e 02b3 1f3d 980f f93d b0ae 3abd
00000040: 1ea0 21be da77 27be 9b91 603e 4454 a0bd
00000050: f33d 7ebd e749 2c3e 0a29 2c3d bb4a 7c3b
00000060: b889 353d 78d7 79bc c266 01be 5b05 993d
00000070: 42a3 503d 29be 32bd 055b 763d 2d35 d4bd
00000080: 9074 f03d 2302 04be 0a6c 9fbd 97f2 90bc
00000090: 5c47 8ebe 5436 fb3c a547 78be 4d16 0f3e
000000a0: 3a96 943b 8ada 1bbe 9882 af3d 4c53 853e
000000b0: 2180 fdbd 04b1 4e3c 556f ed3d 69a6 2cbc
000000c0: 7f98 843d 4dbb 5e3d faa7 c63d 88e4 c9bc
000000d0: bb07 273e 37d9 acbd 7465 2dbd 4721 b5bd
000000e0: 6cff 17be 6463 0abd d2ff a7bc 506c dd3d
000000f0: 0e05 073d 77d4 883e 2bf3 a53d 157c 8dbe
00000100: 86c3 55bd 27e5 d1bd d299 e13c 2058 6c3d
00000110: 6222 7dbe d10b 483d 57ba 55bd 318f e23d
00000120: 68a3 b53c b016 283e fd88 ef3c 009a a9bc
00000130: 31cb edbd a7bf 0cbd c894 a0b9 cf00 1bbd
00000140: 5057 2b3d 0aa1 3b3d f09a ab3e 95d3 cf3d
00000150: ffd0 983d efbd a9bc 1dfb 263e af48 7cbe
00000160: 52ee 073e dc9c af3d 2cd9 0f3d 64ab adbd
00000170: e8ab d1bd 6265 c23c 9431 82bd a158 1abd
00000180: 396b a63d d776 d63d eb4a ac3d 0fac b9bc

filters.1.weight f4 [8, 4, 5, 5]
0.027194403 0.07225167 -0.009698354 -0.0226467 -0.03972629 0.01417142 -0.032865293 -0.010395642
-0.07147085 -0.021976393 -0.008840273 -0.23633231 0.09243137 0.13695341 0.09609318 -0.056819927
0.08568895 0.031695265 0.13010007 0.0660502 -0.050401147 0.04395489 0.02766905 0.119776845
-0.045016397 -0.011665284 0.06666773 -0.079383686 0.052822873 0.030690521 0.054091908 -0.09087175
0.17270577 -0.019006768 0.044452287 -0.03409229 -0.10526732 -0.07850694 -0.010063974 0.1363699
0.07453123 0.036590975 -0.007587833 0.11946246 0.021011114 -0.041055743 0.073012464 -0.111178346
-0.09072908 0.12345823 -0.030954696 -0.059597757 0.072830625 0.052404735 0.0015591099 0.01394296
-0.06083782 0.07961762 -0.030491378 -0.0260392 -0.071118325 0.09695616 -0.06804523 0.028404612
0.017419387 0.0045681214 0.054160696 -0.1212379 -0.15405208 0.04008603 0.074384086 -0.08718114
-0.0014668286 0.030533103 0.022154288 0.08954351 -0.070317864 0.083416976 -0.030330844 -0.042026248
-0.033964284 0.04302111 -0.03968892 -0.009865418 -0.040877856 0.04300368 -0.02720163 -0.16802418
0.06359288 0.007172969 0.02129508 -0.07959776 0.14515354 0.055604536 -0.030761745 0.004663886
0.03605033 -0.16389959 -0.011619169 0.109108485 0.05864456 -0.090968914 0.11711134 0.07740745
-0.06759945 0.037479125 0.019454803 -0.16239424 -0.13420133 0.032501217 -0.11297702 0.045514535
0.029420793 0.09119302 -0.039960235 0.021012895 -0.068063244 -0.059533708 0.07443925 -0.06780229
-0.07730416 0.06357661 -0.01148637 0.069526 -0.091996804 0.037369527 -0.10766391 -0.04326529
0.08647728 0.009643667 -0.061063115 -0.038635254 0.08166443 -0.14626604 -0.0023145291 -0.033370897
-0.012371686 -0.067765325 0.015761571 -0.023042588 -0.025737386 0.100156136 -0.06252971 0.012931457
-0.056154367 -0.035609033 -0.006556388 0.11578096 -0.0815333 0.12004539 -0.06840631 -0.007861609
-0.11022166 0.0295929 -0.03097619 -0.092503645 0.024452802 -0.057142846 0.037286773 0.048456334
0.06534765 0.030179013 0.1233048 -0.011367497 -0.04635789 0.054761555 0.084799096 -0.027937511
-0.06155211 -0.07051905 0.0123344865 -0.14998078 0.03694219 0.017961236 -0.08111347 -0.057922527
0.1044812 0.057504945 -0.08683076 -0.014729766 0.0029013338 0.06357329 0.0109732235 -0.038788147
-0.07709181 -0.03544505 0.09784551 0.07637637 -0.08102426 -0.045590788 0.047976777 0.031767875
-0.12914181 0.06760757 -0.08064353 0.0841454 0.12736656 0.039541014 -0.030933995 -0.03996151
0.035815038 -0.11575579 -0.13385034 0.053839248 0.004060656 0.043821562 0.091366105 -0.057036687
0.104374014 -0.15964663 -0.038110767 0.010753444 0.056102686 0.007285106 0.01626635 -0.065738745
-0.13615248 0.08986011 0.04220561 -0.026134156 -0.016815942 0.11535058 0.032138187 0.107960075
-0.017932558 -0.032508783 -0.085663326 -0.2410689 -0.07556554 0.025507081 0.12659916 -0.028041475
-0.17485088 0.021541884 -0.09577449 0.019836329 -0.050424654 0.020968542 -0.12350442 0.0794092
-0.101376265 0.025472976 0.14529054 -0.266816 -0.034398433 -0.0496791 0.1100282 0.048324324
-0.011371717 -0.0009275535 -0.040618747 0.06479125 0.09838967 0.05328318 0.036890198 -0.008772358
00000000: ccc6 de3c aff8 933d d8e5 1ebc 9285 b9bc
00000010: 09b8 22bd 3e2f 683c c29d 06bd 7c52 2abc
00000020: 4f5f 92bd d607 b4bc cbd6 10bc 1901 72be
00000030: a84c bd3d 843d 0c3e 80cc c43d 03bc 68bd
00000040: b07d af3d e5d2 013d f438 053e 5445 873d
00000050: 6f71 4ebd 0b0a 343d 34aa e23c 904d f53d
00000060: 1d63 38bd bf1f 3fbc 1789 883d ea93 a2bd
00000070: cc5c 583d b06a fb3c 7a8f 5d3d f81a babd
00000080: c8d9 303e 15b4 9bbc 9a13 363d 5ba4 0bbd
00000090: 6596 d7bd 3fc8 a0bd 5ee3 24bc 8da4 0b3e
000000a0: d4a3 983d 6be0 153d 5ba3 f8bb bca8 f43d
000000b0: 801f ac3c 112a 28bd 8f87 953d 79b1 e3bd
000000c0: 2bd0 b9bd abd7 fc3d b494 fdbc c71c 74bd
000000d0: 3928 953d 59a6 563d 0c5b cc3a 0371 643c
000000e0: 1431 79bd 900e a33d 0ec9 f9bc 2950 d5bc
000000f0: 7ca6 91bd f490 c63d 4c5b 8bbd cab0 e83c
00000100: 1ab3 8e3c 2eb0 953b 9bd7 5d3d 934b f8bd
00000110: d4bf 1dbe 4031 243d af56 983d 078c b2bd
00000120: 9a42 c0ba 8f20 fa3c e97c b53c 9662 b73d
00000130: d002 90bd 85d6 aa3d 6478 f8bc b723 2cbd
00000140: 221e 0bbd e736 303d d990 22bd 90a2 21bc
00000150: 8a6f 27bd a024 303d f4d5 debc 880e 2cbe
00000160: fc3c 823d 3a0b eb3b 0573 ae3c 2704 a3bd
00000170: 21a3 143e 95c1 633d 0e00 fcbc 83d3 983b
00000180: 83a9 133d 4bd5 27be 545e 3ebc 4574 df3d
00000190: 4735 703d e94d babd 12d8 ef3d cc87 9e3d
000001a0: 9571 8abd b683 193d ae5f 9f3c ad4a 26be
000001b0: 136c 09be ff1f 053d 7f60 e7bd 736d 3a3d
000001c0: e003 f13c 68c3 ba3d 58ad 23bd 3c23 ac3c
000001d0: be64 8bbd 9ed9 73bd 9b73 983d eddb 8abd
000001e0: a551 9ebd 7434 823d 5431 3cbc a663 8e3d
000001f0: d268 bcbd ca10 193d e57e dcbd f236 31bd
00000200: 001b b13d 7900 1e3c 511d 7abd 0040 1ebd
00000210: ae3f a73d c4c6 15be 5baf 17bb ecaf 08bd
00000220: 9db2 4abc 8cc8 8abd 691e 813c cfc3 bcbc
00000230: 36d7 d2bc a91e cd3d 940f 80bd 76de 533c
00000240: 1f02 66bd c7da 11bd f8d6 d6bb 911e ed3d
00000250: eefa a6bd 5cda f53d 9c18 8cbd facd 00bc
00000260: e5bb e1bd cf6c f23c c7c1 fdbc 8d72 bdbd
00000270: 3e51 c83c 9e0e 6abd 04ba 183d 267a 463d
00000280: fdd4 853d fa39 f73c 3a87 fc3d bd3e 3abc
00000290: c5e1 3dbd a74d 603d 26ab ad3d 35dd e4bc
000002a0: 111e 7cbd 4b6c 90bd 9616 4a3c 9094 19be
000002b0: b250 173d 7123 933c d21e a6bd 2c40 6dbd
000002c0: 3dfa d53d 4e8a 6b3d 53d4 b1bd 1e55 71bc
000002d0: 4e24 3e3b b732 823d 09c9 333c 52e0 1ebd
000002e0: 50e2 9dbd d42e 11bd 3a63 c83d 376b 9c3d
000002f0: 0cf0 a5bd 68bd 3abd 4c83 443d 081f 023d
00000300: c03d 04be d675 8a3d 6f28 a5bd 6c54 ac3d
00000310: 616c 023e c2f5 213d 4a69 fdbc aeae 23bd
00000320: cab2 123d 5f11 edbd 1010 09be 8b86 5c3d
00000330: 400f 853b 3d7e 333d 271e bb3d 4d9f 69bd
00000340: 0bc2 d53d 687a 23be 091a 1cbd 372f 303c
00000350: eecb 653d e6b7 ee3b 0241 853c 09a2 86bd
00000360: 8e6b 0bbe 9408 b83d cadf 2c3d 4c17 d6bc
00000370: 96c1 89bc ed3c ec3d 55a3 033d 2c1a dd3d
00000380: 4de7 92bc ee27 05bd 4170 afbd c4da 76be
00000390: 1bc2 9abd 3af4 d03c 36a3 013e 3cb7 e5bc
000003a0: 1c0c 33be 9b78 b03c 6a25 c4bd cc7f a23c
000003b0: 158a 4ebd 38c6 ab3c e3ef fcbd 4aa1 a23d
000003c0: 5c9e cfbd b4ac d03c 0bc7 143e 1b9c 88be
000003d0: 5fe5 0cbd 507c 4bbd 7756 e13d baef 453d
000003e0: 7050 3abc 1027 73ba d85f 26bd 46b1 843d
000003f0: 8680 c93d 773f 5a3d 2d1a 173d f0b9 0fbc

filters.2.weight f4 [64, 8, 5, 5]
0.027487047 -0.038224224 -0.024597287 0.022780707 -0.1036477 -0.0009937219 -0.009959882 0.055657927
-0.04158876 0.12161145 -0.019825675 -0.011588532 0.044951133 -0.001525402 -0.024622709 0.042682357
0.006736971 -0.107917674 0.05551599 0.004014458 -0.022473246 -0.05152677 0.028158668 0.04278915
-0.056592666 -0.023868887 -0.014541439 -0.025365056 0.023684569 0.04189584 -0.010313885 -0.0074815084
0.060533132 -0.023313513 3.4954749e-06 0.058896396 -0.0891396 -0.03518166 0.085181326 0.025585074
-0.05306354 0.057396602 0.11360475 -0.0704801 0.002165073 0.055900827 -0.024809888 -0.07104992
0.0074413344 0.0439479 0.0019150348 -0.008927847 0.08622857 -0.03048071 0.019367209 -0.022029154
0.06595304 -0.08522325 0.028228147 -0.041503225 0.05136583 -0.07553094 0.04461544 0.0012395266
-0.044289973 -0.012107572 0.022472315 -0.09987118 -0.0055873273 0.0040092804 -0.05763727 0.052897304
0.039262664 -0.04645618 0.030243276 0.025747051 0.012526298 -0.04217595 0.014160269 0.07357047
-0.077578336 0.0313935 -0.0065926383 -0.01745333 -0.100284316 0.05414044 -0.0464141 -0.00017594238
0.022697749 -0.005303418 -0.07474489 0.09519315 0.029001554 -0.043166712 0.03439913 0.043477885
-0.07519384 -0.029075488 0.009398726 -0.0005260631 0.029745664 0.003281694 -0.027755968 -0.08691762
0.0014656639 -0.011315036 -0.018763706 0.026497465 0.028496746 0.011989684 0.00537496 -0.026334591
-0.0025964847 0.18482748 -0.059380304 0.0049483106 0.012854402 0.08855732 -0.07426248 0.011568454
0.027456941 -0.037390683 -0.0902358 0.008567591 0.004397289 0.0041415095 -0.07490965 0.029433917
0.051350452 -0.055471208 -0.008458067 0.056651436 -0.12553653 -0.12464035 0.14755197 0.024997378
-0.09184707 0.11567542 0.07168415 -0.2004053 -0.08938313 0.11765792 0.02290556 -0.08274432
0.08372206 0.043168437 -0.024699759 0.0037842675 0.008418238 0.02246782 0.027847067 -0.018630624
-0.04712139 0.08422725 -0.022119157 -0.07229372 0.07478923 0.07945139 -0.10257232 0.028008807
0.03989002 -0.087609254 -0.0034670793 0.087560564 -0.06277502 -0.025216712 0.05107103 0.07380767
-0.19538368 0.040182997 0.036989134 -0.03619061 -0.12842117 0.19847701 -0.033731755 -0.0030872393
-0.043679394 0.014225647 -0.01739812 -0.025975069 -0.024258908 0.018774834 -0.06775366 0.10023222
0.04438249 -0.0020407483 0.06085033 0.030909222 -0.21429096 0.05201533 0.04889417 -0.07831653
-0.043133266 0.10601432 -0.08131037 -0.03807412 0.004145566 0.06431762 -0.010262884 0.009417751
-0.06563545 -0.112229235 0.043509945 -0.04125123 0.064735964 0.07135471 0.027595716 -0.038052015
-0.06526493 -0.12968968 0.019535873 0.039643787 0.032336112 0.09531142 0.10875645 -0.018898083
0.043318715 0.044207323 0.06040026 0.09891384 -0.07454168 -0.025596151 -0.091529995 -0.007218566
-0.022276515 -0.0072306865 0.10108179 -0.032201134 -0.018244319 0.026568605 0.018036852 0.029099124
-0.040489133 0.11250351 0.11331523 -0.031405754 -0.053291537 0.023845559 -0.029629944 -0.08632924
-0.09089383 -0.040905204 -0.034777075 -0.020248594 -0.040042292 0.0049395273 -0.029843254 -0.03534549
-0.04799384 0.024981428 0.03977604 0.07211667 0.06894576 0.04665791 0.076138966 -0.11630973
00000000: 842c e13c 0191 1cbd 4080 c9bc 9b9e ba3c
00000010: 3f45 d4bd c63f 82ba c62e 23bc 91f9 633d
00000020: fa58 2abd 6d0f f93d 7469 a2bc d3dd 3dbc
00000030: ae1e 383d ffef c7ba 90b5 c9bc b2d3 2e3d
00000040: cfc1 dc3b f103 ddbd bc64 633d b78b 833b
00000050: d019 b8bc bc0d 53bd 02ad e63c ad43 2f3d
00000060: b6cd 67bd af88 c3bc 373f 6ebc 61ca cfbc
00000070: 2406 c23c f99a 2b3d 92fb 28bc 7127 f5bb
00000080: 97f1 773d fbfb bebc cd93 6a36 593d 713d
00000090: d38e b6bd a51a 10bd 8c73 ae3d ca97 d13c
000000a0: 2859 59bd b318 6b3d 9ba9 e83d df57 90bd
000000b0: e6e3 0d3b 44f8 643d 1b3e cbbc 9f82 91bd
000000c0: 70d6 f33b b702 343d e801 fb3a 1b46 12bc
000000d0: 9b98 b03d afb2 f9bc fba7 9e3c 7c76 b4bc
000000e0: 6312 873d 8789 aebd b73e e73c 49ff 29bd
000000f0: fa64 523d f7af 9abd aebe 363d 9c77 a23a
00000100: 6769 35bd d65e 46bc dc17 b83c 4389 ccbd
00000110: e615 b7bb 4860 833b 0f15 6cbd d8aa 583d
00000120: e3d1 203d d648 3ebd bfc0 f73c 7beb d23c
00000130: 1a3b 4d3c b0c0 2cbd 7900 683c 1dac 963d
00000140: 64e1 9ebd 7896 003d 0f07 d8bb 49fa 8ebc
00000150: dd61 cdbd 5ec2 5d3d b61c 3ebd 2c7d 38b9
00000160: a1f0 b93c 4bc8 adbb d913 99bd a0f4 c23d
00000170: ab94 ed3c 94cf 30bd 1ae6 0c3d de15 323d
00000180: 3aff 99bd b82f eebc 1dfd 193c 7fe7 09ba
00000190: 2ead f33c b011 573b 7c60 e3bc dd01 b2bd
000001a0: 851b c03a b362 39bc 58b6 99bc 3611 d93c
000001b0: 0272 e93c 6170 443c 6f20 b03b a4bb d7bc
000001c0: c929 2abb 6a43 3d3e c338 73bd 7025 a23b
000001d0: 459b 523c 8a5d b53d ed16 98bd 9d89 3d3c
000001e0: 61ed e03c f926 19bd 8ccd b8bd 155f 0c3c
000001f0: 2217 903b 80b5 873b 3b6a 99bd 661f f13c
00000200: da54 523d c735 63bd b493 0abc 560b 683d
00000210: a68c 00be 7143 ffbd dd17 173e 4dc7 cc3c
00000220: 511a bcbd 3ce7 ec3d 24cf 923d 0c37 4dbe
00000230: 810e b7bd a3f6 f03d 71a4 bb3c db75 a9bd
00000240: 7976 ab3d 63d1 303d 2657 cabc 7901 783b
00000250: a6ec 093c 6f0e b83c 881f e43c 409f 98bc
00000260: 5c02 41bd 567f ac3d 3c33 b5bc bb0e 94bd
00000270: 192b 993d 69b7 a23d 7011 d2bd ba72 e53c
00000280: b863 233d 7b6c b3bd f037 63bb f452 b33d
00000290: 3190 80bd 4793 cebc db2f 513d 7a28 973d
000002a0: a912 48be ed96 243d eb81 173d 9b3c 14bd
000002b0: d780 03be 8f3d 4b3e 4f2a 0abd 4853 4abb
000002c0: 2ae9 32bd b012 693c 8186 8ebc abc9 d4bc
000002d0: 9eba c6bc aecd 993c 6ec2 8abd 8d46 cd3d
000002e0: 6aca 353d 13be 05bb 323e 793d 5635 fd3c
000002f0: 176f 5bbe 070e 553d 4145 483d 6b64 a0bd
00000300: 82ac 30bd 091e d93d 0d86 a6bd 9cf3 1bbd
00000310: 87d7 873b f5b8 833d a825 28bc e94c 1a3c
00000320: e16b 86bd 71d8 e5bd 7c37 323d 0df7 28bd
00000330: 4a94 843d 6b22 923d 6910 e23c 6edc 1bbd
00000340: 9fa9 85bd 5fcd 04be b209 a03c 8661 223d
00000350: df72 043d a232 c33d b4bb de3d 27d0 9abc
00000360: f76e 313d bd12 353d 4366 773d 5793 ca3d
00000370: 4fa9 98bd 05af d1bc 1474 bbbd b889 ecbb
00000380: 3d7d b6bc 65ef ecbb f803 cf3d 56e5 03bd
00000390: 1c75 95bc 67a6 d93c 05c2 933c 4961 ee3c
000003a0: efd7 25bd 3e68 e63d d111 e83d 52a3 00bd
000003b0: 3a48 5abd c357 c33c 7fba f2bc 62cd b0bd
000003c0: 8b26 babd 378c 27bd 6872 0ebd 61e0 a5bc
000003d0: 6303 24bd c2db a13b d779 f4bc 6fc6 10bd
000003e0: 3095 44bd daa5 cc3c 33ec 223d e8b1 933d
000003f0: 6f33 8d3d 5d1c 3f3d bfee 9b3d cc33 eebd
