weights/adversarial_Denoising/ICNN_adversarial_for_Denoising.pt (torch, 109166 bytes, 5 tensors)

icnn.scaling f4 [1, 32, 1, 1]
000000 55 0c dd c0 9a 30 de c0 55 0c dd c0 87 30 de c0
       -6.9077554 -6.943433 -6.9077554 -6.9434237
000010 55 0c dd c0 a8 34 de c0 99 30 de c0 55 0c dd c0
       -6.9077554 -6.943928 -6.9434323 -6.9077554
000020 91 30 de c0 55 0c dd c0 8a 30 de c0 a5 30 de c0
       -6.9434285 -6.9077554 -6.943425 -6.943438
000030 ad 30 de c0 55 0c dd c0 55 0c dd c0 fe 33 de c0
       -6.943442 -6.9077554 -6.9077554 -6.9438467
000040 99 30 de c0 34 35 de c0 a1 30 de c0 55 0c dd c0
       -6.9434323 -6.9439945 -6.943436 -6.9077554
000050 55 0c dd c0 8a 30 de c0 55 0c dd c0 c8 35 de c0
       -6.9077554 -6.943425 -6.9077554 -6.944065
000060 55 0c dd c0 55 0c dd c0 9b 30 de c0 55 0c dd c0
       -6.9077554 -6.9077554 -6.9434333 -6.9077554
000070 93 30 de c0 a5 30 de c0 55 0c dd c0 e7 2e de c0
       -6.9434295 -6.943438 -6.9077554 -6.9432254

icnn.wx.bias f4 [32]
000000 c3 80 11 be 03 22 c6 3d d9 6b 18 3e 17 d8 25 be
       -0.14209275 0.09674456 0.1488489 -0.16195713
000010 9d 31 6f be be 48 c9 3d 0d e8 21 3b 08 c4 af 3e
       -0.2335877 0.098283276 0.0024704963 0.34329247
000020 59 54 fd 3a d6 51 28 3b 0b 16 82 3e 1f ec 41 3e
       0.0019327506 0.0025683544 0.25407442 0.1893773
000030 79 b3 1f 3b 28 7e 1f 3e 94 28 21 3b 1d 6f 2b 3b
       0.0024368449 0.15575469 0.0024590837 0.0026158758
000040 8c a2 2a 3b 1c ea 13 be 2f 5a ae bd 03 57 1d 3e
       0.0026036827 -0.14444774 -0.08513295 0.15365224
000050 b2 29 a7 bd d7 41 28 3b 97 99 40 3e a5 26 0b 3e
       -0.081622496 0.002567401 0.1880859 0.1358896
000060 38 5a 2c 3b 27 99 07 3e 57 5a 38 be d4 f1 f7 bd
       0.0026298892 0.13242017 -0.18003212 -0.12106672
000070 28 e7 01 be 37 b5 30 3b a6 7f 0d 3e 17 28 55 3b
       -0.12685835 0.0026963481 0.13818225 0.0032525116

icnn.wx.parametrizations.weight.original f4 [32, 1, 5, 5]
000000 ca cb db 3b 5e 83 c7 3b ce c9 bc 3d 68 75 dd bd
       0.006707643 0.0060886582 0.09218179 -0.10813409
000010 79 ea a9 3c 25 73 06 bd 42 3b 8a 3a da f0 15 be
       0.020741688 -0.032824654 0.0010546225 -0.14642659
000020 1b 9c 6f 3e 07 1c 48 be 40 20 26 3d de 38 b2 3d
       0.23399393 -0.19541942 0.0405581 0.08702253
000030 8a 07 d1 3d 63 56 05 be 2e c0 c1 3d 35 b8 1f 3d
       0.10206516 -0.13021235 0.094604835 0.038994033
000040 0c 36 1b be 90 07 a0 3d d4 bb 82 3b 88 9a 33 bd
       -0.15157336 0.078139424 0.003989676 -0.043848544
000050 e6 4a a9 3c 63 62 84 3d 43 ba 2b bd bf cf 66 3d
       0.020665597 0.06464078 -0.04192568 0.056350466
000060 33 0d 38 bd 10 61 23 be bf de fd bc 18 a6 36 be
       -0.044934463 -0.15954995 -0.030990003 -0.17836797
000070 86 91 bb 3d 50 62 1d be 9c 19 41 3e bd 96 d1 3c
       0.09158616 -0.15369534 0.18857425 0.025584573
000080 e9 5f 2b be b0 5d 43 be de 19 a3 3d ac d1 7a 3c
       -0.16735806 -0.19078708 0.07963918 0.015308779
000090 3c e7 25 3e 6b 27 84 3d b6 48 0e 3e 5f 58 35 3e
       0.1620149 0.06452831 0.13894925 0.17709492
0000a0 9c 78 71 bd 02 7c d0 bd c9 b3 1e 3e d0 ce 2c be
       -0.058952913 -0.101799026 0.1549827 -0.16875768
0000b0 88 6d 28 3e bb ec db bd 3f cb f9 bd b2 0b ca 3d
       0.16448033 -0.10738512 -0.12196969 0.09865512
0000c0 b6 7c 34 3e 24 aa 94 3c a3 43 d2 bd 58 3d b1 bc
       0.17625698 0.018147536 -0.10266807 -0.021635696
0000d0 3d 93 11 3c 6b a9 05 3e df ff 2d be 2c 9b 03 be
       0.008885202 0.13052909 -0.16992138 -0.12852162
0000e0 6c f6 34 3e 9b fb dc 3d 7c 8b 52 3d 1c 5e cd 3d
       0.17672127 0.107901774 0.051402554 0.100277156
0000f0 3d 89 12 3e b2 e9 59 bd 16 a3 1d be f1 34 9a bd
       0.14310165 -0.053201385 -0.15394244 -0.07529629
000100 72 85 29 3e 3d f1 80 3d 79 24 41 3c bd f9 40 3e
       0.16554812 0.062960126 0.011788481 0.18845268
000110 07 fa e3 bb ca 18 4e bd 44 d3 01 be fd cb 05 3e
       -0.006957296 -0.05031661 -0.12678248 0.13066097
000120 41 3a 2e 3e 47 9f 8b 3d 70 33 9e bd 4c d3 fe 3d
       0.1701441 0.06817489 -0.07724655 0.124426454
000130 4a b6 57 3d e1 23 45 3d 03 a7 28 3e d9 a3 fa 3d
       0.05266408 0.04812992 0.1646996 0.12238283
000140 40 d9 1e be 9f 59 1f bd f0 49 83 bd 81 bd 36 3d
       -0.15512562 -0.03890383 -0.06410587 0.04461432
000150 4a af 1a 3e 2a ca 2f be 4d b8 fd bd 7e 3a 13 3e
       0.1510593 -0.17166963 -0.12388668 0.14377782
000160 fb 39 eb bd 6e b4 f0 bd 92 a6 13 3e d2 fc 28 be
       -0.11485668 -0.11753164 0.1441901 -0.16502693
000170 54 24 ad bd f6 9c 40 3e 14 2e ed 3d 4c b0 30 3e
       -0.08454195 0.18809876 0.11581054 0.17254752
000180 18 8a bf 3d 1b 48 1b 3e a1 f1 58 be 77 3f 26 3e
       0.09352511 0.15164225 -0.21185924 0.16235147
000190 66 fe 7a bd 22 0d b7 3c 35 c9 28 3d 68 9d e5 bd
       -0.06127777 0.02234513 0.04120751 -0.112116635
0001a0 c8 53 df 3c 08 15 80 3d 06 06 5d bd 4e 4b 05 3d
       0.02726163 0.062540114 -0.053960823 0.03254252
0001b0 97 af 17 3d ef 48 45 bc f9 d1 f0 bd 39 a3 bc bb
       0.03703269 -0.0120413145 -0.11758799 -0.0057567623
0001c0 53 85 01 be 2b 7f a5 3d 2f 68 0c be 17 37 37 3d
       -0.12648515 0.08080896 -0.13711618 0.044730272
0001d0 1a 01 99 3d 7b 1d 07 be 1a c4 15 3e f8 a9 fb 3c
       0.07470913 -0.1319484 0.14625588 0.030720696
0001e0 e2 54 4d bd d8 cf 10 3c 40 32 d8 bc 0e 23 f8 3c
       -0.05012978 0.008838616 -0.026391149 0.030290153
0001f0 09 23 02 be 6c 61 af bd 48 89 31 3e e4 d9 34 be
       -0.12708677 -0.085635036 0.17337525 -0.17661244
000200 c2 38 7d 3d 1f 03 2d bd 99 46 e3 3d 0a de 4d be
       0.061821707 -0.042239305 0.1109745 -0.20104232
000210 bb 49 40 3e 97 bc 66 bd a6 df 55 3b b0 22 0b bb
       0.18778126 -0.056332197 0.0032634526 -0.0021230392
000220 67 79 a4 bb 74 81 79 bd 51 7a 94 bd 9d ef c7 bb
       -0.005019355 -0.06091447 -0.072498925 -0.006101562
000230 df 38 73 bd f6 a3 91 3c 61 03 50 bd 9d fe 22 3d
       -0.05938041 0.017778378 -0.050784472 0.0397936
000240 2e d6 b6 bc fe 36 87 3c 4a 00 c1 3b 89 56 e2 bc
       -0.022318926 0.016505715 0.005889927 -0.027629154
000250 2e 5d 80 ba 2e 7a 96 bc b3 48 3e 3d 26 1f 81 3d
       -0.0009793395 -0.018368807 0.04645605 0.06304769
000260 5a d6 b7 bc 98 ae 70 3d aa 88 44 3d dd 5d b7 3c
       -0.022441078 0.058760256 0.047981896 0.022383625
000270 d9 8f ba bc 24 3a e7 3d 00 f9 4f 3c 4c 7f b0 3d
       -0.02277367 0.11290386 0.012693644 0.0861803
000280 c3 ad 30 3e cb 88 2d 3e 7c cd 89 3e 25 1f eb 3d
       0.17253785 0.16946714 0.26914585 0.1148055
000290 9f 48 ec 3c 2a bb fb bd 57 61 8f bd c0 c9 b9 be
       0.028843222 -0.12291558 -0.07000988 -0.36286736
0002a0 fe 45 24 be 8f 12 7b bd 6a 28 b2 3d 87 5d 9d 3d
       -0.16042325 -0.061296996 0.086991146 0.076838546
0002b0 02 d0 65 3e 08 5d 48 3e ec 36 df 3d 3f e8 2f bc
       0.2244263 0.19566739 0.108991474 -0.010736524
0002c0 2f 50 40 3d a8 4b 80 bd 07 41 97 39 63 86 20 3d
       0.04695147 -0.0626443 0.00028849414 0.03919066
0002d0 21 86 4c 3d 2f 5b ff 3c 77 7d 29 bc e2 98 ae 3d
       0.049932603 0.03117141 -0.010344855 0.08525254
0002e0 21 40 77 bd 4d 83 d4 bd 17 9e 0f bc a5 56 a9 be
       -0.060363892 -0.10376606 -0.008765719 -0.33073917
0002f0 36 33 1a 3e b5 44 fd bd d0 cb b2 3d 62 a7 b5 3c
       0.15058598 -0.123666205 0.087302804 0.02217454
000300 4e e8 8b bc 21 60 21 3b 19 12 12 3e 17 17 5a bd
       -0.017078545 0.0024623948 0.14264716 -0.053244676
000310 7a a6 0c 3d 06 6f 26 bd 1c c6 30 3d 6c 89 fc 3c
       0.034338452 -0.040633224 0.04315768 0.030827247
000320 fa 7e 39 3d a0 4b 1f 3d 34 7c ab bc 41 e3 12 3c
       0.04528711 0.03889048 -0.020933248 0.008965314
000330 d3 09 e3 3c b8 6b 0d 3e 03 3a 22 3e e4 63 bb bd
       0.027714645 0.13810623 0.15842442 -0.09149912
000340 ee 67 ea bd 35 ad 56 3c 82 d2 8e 3e 45 4a 95 3e
       -0.11445604 0.013102819 0.2789498 0.29158226
000350 7d 81 2a be f3 6f 96 be 34 ac b5 bb 66 9f b2 3d
       -0.16650958 -0.29382285 -0.00554421 0.08721809
000360 e6 95 18 3e 13 0b 6a bd b0 96 ed bd 6d 53 1b 3d
       0.14900932 -0.057139467 -0.11601007 0.037921358
000370 02 7c 63 3c 63 2c 94 3d 47 45 ba 3c ea c3 ba bc
       0.013884546 0.072350286 0.022738112 -0.022798497
000380 db ce b5 3c ac 07 87 bd 4c 26 cf 3d 91 45 30 be
       0.022193363 -0.0659326 0.101147264 -0.17214037
000390 43 26 51 3b 4e b8 c3 3d 4a d3 91 3d 54 70 d6 bc
       0.0031913675 0.09556638 0.07120378 -0.02617661
0003a0 f6 70 8f 3e 6e 0c ea bd cc 0f 81 be 1b ee a9 bd
       0.2801587 -0.11428152 -0.25207365 -0.08297368
0003b0 d9 ad 56 be 4a c7 43 be 23 60 8a 3e a2 0f 34 3e
       -0.20964755 -0.19118991 0.27026471 0.17584088
0003c0 aa 3a 38 3d 4c e8 70 3e a5 64 8b bd c0 1f 63 be
       0.04497782 0.23526114 -0.06806306 -0.2218008
0003d0 6f c8 e8 bc 59 eb 13 bc 4a 64 11 be 62 c0 e3 3d
       -0.028415887 -0.009028279 -0.14198413 0.111206785
0003e0 bb 07 b0 3c 65 3d b7 bc 38 de de bb 51 87 ce b9
       0.021488061 -0.022368142 -0.006801393 -0.000393922
0003f0 c0 29 23 bd 7c 67 32 3d f6 df 55 3d ab 53 06 3d
       -0.039834738 0.04355572 0.05221554 0.032794636

icnn.wz.weight f4 [32, 32, 5, 5]
000000 35 aa 21 38 cd 84 3a 38 4c 34 35 38 12 32 43 38
       3.854391e-05 4.4469536e-05 4.3202468e-05 4.6538255e-05
000010 bc ed 54 38 2c 8b 2a 38 dd 0c 31 38 a8 f0 16 38
       5.0766146e-05 4.0660772e-05 4.221207e-05 3.5986915e-05
000020 83 41 53 38 fe a4 3c 38 46 95 5c 38 a3 25 42 38
       5.0367333e-05 4.4976354e-05 5.259111e-05 4.6288256e-05
000030 99 cb 49 38 72 2b 4c 38 17 4b 39 38 83 e7 3f 38
       4.811175e-05 4.867785e-05 4.417737e-05 4.575356e-05
000040 c6 b0 3f 38 14 2f 50 38 f3 6c 32 38 7a b6 3e 38
       4.570258e-05 4.963491e-05 4.2539974e-05 4.5469475e-05
000050 af 32 44 38 6b 27 21 38 67 18 40 38 f6 d7 35 38
       4.6777244e-05 3.8422102e-05 4.5799094e-05 4.3354892e-05
000060 71 92 2b 38 f9 4a 2e 38 02 3d 35 38 c7 00 57 38
       4.090596e-05 4.1554656e-05 4.321058e-05 5.126072e-05
000070 72 f2 5b 38 7e 9f 3a 38 d1 51 32 38 a2 0f 60 38
       5.2439464e-05 4.4494394e-05 4.2514705e-05 5.342032e-05
000080 a1 bd 56 38 fb 90 4c 38 1f 6e 37 38 bd 6a 6f 38
       5.119818e-05 4.8772414e-05 4.373316e-05 5.7081448e-05
000090 a2 b9 3c 38 41 7e 75 38 21 b9 23 38 8b 40 0a 38
       4.4995577e-05 5.8530135e-05 3.9034643e-05 3.2961874e-05
0000a0 67 72 5d 38 28 5c 55 38 45 a0 40 38 c1 7b 3e 38
       5.279705e-05 5.0868985e-05 4.592563e-05 4.5414785e-05
0000b0 46 5d 39 38 bc d5 3d 38 42 de 2d 38 11 af 4a 38
       4.4194305e-05 4.5260167e-05 4.1453408e-05 4.8323596e-05
0000c0 d6 db 23 38 20 c4 57 38 25 86 5e 38 a6 95 36 38
       3.9066967e-05 5.144265e-05 5.3053856e-05 4.3531552e-05
0000d0 4d 34 24 38 59 2a 4c 38 e3 df 29 38 dd 33 36 38
       3.9149356e-05 4.867683e-05 4.050125e-05 4.3440483e-05
0000e0 05 3b 7a 38 94 99 45 38 87 be 5a 38 e2 c3 40 38
       5.965961e-05 4.711149e-05 5.2152693e-05 4.5958797e-05
0000f0 09 a3 3b 38 d6 13 57 38 cc c0 34 38 8c 7f 50 38
       4.4736113e-05 5.1278468e-05 4.30949e-05 4.970985e-05
000100 1b 17 45 38 93 bd 3a 38 af 8b 27 38 31 b9 2e 38
       4.698998e-05 4.452241e-05 3.9945993e-05 4.1657306e-05
000110 ce b5 4c 38 52 59 4b 38 b2 4b 33 38 37 eb 3e 38
       4.880671e-05 4.8482158e-05 4.2747422e-05 4.551859e-05
000120 c3 69 47 38 88 e4 2f 38 48 54 31 38 49 6a 4d 38
       4.7543796e-05 4.1936088e-05 4.227858e-05 4.8974794e-05
000130 75 43 38 38 4f 55 3e 38 c2 55 44 38 b1 76 56 38
       4.3931843e-05 4.537898e-05 4.680991e-05 5.1132116e-05
000140 98 ee 72 38 28 d3 34 38 fa 2a 28 38 53 6d 36 38
       5.7919504e-05 4.3112e-05 4.0094346e-05 4.3493998e-05
000150 9e 1a 54 38 ff dd 57 38 a2 52 2e 38 37 5f 30 38
       5.0569528e-05 5.1466744e-05 4.156179e-05 4.2050346e-05
000160 89 b8 50 38 e6 58 61 38 51 93 46 38 a0 10 49 38
       4.9762926e-05 5.3726973e-05 4.7344078e-05 4.7937618e-05
000170 53 24 28 38 59 67 4c 38 ee f0 3b 38 df 79 46 38
       4.008815e-05 4.873364e-05 4.4808658e-05 4.732038e-05
000180 1d 52 52 38 2b 57 35 38 f6 6f 4a 38 94 92 3d 38
       5.0144376e-05 4.3234944e-05 4.8264825e-05 4.5197623e-05
000190 4f 75 2c 38 f0 45 32 38 31 00 55 38 82 bc 43 38
       4.1117248e-05 4.250364e-05 5.0783336e-05 4.6667185e-05
0001a0 10 69 34 38 d8 9d 42 38 aa 0c 66 38 db bf 3a 38
       4.301319e-05 4.6400208e-05 5.4848068e-05 4.4524535e-05
0001b0 12 bc 40 38 f2 5b 31 38 12 05 59 38 81 c6 31 38
       4.595152e-05 4.228572e-05 5.1741554e-05 4.238496e-05
0001c0 3e 8a 45 38 b6 c2 38 38 79 f2 24 38 ca 95 44 38
       4.7097208e-05 4.4050357e-05 3.9326467e-05 4.6869543e-05
0001d0 d9 ae 29 38 13 cd 4f 38 53 40 39 38 58 cd 62 38
       4.045558e-05 4.9543636e-05 4.4167344e-05 5.407384e-05
0001e0 91 55 50 38 58 2d 27 38 1d de 3e 38 f8 30 38 38
       4.9670754e-05 3.9858132e-05 4.550639e-05 4.3914624e-05
0001f0 08 0f 21 38 42 7b 33 38 a9 94 28 38 68 3b 59 38
       3.839939e-05 4.279172e-05 4.0192772e-05 5.1792158e-05
000200 8b 2e 52 38 0d a9 2f 38 35 5d 33 38 43 05 3e 38
       5.0111248e-05 4.1880692e-05 4.276373e-05 4.530443e-05
000210 93 21 39 38 f6 67 3f 38 db d4 46 38 fa fb 3c 38
       4.4138706e-05 4.563477e-05 4.7405116e-05 4.5057364e-05
000220 06 5e 29 38 51 1d 29 38 50 64 26 38 ae 8c 41 38
       4.0380306e-05 4.0320043e-05 3.9670907e-05 4.6145804e-05
000230 7f e8 47 38 c6 2e 48 38 21 a2 36 38 42 91 33 38
       4.7661826e-05 4.7727277e-05 4.3543176e-05 4.2812208e-05
000240 1f c8 25 38 e0 1f 30 38 a0 e1 4d 38 6a 1e 55 38
       3.9525443e-05 4.1991356e-05 4.908594e-05 5.0811483e-05
000250 ce da 44 38 1e 31 26 38 06 79 33 38 83 c8 67 38
       4.693382e-05 3.9623228e-05 4.2789638e-05 5.5261433e-05
000260 64 e0 64 38 5f 5a 45 38 ba f2 2b 38 d1 db 31 38
       5.4568416e-05 4.7052625e-05 4.0995634e-05 4.240481e-05
000270 29 61 4c 38 9b de 2f 38 b3 57 48 38 1e a1 44 38
       4.8727878e-05 4.193057e-05 4.7765392e-05 4.6880094e-05
000280 e1 90 1a 38 02 91 48 38 36 1b 29 38 61 c6 37 38
       3.685139e-05 4.7818765e-05 4.0318082e-05 4.3815355e-05
000290 a1 48 33 38 37 f2 75 38 37 74 4d 38 7e 59 3e 38
       4.2744567e-05 5.8638132e-05 4.8984042e-05 4.5382876e-05
0002a0 31 66 39 38 a1 5b 3d 38 3c c4 56 38 92 18 3b 38
       4.420261e-05 4.5146448e-05 5.1204333e-05 4.4607157e-05
0002b0 b1 7f 22 38 b2 a9 53 38 f4 00 47 38 53 cb 2e 38
       3.874273e-05 5.046436e-05 4.7446185e-05 4.1674193e-05
0002c0 d0 6a 32 38 07 f6 3e 38 2e 33 32 38 cd 81 49 38
       4.2537984e-05 4.552866e-05 4.2486172e-05 4.804302e-05
0002d0 21 a1 3c 38 33 6b 2d 38 07 c5 56 38 44 bc 42 38
       4.4972756e-05 4.134625e-05 5.1205072e-05 4.642854e-05
0002e0 43 01 67 38 e5 49 2d 38 b7 7c 28 38 f1 8e 3c 38
       5.5075867e-05 4.1315234e-05 4.017047e-05 4.4955817e-05
0002f0 16 f1 3e 38 64 80 3d 38 e3 c1 36 38 0b 5c 4d 38
       4.552406e-05 4.5180685e-05 4.3572752e-05 4.896153e-05
000300 50 0a 54 38 88 00 3e 38 77 5e 7c 38 fc 4f 28 38
       5.0554343e-05 4.5300025e-05 6.016946e-05 4.0128813e-05
000310 2a f8 39 38 3a 25 3a 38 ec 1c 57 38 70 ba 31 38
       4.4338558e-05 4.4380526e-05 5.128693e-05 4.2373722e-05
000320 6d 3d 39 38 1c f1 22 38 0f b7 46 38 d5 16 48 38
       4.4164644e-05 3.884836e-05 4.7377365e-05 4.770498e-05
000330 0e 0c 43 38 6b 5c 44 38 64 f9 3d 38 39 31 33 38
       4.650285e-05 4.6816112e-05 4.5293375e-05 4.2722768e-05
000340 c2 e8 4e 38 8f 14 40 38 9a 1a 36 38 a8 27 3c 38
       4.9331e-05 4.5795514e-05 4.3416956e-05 4.4859626e-05
000350 aa 45 2d 38 24 ef 1a 38 93 1d 14 38 7e de 4a 38
       4.1311294e-05 3.693918e-05 3.5313493e-05 4.8367765e-05
000360 a1 3e 37 38 e7 12 2f 38 c4 ba 30 38 a0 be 3e 38
       4.3688928e-05 4.1740856e-05 4.213561e-05 4.5477063e-05
000370 7d 06 29 38 82 e6 54 38 9f 68 58 38 a6 b3 40 38
       4.0298783e-05 5.0759416e-05 5.159585e-05 4.5943678e-05
000380 e9 35 34 38 01 8a 28 38 60 41 3d 38 26 01 50 38
       4.2965552e-05 4.0182847e-05 4.5121997e-05 4.9592134e-05
000390 a5 8b 31 38 c4 6b 45 38 55 9f 32 38 ea aa 1f 38
       4.2330143e-05 4.7068825e-05 4.2586897e-05 3.806773e-05
0003a0 c7 03 3d 38 fb 17 2e 38 a7 42 1a 38 f5 b0 26 38
       4.506463e-05 4.1507166e-05 3.6778536e-05 3.974229e-05
0003b0 cc a8 34 38 5d cd 56 38 8c e9 40 38 ba b9 27 38
       4.307255e-05 5.1212835e-05 4.5993875e-05 3.9988874e-05
0003c0 fd 8b 4c 38 2e 1e 2a 38 b6 01 1e 38 45 bd 39 38
       4.8767764e-05 4.0559265e-05 3.767173e-05 4.4283708e-05
0003d0 43 88 3a 38 0e 5c 21 38 f7 b3 61 38 64 fe 42 38
       4.447276e-05 3.8471124e-05 5.3811786e-05 4.6490124e-05
0003e0 3e c1 22 38 81 2c 47 38 f3 7f 27 38 eb 0a 3f 38
       3.880378e-05 4.7486745e-05 3.9935065e-05 4.5548117e-05
0003f0 d5 fa 46 38 dc 12 5b 38 7b 67 5b 38 3a b7 2e 38
       4.7440484e-05 5.2231233e-05 5.2310043e-05 4.1655476e-05

icnn.wz.bias f4 [32]
000000 0c 3d 87 bc 20 ae 83 3c 30 03 0d bd b3 bd c1 3c
       -0.016508602 0.01607424 -0.034426868 0.023650026
000010 14 0e 5d bc 08 6c c6 3b 79 8d 25 3c ff 07 d1 bc
       -0.013492126 0.006055359 0.0101045305 -0.025516508
000020 74 85 e8 3c f4 a5 67 bc 97 b7 b8 3c 13 6f 5b 3c
       0.028383948 -0.014138687 0.02254848 0.013393181
000030 0b b0 d7 3c 06 eb 70 bc f1 55 ac bc a2 c2 d3 3b
       0.026329061 -0.014704471 -0.021037074 0.006462411
000040 10 d8 71 3c 7f a7 bd 3b 88 a7 af 3c 6c 6a f4 bc
       0.014760986 0.0057877894 0.02144219 -0.029835902
000050 2f 4b d9 bc c2 c6 0d 3d 54 ee f1 bc 21 a9 b2 3b
       -0.026525108 0.03461338 -0.029532589 0.0054522906
000060 b0 0d 85 bc be 4e 9a bc 81 a5 3e 3c 66 87 08 bd
       -0.016241878 -0.018836375 0.011636139 -0.03333225
000070 a1 46 e5 3c d0 44 62 3c c7 3c cb bb e1 21 45 3c
       0.02798778 0.0138103515 -0.0062023136 0.012032003
