weights/adversarial_Denoising/IDCNN_adversarial_for_Denoising_fitted.pt (torch, 218202 bytes, 10 tensors)

regularizer.icnn1.scaling f4 [1, 32, 1, 1]
00000000: 550c ddc0 51e6 dcc0 51e6 dcc0 550c ddc0
00000010: 550c ddc0 52e6 dcc0 51e6 dcc0 51e6 dcc0
00000020: 550c ddc0 550c ddc0 550c ddc0 550c ddc0
00000030: 550c ddc0 52e6 dcc0 4de6 dcc0 4fe6 dcc0
00000040: 550c ddc0 550c ddc0 550c ddc0 550c ddc0
00000050: 5be6 dcc0 550c ddc0 550c ddc0 550c ddc0
00000060: 550c ddc0 53e6 dcc0 5de6 dcc0 50e6 dcc0
00000070: 550c ddc0 b9e5 dcc0 53e6 dcc0 5ae6 dcc0
-6.9077554 -6.903115 -6.903115 -6.9077554 -6.9077554 -6.9031153 -6.903115 -6.903115
-6.9077554 -6.9077554 -6.9077554 -6.9077554 -6.9077554 -6.9031153 -6.903113 -6.903114
-6.9077554 -6.9077554 -6.9077554 -6.9077554 -6.9031196 -6.9077554 -6.9077554 -6.9077554
-6.9077554 -6.9031157 -6.9031205 -6.9031143 -6.9077554 -6.9030423 -6.9031157 -6.903119

regularizer.icnn1.wx.bias f4 [32]
00000000: f5a8 c53d 20ca 263e 62ff 6c3b bb66 c23d
00000010: 9f21 573b 45f6 ab3d e0d4 243e 468f 5e3b
00000020: 4dcc 0ebe 222c c7bd f52c 543b 5ee2 d7bd
00000030: 71f9 f73d a12d 163e 7e01 623b 4f2f 6c3b
00000040: b0d8 603b edf2 dbbd a823 eb3d e4eb 6a3b
00000050: cdc8 e53d 50d0 643b b0cb 5e3b 9c35 783b
00000060: 6439 333e 6774 203e 3239 8cbd 02a0 073e
00000070: d478 e8bd 17f6 053e 27ef 1f3e 6568 f2bd
0.096513666 0.16288042 0.0036162962 0.094922505 0.0032826436 0.083965816 0.1609683 0.003395991
-0.13945122 -0.097252145 0.003237543 -0.10541223 0.12108124 0.14665844 0.0034485753 0.003603894
0.0034308843 -0.10739694 0.1148141 0.0035846168 0.1121994 0.0034914203 0.003399592 0.003787375
0.17502362 0.15669404 -0.06846847 0.13244632 -0.11351171 0.13082157 0.15618573 -0.11836318

regularizer.icnn1.wx.parametrizations.weight.original f4 [32, 1, 5, 5]
00000000: bdd5 113d bee5 8e3d f981 ccbb a089 9d3d
00000010: acca 973d eefb ab3d 40b7 5e3b 5b7c 353e
00000020: 35b8 1a3c 9481 a83d bd47 9cbd f169 88bd
00000030: 12b1 bfbe 44a5 3b3e 0f0a 3e3e ada4 0d3b
00000040: d227 22bd 0c0a 1a3e 78ef 8abd 3e6d 8e3d
00000050: d829 7f3d 9462 973d a6d1 763d d1a2 be3d
00000060: 01b3 053e f6fe 59bd 4d16 47bd c3c6 413e
00000070: 5f9d 37be f6e1 a33d 4fc2 b43c 6710 e1bd
00000080: b5a4 bbbe a8cd a13c 049c 53be 95ba 03be
00000090: 369d 2f3c 4320 943e 3e63 933e 80bc dabd
000000a0: 57b3 dabd ccd5 87bd 38e0 8abd a207 98bc
000000b0: 2b79 bfbc c614 d9bd 4eff 17be 60d3 24bc
000000c0: 2ede d0bc 104d 50bc ee64 ac3c 2445 1abe
000000d0: 3a6f 323d 0977 46be b105 063d 4fcb bc3d
000000e0: 41b5 a43e 34be 443e a573 993e 20d0 1b3e
000000f0: be2c 5bbd 1d76 8fbe 641f b3be 3373 7cbd
00000100: 2228 84be bec5 73bd 3e7a 653e 9897 4c3e
00000110: 8661 243c 4ae3 f53d 64d4 9a3d e519 28bd
00000120: 25ea 20bc b102 a83c 5973 ec3c dd09 273d
00000130: ac01 123e b650 f8bd c174 04bd 8050 48bd
00000140: 23dc 343e 9083 88be 0fc9 893e 1427 3bbd
00000150: cbe3 afbc 5e2f d3bd e387 b43e 5091 abbe
00000160: 9d0b 5a3d 62b2 23bd 754c b43c 276e 4dbe
00000170: 8c88 d13d 54ce 94bd 3f89 60bd 5b15 d1bc
00000180: 263f 5cbc a1fd 8fbd 42c8 02bd f029 03bd
00000190: 7eb8 853d 1b04 da3d e2c2 63be 69ad 0f3e
000001a0: 6157 f83c a4ca 4dbe 7ce4 503e d6f1 e83d
000001b0: 1b9b f83d 5a1e f6bd 0ea0 963e 2092 90be
000001c0: 1656 ff3d 334d a1be 255f 993e 62c4 83bd
000001d0: 44b3 85bd cc78 b83e bc43 9d3b c192 efbd
000001e0: f6b7 d43c dd45 203e e270 84be 2f41 2d3e
000001f0: 49bf d83c 7c63 cb3d aa30 8fbc c733 18bd
00000200: 4f30 b9bc 0954 01bd 083e 823d c958 a03e
00000210: 010a 553d 61ec c9bd ebc0 c6bd a6bd 1dbe
00000220: 58b1 55be 5e51 59be 565e 22bc d084 6dbd
00000230: bcc4 1a3c a327 86bd 3ba1 193d bbe8 cbbc
00000240: 7868 ebbc 88e6 463d a517 823d 5dd6 a3bc
00000250: 4644 b3bc 16f1 b0bc 2535 f23d 8af4 04be
00000260: e461 dc3d b070 85bc 57e8 96bc 6276 95bd
00000270: 911f 9fbd 6aac c2bb d188 b63d 5f9b f23c
00000280: 3d46 1cbe 86dc 9cbe a700 9bbe 4d75 553c
00000290: f861 27bb 5979 073e 863c 9ebd 6ca6 f33d
000002a0: 9f65 b43d c4df b1bd 7488 123d d967 d93d
000002b0: a315 393d 7c6d bcbd f287 11bd df42 073d
000002c0: 42f7 fcbd fcbc 24be 421f c73c 4ec2 213d
000002d0: f877 15bc c9cb 2ebe bf2a 3ebe 13b8 a4bb
000002e0: fea6 a33c 29d5 0d3d db56 2a3d 14c3 703d
000002f0: 0483 623d 1796 613d 4658 b93d 8346 853e
00000300: 0173 8d3e 9074 bd3d 9cc1 783d 5547 913d
00000310: a786 593e 9eef 6f3e ca73 5d3d 6646 3a3d
00000320: 7c57 8abd 8ee3 16bd ae89 64bd ee9a 81be
00000330: e5c6 a03d d6c6 bcbd 569f 80bd ad25 aebe
00000340: 11f5 a43e ed2c 34be d6c7 4f3d 3de3 143e
00000350: b288 d7bd 1fc8 633e 35f9 45be a5c5 233d
00000360: b0bd 033d fd81 7a3d 62fe cf3d 57c7 81bd
00000370: e180 683d 9996 6d3d ae5b 283d 93c8 663c
00000380: f2eb 62bd aadf 933d 3470 4c3d 76cf 9b3d
00000390: 0df2 923d f871 b73d 4a68 f03c 5293 983d
000003a0: e0b2 b23d 709d ac3d 4ae2 9a3d 1a4d 893d
000003b0: 3c00 e13c 9f5e 2fbe 89dd 2fba 2897 1f3d
000003c0: d92f fb3b fc62 bc3d c777 3d3e 6cfa 5ebe
000003d0: d52a cc3c d9e2 1a3e 665b d73d b8c3 44be
000003e0: 0638 08be efbc aa3d 4b71 39bc 8ee5 9abd
000003f0: 36e4 ff3d 761a 623c 2bd8 26bd 1a79 47bc
0.035604227 0.069774136 -0.00624108 0.076922655 0.074117035 0.08397661 0.0033983737 0.17723219
0.009443332 0.0822784 -0.076308705 -0.06660832 -0.3743978 0.18324763 0.18558525 0.0021613047
-0.039588757 0.15042895 -0.06783956 0.0695443 0.062295765 0.07391849 0.06025853 0.093083985
0.13056566 -0.053221665 -0.048605252 0.18923478 -0.17931126 0.08002083 0.02206531 -0.109894566
-0.366491 0.019751385 -0.20664984 -0.12864144 0.010718634 0.28930864 0.28786653 -0.10680485
-0.106787376 -0.066325754 -0.067810476 -0.018558327 -0.023373207 -0.10599665 -0.14843485 -0.010060161
-0.025496569 -0.012713686 0.02104422 -0.15065438 0.043563105 -0.19381346 0.03272027 0.092184655
0.32169536 0.19213182 0.29971042 0.15216112 -0.053509466 -0.280198 -0.34984887 -0.0616333
-0.2581187 -0.059514754 0.22409913 0.19979703 0.010033017 0.120062426 0.075600415 -0.04104032
-0.009821449 0.020509096 0.028863596 0.04078089 0.1425845 -0.121247694 -0.032337908 -0.048904896
0.176621 -0.26662874 0.26911208 -0.045691565 -0.021470925 -0.10311769 0.35259923 -0.33509302
0.05323373 -0.03996504 0.022009114 -0.20061551 0.102311224 -0.072659165 -0.054818388 -0.025522878
-0.01344279 -0.07030798 -0.031929262 -0.032022417 0.0652933 0.10645314 -0.2224231 0.14030994
0.030315103 -0.20096833 0.2039966 0.113742515 0.12138959 -0.12017508 0.29418987 -0.28236485
0.124675915 -0.3150421 0.29955402 -0.064339414 -0.06528333 0.3602966 0.0047993343 -0.11697913
0.025966626 0.1565165 -0.25867373 0.16919397 0.0264584 0.099310845 -0.01747926 -0.037158754
-0.022606043 -0.031574283 0.06359488 0.31317738 0.052011494 -0.09859539 -0.09704765 -0.15404376
-0.20868433 -0.21222445 -0.009910187 -0.057987988 0.009446319 -0.06550529 0.037507277 -0.024891248
-0.028736338 0.048559695 0.06352166 -0.019999677 -0.021883141 -0.021599334 0.11826543 -0.12983909
0.10760859 -0.016289085 -0.018421335 -0.0729797 -0.07769693 -0.0059409635 0.089128144 0.029615102
-0.15261169 -0.30636996 -0.30273935 0.013028455 -0.0025540572 0.13229884 -0.07726388 0.11896977
0.08808445 -0.08685258 0.035774663 0.106155105 0.04518665 -0.0920057 -0.03553004 0.033022758
-0.12351848 -0.16087717 0.024306897 0.039491944 -0.009122841 -0.17069925 -0.18570994 -0.005026826
0.019977089 0.034627113 0.041586738 0.05877979 0.055300727 0.055074777 0.0905004 0.2603036
0.27626804 0.09250748 0.060731515 0.07093684 0.21242772 0.2343125 0.054065503 0.045477293
-0.067549676 -0.036838107 -0.055795364 -0.25313514 0.07850436 -0.092176124 -0.06280391 -0.3401312
0.3221822 -0.17595263 0.050727688 0.1453981 -0.105241194 0.22244309 -0.19333346 0.03998341
0.032163322 0.061159123 0.101559415 -0.06336849 0.056763534 0.05800495 0.041103058 0.014085907
-0.055400796 0.07220395 0.049911693 0.076079294 0.07175074 0.08957285 0.029346604 0.07449974
0.08725524 0.08428466 0.075626925 0.06704159 0.027465932 -0.17125939 -0.00067087315 0.038962513
0.007665616 0.09198567 0.18502723 -0.21775216 0.024922768 0.15125598 0.1051548 -0.19215286
-0.13302621 0.083368175 -0.011318515 -0.07563315 0.124947 0.013800254 -0.040733498 -0.012174869

regularizer.icnn1.wz.weight f4 [32, 32, 5, 5]
00000000: fc20 4638 6d51 4638 4d25 3238 0e52 3938
00000010: b29e 2938 5e49 4538 681d 3338 e2dd 5438
00000020: 139e 2f38 da8a 3038 ff33 3a38 94e0 3f38
00000030: 42ad 2338 46a9 1f38 2dd5 4738 209b 4e38
00000040: aa93 3738 7342 3138 c600 4238 307e 6438
00000050: a2cb 5b38 d818 2b38 8278 4138 3d8c 3d38
00000060: 6a74 1138 fadc 4738 7173 3d38 fd2a 3838
00000070: 3e99 3f38 e2e0 5c38 d397 6f38 1aec 3338
00000080: 71f4 5438 075f 3738 b145 5a38 b4b5 5838
00000090: f960 1d38 c4bc 5338 ff1c 3238 0d1f 2a38
000000a0: 5450 3c38 214f 3438 4203 3938 4ab7 3b38
000000b0: ff4c 4738 0910 5d38 e395 4438 3644 5938
000000c0: cf5d 4838 c040 4338 b575 3438 1df8 6538
000000d0: 50b2 4b38 f67e 3038 8a7d 3338 0b33 5038
000000e0: abdb 4a38 8cbf 4638 d21d 3238 20bb 2c38
000000f0: 81dc 3738 7c46 5138 af8b 2f38 6b69 0f38
00000100: 3738 1738 add8 3438 8276 3a38 5044 4238
00000110: 23ef 3538 4153 4f38 63b1 3738 c8a6 1938
00000120: 3ebc 3f38 ba4e 3b38 33e4 2d38 66ea 4838
00000130: f068 3138 61fa 4138 0482 5e38 659d 5b38
00000140: 4d73 2038 bc64 4938 a93b 6738 fd2c 2c38
00000150: b423 5a38 34a4 2938 24d1 2d38 31cc 4838
00000160: fc38 1c38 9c6a 4538 c1ae 5038 3a50 5c38
00000170: aaae 3638 6b15 4c38 864e 3838 c685 3738
00000180: a5ea 3638 0801 5d38 c228 5138 002a 3238
00000190: b7fb 3e38 009a 4d38 6767 3f38 78e5 3338
000001a0: 8a53 4238 88dd 3438 7634 2838 7786 5338
000001b0: e3ba 4338 07ac 3838 14cd 5138 d704 3938
000001c0: 13e2 3e38 9d68 6738 2960 3038 b5f1 2138
000001d0: ab42 4938 9fee 4b38 6b25 4438 5e1e 3938
000001e0: 8f29 2338 a7a1 1d38 9774 4338 35c5 3938
000001f0: 0298 3938 f720 3138 48af 3d38 96b0 5038
00000200: 5cf0 3138 1c9d 1d38 dc41 2f38 354c 5038
00000210: faca 5738 5a90 3938 4366 6338 d8ed 4d38
00000220: ba0f 2038 82a4 3038 c39e 3f38 73fe 3a38
00000230: 6942 3a38 473f 2d38 68e1 2a38 e587 3538
00000240: f047 4638 3d36 2738 b5fb 4e38 20f3 2c38
00000250: bf16 3d38 410b 3738 fd5d 3538 306a 4f38
00000260: bd0d 2e38 df56 2f38 24ec 2d38 312b 2938
00000270: 19f5 4938 4fc8 3738 3519 3338 c532 4038
00000280: 7fc4 5b38 bc7a 1b38 581a 3338 0ccf 3938
00000290: 653b 3938 5a9d 3a38 6313 4138 4a1e 4c38
000002a0: 2d10 5338 b963 2a38 0535 3638 6820 4a38
000002b0: 7e32 4838 374a 3c38 60bc 4e38 068c 2838
000002c0: 9ab0 4138 87ff 4f38 0c20 3038 34f0 3838
000002d0: 6e19 6838 9a39 2f38 a0ed 2d38 bb64 3b38
000002e0: 8813 2938 81eb 2d38 7744 3c38 3b2c 5138
000002f0: bc96 6438 5a4a 5d38 270e 4138 b1c1 1e38
00000300: 81db 4638 a7e9 5e38 9dae 1f38 eec6 3438
00000310: ef69 4038 1da7 3c38 c2b6 5f38 57ef 3a38
00000320: b410 2038 b663 2c38 c52b 2c38 e847 2e38
00000330: d66e 3638 46b0 4138 3134 4638 d653 2d38
00000340: 9987 1e38 4848 3938 9829 3838 0fd7 5238
00000350: a3e0 3738 12f0 3a38 49a1 5c38 b1f4 3b38
00000360: f0ab 3838 d47d 4e38 2715 5e38 1c7e 2e38
00000370: efb7 4e38 7172 2238 5480 5638 22c5 4138
00000380: 517d 5938 70ac 2e38 0f51 2638 ce92 3c38
00000390: f871 4038 e5d7 3938 ba31 6038 9fb1 5438
000003a0: c797 1f38 01da 1438 f8fa 4438 f921 5438
000003b0: f1ba 4038 7afb 3938 bd18 3538 70f6 6838
000003c0: cbe8 2a38 8d31 4f38 e701 4138 c41b 4938
000003d0: aea9 3438 b004 2e38 18ab 2638 cb4e 4238
000003e0: 3cee 2f38 0ebe 5338 6192 4738 2c19 4b38
000003f0: bce7 1038 d6cf 4038 8c13 4d38 7cae 2d38
4.7237598e-05 4.7282712e-05 4.2473246e-05 4.4183857e-05 4.0440536e-05 4.703679e-05 4.2704312e-05 5.0751383e-05
4.187047e-05 4.2090986e-05 4.439428e-05 4.5747103e-05 3.9023587e-05 3.8066202e-05 4.7643833e-05 4.92587e-05
4.3768123e-05 4.2261974e-05 4.6253925e-05 5.4476957e-05 5.2403317e-05 4.0792715e-05 4.6127017e-05 4.519172e-05
3.4679113e-05 4.7651098e-05 4.5168625e-05 4.3909055e-05 4.5680667e-05 5.2661526e-05 5.7123438e-05 4.2896812e-05
5.0772393e-05 4.37191e-05 5.2040155e-05 5.1667637e-05 3.752203e-05 5.0482122e-05 4.246551e-05 4.0560077e-05
4.4897504e-05 4.298904e-05 4.411047e-05 4.4754976e-05 4.7517005e-05 5.270544e-05 4.6869634e-05 5.1800358e-05
4.7771082e-05 4.6551926e-05 4.3024967e-05 5.4828928e-05 4.8565038e-05 4.207991e-05 4.2793843e-05 4.9638602e-05
4.8365135e-05 4.738527e-05 4.246628e-05 4.118227e-05 4.383596e-05 4.9895127e-05 4.1853342e-05 3.4192035e-05
3.605356e-05 4.311714e-05 4.4456225e-05 4.6316825e-05 4.3376476e-05 4.9430182e-05 4.3795804e-05 3.663337e-05
4.5713263e-05 4.4657594e-05 4.145894e-05 4.7902016e-05 4.229782e-05 4.624797e-05 5.305001e-05 5.2360254e-05
3.8254355e-05 4.801595e-05 5.5130255e-05 4.1049894e-05 5.20085e-05 4.0445666e-05 4.144119e-05 4.7873884e-05
3.724637e-05 4.7067748e-05 4.9753817e-05 5.2526804e-05 4.355485e-05 4.8657337e-05 4.394215e-05 4.3755186e-05
4.361071e-05 5.2691466e-05 4.986744e-05 4.2477623e-05 4.5533958e-05 4.9019232e-05 4.563425e-05 4.2890635e-05
4.6331006e-05 4.312166e-05 4.010318e-05 5.043155e-05 4.6665675e-05 4.402923e-05 5.0020477e-05 4.4111945e-05
4.5510078e-05 5.517212e-05 4.2051226e-05 3.86105e-05 4.7984224e-05 4.8621205e-05 4.676489e-05 4.413572e-05
3.8900933e-05 3.7582267e-05 4.6600206e-05 4.42911e-05 4.4249005e-05 4.223079e-05 4.5224355e-05 4.9755523e-05
4.242394e-05 3.7578036e-05 4.1784588e-05 4.9662038e-05 5.144903e-05 4.4241875e-05 5.4216256e-05 4.9097318e-05
3.816162e-05 4.211488e-05 4.5685807e-05 4.458283e-05 4.4407705e-05 4.1305346e-05 4.0741084e-05 4.3280324e-05
4.7273876e-05 3.9866416e-05 4.9348648e-05 4.1234423e-05 4.5082295e-05 4.364108e-05 4.3241296e-05 4.945154e-05
4.1497628e-05 4.1804156e-05 4.1466337e-05 4.0332965e-05 4.81504e-05 4.3817152e-05 4.27004e-05 4.582365e-05
5.239667e-05 3.7069185e-05 4.270146e-05 4.4300265e-05 4.4162753e-05 4.44924e-05 4.603284e-05 4.86656e-05
5.0321385e-05 4.0624032e-05 4.344156e-05 4.8190734e-05 4.773074e-05 4.489181e-05 4.9289665e-05 4.018473e-05
4.617926e-05 4.9590624e-05 4.1991516e-05 4.4092725e-05 5.5336794e-05 4.1776897e-05 4.146772e-05 4.4678087e-05
4.031093e-05 4.1465744e-05 4.4886456e-05 4.9870676e-05 5.449982e-05 5.275975e-05 4.6027966e-05 3.7850525e-05
4.7411308e-05 5.314653e-05 3.8071175e-05 4.3100612e-05 4.5875026e-05 4.497833e-05 5.333755e-05 4.456876e-05
3.816253e-05 4.110086e-05 4.104876e-05 4.15518e-05 4.3495405e-05 4.6178953e-05 4.7255486e-05 4.1324492e-05
3.779642e-05 4.4174754e-05 4.3907756e-05 5.026819e-05 4.383981e-05 4.456944e-05 5.2602296e-05 4.481216e-05
4.4029148e-05 4.9231414e-05 5.2948624e-05 4.160228e-05 4.928553e-05 3.873039e-05 5.114109e-05 4.619838e-05
5.185354e-05 4.1645428e-05 3.9652976e-05 4.4959415e-05 4.588251e-05 4.4308505e-05 5.3452073e-05 5.071016e-05
3.8049908e-05 3.548898e-05 4.6963774e-05 5.057638e-05 4.595047e-05 4.4341643e-05 4.3176802e-05 5.5542623e-05
4.0747964e-05 4.9398794e-05 4.6016557e-05 4.7947993e-05 4.307337e-05 4.14892e-05 3.9736828e-05 4.6326586e-05
4.1945124e-05 5.0483322e-05 4.7581623e-05 4.8422415e-05 3.4548095e-05 4.596993e-05 4.8894013e-05 4.1408915e-05

regularizer.icnn1.wz.bias f4 [32]
00000000: f04d 7dbc 219e e03c 38aa 213c 9d5b a5bc
00000010: 635e dbbc 10fa 0b3d a0e8 df3c 33d7 c13c
00000020: fdd1 9bbc 30f8 60bc 594c 72bc 0084 95bc
00000030: b095 78bc e957 8f3c 2af4 da3c 3e2c d63c
00000040: 44f2 97bc 0939 24bc 9fd9 81bc a6b2 f1bc
00000050: 71cf d33c c341 aebc 466f e1bc 38d5 a1bc
00000060: a54c 6bbc f3b4 d63c a2ab f83c 4cac c33c
00000070: 6dba 9abc 8b2e 263c f09c 023d 94f6 cb3c
-0.015460476 0.027419152 0.0098672435 -0.020185286 -0.026778406 0.034174025 0.027332604 0.023662185
-0.019021029 -0.0137310475 -0.0147887105 -0.018251419 -0.015172407 0.017497974 0.026727755 0.026144143
-0.018548138 -0.010023364 -0.01585084 -0.029504132 0.025855752 -0.021271592 -0.02751888 -0.019754991
-0.014361535 0.02620933 0.030355278 0.023885868 -0.018887723 0.010142933 0.03188795 0.024897851

regularizer.icnn2.scaling f4 [1, 32, 1, 1]
00000000: c863 ddc0 2997 ddc0 550c ddc0 550c ddc0
00000010: 550c ddc0 2297 ddc0 763d ddc0 ff96 ddc0
00000020: 763d ddc0 2297 ddc0 763d ddc0 550c ddc0
00000030: 1497 ddc0 550c ddc0 550c ddc0 763d ddc0
00000040: 550c ddc0 f796 ddc0 550c ddc0 763d ddc0
00000050: 550c ddc0 2397 ddc0 2e97 ddc0 0397 ddc0
00000060: 2397 ddc0 763d ddc0 550c ddc0 550c ddc0
00000070: 763d ddc0 2a97 ddc0 550c ddc0 1b97 ddc0
-6.9184303 -6.924702 -6.9077554 -6.9077554 -6.9077554 -6.924699 -6.9137526 -6.924682
-6.9137526 -6.924699 -6.9137526 -6.9077554 -6.924692 -6.9077554 -6.9077554 -6.9137526
-6.9077554 -6.9246783 -6.9077554 -6.9137526 -6.9077554 -6.9246993 -6.9247046 -6.924684
-6.9246993 -6.9137526 -6.9077554 -6.9077554 -6.9137526 -6.9247026 -6.9077554 -6.9246955

regularizer.icnn2.wx.bias f4 [32]
00000000: 1f08 c73d 4f7d 14bd 0ea3 0ebe 338d 1abe
00000010: 7d3e 1b3e e176 5d3e b777 fb3d 6c15 683e
00000020: c638 06bd 6835 173e 1148 2bbe e528 cd3d
00000030: f2c1 d13d 8450 bc3d 47bf 0a3e 4e36 2a3e
00000040: d9a2 f53d e286 39be 4f92 413e 7548 313e
00000050: d367 08be 5598 05be 7e3f e83d 370e a6bd
00000060: 54eb 29be 8340 a6bd a4c0 c1bd 2ce1 083e
00000070: ad88 c7bd 6bc9 d4bc 0ada 323d 89da 07be
0.09718346 -0.036252316 -0.13929388 -0.15092926 0.15160556 0.2162738 0.12278693 0.22664422
-0.032768987 0.14766467 -0.1672671 0.10017566 0.1024207 0.09195045 0.13549529 0.16622278
0.11993951 -0.1811786 0.18903469 0.17312796 -0.13320856 -0.13046391 0.11340235 -0.0810818
-0.16593677 -0.081177734 -0.094605714 0.13367146 -0.09742866 -0.02597495 0.04366497 -0.13266958

regularizer.icnn2.wx.parametrizations.weight.original f4 [32, 1, 5, 5]
00000000: 7822 0cbe 315c 28be a71d 22be 13a3 28be
00000010: 41cf e8bd a5c0 d4bd 0ec5 91bd 6ac0 ccbc
00000020: f5d3 64bd 1bab c2bd 29e6 83bc 0a87 bcbc
00000030: 357c a3bc 3f16 b4bc a7d0 37bd 8a93 463d
00000040: aec0 483c 528f 92bc 8ad8 c23c 4cd2 4a3d
00000050: 8834 aa3d c97b cc3d 810a c33d 4ea7 d53d
00000060: 6cae b33d 92a4 37bc dc30 d03b 14e1 01be
00000070: 424c 13bc 4938 a53b 816f 7bbd a5d3 ccbd
00000080: 4fe6 093e def5 52bc 26b6 14be fc28 1abd
00000090: bd56 943d 8e87 3fbe 9ccd 0abe abe1 023e
000000a0: 98df 233d 4b8a 3dbe 1b55 b73d 6826 ad3d
000000b0: e530 46be 67c6 b8bd 4e12 9f3d 4e0d cebd
000000c0: 41e5 b6bd 4dec 753d 3b1c eebc 5667 efbc
000000d0: 8b23 46bc dbce 02bd 808d 27bd d00d ca3c
000000e0: 690a 31bd 42a4 85bd 54a8 05bd a6c8 3a3d
000000f0: 580e b53d 00f0 113e 16a9 713e 4b95 263e
00000100: b1d4 8b3d 7f5c bcbd 494c 17be be1e 80be
00000110: b4ff 66be 4aa7 0dbe 90e9 8abd cc91 0fbd
00000120: 4685 0a3c 04b2 883c 0278 49bd 9cef 683d
00000130: aff2 063e 7c69 64be fd9d 8a3c ba7c 953c
00000140: f588 88bd b4df b13e 015e 89be 533c 90bc
00000150: 4902 053d 7c22 69bd d3a4 1b3e 15a8 b2bd
00000160: 6c21 b9bd ef6d 493d 2dfa 503b 4927 123d
00000170: f049 6d3c 4d75 93bd 5cf0 453c f2b1 a03c
00000180: 5fc4 343d 5c58 cf3c 332e 23bd 0414 9fbc
00000190: 1523 103e 204f 703d ab0e 91bb acbe 9fbc
000001a0: b2e6 9a3b 7f25 0e3d 833b 2dbe d78b ecbd
000001b0: ac5c 99bc f226 5e3d e12e 03be 7ddf 3dbe
000001c0: f368 9a3d 8823 283e e2cc 023e 1a27 7d3a
000001d0: 8851 0c3e 8ddd 9a3e 1f6e 193e cb16 1a3d
000001e0: 5dfb 203d 9c8d ac3d 568c 9a3d 1e50 91bd
000001f0: 0a23 46bd ca27 d93c 6d62 d5bb d065 c6bc
00000200: 7cbd 193d 3e6f 7cbd d041 b8bc b69b 2bbb
00000210: 778c bf3d 5ec6 47bd 77de 88bd 08c8 943c
00000220: a3a6 853d 01cb 42be fd0a 56be 1d52 093e
00000230: cd3c 8cbd c4ea 22be b2b8 ffbd 1996 883e
00000240: a659 0d3e 7681 23bd cb33 933d bcfe 673e
00000250: 08d4 473b f030 dfbd c58e 26bc c7c7 973c
00000260: f566 8fbd 67ae 3cbe 4614 d6bc 5923 66bd
00000270: 5fbe a1bc f6cf b9bd c2ce 8abe 3b7e 20be
00000280: f159 443c 2694 0e3d cc96 35bc 979c e4bd
00000290: fdae 9fbd 427c 103e 6699 363e 3106 083d
000002a0: 2468 5dbd da02 40bc 6f23 a33d 5d70 293e
000002b0: 2410 5b3d 57f8 13bd 1453 a53b 8f59 63bc
000002c0: ff5e 06bc bc26 cdbd bc9a 733b f437 a0bc
000002d0: 9151 37bd 2e5f 243d 667c 193d a6c8 d1bc
000002e0: 121a 72bd aac9 32bd 07bf fcbd 7c0b 08be
000002f0: a33b efbc 78c2 1ebd cf75 c83c a36a ab3d
00000300: 0674 943c 0fba 85bd 3010 66bd e788 dd3d
00000310: b627 f03c dbc6 8a3d 7c87 d33d 39fc ae3d
00000320: d455 df3d 0f7c 6fbd c8ca 073e 59f9 80bd
00000330: 4973 f93d b816 3abd 3fbc 3c3e ba85 3cbd
00000340: dbc6 403e 8117 a0bd 5976 ca3d 42ae 523b
00000350: 05b8 193c 7cca 983b 3e39 f03d af5c 1fbd
00000360: 22db 1e3e e6e9 88bc c1d2 143e 9322 50bd
00000370: b454 ee3d da16 91bd 40b5 163e f46e a4bd
00000380: 9fdf 083e 583b 32bd 1144 713c 3f2e e23d
00000390: 5aa4 c03d d9b4 c2bd 3820 dbbd e628 ccbd
000003a0: 4d3c 853d f804 4e3e 5a11 8c3d a494 f7bd
000003b0: f118 a0be fc20 8dbe 4adc 83bd 70c4 8ebb
000003c0: 1a25 403d 93c7 1cbd f7d3 eabd cea3 9dbd
000003d0: 1f1f 79bd 5d12 a93b ea52 1dbc 70d6 8dbd
000003e0: 83a7 91bd 269f 5bbd d54b 023d 7a4a 53bd
000003f0: f650 06be 23bf f73b 2217 e33d d76d bc3d
-0.13685024 -0.16441418 -0.15831624 -0.16468458 -0.113676555 -0.103883065 -0.07117663 -0.024994094
-0.0558662 -0.09505292 -0.01610096 -0.02301361 -0.019956687 -0.021983264 -0.04487672 0.048480548
0.01225297 -0.017890606 0.023784894 0.04951696 0.08310801 0.09984548 0.09523488 0.104323015
0.08773503 -0.01120867 0.0063534807 -0.12683517 -0.008990349 0.00504211 -0.061385635 -0.100013055
0.13466762 -0.012876002 -0.14522609 -0.037636742 0.072431065 -0.18704054 -0.13554996 0.12781398
0.040008157 -0.18509786 0.089517795 0.08454591 -0.1935459 -0.09022217 0.07767163 -0.100611314
-0.089304455 0.060039807 -0.029066196 -0.02922408 -0.012093435 -0.031935554 -0.04090643 0.02466479
-0.04322282 -0.0652547 -0.032631233 0.04560151 0.088406265 0.14251709 0.23599657 0.16267888
0.06827677 -0.0919733 -0.14775194 -0.25023454 -0.2255848 -0.13833347 -0.0678283 -0.035051152
0.008454626 0.016686447 -0.049186714 0.056869134 0.13178514 -0.22305864 0.016921038 0.01824795
-0.066667475 0.34740984 -0.26829532 -0.01760689 0.032472882 -0.056917652 0.15199594 -0.08723465
-0.09039578 0.049177106 0.0031887398 0.035681996 0.01448296 -0.07200108 0.012081232 0.019616101
0.044132587 0.025310688 -0.03983898 -0.019418724 0.14075883 0.05866921 -0.0044267974 -0.0195001
0.004727208 0.034703728 -0.16917233 -0.1155011 -0.018720947 0.05423636 -0.12810852 -0.18542285
0.07539549 0.16419804 0.12773469 0.00096570107 0.13702977 0.30247155 0.14983414 0.037619393
0.03930222 0.08425447 0.07546298 -0.07095359 -0.04837326 0.02650823 -0.0065119774 -0.02421847
0.037534222 -0.061629526 -0.02249232 -0.002618534 0.093529634 -0.048773162 -0.06683057 0.018161789
0.06525924 -0.19022752 -0.20902629 0.1341023 -0.06847534 -0.15909868 -0.124864 0.26677015
0.1380373 -0.039918385 0.07187613 0.22655767 0.003049137 -0.10898006 -0.010165875 0.018527878
-0.07002059 -0.18425904 -0.026132714 -0.056186054 -0.019744096 -0.090728685 -0.2711087 -0.15673153
0.011984334 0.034809254 -0.011083316 -0.1116268 -0.07797048 0.141099 0.17831954 0.03320903
-0.054054394 -0.01171943 0.07965743 0.1654677 0.05348219 -0.036125507 0.005045304 -0.013876333
-0.00820136 -0.100171536 0.0037171086 -0.01955793 -0.044755522 0.040129833 0.03747215 -0.025608372
-0.059106894 -0.043649353 -0.12341123 -0.13285631 -0.029203242 -0.03875968 0.024470238 0.08369949
0.01812173 -0.065296285 -0.05616778 0.10817128 0.02931581 0.0677621 0.10328576 0.085442014
0.10905042 -0.05846792 0.13260949 -0.06297559 0.12180192 -0.045431823 0.18431185 -0.04602597
0.18825857 -0.07816983 0.09885854 0.0032147323 0.009382253 0.00466281 0.11729668 -0.03890675
0.1551328 -0.016713094 0.14533521 -0.050814223 0.116372496 -0.07084437 0.14717579 -0.08028975
0.13366555 -0.043513626 0.014725701 0.11043977 0.094063476 -0.0950715 -0.106995046 -0.09968738
0.06505642 0.20119083 0.06839247 -0.12088898 -0.3126903 -0.27564228 -0.06438501 -0.0043569133
0.046910383 -0.038276266 -0.1146621 -0.07697259 -0.060820695 0.00515966 -0.009602288 -0.06925666
-0.071120284 -0.053618573 0.0318106 -0.0515847 -0.13116822 0.007560627 0.110883966 0.09200638

regularizer.icnn2.wz.weight f4 [32, 32, 5, 5]
00000000: 7fd2 223d f42f 623d a931 463d 6465 c33c
00000010: 685e cd3b 4888 3e3c 03ef e53c 82e5 b53c
00000020: 42bb 363a 95a8 073a 8e67 2d3a 7717 9b3b
00000030: d8d1 693a 03e7 173a 360e 073a ec99 1b3a
00000040: f3bf 293a e341 363a c895 143a 458f 043a
00000050: bc9b 0a3a a2fc 1c3a 5871 363a 76c8 013a
00000060: 8b3c e139 619a 0a3d 810b f23c 4d08 8a3c
00000070: 69b0 ee3c e8e2 1f3d 5bd6 9e3c f781 6c3c
00000080: cf81 873a 5f2a 553c fd95 ba3c bf4b 233c
00000090: bebf a53b 376a 1c3a 5224 763b 24ab 5f3c
000000a0: 5313 cd3c 60db a33c fd74 c83b b8bb 983c
000000b0: 899d e83c 1b70 0d3d 4fa8 f23c 7209 843c
000000c0: 292c e63c 875d 153d f032 473b 4eb3 3f3c
000000d0: 66f4 803c 27b1 793c 2449 443c 479d 5d3d
000000e0: ee0b 7e3d eba9 853d 0580 843d 182f 7b3d
000000f0: 5717 233a 6723 d23a bfcc 803c cb71 103c
00000100: 2e89 9b3a 777f ea3b d544 eb3c 2095 fc3c
00000110: 8830 d83c 0264 8c3c b585 c339 7601 9a3c
00000120: c724 b13c 6a6f 863c 302a be3b 3a7f c33c
00000130: 8520 683d 0080 013b e97f 013b 7b7a 6d3b
00000140: ede3 393d 0cc0 9f3d 3612 0d3b 4f12 0d3b
00000150: b6e6 b33b 3f4d 7d3d 98b4 c03d e30b 1e3b
00000160: ea0b 1e3b 46d4 f53b 3a40 7d3d 34af c03d
00000170: b71e 1e3b b41e 1e3b de1a fb3b 90f9 863d
00000180: 0621 ca3d c574 243b b874 243b fed2 373c
00000190: 7bba 983d 5056 883d a3a1 763d 944f 0b3d
000001a0: 90c5 6d3c 0ad5 853c 4c6c f73c df3d e33c
000001b0: d61a b63c 8785 0b3c d0da e539 8531 053a
000001c0: f75a ee39 d139 043a a071 e439 e1ec 0d3a
000001d0: 8a16 0f3a 82be 043a c85b 383a c9f8 f339
000001e0: 5c9a ab39 c14d f239 1a80 1e3a dbeb 6b3a
000001f0: 66a7 153a 41c4 ce3d 52fe 8f3c 7a82 0c3e
00000200: aa18 193e adb0 373e 4d29 073c 257a 953b
00000210: 3916 0e3c 3d22 d43b a893 c83c aaf2 b13b
00000220: e63b f63a b4ef ec3a e67c e63a 1991 ea3a
00000230: fb26 103b 2f04 073b bd78 103b d933 223b
00000240: b5aa 603c c2d6 c13b 496f 083b e207 0a3b
00000250: 344e 023b 8a16 c63a bed9 bc3c a309 883a
00000260: 5e2a 3e3a fc55 df3a f432 7e3d 2b27 063a
00000270: 8c09 063a 68dc f639 2cb8 113a d628 de3c
00000280: 4ec9 fe39 687f fc39 333d e839 e37c 0a3a
00000290: 5abb 3c3a 71ef f539 11b8 f039 2250 d639
000002a0: 5b78 023a d620 433a f870 d739 94ff d739
000002b0: 7964 bd39 ec90 eb39 c237 2a3a 2d5a 883d
000002c0: 58ba 473d d87a ed3c d2d8 943c b5de 703c
000002d0: 348b 353a d989 9839 3e3c 023a 9eff d738
000002e0: 0fff 9139 d628 cb3d 824c 793d 2c39 f03c
000002f0: b602 ee3c 21e7 1d3d 7402 863d 9793 1f3d
00000300: 9d5e 073d 8152 873c 2913 903c 3627 0c3d
00000310: 2011 4b3c 61be 763a 937b c139 0000 0000
00000320: 5567 e93c c443 723c c65c 2a3c 3bda ff3c
00000330: 02f1 363d d9fe b53c 26c7 513c 3197 093c
00000340: 5135 c53c 9b06 1a3d 8326 5d3c 130a 1f3c
00000350: f536 ae3b 84dc 363c ac61 823c 94ed 713c
00000360: 6078 333c c8a2 d73b 7705 4a3c 0daf af3c
00000370: 8d20 ad3c abfe 753c d74e 2e3c c70e af3c
00000380: bc61 113d c2f3 5939 9724 a939 100e 2839
00000390: e2b2 3e39 61e4 3839 35b9 5439 3978 9a39
000003a0: ccf2 3d39 d447 5a39 9d42 5339 b729 a339
000003b0: 161f bb39 3125 0739 eecb 1e39 df73 1d39
000003c0: db5b 1139 4e43 2939 cbe2 0639 5efb 1c39
000003d0: 4be4 1a39 daf5 313e 6aef 273e 78d3 703c
000003e0: ebcf 413d 46b9 f63c e739 3d3d 3c5f 223d
000003f0: 263d 0d3d 3dea f83c a1bf 103d 1521 583d
0.039751526 0.055221513 0.048387203 0.023852058 0.0062673576 0.011629172 0.028068071 0.022204164
0.00069706526 0.0005174962 0.0006614857 0.004733022 0.0008919514 0.00057946163 0.0005151959 0.0005935717
0.0006475441 0.0006952567 0.0005668071 0.0005056749 0.00052874885 0.0005988573 0.00069596386 0.00049508305
0.00042960452 0.033838633 0.029546501 0.016849661 0.029136853 0.039034754 0.019389322 0.014435283
0.0010338369 0.01301059 0.022776598 0.00996679 0.005058258 0.0005966755 0.003755827 0.013651643
0.025033629 0.020002067 0.0061174617 0.018644199 0.028395431 0.03453074 0.029621271 0.016117785
0.02809723 0.036466148 0.0030395351 0.011700464 0.015741538 0.01523999 0.011980329 0.05410507
0.062023096 0.0652655 0.0646973 0.06132421 0.00062214345 0.0016032279 0.01572263 0.008816193
0.0011866444 0.0071563083 0.028719345 0.030832827 0.026390329 0.017137531 0.00037292918 0.018799525
0.021623982 0.016410548 0.005803369 0.023864377 0.056671638 0.0019760132 0.0019760078 0.0036236334
0.045383383 0.07800302 0.0021525747 0.0021525805 0.0054901494 0.061841246 0.094094455 0.0024115972
0.0024115988 0.0075021116 0.06182883 0.09408417 0.0024127194 0.0024127187 0.007663115 0.06590569
0.0986958 0.0025094014 0.0025093984 0.011219738 0.07457443 0.06657088 0.060212743 0.03401144
0.014512435 0.016336937 0.030203007 0.027739463 0.022229593 0.008515722 0.00043841312 0.00050809263
0.00045462672 0.00050440157 0.00043572206 0.0005414021 0.00054583757 0.0005063788 0.00070327194 0.0004653393
0.00032730668 0.00046215768 0.00060463103 0.0008999684 0.0005708843 0.10096026 0.017577324 0.13721648
0.14950815 0.1793849 0.008249593 0.00456168 0.0086722905 0.006473808 0.02448447 0.005430539
0.0018786162 0.0018076808 0.001758483 0.0017896026 0.002199589 0.002060186 0.0022044622 0.0024750142
0.013712575 0.0059154937 0.0020818284 0.0021061827 0.0019883038 0.0015112918 0.023053046 0.0010378849
0.0007254238 0.0017039175 0.06206031 0.0005117531 0.0005113117 0.00047084992 0.0005558755 0.027119081
0.0004859664 0.0004816011 0.00044296085 0.0005282892 0.00071995484 0.0004690844 0.00045913507 0.00040876964
0.0004977041 0.00074435526 0.00041092164 0.00041198416 0.00036123747 0.00044930668 0.0006493294 0.06657825
0.048761696 0.02898924 0.018169794 0.014701535 0.0006925345 0.00029094404 0.0004968083 0.00010299611
0.0002784659 0.09919898 0.06086398 0.029324137 0.029054027 0.0385505 0.06543437 0.038959112
0.033049215 0.016518833 0.017587261 0.034217082 0.01239422 0.0009412524 0.000369039 0.0
0.028491655 0.014786664 0.0103980955 0.03123199 0.044663437 0.022216247 0.012803828 0.008397863
0.024073275 0.037603956 0.013497951 0.009706992 0.00531661 0.011160973 0.015915714 0.014766116
0.010953993 0.0065806843 0.0123304045 0.021445775 0.021133685 0.015014331 0.010638914 0.021369351
0.035493597 0.0002078554 0.00032261453 0.00016026967 0.00018186451 0.00017632685 0.0002028689 0.00029462742
0.00018114893 0.00020816858 0.00020147343 0.00031120863 0.0003569058 0.00012888458 0.00015144024 0.00015015852
0.00013862496 0.00016142169 0.00012863723 0.00014970961 0.0001477163 0.17378941 0.16399923 0.014698856
0.047317427 0.030117642 0.046197798 0.039641604 0.034482144 0.030385131 0.035339 0.052765924

regularizer.icnn2.wz.bias f4 [32]
00000000: fd26 d53b 2819 d53c 1b35 16bc 89aa 98bc
00000010: a018 a0bc 8ce1 273c 022f 82bb 909e 533c
00000020: 5805 84bb 8478 2f3c a880 65bb 2978 e6bc
00000030: 152d bd3c c3d9 59bc 8357 10bc 4dd4 a1ba
00000040: 780b b2bc b83b 5f3c 1311 44bc 29e9 cebb
00000050: 856b 02bc 41e2 533c 15ef 4c3c 8542 ae3c
00000060: 88c3 443c cb90 cabb 52c9 bcbc ccb9 08bd
00000070: 9b2c 29bb fc45 973c 6002 07bc ddf9 d13c
0.006504892 0.026012972 -0.009167935 -0.018636005 -0.019542992 0.010246646 -0.003972889 0.012916222
-0.0040289573 0.0107098855 -0.0035019312 -0.028133469 0.023092786 -0.013296547 -0.008809927 -0.0012346596
-0.021733984 0.013625078 -0.011966961 -0.006314416 -0.007960205 0.012932361 0.0125081735 0.021271953
0.012009509 -0.0061818114 -0.023045216 -0.033380315 -0.002581394 0.018465988 -0.008240312 0.02563184
