weights/adversarial_Denoising/LAR_adversarial_for_Denoising.pt (torch, 713592 bytes, 13 tensors)

cnn.convnet.0.weight f4 [128, 1, 3, 3]
00000000: 0555 8dbe 4113 91bd 1143 c9be 87e4 08bf
00000010: c2b6 c9bd ac4b e8bd 8925 233f 1675 093e
00000020: daac 203f a528 26be 305a 923e 8ae5 24bb
00000030: 1f1e 033f 760a 6f3e 27b8 54be be11 68bd
00000040: 8156 4cbe 8a2a c6be 123c d33c e563 b5be
00000050: 95c2 c13e 2223 88be 390c 3c3c a295 7c3d
00000060: 1f5d 823e 1851 a13e 9bd5 d1be 8686 0cbf
00000070: 5dcf 15bf fd4b debc c899 4cbe db60 b23e
00000080: 534e 843e 8132 863e 0bfe 7e3e 4c75 073e
00000090: 8b22 a53e 6fe4 be3e cdec f33c b6f6 3c3e
000000a0: 91fd dfbe 30fb 043e 1c94 4bbf 770f 1e3e
000000b0: e0db e13c c3ca e3be ebbf 41be 06dc ac3c
000000c0: 261f 15bf 5db7 6b3e ad25 b53e dc60 1fbd
000000d0: 509a 7a3e 77c3 c73e 58af d1be 8402 723d
000000e0: 3ec9 483e c6a1 cf3d 69c4 863e 1c1a d8be
000000f0: 307c 83bd 6309 823e 1728 af3c a919 033f
00000100: f924 b5bd b198 c33e d008 62be 8a6f c43d
00000110: 3dc2 d3bb 0498 5abd da1f d8be e740 06be
00000120: 4aeb 923e fcc5 6fbe 30c7 593d 734f c73e
00000130: 0631 ea3d ad33 223e f3c3 eabe 5d25 ca3d
00000140: c34a d3be 041d 863d 14b9 93be b9d9 d93e
00000150: a0c6 31be 96b7 a23e 9436 1c3d f1c5 e43c
00000160: 2d14 16be 5599 afbe 2273 b7be 7a1f da3d
00000170: 9d4e c53e f9c2 8c3d e227 6ebe ad71 733d
00000180: 60bc 903e 2660 8bbd 4257 7dbe a3a5 f7bd
00000190: 6179 86bd 4b30 a0be a6f3 fcbd 81d9 073f
000001a0: 400a 8fbd 5dbc 163e 3b51 9a3d 477e 7dbd
000001b0: 13ae 563e 2280 3a3e d523 23be 47ca 153d
000001c0: f585 0ebc 49c2 063e 9c4a 5bbe 08e2 573e
000001d0: 1d4e 6a3e 80ec d53e 4b45 a5be 7eac aebd
000001e0: e899 aabe 1a4d aa3c 802b 7f3d e0d2 0a3e
000001f0: 03cc 3a3e b98d 79be 379c 16be c00e 57be
00000200: 8b95 bcbe d97c 54be 7f34 a2be b1e4 59be
00000210: 1d3d e9be 6494 d1be d41e c3be a1c3 633e
00000220: d3fb acbd e08e bdbe 7c06 073e 8a15 8e3e
00000230: c9d8 9cbe 4d4c 81be c091 a03e 8576 4d3e
00000240: 3b7b d3be ff56 983c 8cad 0ebe 05a9 223e
00000250: d639 23be c2c2 373e 3557 ea3d d660 ae3e
00000260: 762a b5be d6f7 68be 0496 9fbe dfc2 0b3e
00000270: 0d03 583d 253b 7dbd a446 69be 0440 ccbe
00000280: ee73 b43e 5c31 d83e 1595 7bbe ad2a b63e
00000290: fdb0 2b3e b289 8ebe de3a b1bd bf6a d1be
000002a0: 7a49 edbd e0fe 5e3e 88c7 7b3e 70e9 093e
000002b0: 17f9 563e cdae 26bf 5f48 8f3c 1e73 573d
000002c0: b3cf 973e 815b 9a3d 71aa a63e f6e6 cbbe
000002d0: d667 d1be ec9f c0bc 33e7 9a3d 5d96 07bf
000002e0: ccc8 a3be e178 d33e e820 e43e d255 433e
000002f0: 08e7 e43d e5b1 8cbe ec8e 833e c0c1 a93e
00000300: 550a 833e ef4e d3be efe0 e8bc ba47 fa3d
00000310: efe8 22be a4ee 0a3d eb00 7a3e 56c0 8c3d
00000320: 21a5 63be b4e9 d33e 2790 d8be a443 1abe
00000330: e7da d23c 46a1 73bd acec 483e d0fa fdbd
00000340: e647 0cbd f969 03bf 686e 9d3e 312f c9bd
00000350: 9ea3 e53d ef76 64be 0acb 703e 7728 c93e
00000360: cf37 dfbe 8ab5 a3be 51aa 593e 036f 853e
00000370: 4b68 743e 3270 75be b651 db3e 159f 61be
00000380: f8a7 843d 23ba a8be 1e54 903d afea a1be
00000390: 7b69 d9bd fe83 d73e e8ff 6cbe d66e 163f
000003a0: de89 a2be 752b bdbd 22f8 a3be 06fa 183e
000003b0: b863 9c3e 3cf7 4ebf 9f0d 31be 7b2b 083e
000003c0: 9686 883e 904e 943e 46f2 0f3e 26b3 293c
000003d0: 8911 04be 51aa b1be 41ab 373d b0dc 513e
000003e0: 9319 ac3e b2f0 adbe 11bb db3e 7433 5abe
000003f0: ff7d a2be cbf2 ed3c 923c 2c3f da9d 233e
-0.27603927 -0.070837505 -0.3930898 -0.53473705 -0.098493114 -0.11342558 0.6372915 0.13423571
0.6276375 -0.16226442 0.28584433 -0.002516123 0.51217836 0.23343834 -0.20773374 -0.056657545
-0.19954874 -0.3870433 0.02578548 -0.35427776 0.37843767 -0.26589304 0.0114775235 0.06166614
0.2546167 0.31507182 -0.4098328 -0.54892766 -0.58519536 -0.027135843 -0.19980538 0.3483952
0.25841007 0.26210406 0.24901597 0.13228339 0.32252917 0.37283656 0.029776001 0.18453488
-0.43748143 0.12986445 -0.7952287 0.15435587 0.027570665 -0.44490632 -0.18920867 0.02110101
-0.58250654 0.23019166 0.35380307 -0.03891073 0.24472928 0.39016315 -0.4095409 0.05908443
0.19608018 0.10138278 0.26321724 -0.4220742 -0.06420171 0.25397786 0.021381421 0.5121103
-0.088449426 0.38202432 -0.22073674 0.09591587 -0.006462364 -0.05336763 -0.422118 -0.13110696
0.28695136 -0.23415369 0.053168476 0.38927802 0.11435132 0.15840025 -0.45852622 0.09870408
-0.41267976 0.06548503 -0.2885214 0.42548922 -0.17360926 0.3178069 0.038137987 0.027926417
-0.14656134 -0.3429667 -0.35830027 0.10650535 0.3853654 0.068731256 -0.23257402 0.05943458
0.2826872 -0.06805448 -0.24740317 -0.120921396 -0.0656612 -0.31286845 -0.1235116 0.5306626
-0.06984377 0.14720292 0.07535025 -0.061888006 0.20964842 0.18212941 -0.15931638 0.03656986
-0.00869893 0.13160051 -0.2141518 0.21082318 0.2288136 0.41781998 -0.3227943 -0.08528994
-0.33320546 0.020788718 0.062297344 0.13557005 0.18241887 -0.24370469 -0.14708029 -0.2100172
-0.36832842 -0.2075075 -0.31680676 -0.21278645 -0.45554438 -0.40933526 -0.38109457 0.22242595
-0.08446469 -0.37023067 0.13186067 0.27750808 -0.30634144 -0.25253525 0.31361198 0.20064743
-0.41304955 0.01859617 -0.1393339 0.15884788 -0.15940031 0.17945388 0.11442415 0.34058255
-0.35383958 -0.22750792 -0.3116914 0.13648556 0.052737284 -0.061823983 -0.22780854 -0.3989259
0.35244697 0.42225158 -0.24568589 0.35579434 0.16766734 -0.27839428 -0.08653806 -0.40901753
-0.1158628 0.21776915 0.24587834 0.13467956 0.20993458 -0.65110475 0.017490564 0.05260002
0.2965065 0.07536984 0.3255191 -0.39824647 -0.40899533 -0.023513757 0.07563629 -0.5296381
-0.31989133 0.4130316 0.44556355 0.19075707 0.11176878 -0.27479473 0.25694978 0.33155632
0.2559382 -0.4127116 -0.02842757 0.12220712 -0.1590917 0.03391899 0.24414413 0.06872623
-0.2223096 0.4138924 -0.4229748 -0.15064865 0.025739146 -0.059479974 0.19621533 -0.12401354
-0.034248255 -0.51333576 0.30748296 -0.09823454 0.11212848 -0.22310995 0.23514953 0.39288685
-0.43597266 -0.3197444 0.21256377 0.26061258 0.2386791 -0.2396858 0.42835778 -0.22033341
0.0647735 -0.3295451 0.07047294 -0.31624362 -0.10615822 0.4209289 -0.23144495 0.5876287
-0.3174581 -0.092368044 -0.32025248 0.14939126 0.3054483 -0.80846 -0.17290352 0.13297836
0.2666518 0.28966188 0.14057264 0.010357654 -0.12897314 -0.34700254 0.044841055 0.20494342
0.33613262 -0.33972698 0.42916158 -0.2130869 -0.31736752 0.029046437 0.6727992 0.15978184

cnn.convnet.0.bias f4 [128]
00000000: c0d7 423d 840d 09bc ba59 b6bb c7ca 663d
00000010: 5442 c13b bdc2 373c 9a53 47b9 c900 cbbc
00000020: d073 c83a e7e9 3c3d 8aa7 6c3b 59d3 2fba
00000030: 91f4 77be c472 c93d 7d00 53bd e83d 8abd
00000040: 5e6a 153e 473a 063e f05a af3d cf73 e6bc
00000050: 6260 be3c 6d97 78bd 0c79 13bd bc0b c7bc
00000060: c55c 943b 9b5f 2f3e 94a3 3c3c cecb cc3a
00000070: 7aa4 113d 1cd1 31bc b63c b53b f195 57ba
00000080: b53b 3abe bf2e d0bc 19b3 0f3e 468f 2d3e
00000090: 43ac 22be ee3f 273c 72e2 24be 6dfc babc
000000a0: d765 15be 7362 79bd 71ea 9339 6903 9c3a
000000b0: 63cd 2c3b 4829 1a3e 6fd7 393c 1f91 183b
000000c0: a7f7 1cbe a778 083b 71b0 54bc 1d7b 033d
000000d0: 4c7c 07be e066 aa3b 7c2c a43c c20d 8e3b
000000e0: 9f72 ab3b e417 afb8 52c4 a9bd ec94 dbbc
000000f0: c628 c6ba 36ed 9cb9 5e07 31be 8c38 bc3b
00000100: 24a4 963b 1bae 253b 68cf 54be 53bc 27be
00000110: a78f 433d 59ea 3ebc d195 843c c40c 6c3c
00000120: bbfe 0e3b 03c4 3f3b 14e4 ff3c b72b d0ba
00000130: dc34 e5bd bdf3 d4bb 1cfc e13d 93a5 27be
00000140: 43c4 ca3b 873a 2139 76a7 833b 4838 0f3b
00000150: 35b0 1b3b dd41 8db8 3891 a13c 165a 3b3e
00000160: 1188 053d d9f3 3e3c 0e82 193e 77e8 b03d
00000170: 38d8 a6ba ec56 d4bb 5f13 88bd 06c7 d83d
00000180: cb97 503e 83e8 0a3e 95be 6a3c 37fc cd3b
00000190: 231f 143b 4e55 3a3b f1ef f6bc 5933 f73d
000001a0: a229 013c 4eb7 a9bd 85d5 b33b 8d80 623a
000001b0: ffb2 75bd 62fe 613e 3278 023d a3c8 9e3b
000001c0: b6a9 ca3c 303e 0ebe b00c 76bd bbf5 af3c
000001d0: 9d91 a73a 075c 11be c9d9 473c 687c 2c3b
000001e0: b6a1 cbbb cc73 bf3c ff3b 183c 8014 b03d
000001f0: b672 bf39 3313 213e ecb0 cc3b ed49 0e3d
0.047569036 -0.008365039 -0.0055648955 0.056345727 0.0058977995 0.011215863 -0.00019009263 -0.024780648
0.0015293304 0.046121504 0.0036110603 -0.00067072135 -0.24214388 0.09836343 -0.051514138 -0.06750089
0.14591357 0.13108169 0.08562267 -0.028131394 0.023239318 -0.060691286 -0.03600411 -0.024297588
0.0045276606 0.17126314 0.011513609 0.0015624703 0.035557248 -0.010853078 0.005530919 -0.0008223942
-0.18186839 -0.025412915 0.14033164 0.16949186 -0.15886025 0.010208113 -0.16102007 -0.022825444
-0.1458963 -0.060884904 0.00028212697 0.0011902872 0.0026367537 0.1505481 0.011342867 0.0023279858
-0.15328847 0.0020823868 -0.01298152 0.03209983 -0.13231009 0.005200252 0.020040743 0.004335136
0.0052321698 -8.3491e-05 -0.08289398 -0.02680441 -0.0015118353 -0.00029931375 -0.17287967 0.0057440456
0.004597204 0.0025280777 -0.20782244 -0.16380434 0.04774442 -0.0116525525 0.01618472 0.01440734
0.0021819312 0.002926112 0.031236686 -0.0015882169 -0.11191723 -0.0064987824 0.11034414 -0.16371755
0.006187947 0.0001537596 0.0040177656 0.0021853615 0.002375615 -6.735672e-05 0.019722566 0.18296084
0.032600466 0.0116548175 0.14991018 0.08638089 -0.0012729233 -0.0064800885 -0.0664432 0.10584836
0.20370404 0.13565259 0.014327665 0.00628617 0.0022601567 0.0028432193 -0.03014371 0.12070341
0.007883461 -0.08286916 0.0054881 0.00086403714 -0.059985157 0.22069696 0.03185291 0.004845695
0.024739128 -0.1389091 -0.060070693 0.021479478 0.0012784485 -0.14195262 0.01219792 0.002631927
-0.006214346 0.023370646 0.009291648 0.0859766 0.00036515825 0.1572998 0.0062466767 0.03473847

cnn.convnet.2.weight f4 [64, 128, 3, 3]
00000000: 7779 553d 8fe5 1f3d 0909 4abb 5332 ebbd
00000010: 7645 4f3d 4cbf 693c ba0a 73be 55ba 193c
00000020: dd5d 19bc 6f62 53bd f6c1 4abd 9a85 81bd
00000030: b53f adbd 5d74 a4bc b701 8b3b 533e 5abe
00000040: 0574 a63b a66d b1bc f8eb 88bd 4fed 8ebb
00000050: 2ae5 1e3c 8cee d93c 4568 8fbc ac9c 2c3c
00000060: 6e2a d03d 4ca4 b83d 1733 2a3b 41cf 7fbc
00000070: 4353 a0bc f5c9 45bd 91fe a33c 323b 933c
00000080: 116d 1bbd 03d0 c93c 345a 80bd b8ac 41bd
00000090: 18ef fe3d 6922 e0bb f1a6 85bd feb0 9f3e
000000a0: 014f 40be c85f c5bc 5445 463f 934d e8be
000000b0: 4f64 c1bd dea4 413d 283f 7c3b d9b9 8ebd
000000c0: 4436 0b3e 579a d2bc f55d 7ebd d105 d63e
000000d0: 3dc8 85bd 55dc 543d b7a5 7abd 05e9 f4bd
000000e0: a52c 5cbc 3e0d 8d3d 375f b1bd deeb ee3c
000000f0: 1bde f13e 8814 66bd 770d bd3d 88eb f13b
00000100: 637f 283d c9f3 cabc 8a5f 26bd 88bb f1bc
00000110: 8ede a73b d798 0cbe 2e53 cbbd db32 51bd
00000120: 8c48 f43b ef05 32bd e618 c2bc e309 ad3d
00000130: 0629 16be 1380 2fbd dde6 c73e a660 8bbe
00000140: 85e6 c0bc 7ca5 e83b 3502 f73a 4189 a83b
00000150: 830e 1ebd 9ac8 5eba e420 153d a219 35bd
00000160: 85ae a6bd 0c48 233b 2463 2abd f994 2abd
00000170: bbff 42bc e96f 99bd a5d8 203d 6521 0dbd
00000180: a480 a1be 8e25 fa3d 9128 09bd aa66 5b3c
00000190: 5539 003c 6fbd a23b fc36 3dbd fdc4 57bc
000001a0: 1c02 433d 7533 813d 971a e43c 2031 303d
000001b0: 10ee 90bc b89c 6cbd e70d 5abd d91b 753c
000001c0: 0492 d6bc a043 233b 2e48 fd3d a7b9 67bd
000001d0: edb5 483c 54fb bebc f7b1 93bc 5d85 593c
000001e0: 5591 853d 7089 2abd fa42 3f3b 131e 153d
000001f0: ca71 09bd 613b f03b 53ce d3bc 33d7 9cbc
00000200: eb2d 1bbd 2d6f d0bc 03fe 2ebd 2851 fdbb
00000210: ccb5 373d cf0d c7bc 5f51 1f3d ac21 e23c
00000220: 9001 50bd 322f ca3c 08cb fa3d 80b3 8ebd
00000230: b139 4c3d f07e db3e 5725 29be 54bd e83d
00000240: 9d8f 24bc 616d 65bc 7d7a f53c 0baf 673d
00000250: 8da1 fb3a d72b c23c 74ab 523d 1eff ba3d
00000260: a4ab 103d 617c 573d 4c46 1dbd e82e bbbc
00000270: 13b3 053e 7241 91bd e68d 21bd d64d 183f
00000280: 3f82 01be a170 8f3d fa90 2c3d 3a6f be3b
00000290: 03f3 4abc cb20 593d d3de 3bbd b50f ec3a
000002a0: d869 463e 4c6d 3ebd 25ef 753d 4a79 64bd
000002b0: 5061 5cbd d6c2 f8bc 8024 6fbc c168 0bbd
000002c0: b0b6 153d 5c6f 123d 1b3b 5a3d 4d53 a53d
000002d0: 9b85 093d b05e 23bc 45a6 fa3b 58e1 99bd
000002e0: 5abe ab3c 2f10 6bbd 3650 ccbd d97c 1c3d
000002f0: 68dd 833c 6c69 29bd 75b4 d9bc 5f8a 473d
00000300: d3ca 31be 5a24 3b3d a3c4 22bd 5992 bdbe
00000310: 6960 113e 6cdc c5bc 450c 93bc db95 91bd
00000320: 1d13 efbc e253 30be 11a6 a3bc dc49 72bd
00000330: 81a8 adbe 9c55 e33d 0fb5 3cbd f7f3 9a3c
00000340: 27e5 f1bc e4bd 09bd fda0 fe3c 2db5 3cbd
00000350: e3f1 bf3b c7f5 683e 4705 1abd e091 243c
00000360: c7a5 f2bd 8234 1dbd b828 81bc 3d80 90be
00000370: 9957 a03d 6aca b53a 518d 1cbf 5f4e 753e
00000380: 4fb8 f3bb fe66 3abd 1049 603c 1154 783a
00000390: a032 3fbe 1fbb d23d 766c e83a b061 84be
000003a0: 5139 593e 6d17 aa3d 8ec0 3c3d ff5c 4d3a
000003b0: 3dce bcbc 8286 3b3d 84d2 11bd ca88 67bd
000003c0: fe90 4e3e 1ab7 ffbd f970 61bc b877 df3b
000003d0: cf0f 89bb 724a 893c 4034 023e 8c4e 7abd
000003e0: 32ce ee3b 73ea d73e 699b 02be e91a 293d
000003f0: 619c be3c 55d6 abbd a7e1 3dbd 8802 193e
0.05211779 0.039037284 -0.003082814 -0.11484208 0.050603352 0.0142668 -0.2373456 0.009382804
-0.009360758 -0.051607545 -0.04950138 -0.063243106 -0.08459417 -0.020075018 0.004242148 -0.21312837
0.0050797486 -0.02165873 -0.066856325 -0.0043617855 0.009698192 0.026603006 -0.017505774 0.0105354
0.10164343 0.09015712 0.0025970393 -0.015613378 -0.019570952 -0.048288304 0.020018848 0.017972562
-0.03794581 0.02463532 -0.06267205 -0.047283858 0.12447947 -0.0068400395 -0.06525982 0.31189722
-0.18780138 -0.024093524 0.77449536 -0.45371684 -0.094429605 0.04727637 0.0038489792 -0.069690414
0.1359492 -0.02570836 -0.062101323 0.41801313 -0.06532333 0.051967937 -0.061193194 -0.119585074
-0.013438378 0.06887291 -0.08660739 0.029165205 0.47239766 -0.056171924 0.09231084 0.007382814
0.04113711 -0.024774449 -0.040618457 -0.029508367 0.005122966 -0.13730179 -0.09927975 -0.05107389
0.0074549373 -0.04346269 -0.023693513 0.08449151 -0.14664087 -0.04284675 0.39043322 -0.27222174
-0.02354742 0.0070998054 0.0018845262 0.005143315 -0.03858806 -0.000849852 0.03640832 -0.0442139
-0.08138756 0.002491477 -0.041598454 -0.041645978 -0.011901791 -0.07492048 0.03926911 -0.034455676
-0.31543458 0.12214194 -0.033485953 0.013391176 0.007826169 0.00496643 -0.046195015 -0.013169524
0.047609434 0.06308643 0.02784471 0.0430156 -0.017691642 -0.057766646 -0.053235915 0.014960253
-0.026192673 0.0024912134 0.12367283 -0.056573536 0.012250406 -0.023313202 -0.018029196 0.013276425
0.065218605 -0.041634977 0.0029184208 0.036405634 -0.033555783 0.0073312973 -0.025855219 -0.019145584
-0.037885588 -0.025443638 -0.042722713 -0.007730622 0.04485111 -0.024298577 0.03889596 0.027603947
-0.05078274 0.024680708 0.122457564 -0.06967831 0.049859706 0.42870283 -0.1651815 0.113642365
-0.010044006 -0.014003129 0.029965634 0.05656342 0.0019197926 0.023702545 0.05143304 0.09130691
0.03531994 0.05260885 -0.03839712 -0.022849515 0.13056593 -0.07092561 -0.039441966 0.5949377
-0.12647341 0.07003904 0.042130448 0.005811599 -0.01238704 0.05300979 -0.0458668 0.0018010052
0.19376314 -0.046490952 0.06004252 -0.055779733 -0.053803742 -0.030366343 -0.014596105 -0.034035448
0.036551178 0.03575073 0.053279024 0.08072529 0.03357468 -0.009971306 0.0076492154 -0.07513684
0.02096479 -0.05738848 -0.099762365 0.038205 0.016096786 -0.041360304 -0.026575306 0.048715945
-0.17362528 0.045688964 -0.03973831 -0.37025717 0.14196934 -0.024152957 -0.017950187 -0.07108661
-0.029183919 -0.17219499 -0.019976648 -0.05915247 -0.3391762 0.11100313 -0.04607111 0.01891516
-0.029528214 -0.03362836 0.031082625 -0.04607122 0.0058576926 0.22750007 -0.03760269 0.010044545
-0.11848026 -0.038380153 -0.015766487 -0.28222838 0.07829208 0.0013869528 -0.6115313 0.23955677
-0.007437743 -0.045508377 0.013689294 0.0009472976 -0.18671656 0.10289597 0.0017732519 -0.2585578
0.2121327 0.08305249 0.046082072 0.0007833987 -0.02304756 0.045782574 -0.035601154 -0.056526937
0.20172498 -0.12486096 -0.013759845 0.0068196915 -0.0041827927 0.016759131 0.12715244 -0.061110064
0.007287764 0.42171058 -0.12754597 0.04128543 0.023267927 -0.0839049 -0.046357777 0.14942372

cnn.convnet.2.bias f4 [64]
00000000: 4ac7 ab3c dcea 033d 1350 8abc 6e16 cc3a
00000010: 1efe 4e3d 40c8 bbbb 492c 1dbd 1e53 30bd
00000020: 1927 193d f5b5 293d 2500 c73c f9de b3bb
00000030: 5b25 133d af50 0b3c b261 90ba e049 963b
00000040: 000d 673d 58c5 203e a6d0 5bbc cf64 cf3b
00000050: 98ed ba3c 0cba 833c ed64 efbd 44f6 863b
00000060: 2259 533c 3bd9 0abb 0ae2 a7bc a5e3 d53b
00000070: 1799 303d 1a4a 593b 451b 81bc f473 303b
00000080: 9350 bcbc 2477 dc3c 828c 5e3c e611 923b
00000090: 06e0 b33b 8a4a a13c dfb6 edbc e888 fd3c
000000a0: e1cd 913c eaf4 113d b496 8ebb 65a9 c1bc
000000b0: 9d83 d8bb d578 3dbc 89bf 253d b0df 26bd
000000c0: afea ac3d 0915 57bd 11f4 ba3c 6312 123b
000000d0: 425a 84bc 7dce 62bc 5dec 8ebd 1b18 403c
000000e0: 9ee4 18bc 10ca 333d 2073 4f3d 09d0 d43c
000000f0: 1789 abbd 36c2 473c cb64 1d3c 1174 82bc
0.020969052 0.0322064 -0.016883885 0.0015570649 0.050535314 -0.005730659 -0.03837231 -0.043048017
0.037390802 0.041433293 0.024292061 -0.005489227 0.035924297 0.008503123 -0.0011015444 0.0045864433
0.056408882 0.1570028 -0.013416445 0.006329156 0.022818372 0.016079925 -0.11689172 0.0041187126
0.012899669 -0.0021186608 -0.020493526 0.0065273815 0.043114748 0.003315574 -0.015760073 0.0026924582
-0.02298764 0.02691228 0.013583304 0.0044577 0.005489352 0.019688863 -0.029017864 0.030949071
0.017798366 0.03563396 -0.0043514613 -0.023640344 -0.0066074864 -0.011564453 0.040465865 -0.04074067
0.084432 -0.052510295 0.022821458 0.0022288791 -0.01615632 -0.013843176 -0.069786765 0.011724497
-0.00933185 0.043893874 0.0506469 0.025978105 -0.08375757 0.0121923 0.00960655 -0.015924485

cnn.convnet.4.weight f4 [64, 64, 3, 3]
00000000: 81ce c8bd 8787 efbb 096c 95bc ddc1 6cbd
00000010: d183 cbbd cf60 dbbd e34f 87be f0fa 2fbe
00000020: d39a 01be f603 203e 8ccd e93d 97fe c73d
00000030: dde6 8fbd 3acb a1bd d8d7 79bd 93ea 0fbe
00000040: 8f16 1cbe a5f6 6dbe f6fc d03d 2247 5b3d
00000050: baf4 b9bc 7e55 a2bd 5a87 8abd 0783 f0bd
00000060: 1547 40be 6770 f6bd e897 5abe 8a79 87bd
00000070: 699f 0ebd 751c adba dd4e 9abd dcad 44bd
00000080: f7c1 aebd eae1 09be b67e 19be 4a77 f6bd
00000090: f0dd 983c 4a38 9fbc c69f 57bc d168 86bd
000000a0: 24a8 a8bd 2a6b b2bc 44b6 e43d 06ae db3d
000000b0: ac6c 053e e091 4dbd b666 093d a2a2 383d
000000c0: d498 e3bc 8e20 c1bd 37f3 d5bd 3792 e63d
000000d0: 37e0 c6bc 5302 b4bd df80 08be c05d c83d
000000e0: 8f0d e13d 8d4b adbc 4229 1b3e e943 b43d
000000f0: 6347 5f3d 243a 0b3d 7064 973d 5847 0d3d
00000100: 5623 7e3c c0e1 7e3d 7521 803c 8bb8 163d
00000110: 695a 8d3d 897e b73d 01a9 483d 153f d73d
00000120: 2a7a 10be 0013 4fbd 6c95 9cbc 6ba6 38bd
00000130: f654 bbbc 57bb 42bd a4c6 62bd f992 87bc
00000140: 2d17 913c 7210 7c3d 7dda 323d 6dda df3c
00000150: 1b3f 82bd 0a25 6cbd 4e86 fdbd f0a2 423d
00000160: 2a3d 1d3c 7d5d acbc 0874 0dbe 8b98 d13d
00000170: b7dc 253e a470 81be c678 debd 13aa 6cbd
00000180: 5cd2 e9bb a3cd 083d bd98 ad3a 3116 68bd
00000190: 673c b0bd a3a0 a9bd c3ef 553c 4680 c3bb
000001a0: 4fb6 3d3d 845b 39bd 38d7 8ebd afbc d2bd
000001b0: 4a00 e8bd 051f 8bbd 5009 d9bc b506 f9bd
000001c0: ed27 8cbd 9c28 0a3d 9257 f73d 5ec0 863d
000001d0: ed76 953d 42b3 973b b2a4 3b3c af23 25bd
000001e0: 4a29 3abe 6f12 00be 7dd1 94be 1be7 88be
000001f0: 046f 57be 0a4e c6be d7ae 53bd 602f 68bc
00000200: 2f41 3a3d c0a9 7abd aded 35be 5694 15be
00000210: 262a 143e ef11 943d 6fd4 003e 2a2a fc3d
00000220: 228c 153b ae69 babc 6aa2 033c 5597 80bd
00000230: 5045 63bd 3ae8 2fbe 89a8 aebd 5702 56be
00000240: c622 25be ac09 37bc ffac f93c a388 97bd
00000250: fc18 10bd 1438 68bd 568f 11bc d4d4 743d
00000260: 948f 903d 71e7 35bd 84bb dcbc e898 9637
00000270: 8ef6 89bd fb20 febc e91f 50ba c7ce 78bb
00000280: 34ec 87bd 341a 1ebb e17f 203c aab7 9e3c
00000290: 43fc 3cbd 8da7 69bb 1354 483c db00 d1bc
000002a0: 6e32 45bc 6e74 433d d140 c23c 4cd1 60bd
000002b0: d3ac 3cbd c1b3 9ebd 0996 aabd e4bc 203d
000002c0: e21f fb3c cb1e eabd 73e2 79bd b909 edbd
000002d0: 7213 0a3d 0db6 8dbb 8927 b73c a1fb e3bd
000002e0: e6a6 c7bb 7bc8 88bc 4eb0 78be 73d5 f9bd
000002f0: ac67 4abe b8d3 b3bd 55ac 23be 69a3 f6bd
00000300: 3c09 3cbd 261f 42be 1858 7fbe 94a3 45be
00000310: 801c 3abe 7cd2 93be f5a1 4f3d 3d8f 943c
00000320: 764c c03d 4e96 08ba d6fe e43c 5592 563d
00000330: 1372 a13d 6186 a73d a24f 293d e072 54bd
00000340: 8049 acbc 2aee 88bd 2a40 9bbd 46d8 e7bb
00000350: 00b2 9abc aa47 00be df8c cfbd 1dca 50be
00000360: 155b 453d 85cd 71bd f5cd 02bd dd7b 22bd
00000370: 3038 01be 63eb 6cbe 4349 d2bd 28ae a2be
00000380: 6494 86be 3282 14bd e80d e13c 876a 00be
00000390: a9f9 a63c ddbb 863d 16ab b5bd eeb3 74bd
000003a0: ce8f 3fbc 368a 0fbe a1dd c3bc 2cdf 08bc
000003b0: 6452 8b3d 79ce 9fbd dd5c febd 6c7c 05be
000003c0: ff41 ef3c 9add 29be ce4f 15be 5b00 43bd
000003d0: c366 1bbc ec4e 0abd 93c9 99bc 03f9 14bd
000003e0: 746a 84bd c260 333d 53cf 383d d617 5abd
000003f0: 4c06 a23d fb3d 333d 8726 dcbc 6125 233c
-0.098050125 -0.0073098573 -0.018239992 -0.05780207 -0.09937251 -0.10711824 -0.26428136 -0.17185569
-0.12656717 0.15626511 0.11416158 0.09765356 -0.070264556 -0.079000905 -0.06099686 -0.14054327
-0.1524298 -0.23238619 0.102044985 0.053534634 -0.022699703 -0.079264626 -0.067640975 -0.117437415
-0.18777116 -0.12033158 -0.2134701 -0.066149786 -0.034819994 -0.0013207333 -0.07534573 -0.048017368
-0.085330896 -0.13465086 -0.14989743 -0.12034471 0.018660516 -0.01943602 -0.013160652 -0.06562961
-0.08235195 -0.021779615 0.11167577 0.10726552 0.13029736 -0.050187945 0.03354522 0.045076974
-0.027782835 -0.094300374 -0.1044678 0.11258357 -0.024276836 -0.08789506 -0.1333041 0.097835064
0.10988914 -0.02115419 0.15152457 0.08802015 0.05451144 0.033990994 0.07392204 0.034491867
0.015511354 0.06222701 0.015640954 0.036797088 0.0690201 0.089596815 0.0489893 0.10510079
-0.14109102 -0.05055523 -0.019114219 -0.045080584 -0.022867661 -0.047541942 -0.05536522 -0.016549574
0.017711246 0.06153912 0.043665398 0.027325833 -0.06359693 -0.05765251 -0.12379132 0.04751867
0.009597102 -0.021040672 -0.13813794 0.102341734 0.16197477 -0.2528125 -0.108628795 -0.057779383
-0.0071356725 0.033399235 0.0013244372 -0.05666179 -0.08605271 -0.08282592 0.013057652 -0.005966219
0.04631644 -0.04525329 -0.069746435 -0.10289895 -0.1132818 -0.06793026 -0.026493698 -0.121594824
-0.06843553 0.033730134 0.120772496 0.0657966 0.07298074 0.0046295235 0.011452841 -0.040317234
-0.18179813 -0.12507032 -0.29066077 -0.2673882 -0.21038443 -0.38731414 -0.051680412 -0.014171451
0.04547232 -0.061197042 -0.17766447 -0.14607367 0.14469203 0.07229983 0.12581037 0.1231273
0.0022819121 -0.02275547 0.008034328 -0.06278864 -0.055486023 -0.17178431 -0.08528239 -0.2089933
-0.16126546 -0.01117174 0.030477999 -0.07399108 -0.035180077 -0.056694105 -0.008884272 0.05977328
0.07058635 -0.044410173 -0.026944883 1.7952596e-05 -0.0673648 -0.031021586 -0.00079393253 -0.0037965046
-0.06636849 -0.0024124505 0.009796114 0.019374687 -0.046139013 -0.0035652847 0.012227076 -0.025513103
-0.012035949 0.047718458 0.023712547 -0.0548871 -0.046063256 -0.07749129 -0.08329398 0.03924264
0.030654851 -0.114316545 -0.061006974 -0.1157412 0.03370995 -0.0043246807 0.022357719 -0.11131979
-0.006092894 -0.016697159 -0.24286005 -0.12198915 -0.1976611 -0.087806165 -0.15983708 -0.12042887
-0.045907244 -0.18957195 -0.24935949 -0.19300681 -0.18174934 -0.28871524 0.050691564 0.018134708
0.09389584 -0.00052103854 0.027953546 0.052385647 0.07883086 0.081799276 0.04133571 -0.051867366
-0.021031141 -0.06686051 -0.07580598 -0.0070753423 -0.018883705 -0.12527338 -0.10134291 -0.203896
0.048182566 -0.05903389 -0.031934697 -0.039668906 -0.1261909 -0.23136668 -0.1026788 -0.31773496
-0.26285088 -0.036256976 0.027472451 -0.12540637 0.02038272 0.06578801 -0.08870523 -0.059741907
-0.011692001 -0.14017567 -0.023909392 -0.00835399 0.06802824 -0.078030534 -0.12420056 -0.13035744
0.029206274 -0.1658844 -0.14581224 -0.04760776 -0.0094849495 -0.033766672 -0.018772876 -0.03637029
-0.06465617 0.043793447 0.045119595 -0.053245388 0.07911357 0.04376028 -0.02687384 0.009957642

cnn.convnet.4.bias f4 [64]
00000000: 17bb d03c 9bb9 fcbd f7da f93c 44d6 68bc
00000010: 9b99 8b3e 0058 e13e 3729 e73c 9629 e1bd
00000020: 4984 99bd e069 45bd d7c6 643c 25e0 513d
00000030: a512 933d 82d7 273d 39ee 43bd b8f9 803c
00000040: 4731 c0bc be85 d8bc 48aa de3b b8c7 53bd
00000050: 5bd4 febc 0e88 503d 2418 933e 5e5b 6a3e
00000060: a49c 9b3e c972 883b 222f 873c cf13 1a3e
00000070: 9d70 173d 9fbc d83e 1071 5c3d 6ed4 cfbb
00000080: fc2d f1bc 9cd4 863d cf1e 72bd 3376 57bd
00000090: 7cc4 d8bd 5345 96bc b964 d03e 0478 b4bd
000000a0: 9036 f63d 7e2c 16be b73f 95b9 db2e 6c3e
000000b0: a7fc 883a d5aa bc3d dfbe bd3c c811 743e
000000c0: 044e e6bb 9c64 b5bc ef4c 0c3a 3da9 07bc
000000d0: 46bd 1b3f 4856 313d 8a48 253d 0746 923d
000000e0: df94 293d 70fb f6bc 8b52 69bd b32e debc
000000f0: eeaa a23c 16db 15bd b0a7 38be 5a5b 863c
0.025479836 -0.12340089 0.030499918 -0.014211241 0.2726563 0.4401245 0.028217895 -0.1099426
-0.074959345 -0.048196673 0.013963423 0.05123915 0.071812905 0.04097701 -0.04783461 0.015744075
-0.023460997 -0.02643096 0.0067952015 -0.05170414 -0.031107118 0.050911 0.28729355 0.22886416
0.30392945 0.004164074 0.016501967 0.15046619 0.03697263 0.42331406 0.053818762 -0.0063424623
-0.029440872 0.06583521 -0.059111413 -0.052602958 -0.105843514 -0.018343603 0.40701845 -0.08811954
0.12022126 -0.1466541 -0.00028466966 0.23064749 0.0010451273 0.09212271 0.023162303 0.23834908
-0.007028343 -0.0221427 0.000535204 -0.008280096 0.60835683 0.043295175 0.04035238 0.07142263
0.04140174 -0.030149192 -0.056963485 -0.027121877 0.019856896 -0.03658589 -0.18032718 0.016400982

cnn.convnet.6.weight f4 [64, 64, 3, 3]
00000000: 27a3 1f3e a59e 3a3e 2970 6a3d 8827 0c3e
00000010: ba9a f23d 2731 153d b79d 16bd 69f9 e63c
00000020: c6ec 97bd 0482 2c3b cbe6 143d 0f43 413d
00000030: 7cce 5e3d 8090 613d b875 2c3d 518a 613d
00000040: 6db0 4b3d e123 8e3d 815d c8bd bc89 163d
00000050: e27b 353d 27c7 94bd 0c0f 063c 2bb5 513d
00000060: 6c78 acbd 6995 033d a498 a53c cef2 88be
00000070: 3fdf d7bd c6ca 6dbe d3f5 24bd b069 58bd
00000080: 7d1c e0bc 7b85 ccbd eb3c 9abc 6aba 0c3d
00000090: 0715 903d 0043 543d d746 813d 1e5c a33c
000000a0: 965e 1a3d 81cf 593d 5e29 8d3d d047 d33c
000000b0: fd1c 833d ad1a 01bc 59d4 24ba 3887 9f3c
000000c0: 04e2 83bc c40b 53bc 9aeb 8cbc 8ea8 84bd
000000d0: 45a4 53bd e74a e5bd 7d6b 553e 4e4f 033e
000000e0: 326e 02bd e7a9 2b3e f4de 8f3d 1a9d 4e3d
000000f0: 43e0 513e c4f3 093e 281f 033e cf76 0e3d
00000100: 2029 c0bc dd76 0cbd 53c0 053d f5ea adbc
00000110: 351b e7bc 9488 22bc d45f 47bd f39c 71bd
00000120: 14ae 14be 9f2a 03be 9bbf 48be 28be b0bd
00000130: cb43 bcbd 151d f4bd 407c e5bd cb46 9abd
00000140: effe 38be b66f 0ebe 9b23 043d c69b b23d
00000150: c9c7 05bd cc6e 303d bbd6 113e c814 aebd
00000160: 4d34 093d 219b c03d ee17 03be 2b06 0abb
00000170: e393 ecbd 133f 1b3e d690 483e c7ba 273e
00000180: 31d7 7d3d b2aa 493e 24ba c93d e522 a73d
00000190: 7f53 093e 8b7f 3f3e 180e 0f3e 1467 4b3e
000001a0: a7d0 4b3e a33f 803d d667 403e aec1 433e
000001b0: 9b83 733d 1244 8e3d f459 693d 8f76 e73c
000001c0: bf40 333d 4ece ed3d 256c 21bd 8a5e 54bb
000001d0: be43 b4bd db0f 7dbc 45ac 88bd 2b20 98be
000001e0: 2e8f b7bd 0c32 acbd bb30 35be 7661 36be
000001f0: d87d 3cbe 9c0e a4be 3b52 1abe 0454 73bc
00000200: 78ba bf37 e380 0fbe ad83 a4bd 10e9 a6bd
00000210: e19d 4bbe 9175 27be dc83 0bbe 746e 8c3d
00000220: 2254 0c3e fd1b 9a3d f0e7 1a3e a3ad 273e
00000230: 713b 193e 1a43 173e 902e 373e 9632 1e3e
00000240: 7180 17be 4822 c4bd 414d 21be 05cb c53c
00000250: edee 34bd 9eef eabd 2ffe 4f3d 4248 323d
00000260: 08f7 c5bc 5d05 2b3d 68a7 813c 0440 633c
00000270: f1a9 81bc c9d3 15bd 8027 523b 72c2 7abd
00000280: 8d39 48bd cd0f ec3c 3fac 92bc 1066 57bd
00000290: 20e8 babd 18fb bdbc 783b a3bb a118 9bbd
000002a0: 7054 67bd af04 b0bd 9b1d 2ebe fb36 61be
000002b0: 1603 0dbe 7c6a 6bbe ce12 f0bd f948 3cbd
000002c0: 4e2c ffbd 602f 29be 5ad9 21be 621d 40be
000002d0: e63c be3b b419 2cbd 54ea 17bd 127c b4bd
000002e0: 9a01 7dbd 8a5b b1bd ea33 41bd cd72 abbd
000002f0: 4871 0ebe a151 033d 159e c33c aeb1 673d
00000300: 77f8 b63c 265b eb3b 77e0 2dbd f6f4 8a3c
00000310: c6ea 353c eaae 1b3c fc9b c63d ce83 c93d
00000320: b258 0b3e b7ea c43d f0ae 2c3c 4f02 b63d
00000330: bb23 b73d aec1 523d 8460 583d 447f febc
00000340: 13cd 7f3c 4128 493d f4d5 5ebd 2450 e3bc
00000350: 3df7 363d 6fd3 4fbd c46e 093d 79c5 9d3d
00000360: f4bf 92bb e33f df3c 022e 323d 626b 1639
00000370: e655 57bb bd71 8dbb 9582 12ba 649c 693c
00000380: 400c 0d3d 6848 15be 47d8 5dbe 5dd2 5ebe
00000390: 9836 3dbd 9082 c0bd 29bb c1bd 0477 77bd
000003a0: 5b25 6bbd aba6 f7bd 0d74 26be 7e70 babd
000003b0: 9506 a5be 616e 74bd b7d6 bfbc 76fd f0bd
000003c0: 64f2 97bd 9c18 0ebe 9b26 d5bd f25c 41bc
000003d0: a632 d4bd 4db6 eabc 6f81 16bd 6ed0 6abd
000003e0: e7f3 3cbd 7775 39bd 66ee e6bd e6e7 08bc
000003f0: f724 c63d b156 163e 8969 0d3d bb9b 1b3e
0.15589581 0.1822458 0.05723587 0.13686955 0.11845918 0.03642383 -0.036771502 0.0281951
-0.07418208 0.0026322613 0.036352914 0.047183093 0.054396138 0.055069447 0.042104453 0.05506355
0.0497288 0.06940437 -0.097834595 0.036752447 0.044307597 -0.07264548 0.008182298 0.051198166
-0.08421406 0.03212491 0.020214386 -0.26747745 -0.10540628 -0.23221883 -0.0402735 -0.052835166
-0.027357334 -0.09986397 -0.018827876 0.034357466 0.07035261 0.05182171 0.0631234 0.019941386
0.03768786 0.053176407 0.06892656 0.025791079 0.064020135 -0.007879895 -0.0006287746 0.019473657
-0.016098984 -0.012881223 -0.017202187 -0.06477462 -0.05167033 -0.11195927 0.20841785 0.12823221
-0.03184337 0.16764031 0.07024947 0.050442792 0.20495705 0.13471895 0.12804854 0.034781273
-0.02345711 -0.034293044 0.032654118 -0.0212302 -0.028211216 -0.009920258 -0.048675373 -0.05898757
-0.1451953 -0.12809227 -0.19604342 -0.086300194 -0.09192618 -0.119196095 -0.112053394 -0.07533034
-0.18066 -0.13909802 0.03226052 0.08721118 -0.032661233 0.043074414 0.1424207 -0.085000575
0.033497144 0.094045885 -0.12802097 -0.0021060805 -0.11551645 0.1516078 0.195865 0.16379844
0.0619728 0.19694021 0.09849957 0.081609525 0.13410757 0.18700998 0.1397022 0.1986354
0.19903813 0.06262138 0.1878961 0.19116852 0.05945168 0.06946577 0.05697055 0.028254775
0.04376292 0.11611615 -0.039409775 -0.0032404982 -0.08801983 -0.015445675 -0.06673483 -0.29712042
-0.08962856 -0.08407983 -0.1769437 -0.17810616 -0.1840738 -0.32042396 -0.15070431 -0.014851574
2.2855806e-05 -0.1401401 -0.08032928 -0.08149922 -0.19884445 -0.16353442 -0.13624519 0.06857005
0.13703969 0.075248696 0.1512754 0.16374831 0.14964081 0.14771691 0.17888856 0.15448985
-0.1479509 -0.09576851 -0.15752126 0.024144659 -0.04417317 -0.114714846 0.050779518 0.04352594
-0.024165645 0.04175316 0.015826896 0.013870243 -0.015828105 -0.036578927 0.0032067 -0.061220594
-0.04888301 0.028816128 -0.017904399 -0.05258757 -0.091263056 -0.02319102 -0.0049814545 -0.07573057
-0.05647701 -0.08594643 -0.17003481 -0.2199363 -0.13770708 -0.2298984 -0.11722337 -0.04596803
-0.12459622 -0.16521978 -0.1580557 -0.18761209 0.0058055995 -0.0420167 -0.037088707 -0.08812727
-0.061769105 -0.08660038 -0.04716865 -0.08371506 -0.13910401 0.03206027 0.02387909 0.056565933
0.022335274 0.0071824966 -0.042450394 0.01696251 0.011103338 0.009502152 0.096977204 0.09839593
0.13608053 0.09615081 0.010539755 0.08887159 0.08942362 0.05145424 0.05282642 -0.031066544
0.015612858 0.049110655 -0.05440326 -0.027748175 0.04466938 -0.05073875 0.0335529 0.077036805
-0.004478449 0.027252143 0.043500908 0.00014345118 -0.0032857596 -0.004316537 -0.0005588916 0.014258478
0.03443551 -0.14578402 -0.21664535 -0.21759935 -0.046194643 -0.09399903 -0.09459526 -0.060416237
-0.05740867 -0.12092336 -0.16255207 -0.091034874 -0.32231584 -0.059675578 -0.023417814 -0.11767094
-0.07419279 -0.13876575 -0.10407754 -0.011801945 -0.10361223 -0.02865138 -0.03674453 -0.05732768
-0.04613104 -0.04527804 -0.1127594 -0.00835607 0.09675019 0.14681508 0.034524474 0.15196125

cnn.convnet.6.bias f4 [64]
00000000: ffe8 f1bb 1039 213e 3521 a53d 23d6 363d
00000010: b286 9f3c f374 03bd cd6c 343e 0e19 1c3e
00000020: d328 d9bc 0c9e 973d d769 373c d53f 243e
00000030: 6b5a 3b3d d3a2 353e 5b46 393e 7af4 853e
00000040: 2866 72bd da83 82bc d59f a1bd 851e febb
00000050: 0c9b a73c 2cce fa3c 283e 943d 04da ed3c
00000060: c93d 203e ad89 59bd 35b0 adbc 8d77 db3d
00000070: 01be 76bd 98c3 9b3d 643a 6dbb c459 093e
00000080: 0abf b8bb 0a0b 07bd 589c f2bc ffc6 013d
00000090: 448a 85bd 6ef3 073e 150d e73b c3d4 ce3d
000000a0: 2712 3cbd f21e b03c 7f58 8b3c 74db 03bd
000000b0: 6eba b03c 8ca2 5d3d ddb3 643d 68cc 8d3d
000000c0: 41e7 aa3d 695a ef3d 6170 e23d c5f5 5ebd
000000d0: 44a9 f2bc ef6b 02bd 3b5c c13d 7772 e33d
000000e0: c262 e83d ce9b f83d 8e85 073e 61a2 e2bb
000000f0: c682 cd3d 79d3 5c3d cf90 043d 67f5 cb3d
-0.0073825116 0.15744424 0.08062974 0.04463781 0.019473407 -0.032093953 0.17619629 0.15243933
-0.026508724 0.07403192 0.011194668 0.16039975 0.045740526 0.17737894 0.18093245 0.26163083
-0.059179455 -0.015932012 -0.07891814 -0.007755103 0.020459674 0.030615889 0.07238418 0.029034622
0.15648569 -0.053109813 -0.021202186 0.10716162 -0.060239796 0.07605666 -0.0036198134 0.13413149
-0.005638008 -0.032969512 -0.029615566 0.031683918 -0.06520513 0.13276455 0.00705112 0.10099175
-0.04591575 0.02149913 0.017009972 -0.03219171 0.021573272 0.054110095 0.055835593 0.06923753
0.083448894 0.11687166 0.11056591 -0.054433603 -0.029621728 -0.031841215 0.0944142 0.11105817
0.113469616 0.121390924 0.13234541 -0.0069163297 0.10034709 0.053912614 0.032364663 0.09958916

cnn.convnet.8.weight f4 [32, 64, 3, 3]
00000000: b9cd ae3b d94d 933c 1fce 46bd 882e cfbd
00000010: 4d63 2fbc 03f2 37bd 5d82 493b 9203 24bc
00000020: 6b1b ad3c 961f dcba 3674 793b 5312 953d
00000030: aa19 603d 9876 cdbc 211e 15bc 0597 043d
00000040: 19da 1f3d 8dda 033c 8ccb 003e 87d1 09bd
00000050: 8228 9ebd 7743 10bd 4994 223d dcdc 2fbd
00000060: 0c0a 0c3d 62a3 6d3d 9041 abbd 81a0 d53e
00000070: 110b ca3a d32e 963c 33a6 493e 0225 aa3c
00000080: 8327 c7bc 5a57 9c3e 8500 863d 0842 39bd
00000090: bfe1 b2bd e0d0 a1bd 0418 03be 448a 99bd
000000a0: 22ce 0ebd bcf2 67bd 73c3 a7bb 865f 79bd
000000b0: 7515 08be 438c 723e 8f3a 553c c228 e03d
000000c0: 3e76 863d 45f4 2abd fbb9 79bc d977 3f3e
000000d0: 9b4f 63bd dcc2 64be 800a 1e3e 67e4 15be
000000e0: b065 7abe c845 4fbe 60ff 8cbd edce 783c
000000f0: b3dd 40bd fee5 253d 23bd cebd b69b 343e
00000100: 9fb3 aabc 8398 0c3e d609 0abe 4a83 37bd
00000110: ab6d d6bd bdcc b03d dd11 6dbd 7133 a33d
00000120: 5b2a a33e f47a 8b3d 41d6 a33d 3ac6 3b3e
00000130: 7825 8dbc 9ae7 0f3d 29b4 873e cb70 453d
00000140: 7b4a a23c 47c3 ba3e 873e 4b3c de9f c53d
00000150: a449 cfbc 5200 d1bc 3ee0 8ebd 742e 22be
00000160: 0ede 93bd 18e0 b93d 01bf 13be 929b a9bd
00000170: 4f2a 4cbd 272a 5ebd 6cdd 11bd fa7c 6e3b
00000180: 87d2 763d bc3a 8bbd 18db 2d3d e283 a43d
00000190: 6c17 b83c 9798 af3c c363 b1bc d139 bd3c
000001a0: 6b68 5a3c 16fb 033c de98 783c 0cef 2ebd
000001b0: 40e1 8e3e 9026 56bd a188 a0bc fdaa 6cbd
000001c0: 03d2 ccbb 9955 123c de25 05be 7901 bcbc
000001d0: 6621 7fbd 1654 b63e f4f5 e4bd 7767 bcbd
000001e0: bde9 e3bd 9bc0 f0bc d4b7 143d 7345 973c
000001f0: e391 6ebc da96 193c 6c9f 14be 987c 5e3d
00000200: 1008 853d 291c 3f3d 6b34 a73c 70f0 8a3d
00000210: 4c3c 433e ce52 00bd 05db 73bd cde1 cc3c
00000220: 20ae c13c b749 d03c b71f 7c3c e62b eebc
00000230: 5f67 f03b 5715 593e 733b 04b7 cf51 6339
00000240: 1906 e83e 732f 173e 78bd f63d 7fe5 543e
00000250: 50ae 213d 5e69 5f3d 8c9d ac3e 8d1b 993d
00000260: 006b 073c f535 dcbe 0e37 48be 5e51 5bbe
00000270: d5c5 48be a6bb 2dbd 89b4 243c cd9a 4abe
00000280: af21 76bd 9922 9c3c f9c8 a23e 5bfc 9c3d
00000290: 5a3d 133e fd6d 3a3e b0cd ce3d 03e7 953d
000002a0: ad90 2c3e 2476 13bd adf8 cdbd ba52 b5bd
000002b0: f913 61bd c091 75bc 6768 50bd b371 a3bc
000002c0: 10b9 9abd cb30 193e 28a5 92bb a653 b2bd
000002d0: 1ecc 1a3e 562e 9bbd f86c 803c 6cb0 8f3d
000002e0: 05e7 86bd d19c b3bc 3ef6 4b3e eff8 f43c
000002f0: 98b9 d5bd c39b b73b 8ff4 47bc a07e 7f3a
00000300: 2db3 e6bd ddbd 35bd ae05 023c 85d2 fcbd
00000310: 77bc 073d 9c76 f1bc 1d5b 963e 42cb 15bd
00000320: 1c0f 063d ae82 3dba 5443 6abc 5ee1 893a
00000330: 862f 213e 85cc 98bc b129 fc3d 1cb2 ad3e
00000340: 2f6d 4f3b f027 4a3d 5014 0a3e 2007 d7bc
00000350: bf4c 8c3c 73c5 423d 73ac 0ebd c37c 30bd
00000360: 1b4b fe3d c3cf 1ebd 309a d23d 8840 54bd
00000370: 6fb0 01bc 76f3 36bd f2af b839 d9ab 0bbd
00000380: 3e91 31ba 48be b63e 43be f63d 2dbe 3e3e
00000390: 9d16 6b3e c768 6c3b c6ab e93d 0f29 973e
000003a0: b6b5 70bc 4733 9cbc ef3f 3c3e 6ed7 d43c
000003b0: 255c c73c 1cd5 dfbc 5a8f 9cbd c1e0 37bb
000003c0: dc96 173e 8fdb 733d 0c39 4a3d 1545 5dbe
000003d0: 285a 70bd 4ea7 7bbd 4e21 20bd a297 713b
000003e0: d258 6f3c 9d5d 733d 4cba 33bd 70cd 81bc
000003f0: 3a86 d43e b781 703e cb79 d53e 84a1 ae3e
0.0053345826 0.017981457 -0.048536416 -0.10116297 -0.0107048275 -0.044908535 0.0030747869 -0.010010617
0.021131238 -0.0016794081 0.0038063652 0.07278886 0.054711975 -0.025080964 -0.009101422 0.032370586
0.039026354 0.008047712 0.12577647 -0.033647086 -0.0772257 -0.03522059 0.039692197 -0.042935237
0.03418927 0.058017142 -0.083621144 0.41724017 0.0015414675 0.018332874 0.19692306 0.0207696
-0.024310833 0.30535394 0.06543068 -0.045228988 -0.08734464 -0.07901168 -0.1280213 -0.07497075
-0.034864552 -0.056627974 -0.005119735 -0.060882114 -0.13289435 0.23686318 0.01301445 0.10945274
0.06565522 -0.04173686 -0.015242095 0.18698062 -0.05549584 -0.22339958 0.15433693 -0.1463791
-0.24452853 -0.20241463 -0.068846464 0.015186054 -0.04708643 0.04050254 -0.10094669 0.17637524
-0.020837603 0.13730054 -0.13480315 -0.04480294 -0.10470136 0.08632801 -0.057878364 0.07968796
0.31868252 0.06810561 0.0799985 0.18337336 -0.01722978 0.03513298 0.2650464 0.04820327
0.019810906 0.3647711 0.012405044 0.09649633 -0.02530367 -0.025512848 -0.069763646 -0.15838033
-0.07220088 0.090759456 -0.14428331 -0.08281626 -0.049845036 -0.05423942 -0.035611555 0.003639041
0.06025937 -0.06798312 0.042445272 0.08032967 0.022472106 0.021435065 -0.021654015 0.023098858
0.013330559 0.008055469 0.015173165 -0.04270844 0.27906227 -0.05228287 -0.0195964 -0.057780255
-0.0062506213 0.008931541 -0.13002726 -0.022949921 -0.06228771 0.35611027 -0.11179724 -0.09199422
-0.111285664 -0.029388716 0.036308125 0.018465733 -0.014561149 0.009374345 -0.1451394 0.05431804
0.064956784 0.046657715 0.020410737 0.06784141 0.1906597 -0.03132897 -0.059535045 0.025010014
0.0236426 0.025425775 0.015388421 -0.029073667 0.0073365415 0.21199547 -7.881655e-06 0.00021678883
0.45317152 0.14764194 0.12047857 0.20790671 0.039472878 0.054543845 0.3371395 0.07475958
0.008265257 -0.43009916 -0.19552252 -0.21417758 -0.19606717 -0.042415284 0.010052809 -0.19785614
-0.060090717 0.019059466 0.31793955 0.076653205 0.14378873 0.1820602 0.100978255 0.073194526
0.16852064 -0.03600134 -0.10057197 -0.088536695 -0.054950688 -0.014988363 -0.050880816 -0.019951677
-0.07554829 0.1496002 -0.0044752546 -0.08707361 0.15116927 -0.07577197 0.01567696 0.07016072
-0.06587032 -0.021925362 0.19918153 0.029903857 -0.1043579 0.005603285 -0.012204303 0.00097463466
-0.11264644 -0.04437052 0.007935924 -0.12344841 0.03313872 -0.029475503 0.2936639 -0.036570795
0.032729253 -0.00072292506 -0.014298279 0.0010519435 0.15740785 -0.01865221 0.123126395 0.3392495
0.0031650772 0.049354494 0.13484311 -0.026248515 0.01712644 0.047551583 -0.03483243 -0.043087732
0.12416669 -0.038772356 0.10283315 -0.051819354 -0.0079156 -0.044665776 0.00035226304 -0.034099434
-0.0006773657 0.35692048 0.12048008 0.18627234 0.22957845 0.0036073194 0.11409716 0.29523513
-0.014691761 -0.01906742 0.18383764 0.025981631 0.02433593 -0.027323298 -0.0764453 -0.0028057548
0.14803642 0.05953556 0.04937081 -0.21608384 -0.05867973 -0.06143885 -0.03909426 0.0036864062
0.014608579 0.05941545 -0.04387884 -0.01584503 0.41508657 0.23486982 0.41694483 0.34107602

cnn.convnet.8.bias f4 [32]
00000000: 465e 893e 7aba 8e3d f71f 633e 163e 543e
00000010: 4253 fdbd 1529 293f d843 2dbd 9613 d53c
00000020: e981 ba3c 8d91 35be 1d5b cd3e db22 323d
00000030: 9be6 023f f688 8a3d 9341 9abd 241a 103f
00000040: dd74 2e3d a988 733d 0d32 3abd d9bc 113e
00000050: 73c0 1c3f d60f 373e 5e37 503e 8d2d b33d
00000060: 1c9b 19bd 6772 b8bd 82b5 74be 33a6 ba3d
00000070: f262 ef3c 6d10 213c 44d8 8b3e 17b0 8a3d
0.26829737 0.06969161 0.22180162 0.20726809 -0.12369396 0.6607831 -0.04230103 0.026010316
0.022767024 -0.17731304 0.40108576 0.043490272 0.51133126 0.067644045 -0.075320385 0.5628989
0.04259192 0.0594565 -0.04545789 0.14232196 0.61231154 0.17877135 0.20333621 0.087489225
-0.03750144 -0.090061955 -0.23897365 0.09113731 0.029221985 0.009830576 0.27313435 0.06771868

cnn.convnet.10.weight f4 [32, 32, 3, 3]
00000000: 8eb7 d2bd 5d94 b8bd 91db 8ebd 0a74 08bd
00000010: 6142 75bd 9d23 a3bb b968 c6bd 89c9 6e3c
00000020: 809e 813c b3a1 7bbd 56c6 cebd 4798 e5bd
00000030: 0e5b b0bd 21ce 58bd 22e0 1fbd ea42 8dbd
00000040: 4b7e 1abd f8d3 68bd d49e 52bd 87cc 51bd
00000050: 387d 33bd c5f5 b5b9 bb41 8fbb daa8 653d
00000060: 4770 9d3c 3a4e 583d f7bb 4d3d f684 4b3d
00000070: 6853 a93c 6bf9 14bd 15f7 09bd d5de 55bd
00000080: e246 cc3b 760c 5cbd f951 f83c 11b1 9d3c
00000090: 9b3d e5bd 6ae4 9abd 66e0 27be fddf cebd
000000a0: e37b 2dbe d808 d9bd dc5d d0bd d914 8ebd
000000b0: ff40 03be 8b62 fbbb f520 dfbd 2e5a 8fbd
000000c0: 7fdf cdbd f4ed fcbc c101 82bd 25ea 25bc
000000d0: 12b5 c0bd 8c91 9bbb 7b71 b0bd 72a5 06be
000000e0: f40f 06be 9b95 f0bd ce5f 0fbe d610 2dbe
000000f0: 94f3 10be 2f70 06be 08d7 97bd a36f b5bd
00000100: 220a 78bd 253f c2bd a3aa 82bd b38e 06be
00000110: 9c53 bdbd b6c9 94bd a074 c0bd 9256 b7bd
00000120: 2546 adbd e6e9 a9bd 50d6 00be 8202 d8bd
00000130: 9c0c cebd c239 93bd 3ac4 eabd a870 e0bd
00000140: 3b59 f2bd 2ac4 183b 346b 023c 6090 643c
00000150: e14f 72bc 11f9 7ebb 998d b7bc ae75 90bd
00000160: a035 90bd 20da f8bc 8448 f0bb 601a 45bc
00000170: 1c1d 293d b693 84bd bfd7 9abd 7819 86bd
00000180: 2c91 f5bc 3325 f13c ee80 0a3d fd6b 4ebd
00000190: 8640 72bd 5df3 bdbd 41a5 bebd 9888 45bd
000001a0: 1991 88bd 4651 0abd cf91 4ebd ecf1 f2bd
000001b0: a552 4cbc 4ffb 29bd f73e 5ebd 7053 7cbd
000001c0: d261 493d daaf 473d 84ff 753c 93dc 0cbc
000001d0: 5b2b 9fbc 0b25 49bc 26a8 b8bd 34f6 fcbc
000001e0: a7ed 43bd f7b9 60bd a92f 77bd 74d6 e6bd
000001f0: d405 06be 7a4a e0bd ad16 c53d 9da7 7b3d
00000200: f214 153e 385d a43d af48 083e 39e7 d73d
00000210: ce34 8f3d a3f8 113d 46ee f83c ba2c 69bc
00000220: 259d ca3b 48f1 853b ff36 903b 04a6 42bd
00000230: 05db 53bd c427 5c3c cd69 8cbd 017e 27bd
00000240: 3c8d 83bc 7b61 cebb 44d5 a1bd 940a cb3c
00000250: 46cf 78bd b640 583b e0b9 82bd 5a51 85bc
00000260: 0f77 6dbd 2e0f c5bc c5f5 7dbc 1653 193c
00000270: eff3 d03c ea90 d13c db9b 853c df02 183d
00000280: 7964 35bd a1f6 08bc a3a7 0abe 375e 13bd
00000290: 19f8 f9bd e7e8 85bd 58b1 8ebd d121 63bd
000002a0: f73a 1ebe bdc0 f2bd 1379 10be b3e4 dfbd
000002b0: ee5d a3bd 1ead 133c 8eea c9bd 7a18 40bd
000002c0: f1d2 7fbc 2e13 0ebd 9828 71bd 5d16 b4bd
000002d0: 461a 033d 9af2 3e3d 6464 5d3d 1a2d c1bc
000002e0: 7a6a 2d3d 6c3f 0c3c 70e3 cabc 570d 303d
000002f0: f5be 583a a303 39bd 37a3 92bd e2a3 6e3c
00000300: d7e2 28bd bacc 383c cd8c 95bc 3033 b1bc
00000310: 6244 c93c 7185 323d f437 91bd 3436 f1bd
00000320: ec16 51bd 6f78 7cbd f1a5 dabd ea40 92bd
00000330: 002e a4bd 8ef3 efbd b9fc f6bd 1d4e c5bd
00000340: 8829 83bd bd8e cabd 9ea7 d7bd 2fd7 ddbd
00000350: 774f a6bd f829 eebd b3f4 77bd 309d 99bc
00000360: 3895 12be 652f b0bd 5edc 11be b533 18be
00000370: c071 9ebd 71ab 8cbd 8682 16be 5f15 21be
00000380: a035 f3bd 6f28 28bd 4f2f 00be 152c 8fbd
00000390: ff62 66bc c4ce 92bd dcf7 00be d9de c53b
000003a0: b823 99bd 6e4f cebb ef32 c6bd 7ff3 cfbd
000003b0: e81f dabd 8cb9 eebd ce01 cfbd 6c8c 14be
000003c0: b1a9 7cbd fc8d d0bd 2904 04be 871a 05bd
000003d0: 4871 43bd 591a 27bd fed5 6fbd 54b5 adbd
000003e0: 2cac 80bd da6c 0fbe 8011 43bd 421b f8bd
000003f0: 408f c4bd 900e 88bd cc0a c4bd beac c3bc
-0.102889165 -0.09012673 -0.06975473 -0.03331379 -0.059877757 -0.0049786107 -0.09687943 0.014574417
0.015822649 -0.061433505 -0.10096423 -0.11210685 -0.08611117 -0.052930955 -0.03903211 -0.068975285
-0.0377181 -0.056842774 -0.051421 -0.051220443 -0.04382059 -0.00034706123 -0.0043718494 0.056069233
0.019218577 0.052808978 0.050228085 0.04968735 0.020669654 -0.036370676 -0.0336829 -0.052214462
0.006234036 -0.05372282 0.030312525 0.01924947 -0.11193391 -0.07563098 -0.16394195 -0.10101316
-0.1694179 -0.1059739 -0.10174152 -0.0693757 -0.12817763 -0.0076716593 -0.10894958 -0.06999622
-0.10052394 -0.030875184 -0.06347991 -0.010126625 -0.094095364 -0.004747575 -0.08615395 -0.1314905
-0.13092023 -0.11747285 -0.1400139 -0.16900954 -0.14155418 -0.13128732 -0.07414061 -0.08859184
-0.06055654 -0.094847 -0.063802026 -0.13140373 -0.09244463 -0.07265036 -0.093972445 -0.08952059
-0.08460645 -0.08296566 -0.12581754 -0.10547353 -0.10060999 -0.07188751 -0.114632085 -0.109589875
-0.118334256 0.0023310282 0.0079601295 0.013950437 -0.014789552 -0.003890578 -0.022406386 -0.070536956
-0.07041478 -0.030377448 -0.0073328633 -0.012030214 0.041287526 -0.06473486 -0.075606816 -0.065478265
-0.02997645 0.029436683 0.033814363 -0.050395954 -0.059143566 -0.092749335 -0.093088634 -0.04822597
-0.066683 -0.033768915 -0.050432023 -0.11862549 -0.012470876 -0.041499432 -0.054259267 -0.06160301
0.049165554 0.04875169 0.015014533 -0.008597511 -0.019429853 -0.012276898 -0.09016447 -0.030879118
-0.047834065 -0.05486485 -0.060348187 -0.112713724 -0.13088161 -0.10951705 0.09623466 0.061439145
0.14558771 0.080255926 0.13308977 0.10542149 0.069924936 0.03563751 0.030387055 -0.014231855
0.006183284 0.004087601 0.0044010873 -0.047521606 -0.051722545 0.013437215 -0.068561174 -0.04089165
-0.016058557 -0.0062982417 -0.07902005 0.024785317 -0.060744546 0.0032997555 -0.06383109 -0.016274143
-0.05797487 -0.02405509 -0.015500491 0.009358188 0.025506942 0.025581796 0.01630967 0.037112113
-0.04428527 -0.008359582 -0.13540511 -0.035978522 -0.12205524 -0.06538563 -0.069674194 -0.05545217
-0.15452181 -0.11853168 -0.14108686 -0.10932293 -0.079769 0.009013442 -0.09859191 -0.046898343
-0.015614257 -0.03468626 -0.058876604 -0.08793328 0.03200748 0.04661808 0.054050818 -0.023581076
0.042337872 0.008560043 -0.024766654 0.042981472 0.0008268201 -0.045169484 -0.07160037 0.01456544
-0.041231956 0.011279279 -0.018255616 -0.021630853 0.02456874 0.04358429 -0.0709075 -0.117779166
-0.05104725 -0.061638292 -0.10676182 -0.071412876 -0.08016586 -0.11716376 -0.12059922 -0.096340396
-0.06404406 -0.098905064 -0.10530017 -0.10832059 -0.081206255 -0.11629099 -0.060536098 -0.01875171
-0.14314735 -0.0860279 -0.1424422 -0.14863475 -0.0773654 -0.06868637 -0.14698228 -0.15730809
-0.118754625 -0.041054185 -0.12518047 -0.0699083 -0.014061688 -0.07168344 -0.12594551 0.0060385284
-0.07477516 -0.00629609 -0.096776836 -0.10153865 -0.10650617 -0.11656484 -0.10107766 -0.14506692
-0.061685268 -0.10183331 -0.12892212 -0.032496 -0.047715455 -0.04079661 -0.05855369 -0.08481851
-0.06282839 -0.14006367 -0.04762411 -0.12114574 -0.09597635 -0.066434026 -0.09572372 -0.02388608

cnn.convnet.10.bias f4 [32]
00000000: d362 923d 04e9 c7be 7838 dc3d 1a18 313d
00000010: eafd 0e3c cb51 273d 9e46 903d 90fb f3bc
00000020: 0772 59bc ae7c 393d 492f 833d 9fc4 563c
00000030: 570d c13d f6b3 0cbe 3df1 5f3d 4dd7 a0be
00000040: 9636 82bb f5a1 143e 5eaf 813b 74ca 74be
00000050: 1596 d23e a3f1 6bbe 0a05 08bd e69f 923d
00000060: e128 2cbe ba77 c93d 9411 85bc 6d04 bf3e
00000070: 4e25 423c 636c 13be bcce 4e3d 19ec c53d
0.071477555 -0.39044964 0.10752958 0.043235876 0.00872753 0.04084949 0.07044719 -0.02978304
-0.013271815 0.04528492 0.06405503 0.013108402 0.094263725 -0.13740525 0.054673422 -0.3141426
-0.0039737923 0.14514907 0.003957673 -0.23905355 0.41130129 -0.23041396 -0.03320793 0.071594045
-0.16812469 0.09837289 -0.016243733 0.37308064 0.011849714 -0.14396815 0.050490126 0.09664173
