weights/adversarial_Denoising/LAR_adversarial_for_Denoising_fitted.pt (torch, 714666 bytes, 13 tensors)

regularizer.cnn.convnet.0.weight f4 [128, 1, 3, 3]
00000000: 461e 3e3e b703 21be 309d 77be af92 cabe
00000010: f705 3cbe 1693 eabd 0e89 db3e 2db9 b03e
00000020: 105b 833d b5fa 95be a4e4 ccbe f49d c63e
00000030: 0ce5 1dbe 10a9 f93c 3eb3 1b3e 1920 a7bd
00000040: 5a20 ad3e 4269 08be 26f8 853e 7d91 c03e
00000050: 6f7a acbd 8b30 a3be 9866 a63d c58d 0dbf
00000060: fd06 66bd 652e dd3e bd6f 4fbd 1792 80be
00000070: 49af 833e 60d0 02bf 1c47 6fbe 3483 7f3e
00000080: 84fc e53d 2a80 c1be 06eb 803e 099a c53e
00000090: 4c86 8dbe 660c 8b3e 85cf a7be 56ee c6bc
000000a0: f978 653e dba4 8c3e 0bdc d53e b82a 82be
000000b0: 2666 19be 7b0a 38bf 790d c7bd b176 853e
000000c0: d970 a03e e099 e2bc 1eea 643c fdbb fa3e
000000d0: f3ef 603d fd18 9dbe 7a5e e6bd 261a a9be
000000e0: 142e d13e 45d1 893e d1f8 5bbe d2bb 93be
000000f0: 0fc2 64be 23a6 273e ce02 973e d11e c13e
00000100: 54b9 64be 719c 8abe c735 a1be 90b8 98bc
00000110: 43fb 91be f8b6 663e 2ed3 303e ec02 523e
00000120: 481d 4bbe 3129 91be 2b3f 9cbe e92c ce3e
00000130: 2e28 23be 94eb b63d ac3f 1b3f a49c 70be
00000140: 17df 8d3e 7964 6b3e ec37 3abf 86f4 1f3e
00000150: f37e cb3e aa3e 82be 40b1 fcbd d0e3 803e
00000160: e18e 81be 9a18 a33e b550 9d3e 1cb9 ae3d
00000170: b727 f23d 51cf 62be 2bb8 48be 7ba7 f9bd
00000180: fad9 8a3d 4a3f df3e 13d6 61be b7a0 81be
00000190: 472f 0b3f 3ae8 1fbe af84 553e 41f5 14be
000001a0: 8e3c c1bd 32f2 b63e 2655 f9bd f309 7ebe
000001b0: 6f2c 943d 79cf 6e3c d9ae 5e3e 6576 a3bd
000001c0: 85ee dc3e 5e39 8cbc 22c6 f7be c94f 6fbd
000001d0: 70f9 52be 9732 573e 0a62 853d ca3c 56be
000001e0: e407 89be 3b1b 083e a041 a5be 2b75 773e
000001f0: 7b7c 4cbe 8a8b 073f 8f97 9bbe 4009 d13e
00000200: 5420 713e ed0e 133e 69eb bb3e 3f78 823d
00000210: 36dc dcbd b395 11bf 9307 5cbe c6c5 b33d
00000220: 2f92 5cbe ce16 8f3e 22be babe 4100 d53b
00000230: 5f4f 5ebd 57e5 663e f700 853e 32b6 e7be
00000240: ad2a febe b30a 23be f85d 3d3e 1498 e83d
00000250: d546 0abe 596d ad3e e8fb 853e c41a 9ebe
00000260: 5106 a43e 4dd3 cabe 6fd0 9abe 5ab5 fc3d
00000270: c07f 3cbe a8fe 85be e36b 343e 8b78 353f
00000280: 34ce 263e 3263 24bd a792 f23d 4b0d a9be
00000290: 3635 3b3e a834 c03e 7487 e9bd 635a 4bbe
000002a0: f3a6 97bd 89da 1a3e ed46 1d3d 4935 febe
000002b0: 4599 03be 8755 6f3e 919d 5d3d 897d 953e
000002c0: 3e83 98be c030 c63e 9082 ecbe 6138 d13e
000002d0: 4339 9dbe 9be4 7fbe e909 da3e c0e8 b7be
000002e0: 28cc a5be 1e59 743e cfbe 7b3e 828a a23e
000002f0: 9850 bd3e c696 c8be 39b5 8d3e aaba 203f
00000300: 9f6d aabe 8d80 f0bc e3b6 5c3e 99d9 e9bd
00000310: 51b0 5dbe f224 6abd 78d1 d13e c3fa 323e
00000320: 7ac7 d5be bef1 aabe 9e51 e73d 5e0c bf3b
00000330: 7966 0a3f 79a1 9bbe 4c8e 3abe fc87 52bf
00000340: 0ea8 183e e97d 673e fbe8 843e be0b 343d
00000350: ac0e 593d 6354 bbbe b563 91be fe62 3c3f
00000360: 58e9 cabe 7fdc 6e3e 7a9d 823e 795c bfbe
00000370: 5dd8 223e 3465 d5be 7d1a 963e 2f43 ec3d
00000380: 034c bbbd 8b09 5cbe 9545 883e 7592 2bbf
00000390: c421 f5be 29ba e93e ad57 8bbe c7e6 1c3f
000003a0: 31b1 c239 22d5 5f3e 9356 df3c e73c 87be
000003b0: 5264 bfbe d1b9 9dbe 4114 8c3e 35d2 e5bd
000003c0: e9fc ea3e 022e 773e 555e d13d 5036 8a3d
000003d0: ccb3 90be 8f19 2a3e fb52 a6be 74b3 483d
000003e0: 7e6c b33e 769e af3e dd0b 57be 05d7 95bd
000003f0: b408 9b3e b8a5 74be 27bc adbe 2ff6 94be
0.18566236 -0.15724073 -0.24181056 -0.39565036 -0.1836165 -0.11453836 0.42878002 0.34516278
0.06413853 -0.29292837 -0.4001819 0.38792384 -0.15419406 0.030476123 0.15205094 -0.08160419
0.33813745 -0.13321403 0.26165885 0.37611 -0.0842179 -0.31872973 0.08125037 -0.5529445
-0.05615901 0.4319946 -0.05064367 -0.25111458 0.2571967 -0.51099205 -0.2336697 0.24952394
0.11229804 -0.37793094 0.2517931 0.38594082 -0.27641523 0.27157897 -0.32775512 -0.02428357
0.22409429 0.27469525 0.41769442 -0.25423217 -0.14980373 -0.7189099 -0.097193666 0.26067117
0.31336096 -0.027661264 0.0139718335 0.4897155 0.054916333 -0.30683127 -0.11248489 -0.33027762
0.40855467 0.26917472 -0.21481635 -0.28854233 -0.22339652 0.1637197 0.29494327 0.37718824
-0.22336322 -0.2707248 -0.3148634 -0.018642694 -0.2851201 0.22530735 0.17268059 0.20508927
-0.19835389 -0.2835174 -0.30516943 0.4026864 -0.15933296 0.08931652 0.6064403 -0.23497254
0.27709267 0.22987546 -0.7274158 0.15620622 0.39745292 -0.25438434 -0.12338495 0.25173807
-0.2530432 0.31854707 0.30725637 0.085314006 0.11823981 -0.22149397 -0.19601505 -0.121901475
0.06779857 0.43602973 -0.22054319 -0.25317928 0.54369015 -0.15615931 0.20851396 -0.14546682
-0.09435378 0.35731655 -0.12174444 -0.24808483 0.072350375 0.0145758325 0.21746387 -0.07981566
0.43150726 -0.017117199 -0.4839335 -0.0584257 -0.20602965 0.21015392 0.0651284 -0.20921627
-0.26763833 0.13291638 -0.3227663 0.2416579 -0.1996936 0.52947295 -0.30389068 0.4082737
0.23547488 0.14361162 0.3670304 0.06370591 -0.107841894 -0.5686905 -0.21487264 0.08777957
-0.2154014 0.27947086 -0.36473185 0.0065002744 -0.054274913 0.22548424 0.259773 -0.45256191
-0.49641934 -0.1592205 0.18492877 0.113571316 -0.13503583 0.33872488 0.26168752 -0.30879796
0.3203607 -0.39614335 -0.30237147 0.123392776 -0.18408108 -0.2617085 0.1761928 0.7088706
0.16289598 -0.040133663 0.11844378 -0.33017954 0.18282017 0.37540174 -0.11402789 -0.19858699
-0.0740489 0.15122427 0.03839772 -0.49650028 -0.12851436 0.2337247 0.054105345 0.29197338
-0.2978763 0.38709068 -0.4619336 0.40863326 -0.3070775 -0.2498955 0.42585686 -0.35919762
-0.3238232 0.2386212 0.24584506 0.31746298 0.3697555 -0.3917753 0.27677324 0.62784827
-0.3328676 -0.029358173 0.21554141 -0.114184566 -0.2164929 -0.05716414 0.40980124 0.1747847
-0.4175375 -0.3338756 0.11294864 0.0058303317 0.5406261 -0.3039663 -0.18218344 -0.82238746
0.14907858 0.22606625 0.25959 0.04395651 0.052992508 -0.3658782 -0.28396383 0.7358855
-0.39631152 0.233263 0.2551077 -0.3737524 0.15902849 -0.41678774 0.29317084 0.11536252
-0.091453575 -0.21488015 0.26615587 -0.6702035 -0.47877324 0.4564984 -0.2721533 0.6128964
0.0003713458 0.21858647 0.027262961 -0.26413652 -0.37381226 -0.3080583 0.27359203 -0.112217344
0.4589608 0.24138644 0.102230705 0.067486405 -0.28262174 0.16611312 -0.32485184 0.048999265
0.3504371 0.34300584 -0.21000619 -0.07316402 0.30280077 -0.23891342 -0.3393261 -0.29094073

regularizer.cnn.convnet.0.bias f4 [128]
00000000: 184c 3b3d b808 d73d 2faa b0bc a1a8 9b3d
00000010: 159f c7bd a3d1 363c f39b 6b3c 17f2 c53d
00000020: 0f61 c1bd 9e33 9a3b 58c6 0cbe df6b 27bd
00000030: ec7b 253d 93f5 c4bd 47c1 2fba 48cf dd3d
00000040: 37ee 0dbd 0f32 123c 18c9 a1bd e1af ff3b
00000050: e7f1 f7bd 3518 623c b7f4 003b 5f67 713c
00000060: 238a 203e 24dc 3c3d 9dae 68bc 5110 12bc
00000070: fb23 3d3e 0d68 a73c 260c 2fbc 0ec7 0f3d
00000080: 037e 443b d1be fa3c 5641 3d3e 61cf 283c
00000090: 641b af3c 89b2 193d 8b11 843d 99ba 173e
000000a0: 1098 42be d8a5 f83c 469e 28bd 94a4 b73b
000000b0: ec43 093e 154e e8bd 679f 253d 1cce 443c
000000c0: 2014 e83c dc1f 783e 73d1 e33d 431e d4bc
000000d0: be80 4cbc acbd 6e3d e6f1 b53b d609 313e
000000e0: c720 91b7 880c a5bd 8a0c 4b3b 8f09 813b
000000f0: 2265 ca3b ae74 f83c 29ff ab3c cb1f babd
00000100: 7021 c538 44a8 fc3c 757c 4abd 7595 35bd
00000110: 4209 743c acad 8cbd 063c b93b c64b 08be
00000120: de8b 683d a479 6e3d b997 8c3d 4618 183b
00000130: 6bbd 953d 5c80 283d f0e7 093e 5b0e 143d
00000140: e2c5 c73a 57f9 b73d 1519 08be ac6e 883b
00000150: 9fa0 dabd 5cb9 403c 7a66 2e3c de7e 163b
00000160: b9ca bdbd 1aa7 a53d fa8c d93d 9314 0a3b
00000170: de2f 6a3b cd54 833c 9f82 bebc ab88 59bd
00000180: de9b c63d e291 9dbd 6c1a a2bd 340f 593e
00000190: 070a 09ba 6570 983c 2f9e a2bd ada5 0c3e
000001a0: cee2 e93a 43c3 4a3d 7ac1 61be c110 953b
000001b0: f5bd c6bc 4c06 d33a 9600 2d3d 6469 27be
000001c0: b539 2dbb 31fc 98bd ac51 573c c44a ae3b
000001d0: 1e46 66ba 7d94 c2bd 3959 47be c915 9d3c
000001e0: 8b0c d73c 12e7 b237 3e03 abbc 2baf 13bd
000001f0: 9c4e 2ebc 100a af3d 5fcf e2bc 8a5e 393c
0.045726866 0.1049971 -0.021565525 0.07600523 -0.09747139 0.01115838 0.014380443 0.096653156
-0.094423406 0.0047058603 -0.13747537 -0.04087436 0.040401384 -0.09617152 -0.0006704521 0.108305514
-0.034651008 0.008923068 -0.07899684 0.007802949 -0.12106686 0.013799717 0.0019677111 0.014734118
0.15677695 0.04610838 -0.014201787 -0.008915023 0.18470757 0.020435357 -0.010684049 0.035101943
0.0029982335 0.030608566 0.18481955 0.010303349 0.021375366 0.03752378 0.064486586 0.14817275
-0.1900332 0.030352518 -0.041166566 0.005604336 0.13404816 -0.11343018 0.04043522 0.012012031
0.028329909 0.24230903 0.11123934 -0.025893336 -0.012481866 0.058286354 0.005552518 0.17288908
-1.730061e-05 -0.08059031 0.0030982816 0.003937907 0.0061766068 0.030329075 0.020995693 -0.09088095
9.39992e-05 0.030841954 -0.049435098 -0.044331986 0.014894785 -0.06869063 0.0056529073 -0.13310155
0.056774013 0.058221474 0.06864876 0.0023207827 0.07311519 0.041138038 0.13467383 0.036146503
0.0015241469 0.08983105 -0.13290818 0.0041635837 -0.10675167 0.011762943 0.0106445495 0.0022963802
-0.09267182 0.08088513 0.10622592 0.0021069392 0.0035734097 0.016031647 -0.023255644 -0.053108852
0.09697698 -0.076938406 -0.07915196 0.21197206 -0.00052276294 0.018608281 -0.079403274 0.13735075
0.0017844082 0.049502622 -0.22046462 0.0045491164 -0.0242605 0.0016099899 0.042236887 -0.16348797
-0.00264321 -0.07469977 0.013142031 0.0053189714 -0.0008784252 -0.09500978 -0.1946763 0.019175427
0.026251098 2.1326854e-05 -0.02087557 -0.036055725 -0.010638859 0.08546841 -0.027686773 0.011314044

regularizer.cnn.convnet.2.weight f4 [64, 128, 3, 3]
00000000: c2b1 8fbd b1ae 3cbe 9ff7 48be 38f1 9c3d
00000010: c53c c13d bc33 c83d 3a17 043e b47b c63d
00000020: 78e9 253d f2c9 093d d13e 35be 63d8 e03c
00000030: c405 99bd b969 073d 9ab1 f33d 94be f1bd
00000040: d7f3 0c3e 3746 dd3d 9ee6 9bbd af19 42be
00000050: 0f65 1ebd ce8b cb3d a72d 9a3b d76f 6b3d
00000060: 52a3 86bb 2dd5 ccbd ea2d 87bd 3cc4 e9bd
00000070: 0067 57bd 78b4 813d c39d 1bbd eb38 90bc
00000080: ac9f 113d 481d 523d a5d1 573d 4ad8 1f3d
00000090: b638 51bc 2f71 573c 4b45 90bd 1d42 00bd
000000a0: 4a91 d43c 9a0c d03c 74a2 0b3b f631 e4bc
000000b0: c2c4 873d dc54 d63d 8552 e83d 80b0 eabd
000000c0: e389 df3d 97cd 793d 095f a7bd c34b 793d
000000d0: dcdf 6f3d 94c9 d33d a2cc 67bd dbf0 583d
000000e0: 6a70 1c3d 84bc 043e ac91 993d cbbc fb3c
000000f0: ba96 3bbd c523 cf3d 0ee6 9a3d 2da7 5ebc
00000100: e248 82bd 7007 11bc 2052 f63c 0e7d c73c
00000110: c305 323d 3d40 893d 626e 2d3d cdb2 56bd
00000120: a584 dab9 6f58 013d 72a3 43bd 253f 00bd
00000130: ed6f 9d3c ad42 f6bc d219 27bc 316f 463c
00000140: 2e7d 6e3d cdc6 b03c ea4e ab3d a509 f63c
00000150: 8df6 553d dcef 363d b2e7 f9bd 072e e73c
00000160: 3223 843d ed36 6ebc 1ef2 823c 55d7 c9bd
00000170: ddff 01bc bc1c b73c 1175 0a3d 8db4 923c
00000180: 8568 48bd 4382 8bba 3234 50bd 62a7 78bd
00000190: 58c6 00bd 8cd5 8fbd 2544 09bd 9ac3 bc3c
000001a0: 4d34 05bd bb11 693b 942d 5fbd f1a3 0c3c
000001b0: 242c 333d 70e6 e63d b291 333d 900b 2e3d
000001c0: f7a6 a1bc 83ca 933d 09a1 903b 044c 343c
000001d0: 16bb 793d cd8d 84bd cfed 873d 14de 8bbc
000001e0: e641 f93c 55e1 703c 073e 6f3d b12e c73c
000001f0: 1e90 2bbd a16f 38bd 5bcc 1b3e 5fd4 4a3e
00000200: 3ffe 5c3e 5f96 2bbd 8287 55be f77d e23d
00000210: cc3b 3cbe d0a6 91be a26a 423e cfa5 b83d
00000220: 2575 6bbd 7dd1 383a 8de5 323d 95f8 953d
00000230: bdcd 8b3d f60f bbbc 7e7f f33d 103a 49ba
00000240: d2b4 26be 1d31 de3d 31fd 4fbd efbb 1fbe
00000250: 5e7b a83d b3d0 00bb fc93 3cbd 4bd7 953d
00000260: 62bf 413e f9f4 4d3e 6717 7e3d 46eb 28be
00000270: dada 97bc 823f b23d 7a26 313d 5740 7e3c
00000280: 7f8f 263e eddf 823e 596d 63bd 67cb c7bc
00000290: ae80 28bc d303 1d3d f09f da3c 9b24 c3bd
000002a0: 8411 11bd e9fb 1e3d 285e 8dbc 71e6 0dbd
000002b0: ec08 e13d f662 c6bd 16ec 983d e03f cabc
000002c0: 1071 223b 100b 6e3d f658 d13c c862 b13d
000002d0: e83f 98bd 457e debd 8a8d 1dbd a279 abbd
000002e0: b04f 33bc da89 193d b452 6fbd 95e2 ca3c
000002f0: b1b4 3c3d 379b bf3d 38eb b83d 790d ca3d
00000300: ca49 b0bc d848 55bc 634f af3d f6b1 d7bd
00000310: 17fc 70bd 0408 b63d c46a 6c3c 6b7c 8b3d
00000320: e134 a1bd f82f 003d ba65 d23d 6675 8f3d
00000330: 4017 3e3d adf2 1ebd f1bd 84bc 76d7 48be
00000340: 2ba6 22bb 8bf9 7e3d 569c 8dbd 0dd1 80bb
00000350: e2bb 2fbd 96dc bcbc 0472 dbbc 7e97 a53d
00000360: 3fea 8c3c b137 1dbd c651 00bd 321b 683c
00000370: 2abe ac3c fe97 8b3d 4c7d 00bc df14 833c
00000380: 45a3 713d f245 553c 3c51 dc3c ca18 afbd
00000390: 52b7 1e3d 88fe 353b 3fe1 623b e787 7d3d
000003a0: 1f8a d13d 746a 223d 7bdd a63c d5d9 2fbe
000003b0: 4277 39be 504b 6f3c 1b5e 1abe 1a7a ef3d
000003c0: 0b76 343e 24dd 293e 2d6e bd3d acab 0cbd
000003d0: 67f6 4f3d 5396 6ebe 034e b9be 22df f43d
000003e0: 5757 883e 3e84 83be faee ee3d d8a3 da3d
000003f0: 371d 20bd 1195 923b 5f0e 4d3d 737b 203c
-0.070163265 -0.18426014 -0.1962571 0.07663196 0.09435419 0.097754925 0.12899485 0.09691563
0.040505856 0.033639856 -0.17699744 0.027446931 -0.07471803 0.03305981 0.11899109 -0.11803928
0.13764893 0.10804408 -0.07612346 -0.1895511 -0.038670596 0.09938775 0.004705149 0.057479706
-0.004108825 -0.100015976 -0.06600554 -0.11414382 -0.052588463 0.0633325 -0.03799225 -0.017605266
0.035552666 0.051297456 0.052690167 0.03902463 -0.012769869 0.013149544 -0.070444666 -0.03131305
0.025948185 0.025396634 0.0021306546 -0.027855854 0.066293254 0.104654044 0.11343864 -0.11459446
0.10914972 0.06098708 -0.081724234 0.060863268 0.0585631 0.10341182 -0.056591637 0.052964073
0.038193144 0.12962538 0.07498488 0.030729672 -0.04579804 0.10114244 0.07563411 -0.0135896625
-0.063615575 -0.008851871 0.030068457 0.024351623 0.043462526 0.067017056 0.042341597 -0.05241661
-0.00041679028 0.031578477 -0.047763295 -0.03131022 0.01921841 -0.03006109 -0.010199027 0.012111471
0.05822485 0.02157917 0.08364661 0.030033896 0.052237082 0.04466234 -0.122023955 0.02822019
0.064520255 -0.0145394625 0.015984591 -0.098555245 -0.007934538 0.022352569 0.03380305 0.017908359
-0.048927803 -0.0010643679 -0.050831027 -0.060706504 -0.031439155 -0.07023153 -0.033512253 0.023042489
-0.03252058 0.0035563547 -0.054486826 0.008584009 0.043743268 0.11274421 0.043840118 0.042491496
-0.019732935 0.072163604 0.004413728 0.011004452 0.060969435 -0.06472359 0.06637155 -0.017073669
0.03042693 0.014702161 0.058408763 0.024314256 -0.041885488 -0.045028333 0.15214674 0.19807576
0.21581362 -0.041891452 -0.20852473 0.11059182 -0.18382186 -0.2844758 0.1898599 0.090160005
-0.057484765 0.0007050259 0.043675948 0.07322804 0.06826351 -0.02283476 0.118895516 -0.00076761935
-0.16279915 0.10849211 -0.05077857 -0.15599035 0.082266554 -0.0019655644 -0.046039566 0.073164545
0.18920663 0.20112981 0.062034037 -0.16496 -0.018536974 0.087035194 0.043249585 0.0155182695
0.16265677 0.25561467 -0.055524204 -0.024388982 -0.010284586 0.038333725 0.026687592 -0.09528466
-0.035417095 0.03881446 -0.017256811 -0.034643594 0.1098803 -0.09686844 0.07466905 -0.024688661
0.0024786629 0.05811602 0.025555115 0.08661419 -0.07434064 -0.10863928 -0.03846506 -0.08372809
-0.010944292 0.03748498 -0.05842848 0.024766246 0.04607076 0.09355777 0.090292394 0.09865851
-0.02151956 -0.013017856 0.08560064 -0.1053199 -0.05883416 0.088882476 0.014429752 0.0681084
-0.07871414 0.031295747 0.10273309 0.07004814 0.04640889 -0.038805652 -0.016203852 -0.19613442
-0.0024818282 0.0622497 -0.06914584 -0.003931171 -0.04290379 -0.023054402 -0.026787765 0.080855355
0.017201541 -0.03838319 -0.031327985 0.01416664 0.021086771 0.068160996 -0.007842373 0.016001163
0.058993597 0.013017165 0.026894204 -0.0854965 0.038749047 0.002777012 0.003461912 0.061897185
0.10231423 0.039652303 0.020369282 -0.1717294 -0.181119 0.014605358 -0.15074961 0.11693211
0.17623155 0.16588265 0.0924953 -0.034343407 0.050772097 -0.23299532 -0.3619233 0.11956622
0.26629135 -0.2568683 0.11666675 0.10675782 -0.03909036 0.0044733365 0.050062533 0.009795058

regularizer.cnn.convnet.2.bias f4 [64]
00000000: b281 89bb a626 b5bc 7964 5e3c e1c8 56bd
00000010: 0570 203d 4d33 893b 9522 7a3c 3115 c53a
00000020: 28f3 b4bc 6223 5c3c b6ab 9d3b d402 7bbd
00000030: 471c a5bc e3fd cdbd b97e 84bb e510 47bc
00000040: 9031 0b3c c63c b83c c542 d0bc 84de dabc
00000050: aa6d e13a 74ef 863c cd92 893b 989f 453d
00000060: be7b 0d3d 009c 33bb c48a 1c3c 06f8 c4bd
00000070: 9c27 02bc db78 063d 489e 1dbc 5646 c13a
00000080: 63a2 23bc 9a1e cbbb bdef b239 4ce7 6c3c
00000090: 1b52 163d e302 dcbc 8550 003d 0550 4b3c
000000a0: 8842 e5bc 4228 7b3d c339 863c ddd3 253d
000000b0: e71c 60bc cafe 1ebc 2857 323d 28de 473d
000000c0: 0a15 653c 7340 363c 4bae 22bd e15f 99bc
000000d0: dd86 c73c df81 963c 2cbf 923c 494f 053d
000000e0: 8517 7dba e86f f93b 8e6e a43b 4a39 913b
000000f0: 0cc9 e23c 627b a6bd 09b0 b0bb c68e 3ebd
-0.004196369 -0.022113156 0.013573759 -0.052437667 0.03916933 0.0041870237 0.015267034 0.0015036223
-0.022088602 0.01343617 0.0048117293 -0.061281994 -0.020155085 -0.10058191 -0.004043427 -0.012150024
0.008495703 0.022489917 -0.025422463 -0.026717432 0.001719882 0.016471602 0.004198408 0.048247904
0.034541838 -0.0027406216 0.009554569 -0.09617619 -0.007944014 0.0328301 -0.009620257 0.0014745693
-0.0099874465 -0.0061987163 0.00034129425 0.014459442 0.036699396 -0.026856845 0.03132679 0.012409215
-0.027985826 0.06131769 0.016384965 0.04048525 -0.013678766 -0.009704301 0.04354015 0.04879585
0.013982067 0.011123764 -0.039717 -0.018722476 0.0243563 0.018372474 0.017913423 0.032546315
-0.0009654689 0.007612217 0.005018062 0.004431878 0.027683757 -0.08129002 -0.005392079 -0.046522878

regularizer.cnn.convnet.4.weight f4 [64, 64, 3, 3]
00000000: 9524 993c ecf3 2d3c 2fe2 b4bc 47b6 033d
00000010: 6e89 363d b615 363d 2a4a da3c a9de 6ebb
00000020: 3040 5b3c edc2 183d 3cd4 c7bc 543a c73c
00000030: ab5a 1f3d 8702 2c3c 7252 b43b 02c6 45be
00000040: 6932 a83d 6857 383d 1588 0dbe 4288 24be
00000050: 7f51 ed3d fa0c abbd c76d d8bd 5299 33bc
00000060: 80ff cabd f0b3 763d d3f2 f73d c928 18be
00000070: 165a 0cbc ba41 083e f3b8 eabd cfdd 953c
00000080: 9e47 2d3d 67ee 1cbe 0440 95bc e9c2 633b
00000090: d7f1 853d 62bb 05bc 0f7e 6ebd 8f3b 823c
000000a0: 3cf4 87bd bf17 7abd 68a5 003e 9ce0 56bd
000000b0: 136f 89bd 44f5 2c3d 4ce5 88bb cac1 1dbc
000000c0: 012d 8f3c 0a86 c2bc 75a8 1bbd 3f40 d53d
000000d0: 9f21 87bc 090c bbbd 3718 223d 74bb aebb
000000e0: 8f3b 5a3d 2781 24bd 9e69 803c 346e 663d
000000f0: 873d b5be 3e02 953d f6d1 003e 3807 28bd
00000100: 2ec1 a53c 6247 bc3a aa99 12bb ca58 c93c
00000110: 3815 533c 4a12 2b3e bc51 a6bc 8b64 34ba
00000120: de07 0a3d 09b2 18bd 80a0 91bc e88f 573d
00000130: 65a7 303d 2466 15bc 59b3 68bd 14ce 513b
00000140: f605 57bc 3954 65bd 7c5e 8abd eb76 a63d
00000150: 9cbc 01bd 7315 a7bd 7ac5 e93c b917 b7bd
00000160: 0f22 803c c5ae be3d 4a65 563d 9964 953d
00000170: 01a9 143d 5107 52bd f746 e03c b612 4bbd
00000180: 1341 cd3c d0d4 9b3c c89d b8bc f0c9 b03d
00000190: ffa5 443e d5e1 303e 0914 85ba d9b1 c53d
000001a0: 786d c23d 0173 59bd 1ebc a73d 31d8 863d
000001b0: a218 9ebe 2150 a1be ba1a cbbe 88c7 aebd
000001c0: b5ba 33bd 3436 9ebc 545e 113e f35f 893b
000001d0: c322 d4bc 0714 2ebd b731 b6bc ca46 5c3b
000001e0: 1c71 fabc 15f1 beba ac02 11bb 287d 73bd
000001f0: 6a14 a43d f2bc 363c ac3a 153c 1a8f cb3d
00000200: 6bce 103e e5b6 6db8 4f4f 613b a278 c13d
00000210: e0ba 1fbe 08a1 9c3c 7bf5 d53d 86d3 b2bc
00000220: 950e 073c d4b1 87bd d5cc 673d 5cce 333d
00000230: 9733 7fbd e2f9 3f3d f5a5 0b3d 35cb 333c
00000240: 31a1 91bd eb00 53bd 2d42 2f3c 2d08 5dbd
00000250: 7d36 7e3c 2e39 1d3d d1ed 433e 5477 753d
00000260: a3ac 913b 5281 7bbd 5869 45be c7db 22be
00000270: f7ee 7abc ff50 bcbd e541 55bd 4561 493e
00000280: 764d 65bd c912 9abc 4ab6 023c 917b 163d
00000290: d255 ad3d eb6b 9b3b f6ba 23bc 58eb 633b
000002a0: e773 4e3d fda0 d9bc 4c82 933b 68be b5bc
000002b0: 3e71 a23c 90cc 2dbd 6b49 ec3b e0f9 db3c
000002c0: ccd4 25bd f64d f03c f6c3 fabc 48e7 d8bd
000002d0: 8c14 cc3d 2357 9f3d 1845 c3bc 947d 1cbd
000002e0: bf1f a9bd a931 31bd f124 de3c e7a8 82bc
000002f0: b887 413d 9ebd aebc 42f5 053d b484 a9bd
00000300: 81d5 e63c 6847 3e3d 058b 513d 2019 92bc
00000310: abe5 7f3c cc96 833d 0601 963d 8158 9e3d
00000320: b6f9 713d 15b0 963d c321 cb3d e611 4f3d
00000330: 0ffc d1be af5a 4c3b 74ea f43d eedd bb3d
00000340: b766 b43c 1648 c6bd 2e45 773c f2ed d1bd
00000350: 8300 a9bd fd51 843d 03f8 b83c 5f57 3d3d
00000360: 3ad5 6cbe 96ca 98be ce5e 8fbe 6f1b eabd
00000370: d958 eebd 58b9 b9bd d818 d43d 4e0c ecbc
00000380: ec08 42bd ad04 453d 3952 b63c 64d0 9b3c
00000390: 4d04 f83c 7d11 06bc 4ae4 b4bc 9232 783e
000003a0: 355e b839 f287 613d 0f02 87be 3379 31be
000003b0: 374b 36bd 8554 42bd b253 ef3c 3662 2f3d
000003c0: 632b 703e b78c c33d 0331 033d 5ad7 01bd
000003d0: 77de 06bc 1e11 7eba 1c77 673c 938d 6c3c
000003e0: 7113 cbbb afd5 fdbc 9407 103b 4aa4 86bd
000003f0: 22fd c5bd 230f a7bd dd0e 96bd ddec 36bd
0.018694201 0.010617238 -0.022080509 0.032156255 0.044564657 0.0444543 0.026646692 -0.0036448634
0.013382003 0.03729527 -0.024393193 0.024319805 0.038904827 0.010498649 0.0055029923 -0.19313815
0.0821274 0.045005232 -0.13821442 -0.16067603 0.1158781 -0.083520845 -0.10567813 -0.010961847
-0.09912014 0.060230196 0.12106862 -0.14859308 -0.0085664 0.13306323 -0.114610575 0.018294243
0.042304628 -0.15325318 -0.018219002 0.0034753627 0.06540268 -0.008162351 -0.058225688 0.01589754
-0.06638381 -0.061057802 0.12563097 -0.052460298 -0.06710639 0.04222609 -0.004177725 -0.009628722
0.017477514 -0.023745555 -0.03800245 0.104126446 -0.016495524 -0.09133155 0.039573874 -0.0053324047
0.053279456 -0.04016223 0.015675362 0.05625744 -0.35398504 0.07275818 0.12580094 -0.04102251
0.020233717 0.0014364535 -0.0022369423 0.02457847 0.012883477 0.16706195 -0.020302646 -0.0006881437
0.03369891 -0.037279163 -0.017776728 0.052627474 0.04312839 -0.0091185905 -0.056811664 0.0032013701
-0.01312398 -0.055988524 -0.06756303 0.081281506 -0.031674013 -0.08158388 0.028536547 -0.089400716
0.01564124 0.093106784 0.05234269 0.07294578 0.036293987 -0.05127651 0.027377589 -0.04957839
0.025055444 0.019022375 -0.022536173 0.086322665 0.19203947 0.17273648 -0.0010153066 0.096530624
0.09493536 -0.053088192 0.081901774 0.06584204 -0.30878168 -0.31506446 -0.39668828 -0.08534151
-0.04387923 -0.019312955 0.1419614 0.0041923462 -0.025895482 -0.04249957 -0.022240503 0.003361153
-0.030571513 -0.0014567698 -0.0022126837 -0.05944553 0.08011706 0.0111534465 0.009108227 0.09939404
0.14141242 -5.6675537e-05 0.0034379547 0.09446837 -0.15598631 0.019119754 0.10447212 -0.021829378
0.008243223 -0.06625715 0.056591827 0.04389797 -0.06230506 0.046869166 0.034093816 0.010973741
-0.07110823 -0.051514547 0.01069693 -0.053962875 0.015515921 0.03838461 0.19133689 0.059928253
0.0044456287 -0.061402626 -0.19278467 -0.15904151 -0.015315763 -0.09195136 -0.052064795 0.19666012
-0.055982076 -0.018807786 0.007978031 0.036738936 0.084636346 0.0047430894 -0.009993305 0.0034777727
0.0504035 -0.026566023 0.0045016166 -0.02218552 0.019829389 -0.042431414 0.0072109005 0.026852548
-0.040486142 0.02933405 -0.03061102 -0.105909884 0.099648565 0.07780292 -0.023836657 -0.038205698
-0.08258008 -0.04326025 0.027117224 -0.01594968 0.047248572 -0.02133065 0.0327046 -0.08277264
0.028177978 0.046454817 0.05115797 -0.017834246 0.015618722 0.064252466 0.07324414 0.077317245
0.059076034 0.07357804 0.09918549 0.05055418 -0.41012618 0.0031181981 0.11958781 0.09173189
0.022021635 -0.09681718 0.015092177 -0.102504626 -0.08252051 0.064609505 0.022579199 0.0462259
-0.23128214 -0.2984206 -0.28002018 -0.11431014 -0.1163804 -0.09068555 0.10356301 -0.028814461
-0.04737179 0.048100162 0.022256004 0.019020267 0.030275488 -0.0081828805 -0.022081513 0.24238041
0.00035165405 0.05506129 -0.26368758 -0.1733139 -0.044505324 -0.047443885 0.029214714 0.04281827
0.2345405 0.095483236 0.032029163 -0.031699516 -0.008231751 -0.0009691882 0.014127519 0.014438051
-0.006197386 -0.030985681 0.0021977173 -0.065743044 -0.09667422 -0.08157184 -0.07327054 -0.044659484

regularizer.cnn.convnet.4.bias f4 [64]
00000000: 6b86 2d3d 76ec 103c c1ff 823d 390a 9d3e
00000010: 9812 21bd 446f 823a 8300 3fbd 683f 2fbd
00000020: 3254 0abe 548e 44bd fd75 14bd f38f 5e3d
00000030: 1b8d 423e 1e7b c4bd 0eee 35bc e26c 83bd
00000040: 5e46 23bd 61f2 9cbc 8580 45be a575 92bd
00000050: 8411 aa3c ce97 a23d 5259 16bd fb79 8c3d
00000060: cee5 f2bd 3cb5 223d 9eed b7bd 626f 9fbc
00000070: 6eb8 943e 3e67 503e e9c4 253d ba1f a7bd
00000080: c33b a23d ad02 ae3d 3cfc d5bc ff44 91bd
00000090: 94b8 8c3d 4169 9fbd 0326 0d3e d5c8 133c
000000a0: 2b55 9fbd a590 ac3d 4b08 2fbd bda1 343e
000000b0: d034 a53b 6fb2 7abd 827b 9dbd e48f c6bd
000000c0: b408 b03d 1483 2c3d f664 d0bd de2e 8b3d
000000d0: c30a 6bbd 79e9 f33d 2446 0b3d af47 34bc
000000e0: 1313 4b3e 6f61 3c3d 5684 5b3d a90a 31be
000000f0: 151b 953d 0bae c23d 28f9 2b3e 9124 6cbd
0.04236452 0.008845439 0.063964374 0.30671862 -0.039324373 0.0009951373 -0.046631347 -0.04278508
-0.1350868 -0.047987297 -0.036245335 0.0543365 0.1899914 -0.09593795 -0.01110412 -0.06417252
-0.03986203 -0.019158544 -0.19287308 -0.07151345 0.020760305 0.07939111 -0.036706276 0.068592034
-0.11860238 0.03972362 -0.08980869 -0.019462291 0.2904696 0.20351884 0.04047099 -0.08160348
0.07921555 0.08496604 -0.026121251 -0.07093238 0.06871143 -0.077837475 0.13784032 0.00902005
-0.077799164 0.08426026 -0.04273252 0.17639823 0.005041696 -0.061205324 -0.07689573 -0.09695414
0.0859541 0.042117193 -0.10175507 0.067960486 -0.05738331 0.11909766 0.03400244 -0.011003419
0.19831495 0.045991357 0.053593002 -0.17289223 0.07280556 0.09505852 0.16794264 -0.05765206

regularizer.cnn.convnet.6.weight f4 [64, 64, 3, 3]
00000000: eb35 aa3c 5fd4 213c 9ab9 88bd f8d3 dd3c
00000010: 0127 fbbb 7d80 bf3c 6447 903a e0de 033d
00000020: 54da b43c 8c9c 90bd 58ba d2bd dab9 afbe
00000030: e146 d73c 071f bd3c 5991 59bd 6ea3 593d
00000040: 43b0 553d 9e22 06be a8ee e6bc bc6c 193c
00000050: 4139 a23d 8b48 173d 27f7 c93c ece0 3b3b
00000060: 2b6f c8bc 702c 213c 391a 6e3d 2801 c6bd
00000070: 4135 aebd 9b60 043e 6de8 33bd 807a ef3b
00000080: 6aec 1ebd f6a8 cf3c a745 af39 f891 10be
00000090: aca1 69bd 82d7 68bd 2415 6ebe 4aff 14bc
000000a0: 0b78 fe3c e0ea 82bd fddd d43c 1344 333d
000000b0: f2c4 e9bd f582 01bd 8b23 44bd c50f 2fbe
000000c0: 8cf2 8dbc 9f36 6bbc 1169 acbd 151e 2bbd
000000d0: bf76 31bd 62f6 6fbe 0faf 253d 71b4 743d
000000e0: 054c d0bd ffd1 f33c 5284 953d e036 eb3d
000000f0: b506 233d 32fd 993d d285 2f3d 4a6b aa3c
00000100: 3aee 253c 5e59 e7bd 11d5 0c3d 58db de3d
00000110: ff1a 31bd 451e 66bd 72dc 613a 9b20 e8bd
00000120: 4192 9c3c a931 073d fac5 13bd 99c3 86bc
00000130: 6ed4 073d 77c6 783d ce65 46bc ba9c c1ba
00000140: 7661 4abb c8e5 263c 9b0d f0bc 5b0a 6bbd
00000150: a666 1ebd 137d 96bc 5b7c 31bd 4133 993c
00000160: ec52 433c e20b babd d124 5dbb f913 39bd
00000170: 5267 6abd ead8 413d bf6c 2e3d 2201 8e3c
00000180: 692e 363d 0f7a d93b eab4 8b3c 62ad 7abd
00000190: 4a5a e9bc 0655 84bc 4bd4 a9bc a48f 0bbc
000001a0: af70 53bd 607e 5bbd 060b 44bd c4a9 f9bd
000001b0: b2f4 1cbc 8a8e 3f3d 0d79 283e 16fc 8a3c
000001c0: 7dd5 0abc 6dc5 b63b 5f2a c03c ba18 2e3d
000001d0: 163e 013e 2740 09bd fdd3 39bd 4e8a 37be
000001e0: f941 2dbc e559 acbb b65c 77bd c8b4 47bc
000001f0: 89ef 29bc 7aa7 b5bd 5882 ec3c 103a 543d
00000200: 165c 813d 46e0 fb3c c149 ab3c fec5 db3d
00000210: 18fd 8a3d 711b 0b3d 9588 a03d 769f 5bbb
00000220: 21d1 fb39 7a84 efbd 4173 16bd 1794 793c
00000230: 082e 13bd 7f3b 1fbd 09db 8bbc 95f7 a9bd
00000240: 1efa 01bd 818d e0bc 03f4 dabb d9fb c5bc
00000250: 3653 9ebc 33d3 063b 8c1a feba 1b8e 32bd
00000260: 4186 9b3c c2d8 c93c 4c85 ed3c 1738 3fbd
00000270: b65e 3b3d 1b27 c43d d639 483d 5bed 813d
00000280: cb2c 7d3d 70c4 19bc eadb c7bd 0600 93bd
00000290: c247 d8bd 5eec 27bd d35a 9abc 86a2 133d
000002a0: 7351 aa39 d096 713d 4fd6 e8bc d61a 89bd
000002b0: 5acb b6bd 7c92 61bd 66de 90bd 516e 3abd
000002c0: c348 27bd 1fc9 4abd 1988 76bd d91b c1bd
000002d0: af8a c2bd 2523 c4bd a7c4 4cbe fa46 54bc
000002e0: 91eb 1cbc 8346 8abd ff0d 863c 1083 173d
000002f0: de8c 93bd e175 9b3c 1f49 3e3d f0aa 353d
00000300: 7df4 2cbd a439 debc 947e 3c3b 6a99 1bbd
00000310: 56f2 87bd 7ca2 673d 4d55 333d e5f5 923c
00000320: 2b1a 6cbd c44e bbbc a6cb 5f3c b5e4 49bd
00000330: 78cb acbc 26c4 26bd 95dc 4abe 6b8d 0f3d
00000340: 6ec3 0abd 6c71 cd3c ef64 30bb 8e3c 053d
00000350: f5a1 983d aeb2 05bd 79ba 483c d21f 7b3d
00000360: 3e69 693d d220 b83d 684a b43c b852 6f3d
00000370: bc29 2f3d 03d6 be3d 133b 033d 1370 5e3d
00000380: f4b3 0b3d 80e4 9f3d d719 2fbd 0eae 28be
00000390: c3cd 223d 71da 0cbd 7a7f 7e3c 62c0 05bd
000003a0: 541f 20bd 4bec a13e 1703 803d 3efe 523d
000003b0: 30ee 2b3c f4ba 443d 715f 953d 29dd b73d
000003c0: b342 ec3c cc5a d13b 5fc3 92bb 96c6 fabb
000003d0: ac76 2ebd 83d6 81bd ba20 19bd 2f96 d33b
000003e0: ca33 d43b ae18 72bc 7b09 6cbd 19e1 0fbe
000003f0: 028c b0bb 5bab db3c e898 ad3e 53e4 823d
0.020777663 0.009877293 -0.06676026 0.027078614 -0.0076645617 0.023376698 0.0011007604 0.032194972
0.022076763 -0.07061109 -0.102894485 -0.3432148 0.026278915 0.023086084 -0.05311713 0.053134374
0.05217005 -0.13099143 -0.028189972 0.009364303 0.079210766 0.036934417 0.024653984 0.0028668
-0.024467072 0.009837255 0.058130477 -0.09668189 -0.08506251 0.12927477 -0.04392283 0.0073083043
-0.03879968 0.025349122 0.00033430496 -0.14118183 -0.057038948 -0.05684615 -0.23250252 -0.009094069
0.0310631 -0.06392455 0.025984759 0.043766093 -0.114145175 -0.03161903 -0.04788546 -0.1709586
-0.01732757 -0.014356284 -0.08418477 -0.041776735 -0.043326136 -0.23433831 0.040450152 0.059742395
-0.101707496 0.02976322 0.07300629 0.11485076 0.03980132 0.07518996 0.04285223 0.020803113
0.010127598 -0.11296342 0.034382883 0.1088168 -0.043238636 -0.05618121 0.0008615918 -0.11334344
0.019112708 0.033006344 -0.036077477 -0.01645069 0.033161573 0.060736146 -0.012109233 -0.001477144
-0.0030880845 0.01018662 -0.029303363 -0.057382923 -0.038672112 -0.018370187 -0.043331485 0.018701198
0.011921626 -0.09084298 -0.0033743868 -0.045185063 -0.05722744 0.047326006 0.042584177 0.017334525
0.044477854 0.006636865 0.01705404 -0.061200507 -0.028485436 -0.016153824 -0.020731112 -0.008518133
-0.051621135 -0.053587317 -0.047862075 -0.12190583 -0.009579824 0.046766795 0.16452427 0.016965907
-0.008473751 0.005577734 0.023457704 0.04250405 0.1262134 -0.033508446 -0.045368183 -0.17923853
-0.010574811 -0.0052597397 -0.06039115 -0.012189098 -0.010372051 -0.08869834 0.028870746 0.051813185
0.06316392 0.03074659 0.020909192 0.107311234 0.06786555 0.033961717 0.07838551 -0.0033511794
0.00048030264 -0.1169519 -0.03673101 0.015233061 -0.03593257 -0.0388751 -0.017072218 -0.08299176
-0.03173267 -0.027411224 -0.0066819205 -0.024167942 -0.019326787 0.0020572662 -0.0019386574 -0.043592554
0.018984916 0.024639491 0.028994225 -0.04668435 0.04574462 0.09577771 0.04888328 0.063441
0.061810296 -0.009385213 -0.09758742 -0.07177739 -0.10560562 -0.0409969 -0.018842136 0.036043666
0.0003248561 0.058981717 -0.028422503 -0.06694572 -0.08925505 -0.05507134 -0.07073669 -0.045515362
-0.040840875 -0.04950821 -0.060188387 -0.0942914 -0.09499108 -0.09577016 -0.19996892 -0.012956375
-0.009577648 -0.0675173 0.016364096 0.036990225 -0.07204603 0.018977107 0.046456452 0.04435247
-0.04222535 -0.027127095 0.002876197 -0.037988104 -0.06638019 0.05655144 0.04378252 0.017939517
-0.057642143 -0.022864707 0.013659393 -0.049290378 -0.021093115 -0.040714405 -0.19810708 0.035046976
-0.033877783 0.025078498 -0.002691563 0.032528453 0.07452766 -0.032641105 0.01225149 0.061309643
0.056985132 0.08990635 0.022008136 0.058428496 0.04276441 0.09318163 0.03203876 0.0543061
0.034107164 0.07807255 -0.042749252 -0.16472647 0.03974701 -0.03438801 0.0155333225 -0.032654174
-0.039092377 0.3162559 0.06250589 0.051511995 0.0104938 0.048029855 0.07293595 0.0897773
0.028840398 0.0063889977 -0.0044788565 -0.007653068 -0.042593643 -0.06339743 -0.037384726 0.0064571123
0.0064759003 -0.014776392 -0.05762623 -0.14050712 -0.005387784 0.026815107 0.3390572 0.06391206

regularizer.cnn.convnet.6.bias f4 [64]
00000000: 4bf2 583e 445d 523e d505 9c3c 69c0 303d
00000010: 8392 223e 797b 003e d38b 3c3e ad95 483d
00000020: c808 e9bc 059b fc3d cbe2 063e f260 d3bd
00000030: 7145 523e 9b59 18bd 1e21 db3c d820 843e
00000040: 55be 353d de5a 9a3d ab97 e93c cac6 08bd
00000050: 76c8 21bd 3048 32bd 105d 143e c7a0 80bd
00000060: 7e86 023d aa27 aabd 6222 e53d 3399 6a3e
00000070: c626 3b3e e0ae 5b3e fbf9 65bd e2ee 403e
00000080: fb3a 283e 3859 873e 471f 8e3c 834b 253e
00000090: d0b2 bebd 057e 6e3c bcb2 643e e51e 8fbd
000000a0: 0153 253e 9cbf abbc df1c 26bd 3e9e 99bd
000000b0: d969 d13d a5ee 0d3e 8762 fbbb 598a fc3c
000000c0: 1834 0d3b a56e ddbb e815 3a3b 3788 873e
000000d0: 4795 39bd 6ca8 6e3d 2913 783d 5462 d8bc
000000e0: bcd1 4c3e 4c46 10bd 25f9 403c 14e6 3b3e
000000f0: a0ad cebc a025 b6bc e4f9 9a39 27fb 923d
0.21186177 0.2054339 0.01904575 0.043152247 0.15876202 0.12547101 0.18412714 0.048970867
-0.02844657 0.12334255 0.13172452 -0.10321225 0.20534302 -0.03719483 0.02674919 0.25806308
0.044370968 0.07536863 0.028514704 -0.033392705 -0.039497815 -0.043525875 0.14488626 -0.06280666
0.031866543 -0.083083466 0.111881986 0.22910003 0.1827651 0.21453428 -0.056146603 0.18841127
0.1642875 0.26435256 0.017348899 0.16142087 -0.093114495 0.014556413 0.22333807 -0.069883145
0.16144945 -0.02096539 -0.040554877 -0.075008854 0.10225267 0.13860567 -0.0076716575 0.030827688
0.0021545943 -0.0067575746 0.0028394405 0.2647111 -0.045308378 0.05826609 0.060565148 -0.026414074
0.20001882 -0.03522329 0.011778151 0.18349487 -0.025229275 -0.022234738 0.00029559352 0.0717681

regularizer.cnn.convnet.8.weight f4 [32, 64, 3, 3]
00000000: 22a4 ee3c fbb9 1fbd 3f4f 613d 589c 06bd
00000010: de89 fcbc 25b7 96bc bcf7 acbb 24a1 143c
00000020: 6404 3b3d b04c 613d 971b ca3b 9ad5 b63c
00000030: 48fa 2b3d c07b 303d 07f9 fb3c ea9e 723d
00000040: 3594 6f3c ff5a 783c 1220 163d 7134 cb3d
00000050: a46a b93d 76e0 103d 81a4 df3d 441d 853d
00000060: 9869 c6bc 47ff a93c 93e4 43bc b92a b03d
00000070: bb4a 473d 99b4 273e 0d8a b73d 274b f73c
00000080: dacc e43d 9678 383e 0d73 173e f638 343e
00000090: 857e 66bd 0d7b 9bbc 8f10 97ba e4a3 31bd
000000a0: 4c54 64bc 603c 293b df30 69bd 3367 87bd
000000b0: 4704 ecba fe1e 6abc 5133 a9bd 0a8e 1dbd
000000c0: 871d 53bc b10b 50bd a1cc 40bc b8a6 0fba
000000d0: 6e3b 943c fe74 15bd e3a6 9c3b d8e1 133d
000000e0: 2285 973d 9682 6d3c 4846 ac3c dc97 9c3a
000000f0: b5da 18be f379 abbd 7f40 91bd 0a57 3f3e
00000100: 1127 173e 2bc1 683e d2ea 313e 8420 cc3d
00000110: c21d 3d3e 9808 8b3e 1571 653e 5ece a23e
00000120: b1e5 82bc 186d 4ebd 86b7 c3bd 957a d9bd
00000130: 94c4 2dbe a7bc cdbd e60e 44be 966c 29be
00000140: 6ada d1bd 3958 043d 92fb 8a3c f98f 743c
00000150: 676f 2abd 8816 50ba f493 6d3c fde6 863c
00000160: 9372 cebc 2dfa d23c 7549 223e 6aa9 c13d
00000170: 9bbf 453d 3110 4b3d 587e c83c 42d1 483b
00000180: f3c6 b53d 0d08 02bb 4832 783d 57d0 edbc
00000190: 5dd6 dc3a 6cbd 5fbd 895b 103c f175 833d
000001a0: 595a 773d 6b74 71bc 8491 2f3c e6f7 35bd
000001b0: b00f 6e3d f3f9 0a3d 7b52 573d 41bc dcba
000001c0: 4d61 21bc 39ab 843c 9568 3a3d 7e63 00bd
000001d0: 74d5 263d fe25 a7bc 8ee5 c13c cc0e d53c
000001e0: 3b40 68bd c54c 273c 5fa4 453d 20f5 05be
000001f0: 9e2b 19bc 4cdb afbd 904d 28be adec 94bc
00000200: 48e5 04be 62a8 8fbd cb66 c83c 7c1d 27bd
00000210: d667 85bc 4aa2 f43c ce16 54bd e903 fc3c
00000220: 7ee0 82bc 6328 b9bc bba6 2a3c 62fb 933c
00000230: dd73 1b3c 80c1 ca3d aa89 84bc 65aa 513c
00000240: 745d 57be f171 65bd 5906 903a 9b52 8abd
00000250: 4c59 47bd cce8 cfbd 4885 bbbc 323e 68bc
00000260: 188e afbd 6297 023e bb70 8a3d f272 313e
00000270: ef0e 333e b408 8c3d cc4b 1c3e 6deb 393e
00000280: 67ff 113e 25e1 683e bafc 75bb 15bb b73c
00000290: fb5c 63bd bc68 8e3d 2d41 d13d ace4 5c3d
000002a0: 8690 aa3d f056 cc3d 77a0 843d b486 2fbe
000002b0: af9f c5bc e7e5 abbd a0df acbd 5699 b8bd
000002c0: d08b 71bd 4f7c 95bd 48c5 ddbb 8f7b 72bd
000002d0: 96a8 cebd 8a49 7bbd f48e fbbb f008 47bd
000002e0: 2d75 e9bd 48f9 98bd 95d6 50bd c976 87bd
000002f0: 8620 39be 0747 ffbb 0150 8e3b 7ea2 3d3d
00000300: 3451 aa3d 2177 8a3c 453b 963d 6d8f 103d
00000310: 775c 5d3d 03ce 283b 2ed2 803d bde1 a93c
00000320: 2ff9 0c3d 2e02 073d b4d4 f93c 6f0d 0e3d
00000330: 0971 833c 4dc2 913c c082 0f3d 0a27 1fbd
00000340: 7281 40bd d3be 92bd 2d51 42bb cb75 7b3c
00000350: f4c2 f5bc 1e09 fa3c c9bd 3e3d 1d36 c7bd
00000360: 5c62 49bd 0ec1 4bbd 1c3a fbbd 9841 7bbd
00000370: 63d1 e5bd 1d60 a0bd fa8a d4bd 6620 bbbd
00000380: fcd3 9fbd cd7f 13bd c825 53bd 5acf 423c
00000390: d832 f63a 2932 d23a f366 53bc e35f 25be
000003a0: fd17 08be ef5f 13be c1bd 123e 7f2d d13d
000003b0: 08fd 313e 0f51 d03d feb9 e03d 1ad7 0b3e
000003c0: e2b6 2d3e af20 dc3d c042 323e 2ca2 77b9
000003d0: d175 d33c 8b51 9b3c ea0a ceba 6276 02bd
000003e0: 893f 6c3d 83a3 8a3c 3006 aabb 8c8c 0a3e
000003f0: a901 a83d 24f1 e63b 12f5 9dbc 8507 3ebc
0.029130999 -0.038995724 0.055007216 -0.032863945 -0.030827459 -0.018397877 -0.0052785557 0.009071622
0.045658484 0.055004776 0.0061678397 0.02231865 0.041986734 0.043086767 0.030758394 0.059233584
0.014622738 0.015158414 0.03665168 0.09922112 0.09053543 0.035370313 0.109200485 0.064997226
-0.024220273 0.020751609 -0.011956352 0.08601899 0.048655253 0.16377486 0.08961878 0.030187203
0.11171885 0.1801475 0.14789982 0.17599854 -0.056273002 -0.018979574 -0.0011525321 -0.04336919
-0.013936114 0.002582334 -0.056931373 -0.066114806 -0.0018006646 -0.014289616 -0.08261741 -0.038465537
-0.012885458 -0.0507924 -0.011767537 -0.000547986 0.018094745 -0.036488526 0.0047806366 0.036104053
0.0739844 0.014496466 0.021029606 0.0011947113 -0.1492718 -0.08372869 -0.0709238 0.18685547
0.14760996 0.22729938 0.17374733 0.09967139 0.18468383 0.27154994 0.22406419 0.3179807
-0.015978666 -0.05039701 -0.09556489 -0.10619084 -0.1696952 -0.10045748 -0.19146308 -0.16545328
-0.10246737 0.0323107 0.016965661 0.014926904 -0.041610148 -0.0007937928 0.014500607 0.016467566
-0.025201118 0.025754059 0.15848334 0.09456141 0.048278432 0.04957599 0.024474308 0.0030642306
0.08875837 -0.0019841224 0.060594827 -0.029030008 0.0016848553 -0.054624006 0.008810886 0.0641898
0.060388897 -0.014737229 0.010715846 -0.044425867 0.05812043 0.033929776 0.052568894 -0.0016840772
-0.0098498585 0.016194927 0.045509893 -0.031344883 0.04073091 -0.020403858 0.02366903 0.026008032
-0.05670188 0.010211174 0.04825246 -0.13081789 -0.009348778 -0.085867494 -0.16435838 -0.018179262
-0.12978089 -0.07014538 0.024463078 -0.040799603 -0.016284864 0.029862542 -0.05177956 0.030763583
-0.015976187 -0.022602266 0.010415728 0.018064205 0.009488073 0.099001884 -0.016178925 0.012796973
-0.21031743 -0.056016866 0.001098822 -0.06754037 -0.048669145 -0.10151824 -0.022890702 -0.014174985
-0.08572024 0.1275306 0.06759783 0.17329004 0.17486165 0.068375975 0.15263289 0.18156214
0.14257585 0.22742136 -0.003753467 0.022428075 -0.055508595 0.0695357 0.102175094 0.053929016
0.08328347 0.099775195 0.06475919 -0.17141229 -0.024123995 -0.0839346 -0.084410906 -0.090136215
-0.058971226 -0.072991006 -0.0067679025 -0.059199866 -0.10090749 -0.06134943 -0.0076769534 -0.048592508
-0.11399303 -0.074694216 -0.05098589 -0.06614453 -0.18078813 -0.0077904495 0.0043430333 0.046297543
0.083162695 0.016902508 0.073355235 0.03529303 0.05404326 0.0025757558 0.062900886 0.020737523
0.034417327 0.032961063 0.030496933 0.03468078 0.01604511 0.017792845 0.035036802 -0.03885559
-0.04699845 -0.07165303 -0.0029650435 0.015347908 -0.030000187 0.030521926 0.046567712 -0.09727118
-0.04916607 -0.04974466 -0.12266943 -0.061341852 -0.11221578 -0.07830832 -0.1037807 -0.09137039
-0.07804105 -0.036010552 -0.051549703 0.011890257 0.0018783463 0.0016036677 -0.012902963 -0.16149859
-0.13290401 -0.14392065 0.14330198 0.10213756 0.1738168 0.10171711 0.10972975 0.13656273
0.16964296 0.107484214 0.17408276 -0.0002361617 0.025813015 0.018959781 -0.0015719805 -0.03185118
0.05767778 0.016923672 -0.005188726 0.13530177 0.08203442 0.007047789 -0.019281898 -0.0115984725

regularizer.cnn.convnet.8.bias f4 [32]
00000000: 9fd3 8b3d c400 01bc 9efa 503d 9ed4 1b3e
00000010: 5744 77bc 575d bcbd 69eb a4bc 0ff3 963d
00000020: e2ad c33e af60 103e 9d44 19bb f0de 5c3e
00000030: 0fa9 3c3c 07b0 74bd bd70 57bd f8c1 a9bc
00000040: a672 743d 1e4e 623e 9771 303e 6405 1fbd
00000050: 3c45 993c 0a90 a83b 9f4b fe3d 324c 703b
00000060: 70ad 143e 0821 ef3c 168c 4d3e e519 3b3e
00000070: a40e 823d 799e f13c 7c21 233c 5fb0 c63d
0.06827473 -0.007873718 0.051020257 0.15217826 -0.015091977 -0.09197491 -0.020131784 0.073705785
0.382186 0.14099382 -0.0023386844 0.21569419 0.011514916 -0.059738185 -0.05259775 -0.020722374
0.05967965 0.22100112 0.17230831 -0.0388235 0.018709771 0.005144124 0.12416767 0.003666651
0.14519286 0.029190555 0.2007297 0.18271597 0.06350449 0.029494511 0.009956714 0.09701609

regularizer.cnn.convnet.10.weight f4 [32, 32, 3, 3]
00000000: 5bf9 3c3d 06b5 dbbc d703 ebbc 70d3 4b3d
00000010: 3d67 7e3d 8feb bc3c 06f9 79bd 6453 06bd
00000020: d6d3 853d f3f6 f0bc 4244 b9be e86c 1ebf
00000030: b58a cb3d 43ed e93c 71b6 8bbc bc4d 743b
00000040: ab67 593e f4a3 b33e 8f6c 473e 7ab2 4e3d
00000050: aff5 893d a0fe 803c e941 24bc 01e8 07bd
00000060: c98f eb3c 10dc 5cbc c45f 213d 3199 2a3e
00000070: 0ea4 33bd c84e 81be f94e a9bd 2837 98bd
00000080: 0823 93bd 4227 1ebe 91c1 84bd 61ee ea3d
00000090: 3ad8 f4bd cf7c 923b 0470 8cbd 5789 ecbc
000000a0: 146b 94bd 989d adbc cd4a 22bb 11a8 35bd
000000b0: e18c 64bc efa8 7a3e 3233 6b3e 63c0 833d
000000c0: f8a1 e73d 6866 893e 644a a93e f2ad bcbd
000000d0: f9fe 673e 79e6 ca3e 3566 b73d c12b 91bd
000000e0: 1b3b 82be 22bb 9dbd 2aea bfbb 0a23 853d
000000f0: 1ef7 84be bcb6 c13d 74f6 9c3e 1ff1 73bd
00000100: 4a12 34bc c464 0b3d cf95 10bd 566a 44bd
00000110: 34a4 b23d 52be 9abd 4d30 123d 18c9 ccbc
00000120: e492 3dbb 17ad bcbc 6d9d 263c 684f 6c3c
00000130: d698 843a 0aaa c3bc c4d9 75bd 3dda 7bbc
00000140: ef49 ee3c 3531 963d a055 3f3d 9f45 443d
00000150: bf31 7f3d 9baf 943d e468 513d 5d02 ec3c
00000160: b8a7 c33d cb1d c43b 8d88 45be 1742 5bbf
00000170: 99b2 89bf 0659 fdbd 5ebe 91be 71e4 81be
00000180: 737e b33c 0fec 603e 3e40 d63e f718 76be
00000190: ad37 31bd d2f6 f7bd 5c9d 883c cdeb 143e
000001a0: 4a31 8abd 617b 69bc b03a d0bd f631 a53e
000001b0: 3800 643d 07a8 45bd 964f 76be 497a ce3d
000001c0: 9632 e43d 9e86 b73d b7f6 4bbc 31c0 493e
000001d0: cb5e 863e 4456 d6bc b826 d5be a538 46bf
000001e0: 8fa3 e93c ccf5 22be 728b d1bd ae26 f1bc
000001f0: 54ef 4f3e 3b7c b33e c192 d83d ca09 903d
00000200: 2b0d 8d3d 2d12 f83d c1d6 843d ec80 353d
00000210: f692 5a3d b2fb 9a3d f918 ac3d 36df 21be
00000220: f622 4cbe 7e78 90be a17d 053c df05 c6bd
00000230: c1fc dcbd ed2e 7ebd d9af edbc fb30 aebc
00000240: 494b e9bd 61ee 3dbd f844 883d 06ba 4fbd
00000250: 9f5f e9bc d271 c2bd a4a2 3abd bcb4 dcbd
00000260: 7339 ce3d 6e2f 5cbe 83b1 cdbd b86d a73e
00000270: 4b03 d7bd 3f0e 0eba 80e6 f5bd e6b2 adbd
00000280: a2b0 c93d 2707 a2bd 3dd4 b33d 2c3a 1e3d
00000290: 4104 98be a1d1 17bd b116 89bb 5cc9 813e
000002a0: 8aec 01bd a8a7 eb3d 6b04 8dbe 0c20 053e
000002b0: dedd 473e bbf8 413e bbe3 8f3d 4c7c 873d
000002c0: 4b20 b53d 7987 48bd 3e49 8a3d 1bae 163e
000002d0: 5006 5fbe e0e1 bb3d af64 99be eee3 773d
000002e0: c43d d33d a1e1 883e ea8e 163d 1687 3b3d
000002f0: 5727 bdbd 0623 633d 7949 a73d 375d 3abd
00000300: 8e3d 4a3d f0ff fd3d c601 9d3d 5364 023d
00000310: bfd1 c03d fd08 693d cc25 b2bd 72a6 233d
00000320: e60b b0bd 9cfa 8d3d 928c c53c 453c 833d
00000330: fa58 763d d9cb 9a3c 5ed4 423d 3f92 afbd
00000340: abe6 56be bb71 a4be 7813 bbb9 d55b f4bd
00000350: c04f ffbd 64ae a6bd 137d 2f3b 610f 103c
00000360: 2037 8abe 247e 79bd 1458 913c be05 a0bd
00000370: bbde 873b 2a58 4d3e 32f5 533e acda 303d
00000380: da74 83be 2b71 923d 4b79 43bd 6ef1 63be
00000390: 9c46 ee3c 3a9d 2e3e d375 133e 73ee 663d
000003a0: 262b 813e 514a e53e ca82 323d 1d53 f53b
000003b0: 2ffa 013d 626c 35bd f8b7 8b3c 58c8 7b3b
000003c0: 8a8c 053c 11ae 61bd 5be6 2abd e6d3 0abd
000003d0: 26c9 6b3d da0d 79bd 4974 bbbc 107e 163d
000003e0: 3ecf 15bd 3b98 67bd f3f3 b13c 8e74 5e3c
000003f0: 2dd4 073c 24f5 32bd e562 77bd a641 1cbd
0.04613624 -0.026819717 -0.028688354 0.04976219 0.062110174 0.023061542 -0.061028503 -0.03279437
0.06534545 -0.02941463 -0.3618489 -0.6188493 0.09938566 0.028555518 -0.017054768 0.0037277779
0.21230952 0.35086024 0.19475006 0.050463177 0.067363136 0.015746415 -0.01002548 -0.03318024
0.028755086 -0.013480201 0.03939797 0.1666 -0.043857627 -0.25255418 -0.08267016 -0.07432395
-0.07184416 -0.15444663 -0.06482232 0.114712484 -0.119553044 0.0044704448 -0.06857303 -0.028874082
-0.07246986 -0.02119331 -0.0024763823 -0.044349734 -0.013949604 0.24478506 0.22968748 0.06433179
0.1131019 0.26835942 0.33064568 -0.09212865 0.22655858 0.39628962 0.08955041 -0.070884235
-0.2543572 -0.077017084 -0.005856772 0.06500824 -0.25969785 0.09458682 0.3065678 -0.059556123
-0.010990689 0.034031644 -0.03529912 -0.047952972 0.087227255 -0.07555832 0.035690594 -0.024998233
-0.0028926665 -0.023031754 0.010169369 0.014423229 0.001011635 -0.023884792 -0.06002213 -0.015371856
0.029087989 0.07333604 0.046712518 0.04791796 0.0623033 0.072600566 0.051125422 0.02880972
0.09553474 0.005984997 -0.19290371 -0.8564772 -1.0757629 -0.123704955 -0.2846555 -0.253696
0.021910882 0.21965049 0.41845888 -0.24032961 -0.043265987 -0.12107624 0.016676597 0.14543076
-0.067476824 -0.014250607 -0.10167444 0.3226468 0.05566427 -0.048255946 -0.24053797 0.10081918
0.11142461 0.08961223 -0.012448958 0.19702221 0.26244196 -0.026164182 -0.41631103 -0.7743018
0.028520374 -0.15914077 -0.10231675 -0.02943739 0.2030614 0.35055718 0.10574866 0.07033117
0.06887277 0.12112842 0.064862736 0.044312403 0.05336281 0.07567538 0.08403201 -0.15807804
-0.19935212 -0.28216928 0.008147628 -0.096690886 -0.107903965 -0.06205647 -0.029014515 -0.02126359
-0.11391313 -0.046369914 0.0665378 -0.050714515 -0.028487979 -0.09494366 -0.045565262 -0.1077666
0.10069551 -0.21502468 -0.10043623 0.32700896 -0.10498675 -0.0005418993 -0.12006855 -0.08481388
0.09848143 -0.079115205 0.087807156 0.038629696 -0.29690745 -0.037065152 -0.004183613 0.25348938
-0.03171972 0.11506587 -0.27542433 0.13000506 0.1951823 0.1894254 0.07025858 0.066155046
0.0884405 -0.04895732 0.06752251 0.14714853 -0.21779752 0.091739416 -0.29959628 0.060520105
0.10314515 0.2673464 0.036757387 0.045783125 -0.09236019 0.055453323 0.08168311 -0.045499053
0.04937511 0.12402332 0.07666354 0.031833958 0.09415006 0.056893338 -0.086986154 0.039953656
-0.085960194 0.069325656 0.02411488 0.0640798 0.06014345 0.01889603 0.04756581 -0.08572816
-0.2098643 -0.3211802 -0.00035681925 -0.11931578 -0.12466383 -0.08138731 0.002677743 0.008792729
-0.26995182 -0.060911313 0.017742194 -0.07813595 0.0041464246 0.20053163 0.20699003 0.04317729
-0.25675088 0.07150491 -0.047723096 -0.22260067 0.029086404 0.17052165 0.14400415 0.056379747
0.25228232 0.4478326 0.04358176 0.0074867145 0.031732734 -0.044292815 0.017055497 0.0038418975
0.008151183 -0.055097643 -0.04172359 -0.03389349 0.057564877 -0.060804226 -0.022882598 0.036741316
-0.036574595 -0.056541663 0.02172277 0.0135775935 0.008290333 -0.043690816 -0.060397048 -0.038148545

regularizer.cnn.convnet.10.bias f4 [32]
00000000: 371a dd3d c14c dc3d a6bd 343e 66b9 103e
00000010: 2a1f 393a 9f46 2ebe 446e cdbd 7239 613c
00000020: 6a82 49bc 900f f23e 311c 3c3d bd91 e13e
00000030: 6ee2 f43e f7b8 c43a 24b6 b13d 17ac debd
00000040: 44dd 933d c52d b13b 0a4b 393d 5d67 693d
00000050: 918d b03e ba9e 393f 8bc3 723e bf68 173f
00000060: 9b4b 853d 99ac ebbc 63b1 ae3d 01aa 963e
00000070: 2dc8 423f 6916 283e fa20 3ebe daa1 063c
0.10796016 0.10756827 0.1765047 0.14133224 0.0007061834 -0.17019127 -0.10030797 0.013746606
-0.01229916 0.47277498 0.045925323 0.44056502 0.47829002 0.0015008737 0.08677319 -0.10872667
0.072199374 0.0054070675 0.04523758 0.05698334 0.34483007 0.7250782 0.23707406 0.59144205
0.06508561 -0.028768824 0.085299276 0.29426578 0.76086694 0.16414799 -0.18567267 0.008217299
